transfer_learning/models/lstm_small.pth (torch, 413736 bytes, 18 tensors)

weight_ih_l0 f4 [256, 3]
000000 22 35 e6 2c ab b3 ce 3c f9 09 20 3c 69 96 02 33
       6.542892e-12 0.025232157 0.009768003 3.040478e-08
000010 8c 14 d6 3d 79 cb 0c 3e ea 9b 38 b2 c7 d3 38 3b
       0.10453138 0.13749494 -1.074566e-08 0.00282024
000020 2a 65 06 3d bd f1 12 2d 9f 26 ad 3d 79 34 f4 3d
       0.03281132 8.352816e-12 0.08454632 0.11924071
000030 91 b4 08 2d 4b cb 6e bc 45 0b 8c 3d 87 16 30 2f
       7.770799e-12 -0.014574836 0.06838087 1.601511e-10
000040 31 d3 ff 3d ac 82 5e 3e 76 28 e9 2f 96 8b 12 3d
       0.124914534 0.21729535 4.2411202e-10 0.03577765
000050 38 be 56 3d 8d 40 1b b1 ed bf a2 3c b1 48 d0 3d
       0.0524275 -2.2592161e-09 0.019866908 0.10170115
000060 69 d7 7f ad 54 84 3d bd 22 50 0f 3d d8 8c 00 30
       -1.45429025e-11 -0.046268776 0.03498853 4.676628e-10
000070 43 15 59 3e 01 4e 41 3e c8 a5 fe 2d 18 3d 1c 3d
       0.21199517 0.18877412 2.8950078e-11 0.0381442
000080 86 6e 65 3c 1f 76 11 ac d1 28 2e bb 27 e7 da bc
       0.014003402 -2.067131e-12 -0.0026574621 -0.02672155
000090 36 fa 9f b1 75 5e 5c 3c da 5d 82 3d a3 b6 45 30
       -4.6559547e-09 0.013450255 0.06365557 7.1927725e-10
0000a0 b3 90 79 3d 82 19 0b 3d 73 88 74 33 b5 2a 3e 3e
       0.06092901 0.033959873 5.6934777e-08 0.18570979
0000b0 8b 4f 04 3e a7 f0 f2 2b 30 e0 9e bc 08 ab 65 bc
       0.12920968 1.7261929e-12 -0.01939401 -0.014017828
0000c0 da 0f 29 2d a4 df 6d 3d 45 73 d5 3d 7b 4b bf ae
       9.6100575e-12 0.05807461 0.104223765 -8.6990824e-11
0000d0 a8 13 f5 3d 20 1b b4 3d 7f fe a0 29 70 75 58 3c
       0.1196664 0.08794236 7.1495754e-14 0.013211593
0000e0 b7 f7 d9 3d cf 59 a4 2d 8b bf cc 3c 77 ec d3 3d
       0.10642951 1.8684524e-11 0.024993679 0.103478365
0000f0 7a 95 bb 2c 22 03 aa 3c 57 97 7e 3d c4 fb c1 2e
       5.331455e-12 0.020753447 0.062156048 8.8213464e-11
000100 f4 8a cf 3d b2 13 a6 3d ec af 70 2d 7c 1f 27 3d
       0.10133925 0.08109225 1.3681483e-11 0.04080151
000110 27 b4 0a bc 1a b5 65 2d ed 0f 01 bd d6 56 7c 3d
       -0.008465803 1.30573555e-11 -0.03150933 0.06160625
000120 ab f5 86 2d 52 7a aa 3d 16 6d 8c 3d 61 31 5e ae
       1.5343135e-11 0.08324112 0.06856744 -5.0520813e-11
000130 69 ad 53 bd 3e a1 ee 3d ac 16 08 30 11 7c e1 3d
       -0.05167905 0.11651848 4.950873e-10 0.11009992
000140 4b b2 bd 3d d6 cd 3b 2d 7a 68 7a bb 6f 8c a9 3d
       0.09262522 1.0675424e-11 -0.0038209246 0.08278739
000150 27 bb 45 b0 6b 89 33 3d 51 c2 f6 3c 8a 19 b7 b3
       -7.193414e-10 0.043832224 0.030121954 -8.526247e-08
000160 eb 39 f3 3c 02 61 13 3d 4c 0b 97 37 f8 16 16 3e
       0.029690703 0.035981186 1.8005863e-05 0.146572
000170 66 93 e5 3d c4 7f a1 aa 5d f7 2d 3d a6 a8 ab 3d
       0.11209755 -2.8688e-13 0.042472232 0.083817765
000180 60 e3 9b 33 c4 78 f7 3d fd 4a 3a 3e d8 8f b6 b3
       7.259109e-08 0.12083581 0.18192668 -8.5012005e-08
000190 5b 08 38 bc bb 6a 11 3c 9c 3d a7 33 9b b9 62 bc
       -0.011232461 0.008875544 7.78775e-08 -0.013838197
0001a0 6c 9d 86 3d eb 62 84 ae ad fb c0 3d 75 4e e3 3d
       0.065729946 -6.0202364e-11 0.09423003 0.11098949
0001b0 3f 39 8a ae b8 71 17 3d 4e ce 0b 3e 6b a5 4b 2c
       -6.2856824e-11 0.036973685 0.13652918 2.893986e-12
0001c0 4c 7c 9a 3d 87 10 86 3d c0 87 92 ae 2a 8d 86 3d
       0.07543239 0.06546121 -6.6634254e-11 0.06569894
0001d0 b3 fd 44 3b 59 65 45 b6 a6 01 51 3d ea ab e2 3d
       0.0030058443 -2.941428e-06 0.051026963 0.11067946
0001e0 42 b4 e6 35 63 aa 85 bc b7 fb 64 3d 7d 32 60 36
       1.7188797e-06 -0.016316598 0.055904116 3.340799e-06
0001f0 a9 0c f8 3d 42 1d 65 3e 11 3f 39 30 0c af 54 bd
       0.1211179 0.22374442 6.739223e-10 -0.05192475
000200 4a d8 6d 3c 0e f1 a4 ac 77 fe a2 3d b9 a5 a9 3d
       0.014516899 -4.687923e-12 0.079586916 0.08283562
000210 cd 2a 48 b5 90 b7 52 3d 61 ab 63 3d fa fa 17 2e
       -7.456809e-07 0.05144459 0.05558336 3.4556337e-11
000220 44 7b 1e bd f2 e0 9d bb 66 dd 1e b1 47 a8 7b 3e
       -0.038691774 -0.0048180753 -2.3117877e-09 0.24575911
000230 ca 9b 29 3e 99 72 f9 2e 85 16 1f 3d 67 7d 9e 3d
       0.16563335 1.1343566e-10 0.038839836 0.07738762
000240 bc 43 8c ad f4 d2 de 3d fe 60 75 3d 69 16 a7 33
       -1.5946237e-11 0.1088008 0.059906952 7.78062e-08
000250 f3 bf 7d 3d 12 7a d4 3d 05 c0 97 37 1d 1c 45 3d
       0.061950635 0.103748456 1.8090019e-05 0.048122514
000260 5f 73 bc 3d 2e 53 90 b3 2f 3e 11 3d 42 3a 1a 3b
       0.09201693 -6.720653e-08 0.035459694 0.002353326
000270 5a 09 92 b3 22 9e 07 3e 76 1d 11 3e bf 75 38 32
       -6.800356e-08 0.13243917 0.14171395 1.0736982e-08
000280 5c f7 a6 3d ba a8 11 3a 21 29 3a aa 20 c7 b1 3d
       0.08152649 0.0005556453 -1.6534388e-13 0.08680558
000290 6d d5 7a 3d 59 77 0c ad cf cd 42 3b e7 b9 a5 3d
       0.061238695 -7.984579e-12 0.0029724722 0.08092099
0002a0 53 aa 8d 30 a1 5d f6 3c 3e e7 8d 3d 9e 8d 1d 2c
       1.0307509e-09 0.030073943 0.069288716 2.2389655e-12
0002b0 73 83 68 3c 45 a7 14 3d 9b 03 db 2a a2 55 d9 3d
       0.014191496 0.036292333 3.8904717e-13 0.10612036
0002c0 ba 55 ff 3d ff 11 8a b6 5d c1 a2 3d 54 aa e5 3d
       0.12467523 -4.1148155e-06 0.07947037 0.11214128
0002d0 e1 40 90 2d 84 62 6d bd 96 df 89 3d 76 aa ac b6
       1.6399717e-11 -0.05795528 0.06732099 -5.1458437e-06
0002e0 dc 61 f4 3d da 07 e4 3d b7 8c a5 33 51 ff 4e bd
       0.11932728 0.1113431 7.709007e-08 -0.050536457
0002f0 88 5d aa 3b f4 1b eb ad 93 b1 35 3c d5 84 b5 3d
       0.005199138 -2.672882e-11 0.0110897 0.08863226
000300 e7 5a a5 37 ab b7 e7 3c a0 a2 94 3b 86 c5 c2 ac
       1.9711862e-05 0.028285822 0.004535988 -5.535741e-12
000310 db fb 7d 3d a2 ea b2 3c 83 42 a2 2e fc 3d 43 bd
       0.062007766 0.021840397 7.378722e-11 -0.047666535
000320 d2 07 63 3d 55 27 09 ac 7f e9 3b 3d aa e6 15 3d
       0.05542738 -1.9490705e-12 0.045876976 0.03659693
000330 42 ed a1 35 a0 07 8e 3d 94 47 fa 3c 35 fd 75 af
       1.2064486e-06 0.06935048 0.03055171 -2.2372577e-10
000340 49 a1 6a bc a4 ac c3 3d 3f 74 16 2d 6e f2 89 3c
       -0.01432068 0.09554413 8.552325e-12 0.016839232
000350 6e db 89 3d 6b a6 03 ac 49 a8 29 3d 00 f5 72 3d
       0.06731306 -1.87086e-12 0.041420255 0.05931568
000360 41 70 6f ad 0c c7 18 3d e4 16 1e 3d e6 19 b6 2d
       -1.36105025e-11 0.0372992 0.03859605 2.0702506e-11
000370 6b 27 2b 3e 59 2d 33 3e f4 54 6a b6 52 53 d2 3c
       0.16714256 0.17497768 -3.4918166e-06 0.025674496
000380 33 44 b9 3c 25 67 1f b2 15 8d a3 3c d5 ee 20 3d
       0.022615528 -9.27847e-09 0.019964734 0.039290268
000390 da e8 2a 32 50 7b 7d 3d d3 c0 45 3d e0 93 d5 b6
       9.948247e-09 0.061885178 0.048279595 -6.3651096e-06
0003a0 38 88 94 3d fb 9d 86 3d b5 ea ff 2d dd c4 0e 3e
       0.07252544 0.06573101 2.9094374e-11 0.13942285
0003b0 d8 08 db 3d a8 e8 ba 2f 3c f3 fc bc bd 9e 1b bc
       0.10695046 3.3998515e-10 -0.030877702 -0.009498295
0003c0 53 40 89 b2 c6 9b df bc c1 ad 6a 3d a2 46 9f b1
       -1.597815e-08 -0.027295958 0.05729461 -4.635539e-09
0003d0 16 6b 80 3d 2a 6c 30 3d 52 dc fb 2d 47 61 74 bd
       0.06270425 0.043071903 2.8633238e-11 -0.059663083
0003e0 18 41 12 3e ab 05 95 aa 7e dd 5f 3d 1b 29 70 3d
       0.14282644 -2.647165e-13 0.05465459 0.05863295
0003f0 01 b8 0a af ca 9e 33 3c 9c cc d1 bc 73 9d 1c 30
       -1.2616398e-10 0.010963151 -0.02561026 5.697622e-10

weight_hh_l0 f4 [256, 64]
000000 b2 4c 06 bb a6 37 4f bb 7a cc c7 bb f3 5f dc 3a
       -0.0020492491 -0.0031618862 -0.0060973736 0.0016813263
000010 c8 94 98 37 10 30 a1 bc 9a 45 ed bb 6d d5 4f bc
       1.8189094e-05 -0.019676238 -0.007240963 -0.012685162
000020 dd 32 1a bc 00 5e e4 bc ca 38 cf bb d7 da ee bb
       -0.009411541 -0.027876854 -0.0063239085 -0.0072892713
000030 1e 2e 39 3b d7 ae 87 3a 13 d6 11 bc 2c a8 c7 bb
       0.0028256248 0.0010351789 -0.008901137 -0.0060930457
000040 e2 97 9e bc 62 54 bf bc ad 53 81 bc fe 2d 21 3c
       -0.019359533 -0.023355667 -0.01578697 0.009837626
000050 f3 a1 33 bc e3 6c f4 bb 2f 45 55 bb ba c0 17 bc
       -0.010963905 -0.0074592694 -0.0032542457 -0.009262258
000060 2f 4d 59 3c 27 4f 65 bc 37 c3 64 bc fd 6b 48 bc
       0.013263031 -0.013995922 -0.0139625585 -0.012232778
000070 2b 28 11 3c 30 ab 20 bc 78 dd 18 bc 9a 00 76 3b
       0.008859674 -0.009806439 -0.009330146 0.003753698
000080 bf 35 9c 3c 53 d9 e0 bb 85 27 6a bb 37 94 9c bc
       0.019068597 -0.0068618446 -0.0035729122 -0.019113643
000090 ff 99 a4 3b 47 b1 9d bb 72 56 d4 bc 02 e3 ec 3b
       0.0050232406 -0.004812393 -0.025920127 0.00722921
0000a0 8b b4 1a 3c dd 7f c5 3b c4 5a 1b 3c 0d 4a dc bb
       0.009442459 0.0060272054 0.009482089 -0.0067226947
0000b0 72 e9 19 3b 47 52 c2 3b d7 a5 f3 3c 8f 0a fb 3b
       0.0023485092 0.0059302184 0.029742165 0.007661171
0000c0 52 67 76 bc f7 79 88 bb 6b 87 15 3c d7 3a 24 3c
       -0.015039282 -0.00416493 0.009126524 0.010023794
0000d0 af cb 13 3c 63 14 ca 3b 58 e8 01 bc 30 e6 4d bb
       0.00902073 0.006166981 -0.00792893 -0.003141772
0000e0 6c 15 51 3c f7 38 3c ba d9 c9 d7 bc 64 18 7a 3a
       0.012761455 -0.0007180119 -0.026341366 0.00095403777
0000f0 c0 87 2f 3c 15 b2 25 bc bc fa b8 3b f5 a8 16 bc
       0.010713518 -0.010113259 0.0056451242 -0.009195556
000100 09 c0 14 bc c6 93 1e bb 46 cb 95 bc e3 91 6d 3a
       -0.009078988 -0.0024196967 -0.018285405 0.00090625713
000110 0e f3 14 bc 90 09 f1 bc d0 c4 fb bc ea ef 95 bc
       -0.009091152 -0.029423505 -0.030733496 -0.018302877
000120 df cc ff bc ba a7 84 bb fb 8b a8 bc ee 1d 53 bc
       -0.03122562 -0.004048315 -0.02057456 -0.012885554
000130 f8 2f 2d 3c 04 b2 73 bb ed 68 bb bb ce c3 8b bc
       0.010570519 -0.0037184963 -0.0057192952 -0.01706114
000140 a8 cf 06 bd 7c 41 0f bd 16 96 f3 bc 28 7d af 3c
       -0.03291288 -0.03497456 -0.029734652 0.021421984
000150 6f b1 93 bc 02 9e 13 bc 1c 82 dd bb 80 f4 30 bd
       -0.018028943 -0.00900984 -0.006759895 -0.043201923
000160 a6 80 0c 3d 61 bb 1c bd 5a 8c 13 bd 79 83 c8 bc
       0.034302376 -0.038264636 -0.03602252 -0.024476754
000170 80 e9 fb 3c df ff a2 bc cf 86 31 3b 48 c3 83 3c
       0.03075099 -0.0198974 0.0027088409 0.016084328
000180 31 f1 7f 3c a2 57 46 bc 17 15 ae bc b1 24 d8 bc
       0.015621469 -0.012105854 -0.02125029 -0.026384683
000190 66 43 20 bb 89 59 0a bd 4b b1 75 bd 27 a3 cf bb
       -0.0024454235 -0.033776794 -0.059983533 -0.006336588
0001a0 80 c6 ca 3c 61 aa b9 bb 0b b9 27 3d ff 45 d1 bc
       0.024752855 -0.0056660627 0.040947955 -0.025546072
0001b0 c7 61 98 bb 31 d3 ce 3c 14 f4 07 bc d7 15 f3 3b
       -0.004650328 0.025247188 -0.008297939 0.007418375
0001c0 0f 6b 3e bd 68 27 39 bc e4 b7 9b 3c e8 17 47 39
       -0.046488818 -0.011300899 0.019008584 0.00018987025
0001d0 1d 55 c0 3c 15 f6 87 3c bd 7d 29 bd 2d ce d5 bb
       0.023478085 0.016596833 -0.04137968 -0.006524822
0001e0 71 d6 d9 3c 23 f4 4b bc fa f4 de bc 43 ec 86 3b
       0.026591511 -0.012448343 -0.027216423 0.00411752
0001f0 a2 94 f9 3c b2 ae 24 bd 2f 21 86 3c 84 06 04 bd
       0.030466381 -0.040205665 0.016373245 -0.032232776
000200 a7 e9 4a 3b 85 9a 6c bb 27 9d 6d 3b fb cf 4c bb
       0.0030962022 -0.0036102843 0.0036257 -0.0031251896
000210 ef 0d 4d bb dc 39 69 3b d5 e0 f8 ba 62 f7 42 bb
       -0.0031288823 0.0035587465 -0.0018987904 -0.0029749502
000220 4d c3 91 ba d9 a6 07 bd 45 27 ca bb 91 0a a6 3b
       -0.0011120826 -0.033118103 -0.006169232 0.0050671776
000230 ef 52 23 3b 3e cb 2c bc 5b 54 b4 bc 32 7c eb b6
       0.0024921258 -0.010546504 -0.02201288 -7.018004e-06
000240 4c d6 90 3b 2f 58 c6 3b 0f 55 3f bb 8c 98 54 3b
       0.0044200774 0.006052993 -0.0029194986 0.0032439558
000250 39 2f bc bb 9a 09 22 bb 88 19 ff 3b 00 da 7f bc
       -0.005742934 -0.0024724961 0.007785026 -0.01561594
000260 77 44 0e bb 3f a7 57 3a 69 6a 97 3a 05 be b4 bb
       -0.0021708289 0.0008226521 0.0011552098 -0.005515816
000270 f8 82 6d 3c 8a d5 f3 3a 46 02 92 bc 7d 9d 41 bb
       0.014496557 0.0018603068 -0.01782335 -0.0029543333
000280 5c 3a f8 bb b4 7c 82 3b d8 d4 ba bb a0 35 64 3b
       -0.0075753164 0.003982151 -0.0057016425 0.0034822002
000290 a4 24 9b bb ba 43 da 3a 09 4f 9a 3b ed 74 ff bb
       -0.0047345925 0.0016652264 0.0047091288 -0.007795921
0002a0 d5 6f 5e 3a ad 94 61 bc c3 90 19 3b 61 b4 f7 3a
       0.0008485292 -0.013768357 0.0023432232 0.0018898362
0002b0 72 3b 01 3c 8f 7a 06 3b 4a ba 09 3d 92 41 ec ba
       0.007887708 0.0020519828 0.033624925 -0.0018024913
0002c0 0e 56 0d bb 57 30 dc ba b7 6a be bb b2 af 00 bc
       -0.0021566185 -0.0016799074 -0.0058110612 -0.007854389
0002d0 11 20 c6 3b af 6b cc bb 6a 13 ac 3b b7 5e a5 bb
       0.006046303 -0.006238423 0.005251338 -0.0050466913
0002e0 90 ba 87 bb bd 41 82 bb 46 25 06 3c 2c 3a 3f 3b
       -0.004142113 -0.003975122 0.008187598 0.002917896
0002f0 a6 e6 51 bb 84 1c f0 bb 38 d3 ac 39 54 ca d3 ba
       -0.0032028346 -0.007327618 0.00032963767 -0.0016158321
000300 42 12 26 bc 30 22 60 3c d1 6a 3b bc 35 2c 11 bb
       -0.010136189 0.013680026 -0.011439041 -0.0022151594
000310 77 d9 22 bc d0 8b 09 bc 5a 36 47 bc 1a 24 03 bc
       -0.009939543 -0.00839515 -0.0121589545 -0.008004213
000320 95 99 2b bc 46 15 25 3c d5 f5 fe bb 61 ab f4 bb
       -0.0104736285 0.010075873 -0.0077807703 -0.007466719
000330 65 8b 1b 3c e1 6f 62 3c bf 51 ca 3b ec 68 00 bc
       0.009493683 0.013820619 0.0061742957 -0.007837515
000340 86 32 18 bc 88 4c 0f bc 27 58 0c bc 26 2c 0c 3c
       -0.0092893895 -0.008746274 -0.008565939 0.008555448
000350 b1 d7 ab bb 78 0c 17 bc 07 55 3f bc e9 ab ba bb
       -0.0052442183 -0.009219281 -0.011677987 -0.005696763
000360 5a d9 30 3c c7 49 03 bc c1 b5 2e bc 52 d4 c0 bb
       0.010794008 -0.008013195 -0.010663451 -0.0058846856
000370 2f 26 f7 3b 91 53 15 bc 74 2a 8d 3c 06 11 a4 bb
       0.0075423936 -0.009114162 0.017232157 -0.005006912
000380 e6 a6 67 b8 23 a9 ea bb 5e 29 4e bc 41 5a 0e bc
       -5.5230128e-05 -0.007161276 -0.012583105 -0.00868851
000390 60 fa fe ba f7 1d 4c bc 34 6b 80 bb b8 cf cc ba
       -0.001945328 -0.012458316 -0.0039190296 -0.001562587
0003a0 75 b7 1e 3c 94 a2 07 bb e7 87 3a 3c a2 bb 54 bc
       0.009687294 -0.002069627 0.011384941 -0.012984188
0003b0 f8 46 6b bc 00 54 2a 3c 9c 25 b9 bc d3 63 ed bb
       -0.014360182 0.010396004 -0.022600941 -0.007244566
0003c0 42 2e a9 3a c1 4a 10 bc b2 db ac bb aa 9f 84 3b
       0.0012907463 -0.008806885 -0.005275213 0.0040473538
0003d0 d3 a9 49 3c 48 83 5b 3c aa d1 c0 bb f7 56 85 bb
       0.012308556 0.013397999 -0.005884369 -0.004069205
0003e0 c5 ff 02 3c ea f4 37 bc 9b f8 7e 3b 37 b8 a5 36
       0.0079955505 -0.011227826 0.0038905505 4.9388286e-06
0003f0 ba 10 35 3c b0 f8 73 3b c0 ea f6 3b bb 16 45 bc
       0.011051351 0.0037227087 0.0075353086 -0.012029345

bias_ih_l0 f4 [256]
000000 89 ec cd 3c 57 08 e8 3d c0 fa b8 3b ae a1 79 3c
       0.025137203 0.11329716 0.005645126 0.015236301
000010 79 d5 a5 3b f8 66 ff 3d d2 a6 9c bc 2b 53 d9 3d
       0.0050608483 0.124708116 -0.019122515 0.10611566
000020 2d 07 ef bc e9 f8 57 3e e1 b6 ab bc 91 98 13 bb
       -0.029178226 0.21091045 -0.020961227 -0.0022521357
000030 72 3f 8b bb 49 f4 4e 3d 32 14 4b 3e 3a 9f e8 3c
       -0.0042495066 0.050525937 0.19831923 0.028396238
000040 f3 2e 05 3d 24 68 c2 3d b4 f8 c4 3d 81 33 bf bc
       0.032515477 0.094925195 0.09617749 -0.023339989
000050 aa f1 04 3c 03 4d 85 3d 30 12 1f 3d a4 73 6d 3d
       0.008114258 0.065088294 0.038835704 0.05797161
000060 f5 ab 8d bc 55 78 91 3d 07 72 12 bd 5d f1 d4 bc
       -0.01729391 0.0710303 -0.035753276 -0.025993997
000070 ca e4 55 bd 21 ba 97 bc 5f 53 27 3e 10 eb 5a bc
       -0.052220143 -0.01852137 0.16340397 -0.013361707
000080 a3 bf 14 3e 10 94 21 3b c4 27 4b 3d 60 60 bb 3d
       0.14526229 0.0024654903 0.04959847 0.091492414
000090 b3 bc 62 3d af 30 9c 3d df 21 c8 3d f2 70 ac 3d
       0.05535574 0.07626473 0.097720854 0.0841998
0000a0 73 ae 7b 3d 53 0a 3b 3e 77 a3 6d bd 9c 4e 81 3d
       0.061445665 0.18265657 -0.05801722 0.06313822
0000b0 a2 02 90 3d a1 ef ce bc a7 f5 5d 3e 34 8a 8c 3c
       0.07031752 -0.025260748 0.2167574 0.017155744
0000c0 fd 0d eb 3d e4 13 da 3c 62 f5 86 3d db 4a e6 3b
       0.114772774 0.026620813 0.06589772 0.0070279664
0000d0 23 f9 0b 3e 84 c9 e8 bc c7 10 30 3c 21 86 9a bc
       0.13669257 -0.028416403 0.0107461875 -0.018862786
0000e0 2b 4e 23 3d 55 fb f7 3c 47 fa d6 3d e7 07 af 3d
       0.03986947 0.030271212 0.10496955 0.08546429
0000f0 94 07 14 3d 85 a5 ff 3d db ae 19 3d f6 32 88 bd
       0.03614004 0.12482742 0.03752027 -0.06650345
000100 99 65 87 3c 92 5c 78 3d f4 91 a7 3b ef 85 86 3c
       0.016527938 0.060635157 0.0051138345 0.016421286
000110 35 1a 74 bc 3d 95 0b 3d 19 5e 56 3d 00 0e 4e 3d
       -0.014898826 0.03407787 0.052335832 0.05030632
000120 8d 4f 1d 3d 83 30 29 3e 2b ac d6 bc 90 42 7c 3c
       0.038405944 0.16522412 -0.026205143 0.015396729
000130 1d 76 69 3d ec 96 9f 3d b7 bd 0d 3e d7 76 fa 3b
       0.056997407 0.07792458 0.13841902 0.0076435613
000140 7e 42 a5 3d 43 08 df 3c 40 16 a3 3d dc 58 2b bb
       0.08069323 0.02722562 0.07963228 -0.0026145494
000150 1a 3f a3 bc 8d b6 2f 3d cd 11 32 3d 8e ef 8f 3b
       -0.01992755 0.042898703 0.043474007 0.004392571
000160 cf 72 9e 3d 1e 24 0a bd 8d 2f 8f bd 8c 69 5b 3d
       0.07736742 -0.03372585 -0.069914915 0.053567454
000170 85 a7 cb 3d 42 88 84 3d 45 47 11 3e e4 f2 de bc
       0.09944061 0.064713016 0.14187343 -0.027215429
000180 4f f1 02 3d 0e 76 a4 3c 85 60 61 3c 0b fb 59 3c
       0.03196841 0.020075824 0.013755922 0.013304482
000190 be 26 5e 3d ee 75 dc 3d a8 f8 1d 3d c7 fa 6d 3d
       0.054236166 0.10764681 0.038567215 0.058100488
0001a0 a5 e9 a9 3d 0e 84 1c 3d 25 9d fc 3c 4f 89 e2 bc
       0.08296517 0.038211875 0.030836651 -0.027653364
0001b0 6a e0 a1 3d f4 71 28 3d dc e8 8a 3e 61 90 bf bb
       0.07904132 0.0411243 0.27130783 -0.0058460687
0001c0 c1 f5 69 3d e6 97 7e 3c 2d ef 1c 3d 68 5f 36 3d
       0.057119135 0.015539145 0.038314033 0.04452458
0001d0 d1 25 ee bc 09 32 c7 3d 03 63 0a bd e0 62 ed 3c
       -0.029070767 0.0972634 -0.03378583 0.028977811
0001e0 ae 41 3d 3c 13 47 8b bc 9e 28 5f 3d 3f 03 08 3d
       0.011551304 -0.017001664 0.054482095 0.03320622
0001f0 f7 f4 3f bd 90 66 9f 3d 4a 8b b3 bc 31 cd dd bc
       -0.046864476 0.07783234 -0.021917004 -0.027075382
000200 3d 52 cc 3d 0c 37 8f 3d df 9d 14 3c 42 f7 f4 3d
       0.09976623 0.06992921 0.0090708425 0.11961223
000210 62 19 07 bd 34 6e e6 3d 41 05 bb 3d a9 46 69 bc
       -0.03298319 0.11251488 0.091318615 -0.014238038
000220 53 04 73 3d 3f f1 8f bd e3 2c ca 3a a1 9e 94 3d
       0.059330296 -0.07028436 0.0015424754 0.072568186
000230 1a 2d 07 be fa cb 72 bd 6f 8f d4 bd bd c1 d5 3d
       -0.13200799 -0.05927656 -0.1037892 0.10437343
000240 a4 4b 60 3d e2 70 0e 3e a0 89 c9 3d 7b ac 6a bd
       0.054759637 0.13910249 0.09840703 -0.057293396
000250 de a1 9f 3d 99 3e 6d bb 80 c8 f6 3c 23 1b 17 3e
       0.077945456 -0.0036200641 0.030124903 0.14756446
000260 cd b4 05 3c 88 0e de 3d a6 2f dc 3b 1e 24 73 bd
       0.008160782 0.10842615 0.0067195473 -0.059360616
000270 62 91 38 3d 69 eb 0b 3d 68 4a d5 bc ec 60 d2 bd
       0.045060523 0.03416005 -0.026036456 -0.10272393
000280 e4 3d cb bd fb 43 a0 3d ae ee 05 3e c0 b5 14 3d
       -0.09923914 0.07825466 0.1307933 0.036306143
000290 45 1b 65 3d 28 69 96 3c 0e 85 e6 3c 54 03 48 3d
       0.05593421 0.01836069 0.028139617 0.0488313
0002a0 72 bc 52 bc 8f cf 81 3d 02 bc 0d be a2 86 3c 3c
       -0.012862312 0.06338417 -0.1384125 0.011506708
0002b0 80 60 d0 3d c3 c9 c5 b7 3e eb e2 3c 43 8f 93 3d
       0.10174656 -2.3578183e-05 0.027700063 0.072050594
0002c0 ae e8 75 3d 09 9d 71 3d b2 79 34 bd ee 49 d2 3d
       0.060036354 0.05898765 -0.04406137 0.10268007
0002d0 90 6f 46 3d 41 f6 22 bd a9 28 0f 3e 7e 56 0d bc
       0.048446238 -0.039785627 0.13980354 -0.008626578
0002e0 db 6a aa bd d5 0a 16 3d 86 a2 a8 3d 3d 5a 72 3d
       -0.08321162 0.036631424 0.08234124 0.05916809
0002f0 6e b0 b0 bd 3a 3e 4f 3d 23 c7 96 bd fa 36 e8 3d
       -0.08627401 0.050596453 -0.07362201 0.11338611
000300 01 42 77 3d 47 32 eb 3d 99 15 a5 3d 82 1b 16 3c
       0.06036568 0.11484199 0.0806076 0.009161832
000310 aa f8 12 3d df 45 eb 3d 31 a5 ff 3c 14 98 58 3b
       0.035881676 0.11487936 0.0312067 0.003304963
000320 29 1d de bb 21 9a 8d 3e d3 b5 6b 3d 1f 9a 1f 3d
       -0.0067783785 0.27656654 0.057546448 0.03896534
000330 84 37 62 3c 49 9d 5c 3d a9 6f 23 3e e6 77 9d 3b
       0.013807181 0.053860936 0.15960564 0.004805553
000340 a8 77 a4 3d fb 76 d8 3d b9 a8 d0 bc 53 d0 0b 3d
       0.08030635 0.10569569 -0.025471078 0.03413422
000350 e5 02 0c 3c 6a 4f d1 3d 52 1e 13 bc ad 8a 53 3c
       0.008545612 0.10220225 -0.008979397 0.012911481
000360 fb f5 1d 3d 80 16 84 3d 00 0a 96 3d 32 96 52 3d
       0.038564663 0.06449604 0.07326126 0.05141277
000370 92 a9 dc b9 1a 7a e3 3c 99 d3 3b 3e 6e 5f a1 3d
       -0.0004208801 0.027768183 0.18342437 0.0787953
000380 df a1 c5 3d 9a 11 38 3c ed 8f be 3d b0 bb 9d 3d
       0.09650015 0.011234665 0.093047954 0.07701814
000390 be 62 15 3d ed cc 4f bd 05 90 dd 3d ec 0d 81 3d
       0.03647112 -0.05073254 0.10818485 0.063014835
0003a0 f2 fa cc bc 47 76 f5 3d d7 43 83 bd c8 5d 6b bd
       -0.025022004 0.1198545 -0.06409424 -0.057462484
0003b0 ea 62 c2 3c 68 ce 80 bc fc f0 56 3e 84 d0 07 3d
       0.023728807 -0.015723422 0.20990366 0.03315784
0003c0 66 e5 dc 3d b2 43 68 bc e7 2f 7e 3d 81 df f0 3c
       0.10785942 -0.014176296 0.062057402 0.02940345
0003d0 49 e7 f6 3d e5 ed 26 bd be 36 5a 3d ae 91 68 3d
       0.12055833 -0.040754218 0.053274862 0.056779556
0003e0 43 e7 6f bc 35 08 9d 3d 62 07 cf 3d 5f 33 24 3d
       -0.014642539 0.07667581 0.1010883 0.040088054
0003f0 8f 95 6e bc e1 ec c9 3d 4f a6 1d 3d b3 4e db 3d
       -0.014562025 0.09859634 0.038488682 0.1070837

bias_hh_l0 f4 [256]
000000 88 18 0a 3d 27 e4 f8 3d a4 21 0a 3d 8c 2a f9 bb
       0.0337148 0.121528916 0.03372349 -0.007603949
000010 13 10 2d 3d 4d 0d 8b 3b 81 4f ce 3d 49 8a 83 3c
       0.042251658 0.004243529 0.10073758 0.01605715
000020 09 d4 39 3d a8 32 83 3e d9 52 09 3d 34 e6 f1 3b
       0.045368228 0.25624585 0.033526275 0.0073821787
000030 9b 36 17 bd f2 0c 8d 3d c5 92 4c 3e 7d 55 09 3d
       -0.03691731 0.06887235 0.19977863 0.033528794
000040 05 63 3f 3d 05 4c 6d 3d 5e 40 30 bd 3d 42 1e bd
       0.04672529 0.057933826 -0.043030135 -0.03863739
000050 1a da a4 3c 88 81 11 3d 5e 68 1f 3d fa a7 9d 3d
       0.02012353 0.03552392 0.03891789 0.076980546
000060 24 45 d4 bc c1 8e 54 bd 66 7b 0c 3d 9a 20 45 bd
       -0.025911875 -0.051893953 0.03429737 -0.048126794
000070 24 05 9d 3d 90 c7 39 3d 05 6f 24 3e 3f 46 3e 3d
       0.07666996 0.045356333 0.16057976 0.04645371
000080 ea 75 fd 3d a2 5e c7 3c 81 d6 d4 3d 70 94 a0 3d
       0.12376006 0.024337117 0.10392476 0.07840812
000090 04 6f 59 3d a1 4d 22 3c 34 79 84 3d 2e 8a a9 3d
       0.05308439 0.0099062035 0.0646843 0.08278309
0000a0 36 e0 85 3d 5f a8 46 3e b6 98 69 3d f2 d1 32 bd
       0.065369055 0.19400166 0.057030402 -0.04365725
0000b0 46 40 7f 3d 4e 40 3d 3d ef db 84 3e fe f3 9c 3c
       0.062317155 0.046203904 0.25949046 0.019159313
0000c0 17 ae dc 3d 37 13 cd bc 4b 72 46 3d aa 18 55 3c
       0.107753925 -0.025033576 0.048448842 0.013006369
0000d0 44 94 08 3e b8 f8 35 3d 90 93 b2 3d 75 db 81 bb
       0.13337809 0.04442665 0.087195516 -0.003962929
0000e0 c7 4e 29 bc e5 f7 be 3c d3 56 d6 3d 5f 62 62 3d
       -0.010333723 0.023311565 0.10465779 0.055269595
0000f0 03 36 cb 3d ff 52 04 3e 2a 46 d5 3b 6c 91 38 bd
       0.09922411 0.12922285 0.0065086083 -0.04506056
000100 c9 77 e0 3c 52 c6 75 3d d5 19 3a 3c 2a 61 87 3d
       0.027400868 0.060003586 0.011358698 0.066103294
000110 a7 1b ce bb db 73 4b bd 77 c5 c0 3d 9f 66 45 bd
       -0.0062899175 -0.049671035 0.094126634 -0.04819357
000120 8f 75 2d 3d 1b d7 4e 3e bb 90 6e bc 19 55 40 3d
       0.04234844 0.20199244 -0.014560874 0.046956155
000130 30 2c 0f bd f1 8f 9f 3d 54 63 0d 3e c9 8b cf 3c
       -0.03495425 0.077911265 0.13807422 0.02533521
000140 f4 10 5e 3d 0d ba 39 3c c3 22 7d bd 09 2e 94 bd
       0.054215387 0.011335862 -0.06180073 -0.07235343
000150 8e d6 3c bc b4 19 b5 bc c9 c5 f8 3c dd b5 d8 3d
       -0.011525763 -0.022106983 0.030367749 0.10581563
000160 2b 20 7c bd 38 e9 43 3c e0 fd a9 3d 4f 0a 08 bd
       -0.061554115 0.011957459 0.08300376 -0.033212956
000170 1a 04 f6 bc 8d 5b d2 bc fd 8e 1c 3e f4 53 38 3d
       -0.030031253 -0.02567842 0.1528892 0.04500194
000180 b8 09 cc 3c 0f 8d ba 3c 44 a1 84 3d 9f 69 44 3c
       0.024906978 0.02277234 0.064760715 0.011988073
000190 30 91 2a 3d 62 8a 87 bd 3d 2e 2a 3d f4 49 5d 3d
       0.041642368 -0.06618191 0.041548003 0.054025605
0001a0 12 27 70 3d e0 75 c8 3d d0 86 8d bd 62 b3 da 3d
       0.05863101 0.09788108 -0.06910479 0.10678746
0001b0 56 c8 cf 3d f8 f7 09 3d 0a 80 8b 3e 25 c3 f0 3c
       0.10145633 0.033683747 0.27246124 0.029389927
0001c0 00 97 8a 3d 85 1f 10 3d 44 5a 38 3d e9 5a 7d 3c
       0.06767082 0.03518631 0.04500796 0.015463569
0001d0 15 51 8e 3c b6 6e 6a ba 7a de 35 3d 4b 34 08 3d
       0.017372647 -0.0008942889 0.044401623 0.033252995
0001e0 ee 13 dc 3c ff 28 a7 3b 06 0d 67 3d c6 65 44 3d
       0.026864972 0.0051013227 0.056408904 0.04794862
0001f0 b0 ed 1e bc 27 fb a7 3d 0c 1c c2 3c 0c be 19 3d
       -0.009700224 0.082022004 0.023695014 0.03753476
000200 f5 c3 3c 3d 4e 27 10 bd 8a 7b 3e 3d ee c1 bd bd
       0.046085317 -0.035193734 0.046504535 -0.09265505
000210 0c bc 44 3d 8f 05 c9 bd 2c d5 fa 3d 9d e0 44 3c
       0.048030898 -0.09815513 0.122476906 0.012016443
000220 33 c0 6f 3d 60 a0 b7 bd 0f 8e 63 3d 86 66 5f 3c
       0.058532905 -0.08966136 0.0555554 0.013635283
000230 4a 10 96 3d c4 bd a4 bc 1f 5c 8f 3d d2 3b 26 bd
       0.07327326 -0.020110019 0.069999926 -0.040584393
000240 88 9b 89 3c e5 b9 02 3c 8e e7 c1 3d c0 0b 2b bc
       0.016797796 0.007978891 0.09467994 -0.010439813
000250 a6 dd 99 3d 1e 92 96 3d 1c f5 e3 3d dc db 12 3e
       0.07512979 0.073520884 0.11130735 0.14341682
000260 00 8a f1 bd a3 68 53 3d c9 ab 92 3d 60 cf e0 3d
       -0.117938995 0.05161346 0.07161672 0.10977054
000270 66 07 f6 bd 05 99 4f 3d c9 7f 89 bd 73 3b 46 3c
       -0.1201313 0.05068304 -0.06713826 0.012099135
000280 d3 02 8f bc a6 38 69 3d 14 bc 86 bd 80 68 57 3d
       -0.017457401 0.05693879 -0.06578842 0.052589893
000290 2d a4 84 bc 01 0c fb 3d 8f 82 c8 3d 1d bc da 3c
       -0.016191566 0.12258149 0.09790527 0.026701028
0002a0 ce 2e c8 bd cb 57 a9 bd dc 2a 83 bd 22 84 33 3d
       -0.09774552 -0.08268698 -0.06404659 0.043827184
0002b0 d8 40 21 3b 27 0c e2 bd cb 0a b9 3d 0f 6f cb bd
       0.00246053 -0.11037474 0.09035262 -0.09933292
0002c0 1b 71 a4 3d 0b a2 d3 3d 28 ba 73 bd 96 90 57 bb
       0.08029386 0.103336416 -0.059503704 -0.0032892576
0002d0 d2 27 17 bc 76 82 c7 bd 39 28 dc 3d 7f ef 28 bd
       -0.0092258025 -0.0974168 0.10749859 -0.041244026
0002e0 7a 20 da bd 92 53 c0 3d cc f6 5b bd 4b b3 4d 3c
       -0.10650726 0.0939094 -0.05370216 0.012554954
0002f0 8a bf dc bd c5 67 47 3d cc 7d 14 3d 4e 52 9f 3d
       -0.10778721 0.048682947 0.03625278 0.0777937
000300 a1 01 ef 3c 31 e3 cf 3d ea 41 37 bd 19 e8 e4 3a
       0.029175581 0.10150755 -0.044740595 0.001746419
000310 a0 86 84 3d f6 d1 57 3d f5 7a ba 3d 89 10 40 bc
       0.0647099 0.05269047 0.091054834 -0.011722692
000320 26 ce 60 bd 2b ce 8d 3e 00 44 45 bc e3 87 e9 3c
       -0.0548841 0.27696356 -0.012040138 0.028507179
000330 2f 0c a0 bc dc 9b 2d 3d 20 c5 3e 3e dc ce 5a bd
       -0.01953706 0.042384967 0.18629885 -0.053419933
000340 d7 60 dd 3d c4 ba e3 3d 0b d1 5f bd b0 f7 6f bd
       0.10809486 0.11119607 -0.05464272 -0.058585823
000350 b5 b4 52 3d ef 1d e0 3c 5f 32 96 3d c0 ac db bc
       0.051441867 0.027358023 0.07333826 -0.026815772
000360 bf 62 cf bc 8c 84 25 3b db 90 da 3d 0e ec e0 3c
       -0.02531564 0.0025256006 0.1067216 0.02745631
000370 65 70 b4 3d 82 3e 06 3c 3c f9 38 3e 77 3e ef 3c
       0.088105 0.008193614 0.18063825 0.02920459
000380 2e 17 a9 3d ba de 9a 3b 62 94 c5 3c 7d 0b e7 3d
       0.08256374 0.004726258 0.024118606 0.11281488
000390 f9 c2 25 3d c3 ea e0 3d d1 b2 ea 3d eb a1 6a 3d
       0.040469144 0.10982277 0.11459888 0.057283323
0003a0 25 60 f6 bc 0a 24 44 3e 44 53 bb 3d 71 19 c5 3d
       -0.030075142 0.19154373 0.09146741 0.09623993
0003b0 a7 9d ba 3d 9e e4 3a bd 23 ee 5f 3e 43 d5 89 3c
       0.09112101 -0.045628183 0.21868186 0.016825324
0003c0 e7 ec e9 3d da f6 4c 3d 4e 27 8c 3d 79 8e 0d 3d
       0.11422139 0.050040103 0.06843434 0.0345597
0003d0 b3 aa 08 3e 2a e5 e7 bc 90 32 99 bc b0 dc 37 3d
       0.13346367 -0.028307516 -0.018700868 0.0448882
0003e0 d0 00 4c 3b 92 9d cf bc a9 ae d1 3d 0e e5 9e 3d
       0.0031128414 -0.02534369 0.10238392 0.077585325
0003f0 4b 77 11 3d 76 50 c8 3d df 7e fa 3c fc 55 b8 3a
       0.035514157 0.09780972 0.030578075 0.0014063711

weight_ih_l1 f4 [256, 64]
000000 6a 11 56 3c f4 59 88 3c 7b 16 23 3d 30 02 55 3d
       0.013065675 0.016644455 0.03981636 0.05200404
000010 f9 5a 39 3d 58 86 91 3d e0 fe 72 3d 03 3d 7d 3d
       0.045252774 0.07105702 0.0593251 0.061825763
000020 9d 1d 33 3d d8 50 d7 3c e2 02 63 3d 10 4f 5f 3c
       0.043729413 0.026283666 0.05542267 0.01362969
000030 82 2a 41 bd 2b ad 83 bc 6c ed 0e 3d 68 51 a7 3c
       -0.04715968 -0.016073784 0.034894392 0.02042456
000040 44 58 02 3d 24 ee d3 3a a8 cf 85 3d 77 49 7b bd
       0.031822458 0.0016168994 0.06533748 -0.06134936
000050 ea fb 21 3d f2 15 68 3d ba bd d5 3c 9a 82 81 3d
       0.039546885 0.056661554 0.026091445 0.063237384
000060 a6 ff 2f bd 92 ce 6d 3d 09 3a 64 3d 37 49 15 3d
       -0.042968415 0.05805833 0.05571941 0.036446776
000070 ad f8 46 bd e6 60 e2 3c 2a f5 c0 3c e3 96 8d 3d
       -0.048577 0.027634095 0.023554403 0.06913545
000080 c1 68 35 bd 13 62 27 3c cf af 64 3d c3 30 23 3d
       -0.044289354 0.010216254 0.055831727 0.039841425
000090 36 06 5a 3d e5 5b 7c 3d bf 1f a5 bd c0 1a 67 3d
       0.05322858 0.061611075 -0.08062696 0.056421995
0000a0 1f 41 54 bd b8 b3 94 3d b8 99 3e bd ad e6 83 3d
       -0.051819917 0.07260841 -0.046533316 0.06440482
0000b0 ad c8 b8 3c f8 73 34 bd 13 d3 61 3c 60 c7 e1 3c
       0.022556627 -0.04405591 0.013783234 0.02756089
0000c0 97 b1 bc bd 71 a5 8d 3d c7 ba bc 3d 82 58 05 3d
       -0.0921356 0.06916321 0.092153125 0.03255511
0000d0 3a b8 9d bd 8e ae ed bc e8 b2 8f 3d 82 06 51 3d
       -0.07701154 -0.029013898 0.070165455 0.051031597
0000e0 12 c5 27 bd 03 74 57 3d 8c 18 d8 bc aa 82 3b bd
       -0.040959425 0.05260087 -0.026378892 -0.045778908
0000f0 80 7c 2f bd 4b b0 e6 bd 38 b8 0f bd cf 80 67 3d
       -0.04284334 -0.11264094 -0.035087794 0.056519326
000100 a1 22 f6 ba 57 c9 fe bb ca 1f bb 3b 1b 5e a6 3b
       -0.0018778631 -0.0077754664 0.0057105767 0.005077136
000110 e4 4c 9f 3c 5c b2 ee bb 10 c3 29 3c 7e 74 fc 3b
       0.019445844 -0.0072844457 0.010361448 0.0077043166
000120 f2 6a 70 bb e5 0a 51 3c 40 29 54 3c 5c 0a 11 bc
       -0.0036684838 0.012758945 0.012949288 -0.0088525675
000130 90 48 9b bc 32 f1 c7 3a 9f d2 36 3c 7e 5b 10 3b
       -0.018955499 0.0015254377 0.011158614 0.002202719
000140 58 3f 6d bc d5 4d 92 bc eb 4a 86 3a e6 29 7a bc
       -0.014480434 -0.017859379 0.0010245716 -0.015268778
000150 fc 33 b5 bb d7 e6 4c 3c 5a 97 c7 bb 4b 35 57 3c
       -0.0055298787 0.012506208 -0.0060910406 0.013135265
000160 54 a0 60 39 56 79 f8 3b 66 84 3e 3c 07 62 1d 3a
       0.00021422032 0.0075828237 0.011628246 0.0006003682
000170 fa 21 c3 bc 82 32 0f 3b c6 fc 10 ba 79 79 cc 3c
       -0.023819912 0.0021850173 -0.000553083 0.024960266
000180 87 a7 f3 3c 85 10 ae ba 5e 8e de 3c 4d 60 b9 ba
       0.02974297 -0.001328007 0.027167495 -0.001414308
000190 a6 c1 f8 3b 22 91 85 3c 13 f8 6b bd 99 d4 1f 3c
       0.007591444 0.016304556 -0.05760963 0.009755277
0001a0 59 3b 7a bc 47 b6 05 3d 3d 12 11 bc 8e 7a 7c 3c
       -0.015272939 0.032644536 -0.008854446 0.015410079
0001b0 04 40 1d 3c 2a 80 0c bc f6 03 25 3c e9 f6 4d 3c
       0.009597782 -0.008575479 0.010071745 0.012571075
0001c0 93 04 3f bd 42 d2 62 3c b6 57 2b 3d ab bd 04 3c
       -0.04663522 0.013844075 0.041831695 0.008101861
0001d0 be d6 df bc 4b c2 e7 3b 9d 33 d9 3b 9e 09 24 3c
       -0.027324077 0.007072722 0.0066284672 0.010012059
0001e0 2b fc b2 3a 2e 74 b5 3c 0f c1 fc bc 5f 77 b8 bb
       0.0013655474 0.022150125 -0.030853776 -0.0056294645
0001f0 1d 73 b7 ba 6d 99 31 bd d3 aa a5 bb f1 a6 df 3b
       -0.0013996098 -0.04335921 -0.005055764 0.006825321
000200 28 ea 87 bb c1 e2 81 3b 23 55 7a 3c c6 a9 ef 3c
       -0.0041477866 0.0039637988 0.015279087 0.029255759
000210 f3 00 af 3c 56 ed 1b 3d 0d 19 4f 3c e9 79 e7 3c
       0.021362757 0.038068138 0.01264025 0.028256373
000220 43 38 1c 3d 3f 58 98 3d 30 ee d9 3c 47 b2 86 bb
       0.038139593 0.074387066 0.026602834 -0.004110608
000230 05 af 70 bc b1 cb 86 3b b3 74 6e 3d c7 00 c3 3b
       -0.014690165 0.0041136374 0.05821676 0.0059510204
000240 85 99 c1 ba 9b d8 1e bc d6 ec f4 3b fd 05 10 bd
       -0.0014770484 -0.009695197 0.007474522 -0.03516196
000250 80 dd 54 3c f1 c4 2b 3d 32 87 8d bb 23 dc 2a 3d
       0.012992263 0.041935865 -0.004319095 0.041713845
000260 79 b1 f4 bc a7 87 40 3d 5e dd 78 3c e6 a7 a1 3c
       -0.029869782 0.04700437 0.015189497 0.01973338
000270 be 56 6a 3a 32 cd b3 3b 09 d1 92 3c cc 60 3e 3d
       0.0008939317 0.0054871077 0.017921941 0.04647903
000280 5c 1e 2c bc c3 49 c1 39 47 f4 1f 3d 7e 94 aa 3c
       -0.010505285 0.00036866785 0.03905132 0.02082276
000290 00 40 24 3d 78 61 83 3b ff fe 30 bd 7c 38 33 3d
       0.040100098 0.004009422 -0.043211933 0.04375504
0002a0 85 9d aa bb db f1 b8 3d 77 27 63 bc 54 08 63 3d
       -0.005206766 0.09030505 -0.01386439 0.055427864
0002b0 d1 81 0e 3c 50 a2 a2 bc ff 26 5c bc 93 21 14 3a
       0.008697943 -0.019852787 -0.013437032 0.0005650755
0002c0 06 34 fd bc 82 c9 df 3c c7 1d 1d 3d 9a b4 d3 3c
       -0.030908596 0.027317766 0.038358476 0.025842953
0002d0 88 76 7d bd 9b 47 51 39 bf 30 08 3d 8c dc 2f 3d
       -0.06188062 0.00019958468 0.033249613 0.04293494
0002e0 5c 6e 46 bc b0 7f b5 3c c8 61 9a bc 04 db 29 bd
       -0.012111273 0.022155613 -0.018845454 -0.041468635
0002f0 56 1b a8 bc de 72 20 bd 61 6a 0d bc f9 e4 1a 3d
       -0.020520847 -0.039172046 -0.00863132 0.03781602
000300 88 78 44 3c 17 52 f4 bc 0a e8 7c 3c 02 86 b3 3b
       0.0119916275 -0.0298243 0.015436182 0.0054786215
000310 0d 53 12 3d c7 5d ed 39 e1 c1 84 3c dd af 4a 3c
       0.035723735 0.00045274032 0.01620573 0.012371031
000320 84 f1 2d 3c dd 65 6b bc 8e c4 8a 3c 6d 44 56 3b
       0.010616664 -0.014367548 0.016939428 0.0032694594
000330 dc 28 f6 bc 06 1f af bc bc 77 a1 bb 1d 9b 5b 3c
       -0.03004878 -0.021377098 -0.0049276035 0.013403681
000340 02 98 a1 bb fe 01 d5 ba fa 6f 83 3a d2 48 7d bc
       -0.004931451 -0.0016251204 0.0010027878 -0.015459256
000350 3f c0 90 bc 4f b1 b7 3c ad cc 70 3c 16 c5 87 3c
       -0.017669795 0.022423415 0.014697236 0.01657347
000360 63 fb 93 bb c7 2c ed 3b f6 dc 09 3c e7 de 8d bb
       -0.0045160516 0.007238004 0.008414498 -0.0043295505
000370 76 60 eb bb 8c 70 7d 3c 23 e0 8d bc 7f 6b 19 3d
       -0.00718313 0.015468728 -0.01731879 0.037456032
000380 ff 0d f0 3c 2c e8 41 3c 6e 1e 11 3d 85 f1 8f 3c
       0.029303549 0.011835139 0.03542941 0.01757122
000390 7c 47 8c 3b c2 5c a9 3c e6 bb 9c bd 9b 97 a0 bb
       0.0042809825 0.020674113 -0.07653026 -0.0049008853
0003a0 48 7f 9b bc 00 ac 86 3c d5 0c 4d bc ca 11 f0 3c
       -0.01898159 0.016439438 -0.012515266 0.029305357
0003b0 8e 82 07 3d 1c fc 97 bc 63 a7 23 3d 3b b5 3e 3c
       0.03308349 -0.018552832 0.039954554 0.011639888
0003c0 69 13 92 bd 5b ae a3 3c 47 b2 42 3d bc 93 47 bc
       -0.071326084 0.0199806 0.0475333 -0.012181219
0003d0 c1 d6 12 bd c1 cb 70 bc 50 9c 2f 3c 88 38 4b 3b
       -0.035849337 -0.014697016 0.01071842 0.0031009037
0003e0 59 f4 11 bc 47 84 d9 3c ac 30 41 bd 9e f0 ad bb
       -0.008908355 0.026552333 -0.047165558 -0.005308225
0003f0 88 ca 2a bc f1 7e 79 bd af 61 4b bc 50 ca 88 3c
       -0.010424264 -0.060912076 -0.012413426 0.016698033

weight_hh_l1 f4 [256, 64]
000000 36 2d 5c 3d 4a 13 39 3d 42 0c 51 3d 9a 31 29 3d
       0.053754054 0.04518441 0.05103708 0.04130707
000010 2b 5f 18 3d 79 ac 5f 3d 83 f5 44 bd 72 90 4f bd
       0.037200134 0.054607842 -0.0480857 -0.050674863
000020 ff 08 3f bd 5d 31 5a bd 1c 9a b3 3c 4f 61 4b 3d
       -0.04663944 -0.053269733 0.021924071 0.049653348
000030 b8 bb 27 bd f5 13 36 bd 90 17 6c 3d 69 09 14 bd
       -0.040950507 -0.044452626 0.05763966 -0.036141787
000040 ca 9d 6f bc 18 72 41 bd 74 33 32 bd 8c c7 52 3d
       -0.014625022 -0.04722795 -0.0435061 0.051459834
000050 ee 42 52 3d 9a ef 08 bd 20 04 b4 bc 06 64 41 bd
       0.05133336 -0.033431627 -0.021974623 -0.04721453
000060 ad f3 47 bd ac bf 3c 3d 42 f4 6e 3d 55 c2 76 bd
       -0.04881637 0.04608123 0.05833841 -0.060243923
000070 ea 1b 58 bd b4 94 f3 3c 52 56 19 3d 6a 8c 57 bd
       -0.052760996 0.029733993 0.037435837 -0.052624144
000080 47 6c 10 3d 27 e5 68 bd 93 d8 44 3d eb 0f 44 bd
       0.03525951 -0.05685916 0.048058104 -0.047866743
000090 55 66 42 3d c9 2f 63 3d 9a c6 12 bd b9 a8 11 bd
       0.047460873 0.055465493 -0.035833932 -0.035561297
0000a0 5a aa 49 bd cd ea 48 3d 81 c5 37 3d 50 aa 67 3d
       -0.049234726 0.04905205 0.04486609 0.056558907
0000b0 b8 3a 2a bd 30 57 40 3c 17 a3 4a 3d 0b 7d 49 3d
       -0.041559905 0.011739537 0.04947194 0.049191516
0000c0 02 f2 18 3d 4d 4f 3b 3d 0b 72 46 bd 5f ed 27 3d
       0.03734017 0.045729924 -0.048448604 0.04099786
0000d0 7f 9f 12 bd 91 7d 7c bd eb b6 5a bd 38 df 98 bd
       -0.03579664 -0.061643187 -0.0533971 -0.074644506
0000e0 3b c1 81 bd 4a 70 26 bd 23 fb 12 3d 8f 99 83 bd
       -0.06335684 -0.04063443 0.035884034 -0.06425773
0000f0 21 cd fe b9 a6 3e 3e bd 9d 3f 3e 3d 59 a2 65 3d
       -0.00048599488 -0.046446465 0.046447385 0.05606303
000100 77 49 4f 3d 02 54 9c 3c 31 c5 98 3c 09 fa 44 3c
       0.05060717 0.019083027 0.018648716 0.012022504
000110 dc 56 99 3c fb 6d 12 3c 0a 1f a6 bc bf 56 06 bc
       0.018718176 0.008937354 -0.020278472 -0.008199393
000120 12 02 cb bc 71 f4 bc bc a5 65 d0 3c 03 4b 4c 3d
       -0.02478126 -0.023065777 0.025439093 0.049876224
000130 90 4a 1d bc b3 82 3e bc 6f e4 b4 3c 17 a0 0a 3d
       -0.009600297 -0.011627841 0.022081582 0.03384408
000140 ab c1 c9 bb a5 43 a1 bb ac c6 14 3b 6c d3 a4 3b
       -0.00615712 -0.004921394 0.0022701425 0.0050300863
000150 c8 19 dd 3c 74 28 52 3b e2 93 83 bd bf 5b 97 bc
       0.026989833 0.003206757 -0.06424691 -0.018476365
000160 46 ca d4 bc 08 29 9b 3c 0f 69 c4 3b 33 51 33 3b
       -0.025975358 0.018940464 0.0059939693 0.002736163
000170 2b fe fe bb ac 38 7b 3a 6f 6f 9b 3c 93 79 64 bc
       -0.007781764 0.0009583335 0.018974034 -0.013945001
000180 e9 d9 c8 3c b3 8b 56 bc 61 cc 93 3c 25 47 22 bd
       0.02451797 -0.01309483 0.018041791 -0.03961863
000190 d8 3b a0 3c 5f da b5 3b 83 77 7d bc c6 e1 51 bc
       0.019559786 0.0055497135 -0.015470388 -0.012810176
0001a0 76 74 8e bc 4d 75 93 3b ee c6 82 3c a6 ea b0 3a
       -0.017389517 0.0045000673 0.015963998 0.0013497665
0001b0 78 78 fb bb a9 0c 10 3d ae 09 44 3b e6 65 4c 3c
       -0.007674273 0.035168324 0.0029912996 0.012475466
0001c0 30 c0 5f 3c 1f 25 e6 3a 3d 6e 9f bb 93 8d db 3b
       0.013656661 0.001755867 -0.0048654363 0.0067002266
0001d0 97 fb 61 bc dc 32 83 3b 94 22 22 bd 64 4b b5 3c
       -0.013792894 0.0040038656 -0.039583758 0.022130676
0001e0 9f 19 4a 3a 4d 08 aa bc bf c8 86 3c 2d ae 74 3a
       0.00077095063 -0.020755911 0.016453145 0.00093338155
0001f0 98 d1 88 bc a6 8c c8 bb 91 b8 af 3c 46 96 47 3c
       -0.016701505 -0.006120282 0.021450313 0.012181824
000200 38 b3 93 3d 37 5f 82 bc 51 7b 9c bc be 45 9b 3c
       0.07211918 -0.015914543 -0.01910177 0.018954154
000210 df 69 a7 3b da 8a 04 3d ed c4 0d bd 4c 61 92 bc
       0.0051090564 0.03235898 -0.03461163 -0.01786866
000220 4e dd ce bc 49 d2 5b 3c 5d 5b 8e 3c b6 ce 00 3d
       -0.02525201 0.013416835 0.01737755 0.031447135
000230 92 ff 04 3d 4d df 91 bc 6d ff 7c 3d ab 65 8b 3c
       0.032470293 -0.017806673 0.06176703 0.017016253
000240 13 f3 c7 bc ee 83 80 bc cd 5f 49 3c 84 33 9a 3d
       -0.024407899 -0.015687909 0.012290907 0.07529357
000250 1a ed a0 bb 98 50 d2 3c 7f de 30 bd fa d7 1b bd
       -0.004911077 0.025673196 -0.04318094 -0.03804777
000260 5a 98 5c 3c 28 9f d7 3c 63 33 bf 3c 3f f3 73 bc
       0.013464058 0.026321009 0.023339933 -0.014889537
000270 fb 7f 25 bc 99 db 04 bb fa c7 83 ba e9 63 20 bc
       -0.010101314 -0.0020272492 -0.0010054104 -0.009789445
000280 9b 13 e8 3c 9c 8e e7 3c dd 65 b2 bc 6e bb b6 bc
       0.028329661 0.028266244 -0.021777088 -0.02230617
000290 4c 9b ca 3c 67 58 1e bc b1 e5 e0 3c 5a 78 c8 bb
       0.024732254 -0.009664631 0.027453275 -0.0061178626
0002a0 7d 5a 2f bd 97 a7 ea 3c a2 e9 d6 3c 44 ce 55 bc
       -0.042810906 0.028644366 0.026234452 -0.013049666
0002b0 2e b7 54 bb ae 65 f8 3b 52 98 81 3c 6a 39 1e 3d
       -0.0032457816 0.0075804805 0.015819702 0.038628973
0002c0 a4 31 36 3d 45 0b 23 bb 8e e8 8b 3c 68 cb 44 3c
       0.044480935 -0.0024878543 0.017078664 0.012011386
0002d0 31 a0 39 bd 40 2a d3 3c 10 9b 7d bd d8 0b 8f 3c
       -0.045318786 0.025776982 -0.061915457 0.017461702
0002e0 9e 79 8c 3c 86 7c 6a bc 23 b3 e0 3c ab ee cb 3c
       0.017147835 -0.014311915 0.027429169 0.02489408
0002f0 78 40 87 bc 5b 95 02 3d e9 5c 15 3d 95 54 51 3c
       -0.016510233 0.031880718 0.03646556 0.012776514
000300 c0 18 64 3d 81 4f 02 3c b2 95 c9 3a 83 7b 35 3b
       0.055687666 0.0079535255 0.0015379696 0.0027692027
000310 69 e9 3f 3c 80 78 f5 3b e7 8e a1 bc 09 9d c9 bb
       0.011713364 0.0074911714 -0.019721461 -0.0061527533
000320 2a e4 0e bc 81 b2 e7 bb ba 70 9a 3c 79 11 03 3d
       -0.008721391 -0.00707084 0.01885258 0.031999085
000330 4d f2 39 bc 48 06 9d bb 90 99 33 3c 45 b9 72 3d
       -0.011349273 -0.0047920085 0.010961905 0.059258718
000340 00 e0 62 bb 44 c8 7e 3b 5d 84 7b ba a7 53 2e 3c
       -0.0034618378 0.0038876692 -0.0009594614 0.010640061
000350 e7 23 1a 3c 66 88 93 3c 45 db b9 bd 48 b8 ab bb
       0.009407974 0.018009376 -0.090750255 -0.005240474
000360 0e a4 5e bc d0 88 54 3c 3e 4f ad 3b fa cf 5f ba
       -0.013588918 0.012972072 0.0052889874 -0.0008537766
000370 5b 29 ea bb 75 e0 47 bc b5 a7 55 3b 90 0e 55 bc
       -0.0071460432 -0.012199511 0.0032601182 -0.01300396
000380 63 a6 8f 3c 56 0f 2c bc b0 c1 59 bb 8f 76 f9 bc
       0.017535394 -0.010501703 -0.003322702 -0.030452041
000390 c7 9e 98 3c da 50 af bc b0 dd a6 3b 31 f8 2c bb
       0.018630398 -0.021400858 0.005092345 -0.002639305
0003a0 e7 f5 a6 bc 51 3c ca 3b 3e 2e 2e 3c 67 ad e4 3b
       -0.020380927 0.006171741 0.010631142 0.006978679
0003b0 db 2f 9b 3b e2 ee 9d 3a d0 23 5e ba f4 b5 29 3c
       0.0047359294 0.0012049342 -0.00084739644 0.010358322
0003c0 d3 34 5c 3c e5 4e 1f 3c 19 26 48 bc c6 99 37 3c
       0.013440329 0.0097234 -0.012216114 0.011206096
0003d0 7e ca 68 bc 29 59 5b bb 05 1f 4b bc 93 c0 9e 3b
       -0.014208434 -0.0033469892 -0.012397532 0.004844734
0003e0 2e 4c 9f bb 05 de 0c 3c 71 90 19 3c 4c 4e 9f bc
       -0.0048613762 0.008597855 0.009372816 -0.019446515
0003f0 92 cb 89 bc 7c 4f bc bb f3 57 95 3c b9 c2 1a 3c
       -0.016820703 -0.00574678 0.018230414 0.00944584

bias_ih_l1 f4 [256]
000000 4f 34 54 3d 14 28 c0 3c 2b c6 f2 3d 1b 35 c3 3c
       0.051807698 0.02345661 0.11854204 0.023829034
000010 ad 09 90 3c 8a 05 aa 3d 86 90 86 b8 72 23 35 3d
       0.017582739 0.08301838 -6.4165375e-05 0.044223256
000020 9a 21 7c 3d fb e4 0c 3c fe 54 63 3d b6 b9 b4 3c
       0.061555482 0.008599515 0.055500977 0.02206121
000030 88 3d e8 3d 5e f5 54 3d cf d9 ee 3d 39 db 26 3d
       0.11339861 0.051991813 0.116626374 0.04073641
000040 a9 a6 15 bc 66 49 7a 3c 2b 52 f8 3c 2f e6 0e bb
       -0.009133973 0.015276289 0.030312618 -0.002180468
000050 9e b2 3e bd bb 39 23 3c e1 cd d7 3d 1f e5 6c bd
       -0.04655706 0.0099624945 0.10537315 -0.057835694
000060 26 dd e5 3c e4 e0 98 bc ee f4 38 bc 8a 75 f7 3c
       0.028059553 -0.018661924 -0.011288865 0.030207414
000070 a1 f3 df 3d f7 dc 6b 3b dd 4f 71 3c 4f 6d 30 3d
       0.109351404 0.003598986 0.014728514 0.043072995
000080 8e 0e 9a 3d f5 b7 8a bd c0 15 a0 bc 20 a3 24 3d
       0.07522307 -0.06773368 -0.019541621 0.04019463
000090 ba 21 e1 bc 3e 9d 18 3d 96 7d 56 3d d4 d5 ba bb
       -0.027481902 0.037259333 0.05236586 -0.00570176
0000a0 67 ce 5c 3d d3 91 6c bb ef c6 84 bd 1b ad 1d bd
       0.053907778 -0.003609766 -0.06483256 -0.038495164
0000b0 cd 87 2b 3c 1e 37 b5 3d a8 7a 0e 3d de 8a 9a bc
       0.010469389 0.088484034 0.034784943 -0.018865045
0000c0 67 3a 4b 3d 04 f3 6b bc 8a f5 93 bd 8a 88 24 3d
       0.049616244 -0.014401201 -0.07224567 0.040169276
0000d0 d6 b4 89 3c 29 4d d2 3c 78 58 da 3d be 12 02 3e
       0.016809862 0.025671558 0.10661405 0.12702462
0000e0 f0 38 c5 3d 43 68 bb 3d 0e 1e b9 3c 30 a5 4d 3d
       0.096300006 0.09150746 0.022597339 0.050206363
0000f0 7b 1e 91 bc 9d 87 91 3d 42 bc 45 bd 5e 5d 71 bd
       -0.01771473 0.07105944 -0.04827524 -0.058926933
000100 74 89 45 3d 16 54 5d 3d b5 ab fa 3d 2d 16 9c 3c
       0.04822679 0.05403527 0.12239782 0.019053543
000110 e9 0f 9b 3d 38 77 70 3d 16 1d 14 3c 8a 1a 25 3d
       0.07571394 0.058707446 0.009040138 0.040308513
000120 83 a7 66 ba 1e 25 9e 3d 80 23 43 bb cf ed 86 3d
       -0.0008798765 0.07721923 -0.0029775798 0.06588327
000130 d0 00 36 3c df 67 12 bd 92 4d fd 3d 00 47 74 3d
       0.011108592 -0.03574359 0.12368311 0.059638023
000140 95 39 16 bc fd 93 bc 3c 50 73 83 3c f0 49 68 bd
       -0.009169002 0.023019785 0.016046196 -0.056711137
000150 81 f5 c8 3d d9 cb 5d 3b 4a cc 8c 3d a4 ab a2 3d
       0.09812451 0.0033843426 0.068749025 0.07942894
000160 2b 53 30 bd 08 32 1c 3d 83 84 13 3d 79 30 31 3d
       -0.043048065 0.03813365 0.036015045 0.043259118
000170 f5 3d 08 bd b5 fc 05 bc 8d f4 34 3d f5 0e 23 3d
       -0.03326221 -0.008177926 0.044178534 0.039809186
000180 00 72 83 3d 57 6f 36 bc 30 2c fd 3d 1d 0b 3f 3d
       0.06418228 -0.011134944 0.12361944 0.046641458
000190 f6 db 12 bd 5a 7c 19 3d 1a 59 29 3d 66 2f ba 3b
       -0.035854302 0.037472107 0.04134474 0.00568192
0001a0 4c 57 b1 ba b3 3c 01 3e 07 15 68 3d 6b 91 d6 3d
       -0.0013530045 0.12620811 0.05666068 0.10476955
0001b0 e5 4e 18 bc 56 32 6b 3a ca 30 b5 3b 5c a2 0f 3c
       -0.009296154 0.0008972039 0.0055294978 0.008766737
0001c0 4d 59 32 3d c1 df c6 3c 66 85 fc bc 70 88 db bc
       0.043542195 0.024276616 -0.030825328 -0.026798457
0001d0 a1 50 15 3c 1c e6 23 3c 27 8a 0e bd c8 66 84 3d
       0.009113462 0.010003593 -0.03479972 0.064649165
0001e0 f8 4a e6 3c 92 d2 76 3d de b2 c0 3a 3a c4 6b 3d
       0.02811192 0.06025941 0.0014701744 0.057560183
0001f0 47 c3 10 3d f7 ea 07 bd aa 5c 49 bd bb f3 10 3d
       0.03534248 -0.033183064 -0.049160637 0.03538869
000200 49 b3 de 3d 43 a9 e9 bc 3b 79 e0 3d 34 44 cc 3d
       0.1087404 -0.028523093 0.10960623 0.09973946
000210 57 ad a3 3d ea f8 b9 3d a3 6e 54 bd 4e 98 74 3d
       0.07992046 0.0908068 -0.051863324 0.05971556
000220 03 ce 9d 3c 9a 30 16 be 07 c7 1d bb b4 1b bb bc
       0.019263273 -0.14666978 -0.0024074928 -0.022840358
000230 84 06 d3 bd a8 19 e4 bc 3f 42 a2 3d c9 8d 36 bd
       -0.10303977 -0.027844265 0.07922792 -0.04456881
000240 87 3d 88 bd 96 b3 3c bb 7c 15 02 bd c7 13 8f 3d
       -0.066523604 -0.0028793565 -0.03175877 0.06986194
000250 62 fb 96 bd 5c 6a 8c 3d f3 a3 61 bd e8 68 1b 3c
       -0.07372166 0.06856224 -0.055087995 0.009485461
000260 8e c4 0f be c1 14 82 bc 07 d0 bb 3d 49 78 93 bc
       -0.14039823 -0.015879037 0.091705374 -0.018001692
000270 fa c5 dc bc 40 14 8d 3d a8 af f1 3d 48 8f 07 bd
       -0.026949871 0.06888628 0.11801082 -0.033095628
000280 96 b6 83 3d cb 0d 90 bd 86 99 f9 3d a8 42 5e bc
       0.0643131 -0.07033881 0.121874854 -0.013565697
000290 66 3d 8c 3d 5a 17 9f bb 40 28 b9 bc 40 c5 de 3c
       0.06847648 -0.0048550786 -0.0226022 0.027193666
0002a0 6b 0e cd bd b9 57 20 3d 16 ff 98 bb 1f 7a 0a 3e
       -0.10012516 0.03914616 -0.0046690805 0.13523148
0002b0 c8 11 96 3d f7 06 b7 bd bc 0a 91 bc de 14 d8 bc
       0.0732761 -0.08936875 -0.017705314 -0.026377138
0002c0 33 38 b2 3d db e4 1b bc ce 97 f9 bd 79 0b ff 3d
       0.087021254 -0.009515013 -0.121871576 0.1245336
0002d0 6e 0a 20 bd 07 9f e8 bd 6e 25 05 be df 9e 7b bd
       -0.039072447 -0.11358457 -0.1300256 -0.06143081
0002e0 7a b9 94 bd 12 01 e6 3d 07 31 98 3c 79 53 ff bd
       -0.07261939 0.11230673 0.018578066 -0.12467093
0002f0 a8 de e7 bb e4 cd f1 bc e2 18 85 3d bb 8d c9 3d
       -0.0070761032 -0.029517122 0.06498887 0.09841486
000300 00 af 63 3d 8b 88 8a bb 63 85 61 3d b6 b7 65 bc
       0.055586815 -0.004227703 0.055058848 -0.014020851
000310 e7 fe 47 3d 10 e9 35 3c a1 63 47 bc 06 5a bc 3a
       0.04882708 0.01110293 -0.0121697495 0.0014370091
000320 91 c1 07 3d c1 ca 58 bc 4a 19 2a bd d0 3e 71 3d
       0.033143584 -0.013231934 -0.041528024 0.058897793
000330 87 e8 85 3d 3c 61 bb ba b5 58 90 3d 2a 58 aa 3d
       0.06538492 -0.0014295946 0.070481695 0.08317597
000340 60 7f 25 3a 37 a1 8e 3c a9 ce c4 3c 27 91 06 bd
       0.0006313231 0.017410858 0.024024324 -0.03285327
000350 78 8f 80 3d 82 3b 9f 3d 83 79 e3 3d d7 90 3f bc
       0.062773645 0.07775022 0.11107161 -0.011692247
000360 ff 6d b8 3d 4e 91 e6 3b 0d cf 47 3c 90 78 b2 3c
       0.09005355 0.0070363646 0.012195361 0.021786004
000370 83 a1 72 3d 02 16 8e bc 5b b1 9d 3c 66 a7 16 bb
       0.05923606 -0.017344479 0.019249609 -0.002298796
000380 9d fe 06 bd fb ae 1d bc e9 1f e3 3c 2b 8e 35 3d
       -0.032957662 -0.009624238 0.027725177 0.044325035
000390 6b 64 4a 3b fc ca 1c 3d 3d b9 3e 3d ca f7 a1 3c
       0.0030882608 0.03827952 0.046563376 0.019771475
0003a0 c2 b3 de 3c 19 c5 fe bc bc a6 80 ba 2a 97 51 3a
       0.027185325 -0.031099843 -0.0009815316 0.00079952425
0003b0 e3 17 4a 3c 62 79 96 3d 83 7b 28 bc 62 1f c6 3b
       0.012334797 0.07347371 -0.010283354 0.0060462216
0003c0 ab 62 44 3d 5c 51 57 bd c6 be 12 bd e6 c8 42 bc
       0.04794566 -0.052567825 -0.035826467 -0.011888718
0003d0 5c 6b 17 3d 60 f9 72 3b 96 b6 a8 3d 44 c4 92 3c
       0.03696762 0.0037074909 0.082379505 0.017915852
0003e0 57 48 1c 3d e4 a8 5f 3d 19 cf 8a 3c 89 c6 f8 3c
       0.038154926 0.054604426 0.016944455 0.030368106
0003f0 e7 c3 55 3c 0a 2e f9 bc 41 c3 21 bd 77 58 85 3b
       0.013047195 -0.030417461 -0.03949285 0.0040693837
