transfer_learning/models/lstm_TL_u1.pth (torch, 413992 bytes, 18 tensors)

weight_ih_l0 f4 [256, 3]
000000 a4 81 51 3d 50 d2 e8 bb 93 14 bc 3d fc 57 c8 bd
       0.051149026 -0.0071051493 0.09183612 -0.09782407
000010 85 df f4 3d b6 2a 41 3f b1 71 fe bd 8e ac 04 be
       0.119566955 0.75455797 -0.12424029 -0.1295645
000020 8b d0 e7 bd 44 ae 4c 3d 95 09 e7 3d 8a 6f 9b 3d
       -0.11319073 0.04997088 0.112811245 0.07589634
000030 ed cf 1f bd cd 8a df bd 3e c7 4b 3d c5 dc 79 bd
       -0.039016653 -0.10915146 0.04975056 -0.061001558
000040 9d 1a a0 bd ac 4d 4e 3d 93 ec f7 3c 1a 9a 60 be
       -0.07817576 0.050367042 0.030264175 -0.21933785
000050 f2 cb f2 bc 9f fd aa bd 9e 04 11 be 63 26 ff bb
       -0.029638264 -0.08349156 -0.14161918 -0.0077865585
000060 1b be a2 3c 94 02 23 bd c7 4b 01 3f 67 47 9a 3d
       0.01986604 -0.03979738 0.5050625 0.0753315
000070 75 7d ff bb 92 2f 80 3c 2e 20 ee bc 81 18 cd bd
       -0.007796938 0.015647683 -0.029068079 -0.100144394
000080 99 70 0f 3d c7 be 27 bd 9e e6 d6 bd aa e4 80 3e
       0.03501949 -0.040953424 -0.104932055 0.25174457
000090 58 9e c5 3d 32 74 3a bb 2f 2b c8 bd ac fd a0 3e
       0.09649342 -0.0028450605 -0.097738616 0.31443536
0000a0 50 17 c4 3e 26 a9 8d 3e be 49 f2 bc 49 d3 84 3d
       0.38299036 0.27668113 -0.029576179 0.06485612
0000b0 0b 20 b7 bd 00 46 ac bd 7e f9 27 3c 22 e9 33 3f
       -0.089416586 -0.08411789 0.010252355 0.7027761
0000c0 d9 b0 cb bd 09 da 0b 3d b1 9d 7e 3e ea 8d 48 bd
       -0.099458404 0.03414348 0.24864842 -0.048963465
0000d0 ba e8 11 be f3 57 45 3e f6 41 0a be 4e d3 c1 3d
       -0.14248934 0.19271831 -0.13501725 0.09464131
0000e0 d4 91 d2 3d 7f 80 ff bd e1 22 34 3d bf 5f 15 3e
       0.10281721 -0.124756806 0.043978576 0.14587305
0000f0 24 eb b1 3b 33 ff db bd 86 7d aa 3e 8a 03 03 3d
       0.0054296423 -0.10742035 0.33298892 0.031985797
000100 6c 33 df bd 02 08 36 bd c1 bd 1c 3e a3 4e 9e bc
       -0.1089848 -0.04444123 0.1530676 -0.019324606
000110 3e 6c 5a 3e 4c 1c cb 3d 7a 5a 01 3e c8 77 c2 be
       0.21330354 0.099175066 0.1263217 -0.3798201
000120 f3 34 3f 3d 75 06 e3 bd db 5b c1 be bc 25 0d 3d
       0.046681356 -0.11085216 -0.37765393 0.034459814
000130 a9 3a 55 3e 5e 65 50 3f 84 bd 58 bd 9d 8f 2e 3c
       0.20823158 0.81404674 -0.05291511 0.010654357
000140 10 3c 8e 3e 05 fc 00 be 86 a3 02 be 29 33 c7 3e
       0.277802 -0.12596138 -0.12757692 0.3890622
000150 ec 24 3e 3e 43 5a ed 3d 93 0c 44 3d ed c7 8e 3d
       0.18568772 0.11589482 0.047863554 0.069717266
000160 5f 24 bf bc 20 6d 97 bd 7a 7e 0b 3e d3 fc 36 3e
       -0.023332773 -0.07393861 0.13622466 0.17869882
000170 6d 4c a2 3d e3 1a 8f 3d cf ef b0 bd 4e ae c6 3d
       0.07924733 0.0698755 -0.0863949 0.09701215
000180 68 b1 61 3d 71 a6 70 3d 79 db 77 3e 1c e7 a6 bd
       0.05510083 0.05875248 0.24204816 -0.08149549
000190 0a 31 0d 3e 94 8f f1 3d c0 bc 07 be 78 3d 0b 3e
       0.13788238 0.117949635 -0.13255596 0.13597667
0001a0 a7 40 56 ba ef e0 a1 3d 57 73 56 3c f9 86 90 3d
       -0.0008173086 0.07904231 0.013089023 0.07056994
0001b0 2e 0d 03 3e 32 73 5d 3d ae bc 8e 3d 30 2d aa bd
       0.12797996 0.054064937 0.069695815 -0.083094
0001c0 f7 c0 0a 3d ff 44 fa bd 8d e3 07 bd a7 fc 32 3e
       0.033875432 -0.12220191 -0.033175994 0.17479192
0001d0 41 5e 11 be de 32 1b bd 98 b5 0a 3e 08 c1 35 3d
       -0.14196111 -0.037890308 0.13545835 0.044373542
0001e0 b2 21 18 3e 0e 72 7c 3d f9 72 0c 3e 21 d8 f8 bd
       0.14856604 0.06163221 0.13715734 -0.12150598
0001f0 2a 75 10 3e 95 09 72 3e 5b cf 82 3c d0 ba 51 bd
       0.14107195 0.23636468 0.015968015 -0.05120355
000200 ec 30 85 3e 05 9d 4d 3e af 22 a7 3d fe b1 f0 3e
       0.26013887 0.2007943 0.08160912 0.47010797
000210 f5 d4 1e be cb 21 6c bd 1b be 4e be a4 a3 03 be
       -0.15510924 -0.057649415 -0.20189707 -0.12855393
000220 57 7c 59 bd dc df 63 3d 50 4c 76 3d d1 05 54 3b
       -0.053097095 0.05563341 0.06013137 0.00323521
000230 c0 9a 4b 3e a9 c2 3d bd 45 0c 93 bc bc 5f 63 be
       0.19883251 -0.04632822 -0.017950187 -0.22204489
000240 9f a0 64 bd ab 67 20 3e ee 4d 17 3f 7e 9f 85 3d
       -0.055817243 0.15664546 0.59103286 0.06524561
000250 46 58 8f 3d bc dd 65 3d d2 9d 13 be 45 7f 8b 3d
       0.06999259 0.056119666 -0.14415672 0.06811384
000260 88 a4 34 be 21 be 22 3e e9 ac 90 3d 5f 21 b2 3e
       -0.17640889 0.15892841 0.0706423 0.34791085
000270 be 55 64 bd b8 b3 6f 3d f2 32 96 bc 76 da 36 bd
       -0.055745833 0.058521003 -0.01833484 -0.044641934
000280 ae 8b 81 3d 76 b2 0a 3d 91 45 d8 bd bf 6a 5a 3d
       0.0632547 0.0338616 -0.10560144 0.053324457
000290 62 ce 27 be f8 fd 70 bd 40 59 f2 bc 17 a8 1d bd
       -0.16387323 -0.058835953 -0.029583573 -0.03849038
0002a0 6b 15 54 3d 34 bb 44 bc 13 04 25 3f e2 98 88 3d
       0.05177824 -0.012007523 0.6445934 0.06669785
0002b0 a5 c3 d6 3a de 44 13 3e 86 71 d4 bd c0 7b d8 3d
       0.0016385211 0.1438174 -0.103732154 0.105704784
0002c0 35 31 e1 bd 8a 7e ef bd ab 41 8c bd bf 61 92 3d
       -0.109957136 -0.11694057 -0.06848463 0.0714755
0002d0 20 40 d6 bd 1a e1 97 bd 25 20 44 3e f4 4f 91 bb
       -0.104614496 -0.074159816 0.19152887 -0.00443458
0002e0 c7 6c f4 3d 72 82 b5 3e fd 67 3a be b8 cf 1d bc
       0.1193481 0.35451084 -0.18203731 -0.009632044
0002f0 66 45 9b 3e 90 35 05 be f0 5a 00 3e 65 ab 64 3e
       0.30326384 -0.13008714 0.1253469 0.22331007
000300 91 20 3a bd 63 f8 98 bc a3 6b 15 3e 14 8c 5a 3d
       -0.045441214 -0.018673128 0.14591841 0.053356245
000310 fb 56 84 3d be 80 33 3f 24 09 d1 bc 30 11 d3 3d
       0.06461903 0.7011832 -0.025517054 0.10306013
000320 c4 f0 9e 3b e7 d4 5b bd f0 f9 d6 bd ad c2 15 be
       0.004850479 -0.053669836 -0.104968905 -0.14625044
000330 cd fa 9e 3d 83 4c f6 bc db 3a c0 3d b4 ca 71 3d
       0.0776268 -0.03006578 0.09386226 0.059031203
000340 5a 36 ad 3d 8d 0a a3 3e b8 30 02 be 5a 58 89 bd
       0.08457632 0.31843987 -0.12713897 -0.06706305
000350 2c 20 93 b8 be 68 14 be 48 4b bb 3d cc 75 11 3e
       -7.015499e-05 -0.14493081 0.09145218 0.14205092
000360 8a a2 93 3c 12 b6 64 bd ce f6 cf 3e 4f 97 99 bd
       0.01802184 -0.0558377 0.40617985 -0.07499563
000370 d8 b4 9d bd 2a 22 01 be df 82 21 3e 2e 9f 09 bc
       -0.07700509 -0.12610689 0.1577258 -0.008399768
000380 b1 61 85 3d 1f be 9e bd 2b 02 07 3d 49 d0 ef 3c
       0.06512774 -0.077511065 0.032961052 0.029274123
000390 14 dc da bd 48 5e 90 bd f0 a8 27 3e a1 10 3e bd
       -0.10686508 -0.07049233 0.16373038 -0.046402577
0003a0 bd bf 4d 3d 3d f6 c9 bf b3 ba 39 3d ff 97 54 3c
       0.050231684 -1.5778271 0.045344066 0.012975692
0003b0 dc f8 ed bd ba 57 5e 3e 8a d9 88 3e 39 85 a4 bd
       -0.11619732 0.21713153 0.2672847 -0.08033223
0003c0 c8 ea a3 3d a4 5c 70 3c ae 3d b4 3e 89 fa 16 be
       0.08003765 0.014670525 0.35203308 -0.14744009
0003d0 e7 db d6 3d 41 01 98 3e 93 77 8c 3d 1d 54 d7 bd
       0.10491162 0.29688457 0.068587445 -0.1051409
0003e0 b4 ef 74 be db c3 11 be 38 88 10 3e da a9 86 3e
       -0.23919564 -0.14234869 0.14114463 0.2630146
0003f0 b1 de 8a bd 48 9c 9a bc 73 8e 90 3e ca cf 32 3a
       -0.06780756 -0.018873349 0.2823368 0.0006821124

weight_hh_l0 f4 [256, 64]
000000 56 52 4c 3d 7b 7a 79 3d 77 ea 0d bd 5c f1 fc bc
       0.04988321 0.060907822 -0.03464743 -0.030876808
000010 8f bb 19 3d 44 e9 60 3c e1 68 3a bc 0d d1 05 3e
       0.037532385 0.01372749 -0.011377544 0.13068028
000020 8e 02 a2 bd ab 5b 14 bd 1f 12 06 bd 8b a4 76 bd
       -0.079106435 -0.036220234 -0.032732125 -0.060215514
000030 bc e6 02 3d 62 21 f0 3c 2a 97 cd 3d c3 c7 f3 3d
       0.031958327 0.029312793 0.10038598 0.11903336
000040 56 09 c0 3d 11 ae f1 3c bb df dd 3d 04 b8 08 bd
       0.09376781 0.029501947 0.10833689 -0.033378616
000050 68 6c 04 bd 73 94 20 bc a1 e9 01 3d 1f fc 3b 3d
       -0.032329947 -0.009801018 0.031716947 0.04589474
000060 96 93 4b bd 4f 60 79 bd 76 5f 6b 3d ea 94 1f 3d
       -0.049701296 -0.060882863 0.057464086 0.038960375
000070 85 11 26 bd 72 4a 47 3d eb 57 a9 bd 8f 5a 4a bc
       -0.04054405 0.04865498 -0.08268722 -0.012350692
000080 5a 4c 91 3c 5e 61 c7 3d 5d 36 86 3c 2a 06 36 3c
       0.017736603 0.09735368 0.016383344 0.011109868
000090 85 c3 7f 3d 87 e9 bd 3d f5 05 d4 3c 66 79 85 3d
       0.06244232 0.092730574 0.025881747 0.065172955
0000a0 b8 8f 94 bc b8 26 19 3d f0 a8 d6 3c 7e 47 d8 b8
       -0.018134937 0.03739044 0.026203603 -0.00010312999
0000b0 d0 f4 80 bd 11 c2 c7 bd b8 1a 59 3c 19 53 e6 3d
       -0.06296694 -0.09753812 0.013250999 0.11246318
0000c0 a0 bb 7a bc 1c b1 02 3e 10 9e b6 3c b7 4e bc 3d
       -0.015303522 0.12762874 0.022292167 0.09194701
0000d0 3c 98 97 bc 21 8a 9c bd 12 22 2d bb ea 65 a0 3c
       -0.018505208 -0.076435335 -0.0026418013 0.019579846
0000e0 80 d1 87 bb 9d 50 80 3d 5a 13 6b bd 1c aa 9e ba
       -0.0041448474 0.06265376 -0.057391502 -0.001210514
0000f0 1e 74 18 3d f1 5c ad bd 4e 75 d0 3c 10 96 22 bd
       0.037220113 -0.08464993 0.02544656 -0.039693892
000100 9c f4 35 3e 98 58 6e 3d cf eb 21 3e 86 d2 ff bd
       0.17769092 0.05818996 0.1581261 -0.12491326
000110 82 b0 7f 3d 5d 1e db 3d 54 35 0d be ac 1e d7 bb
       0.06242419 0.10699151 -0.13789874 -0.0065649357
000120 ac 22 ff 3c bf ae c4 3d bb 9c 36 3d 6d b5 11 3d
       0.031144463 0.09603643 0.044583064 0.03557341
000130 9b f3 28 bd 56 0d a9 bd 5f 5c fb bc 27 a2 16 3d
       -0.041247945 -0.08254497 -0.030683694 0.036775734
000140 5d 32 7b 3c 98 f4 b4 3c 92 91 51 bd f0 42 45 3e
       0.015331832 0.022089288 -0.051164217 0.19263816
000150 7c ab 45 bd 2f 2f 94 bc 9d 4c 1a 3d 68 dd e1 bd
       -0.048259243 -0.018088905 0.03767072 -0.11028558
000160 6e da a7 3c 82 78 9e bd e2 4c 29 3b 33 c0 81 3d
       0.020489898 -0.07737829 0.002583318 0.06335487
000170 1b 57 3f 3d 11 7e 89 3d f9 19 81 3b 52 36 9e bd
       0.04671393 0.067134984 0.0039398638 -0.077252045
000180 28 ad 0e bd fe 59 39 bd 9b 69 f1 bc 95 da bf 3c
       -0.034833103 -0.04525184 -0.029469302 0.023419658
000190 72 7d 08 3e f2 c2 71 bd 8a a4 34 3a 19 2c 67 3d
       0.13329104 -0.059023805 0.00068909733 0.05643854
0001a0 bd d7 4f bd 65 20 d0 bc 79 23 19 3e 21 f1 29 3d
       -0.050742853 -0.025406072 0.14954938 0.041489724
0001b0 2e a4 84 3a e9 a0 db 3d 49 6f b8 3d 6d 48 ab 3d
       0.001011973 0.107240506 0.09005601 0.083634235
0001c0 bb d4 93 bd 50 cb e4 bd 97 ce dd bd 68 f9 e0 bd
       -0.072183095 -0.11171591 -0.108304195 -0.109850705
0001d0 3d 7e 2b bd bc 23 1a 3d 5e 02 c2 bd 3d 66 21 ba
       -0.041868437 0.037631735 -0.09473108 -0.0006156897
0001e0 c3 57 05 3e b5 99 92 bd 57 65 87 3b ab 9f 8f 3d
       0.1302176 -0.071582235 0.0041319537 0.07012876
0001f0 57 9e a8 3c f2 2a 32 3e 9d 0f 5f bd 8c 1b f2 bc
       0.020583315 0.17399195 -0.05445825 -0.029554151
000200 77 96 df 3d 15 de 8d bc c4 f0 9b 3d 66 f2 b6 bd
       0.10917371 -0.017317811 0.07614282 -0.089329526
000210 69 bc ca 3c 2c 1d 53 3d 9d 28 7d bc 46 f4 39 39
       0.024748044 0.051541492 -0.0154515775 0.00017733974
000220 84 97 5d bc 35 7d b4 bb 43 63 36 bd 70 2f c0 bd
       -0.013524894 -0.00550809 -0.044528257 -0.09384048
000230 b9 71 fa bc 21 21 7a bb 8b d5 34 bd bd 2a 35 bd
       -0.030571805 -0.003816672 -0.044148963 -0.04423021
000240 36 93 9e bd 61 39 c1 3b f6 08 f5 3c 34 5f fe bc
       -0.07742922 0.0058967327 0.0299115 -0.031051256
000250 8c c4 eb bc b5 ca 31 bd f4 06 f1 bd f7 58 99 bc
       -0.028780244 -0.043406207 -0.11768904 -0.01871918
000260 55 48 bd bc 00 b6 9d bb da 73 76 3d 0a 54 0f bd
       -0.02310578 -0.004812956 0.06016908 -0.034992255
000270 64 70 63 3d 52 e6 45 3d f0 2c 5d 3c fc 01 c7 bc
       0.055527106 0.048315354 0.0134994835 -0.024292938
000280 dd 98 b2 3d ec 99 e6 3c cf 98 ee bd ce 3c a8 bd
       0.087205626 0.028149568 -0.1165024 -0.082147226
000290 87 3b 37 3d 84 76 b7 3c 0b 7d 75 bd 5f 49 58 3c
       0.044734504 0.02239538 -0.059933703 0.013201087
0002a0 80 c6 de bb 41 9c 6c bd 21 2f 63 3e 45 02 3e bd
       -0.0067985654 -0.057766203 0.22185947 -0.046388883
0002b0 4e 08 53 bd 8f 2a c1 3d f3 06 7e bc 34 61 68 bd
       -0.05152159 0.094319455 -0.0155045865 -0.056733325
0002c0 6f c8 af 3d 55 42 8d 3d 6d f6 dd bc 67 a4 74 bb
       0.085831515 0.068974175 -0.027095044 -0.0037329437
0002d0 fd 14 02 3c 7e 33 99 3d a7 ab c8 3b 7d 4d 43 3d
       0.007939574 0.074805245 0.006123978 0.04768132
0002e0 72 03 e9 bd 65 02 6a bd 79 e3 78 bc 3a 89 14 be
       -0.1137761 -0.05713119 -0.015190952 -0.14505473
0002f0 50 3c b8 3d 43 47 73 3d dc ce ab bb 10 ea 2a 3a
       0.08995879 0.059394132 -0.0052431654 0.00065198634
000300 5c be 43 bd 36 55 dd 3d ff 96 97 3d 17 46 86 bd
       -0.047788963 0.10807268 0.07401847 -0.06556337
000310 44 b8 96 3d b8 d9 43 3c 18 33 13 be bd 5e 88 3b
       0.07359365 0.011953764 -0.1437496 0.0041616843
000320 d7 ba e8 3b ae da 82 bd 4e 26 22 3d ae 74 11 bb
       0.007102351 -0.06389366 0.03958731 -0.002219479
000330 86 27 fa bb b2 4c e1 bc b8 67 b7 3d 71 21 25 3e
       -0.007634106 -0.027502391 0.0895533 0.16126038
000340 bb 17 8c 3d f7 a3 a3 36 c8 ff 0e 3d 49 43 b2 3c
       0.06840464 4.8768666e-06 0.0349119 0.0217606
000350 7c 4b b6 bd 57 f9 39 bd a8 5e 2f 3e cf 3f 35 3c
       -0.08901116 -0.045403805 0.17125952 0.011062576
000360 6d be cb bd 4c 04 d8 3c d4 06 e1 bc 49 5e 3f 3b
       -0.0994843 0.026369236 -0.027469076 0.0029200485
000370 3f 99 cc bd f0 0d e8 bd a9 5d 57 bd d1 70 aa bd
       -0.09990167 -0.11330783 -0.052579556 -0.08322299
000380 b2 83 3f 3d b4 90 ba bd 53 de 72 3c 04 68 80 3d
       0.046756454 -0.09109631 0.014823514 0.062698394
000390 61 12 c8 3d a4 b8 c2 3d e4 38 4c 3d 6c 85 c4 3d
       0.097691305 0.09507874 0.049858943 0.09595761
0003a0 f8 fe 17 3d 17 4f dd bd 2f 2d 12 3e 77 d0 85 bc
       0.03710839 -0.10806101 0.14275049 -0.016334755
0003b0 a9 d0 83 bd 90 69 8b 3d ea 06 3f 3d a1 4c 9c 3d
       -0.06436283 0.06807244 0.046637453 0.07631803
0003c0 5b 21 12 bc e3 2d 80 bb 0f ea 21 3e ca 0a 9b 3d
       -0.008919085 -0.00391172 0.15811943 0.07570417
0003d0 05 8b 39 be 6d 3d 0a be 46 ec 59 3c ad d8 13 3d
       -0.18119438 -0.13499995 0.013300961 0.03609531
0003e0 ed 08 a0 3c 4f 0f 5a 3d f5 5b d2 3c 96 33 53 bd
       0.019535506 0.053237256 0.025678614 -0.051562868
0003f0 c3 35 88 bc b3 11 09 3e 3c 72 54 bd 5a bd 03 bd
       -0.016627198 0.13385658 -0.051866755 -0.032163

bias_ih_l0 f4 [256]
000000 1f 21 0e 3c f2 dd 44 3b 47 dc 94 3b cf b5 87 3c
       0.008674889 0.0030039516 0.0045428607 0.016566185
000010 bf 42 17 bd 35 50 78 3b 3c c1 a2 bd e2 97 c4 bc
       -0.03692889 0.0037889604 -0.07947013 -0.023998205
000020 0e 06 87 ba 5c 70 77 bc 93 76 2e 3d 12 7c 85 bb
       -0.0010301487 -0.015102472 0.04259355 -0.004073628
000030 c3 ad da bb ae 87 f0 3e 7d 56 b6 bc 37 57 0d 3d
       -0.006673546 0.46978515 -0.022258038 0.034507003
000040 3a db 7c 3a 66 8f 1b ba 64 bb ff ba 7f 72 56 3c
       0.00096457044 -0.0005934149 -0.0019510803 0.013088821
000050 71 41 e3 bb 85 a2 db bc cb f0 15 3d 90 f9 65 3d
       -0.0069352915 -0.026810894 0.03660659 0.056146204
000060 ab c6 56 bd d5 60 97 3d d4 75 9e 3c e1 f3 03 3c
       -0.05243556 0.07391516 0.019343294 0.008053751
000070 5b d1 8c 3d f7 99 84 3c 97 6b 49 3d c6 16 e0 bc
       0.06875869 0.016186697 0.04917487 -0.02735461
000080 c6 a7 72 3c 22 35 87 3b 43 e8 0b bc 27 99 5f bd
       0.014810508 0.004126207 -0.008539262 -0.054589417
000090 fa e8 4c 3b 9b 00 b0 bb d5 7c 1b 3d de d4 08 3d
       0.0031266795 -0.005371166 0.037960846 0.03340613
0000a0 b3 88 2a 3d 3a 5d 4f bb 8a 8b b6 3d 26 8e 2c 3e
       0.041634273 -0.003164126 0.08913334 0.168511
0000b0 09 23 89 bb 3f e3 df 3b d1 66 75 bc 14 37 ac bb
       -0.0041850847 0.00683251 -0.014978127 -0.0052555893
0000c0 fd 7b fb 3c 3e 25 ff 3b 7b 12 36 bc df fb 7f 3d
       0.03069877 0.007786422 -0.0111128045 0.062496062
0000d0 6d 7f cb 38 53 0d b4 bb f2 67 b8 bc 4e b8 75 3d
       9.703529e-05 -0.0054947524 -0.022510502 0.05999022
0000e0 27 36 41 bc 21 07 70 b9 26 f2 b3 3c cc 75 b5 3b
       -0.011792696 -0.0002289084 0.021966051 0.005537724
0000f0 f3 c8 a7 3c 04 11 de 3c 40 6c 59 bd 62 b6 90 3c
       0.020481562 0.027107723 -0.05308175 0.017665092
000100 9c b5 21 3c aa 53 58 3d 49 90 3c 3c 87 67 b7 3b
       0.009869959 0.052814163 0.01150901 0.005597058
000110 b4 56 c4 bc 4c 6e 6e 3b d9 30 1e 3c 00 3b c6 3c
       -0.023967125 0.003638166 0.009655201 0.024198055
000120 63 d4 90 3b 8c 7a c2 bb 8c bd 20 3d 58 c3 1f 3c
       0.0044198497 -0.005935019 0.039243266 0.009751163
000130 15 51 94 3c 43 53 58 3d 3a b5 e2 3c 25 f3 36 3e
       0.01810507 0.05281378 0.027674306 0.1786619
000140 48 38 08 3c a6 de 09 bc fb 13 96 3c 24 ca 36 3c
       0.0083142 -0.0084149 0.018320074 0.0111565925
000150 dc 04 f4 3c e3 3e 2a bd 67 7f 5f 3d 73 21 9d 3d
       0.029787473 -0.04156388 0.05456486 0.076723956
000160 da 51 15 bd 82 63 8e 3d 1b 35 a7 3c 84 b4 95 3b
       -0.036455013 0.06952573 0.020411065 0.0045686383
000170 59 fe 3a 3d 6f 07 38 3d 92 9c c1 3d 5b b4 47 b9
       0.04565272 0.044928964 0.094536915 -0.00019045307
000180 90 69 2a 3c fb 9d 11 3c 71 f0 07 bc 5b e5 f1 bc
       0.010401145 0.008887763 -0.008297072 -0.02952831
000190 8f 58 0b bd 56 c4 94 3c 3c 21 06 3d 46 9f e9 3c
       -0.034020003 0.018160027 0.03274654 0.02851833
0001a0 cf fe 39 3d 48 4b f3 3c 84 27 81 3d 06 88 16 3e
       0.04540902 0.029698983 0.06306365 0.14700326
0001b0 81 5c 98 bb 3b 43 4c 3c 97 df 6c bc 6c 31 8b bb
       -0.004649699 0.012467201 -0.014457605 -0.004247835
0001c0 c5 f5 14 3e 67 16 bf 3c 29 ce 11 3d 5c d4 93 3d
       0.14546879 0.023326112 0.035597 0.07218239
0001d0 cc 68 bb 3c 3f 51 62 3d bd 10 9c bc 22 4e 07 3d
       0.02287712 0.055253264 -0.01905095 0.033033498
0001e0 f4 dc 25 3c f8 1e 41 3b 09 77 fe 3c 94 81 66 ba
       0.01012348 0.0029467922 0.03106262 -0.00087931124
0001f0 5f c6 69 3c f4 bd 48 3c 5b 95 fb bc f8 d6 aa 3c
       0.014268487 0.01225232 -0.030710867 0.020854458
000200 a2 9c cb 3c 26 2d 38 3c 54 da d7 3c 90 0a b3 3c
       0.024854962 0.011241233 0.026349224 0.021855623
000210 5d c2 3f bc cb d7 e2 3c df fc b4 bb 08 5e d1 bc
       -0.011704055 0.027690789 -0.0055233086 -0.025557533
000220 f0 f7 a3 3a 0d 26 b0 bc e9 84 41 3d f3 23 48 3c
       0.0012509804 -0.021502519 0.047245894 0.012215602
000230 cd 6c f9 bc 45 ad 14 3c 50 58 e2 3c 23 4b 29 bd
       -0.030447388 0.009074514 0.027630001 -0.04133142
000240 8b 60 a7 3c 01 ef 44 bb a5 a1 8a 3b c5 57 c5 3c
       0.020431777 -0.0030049684 0.0042306953 0.024089703
000250 b5 a9 8d bc 51 5e e4 3c 89 df ee 3b f4 89 51 bd
       -0.017292837 0.027877005 0.007289831 -0.051156953
000260 80 73 04 bd 83 4c 12 3b d0 d4 8c bc 0c 9d 96 3c
       -0.032336712 0.0022323437 -0.01719132 0.018385433
000270 1f e2 44 3d c3 bd 1f 3d 1c 92 36 bd 74 39 cd bc
       0.04806721 0.03899933 -0.044572935 -0.02505181
000280 da 9c 89 3c 7e 77 eb bc c4 77 8f bc 6f f7 ad 3c
       0.016798425 -0.028743502 -0.017513163 0.02123615
000290 82 0f bc bc 8f a2 b2 3c 4c 7d 36 bd 8b 90 1a 3d
       -0.022956613 0.02180603 -0.044553086 0.037735503
0002a0 a4 f2 2d 3d 10 87 e7 bc f6 c8 f0 3c 21 c8 59 bd
       0.04246773 -0.028262645 0.0293927 -0.053169373
0002b0 ba a7 ca 3c 3c de ed 3c 80 da 17 3c e1 95 f8 3c
       0.024738181 0.029036634 0.009268403 0.030344905
0002c0 c3 53 9a bc ab b0 d4 3c 27 d2 40 3d f4 f5 e5 bc
       -0.018838769 0.025963148 0.047075417 -0.028071381
0002d0 5e d6 10 bd 90 32 ac bc 29 fa c2 3b e4 ec 21 bd
       -0.035360686 -0.021020204 0.0059502316 -0.039532557
0002e0 96 ee 14 3c 0d d4 1b bd 16 2e f7 3c 01 c1 83 3c
       0.009090086 -0.038044024 0.030173343 0.016083242
0002f0 b6 97 31 3d 93 ae 34 bd 28 37 16 bc ff 6e 06 bd
       0.043357573 -0.0441118 -0.009168424 -0.032820698
000300 45 be 26 bc 50 0d 4a 3c a1 78 10 bc df 91 04 bb
       -0.0101772 0.0123322755 -0.008817823 -0.0020228548
000310 cb 61 0c bd a9 4b 54 bc cc c2 a2 bd 64 49 30 bd
       -0.03427295 -0.012957492 -0.07947311 -0.04303874
000320 69 ec 33 bb e8 09 ca bc 76 d0 a4 3b 30 f8 6c 3b
       -0.0027454144 -0.024662927 0.0050297333 0.0036158673
000330 4a 4d 7a bc e0 3c 02 3f b4 84 82 3c a9 ef 6f 3e
       -0.015277216 0.5087414 0.015932418 0.23431267
000340 e0 e0 88 bc 7c 1c e8 bb 33 66 32 3c 0f 53 b1 b9
       -0.016708791 -0.0070834737 0.010888624 -0.00033821954
000350 97 5d 77 bb 2d 66 02 bd bc 00 df 3d e3 9a 90 3c
       -0.0037744993 -0.031835724 0.10888812 0.01765198
000360 ce 4f 68 bd da e7 77 3d 43 2b 9a 3a 0a 93 87 3b
       -0.056716733 0.060523845 0.001176216 0.0041374015
000370 2e d2 d7 3c 04 c6 01 3d ab d5 02 3d 5c 76 35 bd
       0.026345339 0.031682983 0.03194205 -0.04430233
000380 29 e3 c2 39 10 a4 3c 3b a0 d1 44 bd f9 59 69 bd
       0.0003717181 0.0028784312 -0.048051476 -0.05697057
000390 12 6e c0 bb c9 fa a9 bc 40 70 af 3b f4 bc 32 3c
       -0.0058724964 -0.020749466 0.0053539574 0.010909308
0003a0 c7 14 84 3c 43 c4 97 bb a5 b7 b5 3d 2a 50 89 3e
       0.016123189 -0.0046315505 0.08872918 0.26818973
0003b0 25 ac 5c bc aa 9a 85 ba a4 b9 7a bc 11 d5 02 bb
       -0.013468777 -0.0010193188 -0.015303049 -0.0019963423
0003c0 b2 b0 26 3d 70 36 be 3c 83 88 d7 ba cf b1 94 3c
       0.040695854 0.023219317 -0.0016443882 0.018151192
0003d0 ad 2e 0a bd 40 3c af 3c 96 74 ea bc e8 1d 75 3c
       -0.03373592 0.021391034 -0.028620046 0.0149607435
0003e0 8d 2f ce 3c 01 7e ae bb f6 75 57 3a 19 be 75 bc
       0.025169158 -0.0053250794 0.00082191767 -0.014998936
0003f0 b1 5e 53 3a 54 ab cb 3c 2e 46 1a bd 4f a5 06 3c
       0.00080631213 0.024861969 -0.037664585 0.008218124

bias_hh_l0 f4 [256]
000000 1f 21 0e 3c f2 dd 44 3b 47 dc 94 3b cf b5 87 3c
       0.008674889 0.0030039516 0.0045428607 0.016566185
000010 bf 42 17 bd 35 50 78 3b 3c c1 a2 bd e2 97 c4 bc
       -0.03692889 0.0037889604 -0.07947013 -0.023998205
000020 0e 06 87 ba 5c 70 77 bc 93 76 2e 3d 12 7c 85 bb
       -0.0010301487 -0.015102472 0.04259355 -0.004073628
000030 c3 ad da bb ae 87 f0 3e 7d 56 b6 bc 37 57 0d 3d
       -0.006673546 0.46978515 -0.022258038 0.034507003
000040 3a db 7c 3a 66 8f 1b ba 64 bb ff ba 7f 72 56 3c
       0.00096457044 -0.0005934149 -0.0019510803 0.013088821
000050 71 41 e3 bb 85 a2 db bc cb f0 15 3d 90 f9 65 3d
       -0.0069352915 -0.026810894 0.03660659 0.056146204
000060 ab c6 56 bd d5 60 97 3d d4 75 9e 3c e1 f3 03 3c
       -0.05243556 0.07391516 0.019343294 0.008053751
000070 5b d1 8c 3d f7 99 84 3c 97 6b 49 3d c6 16 e0 bc
       0.06875869 0.016186697 0.04917487 -0.02735461
000080 c6 a7 72 3c 22 35 87 3b 43 e8 0b bc 27 99 5f bd
       0.014810508 0.004126207 -0.008539262 -0.054589417
000090 fa e8 4c 3b 9b 00 b0 bb d5 7c 1b 3d de d4 08 3d
       0.0031266795 -0.005371166 0.037960846 0.03340613
0000a0 b3 88 2a 3d 3a 5d 4f bb 8a 8b b6 3d 26 8e 2c 3e
       0.041634273 -0.003164126 0.08913334 0.168511
0000b0 09 23 89 bb 3f e3 df 3b d1 66 75 bc 14 37 ac bb
       -0.0041850847 0.00683251 -0.014978127 -0.0052555893
0000c0 fd 7b fb 3c 3e 25 ff 3b 7b 12 36 bc df fb 7f 3d
       0.03069877 0.007786422 -0.0111128045 0.062496062
0000d0 6d 7f cb 38 53 0d b4 bb f2 67 b8 bc 4e b8 75 3d
       9.703529e-05 -0.0054947524 -0.022510502 0.05999022
0000e0 27 36 41 bc 21 07 70 b9 26 f2 b3 3c cc 75 b5 3b
       -0.011792696 -0.0002289084 0.021966051 0.005537724
0000f0 f3 c8 a7 3c 04 11 de 3c 40 6c 59 bd 62 b6 90 3c
       0.020481562 0.027107723 -0.05308175 0.017665092
000100 9c b5 21 3c aa 53 58 3d 49 90 3c 3c 87 67 b7 3b
       0.009869959 0.052814163 0.01150901 0.005597058
000110 b4 56 c4 bc 4c 6e 6e 3b d9 30 1e 3c 00 3b c6 3c
       -0.023967125 0.003638166 0.009655201 0.024198055
000120 63 d4 90 3b 8c 7a c2 bb 8c bd 20 3d 58 c3 1f 3c
       0.0044198497 -0.005935019 0.039243266 0.009751163
000130 15 51 94 3c 43 53 58 3d 3a b5 e2 3c 25 f3 36 3e
       0.01810507 0.05281378 0.027674306 0.1786619
000140 48 38 08 3c a6 de 09 bc fb 13 96 3c 24 ca 36 3c
       0.0083142 -0.0084149 0.018320074 0.0111565925
000150 dc 04 f4 3c e3 3e 2a bd 67 7f 5f 3d 73 21 9d 3d
       0.029787473 -0.04156388 0.05456486 0.076723956
000160 da 51 15 bd 82 63 8e 3d 1b 35 a7 3c 84 b4 95 3b
       -0.036455013 0.06952573 0.020411065 0.0045686383
000170 59 fe 3a 3d 6f 07 38 3d 92 9c c1 3d 5b b4 47 b9
       0.04565272 0.044928964 0.094536915 -0.00019045307
000180 90 69 2a 3c fb 9d 11 3c 71 f0 07 bc 5b e5 f1 bc
       0.010401145 0.008887763 -0.008297072 -0.02952831
000190 8f 58 0b bd 56 c4 94 3c 3c 21 06 3d 46 9f e9 3c
       -0.034020003 0.018160027 0.03274654 0.02851833
0001a0 cf fe 39 3d 48 4b f3 3c 84 27 81 3d 06 88 16 3e
       0.04540902 0.029698983 0.06306365 0.14700326
0001b0 81 5c 98 bb 3b 43 4c 3c 97 df 6c bc 6c 31 8b bb
       -0.004649699 0.012467201 -0.014457605 -0.004247835
0001c0 c5 f5 14 3e 67 16 bf 3c 29 ce 11 3d 5c d4 93 3d
       0.14546879 0.023326112 0.035597 0.07218239
0001d0 cc 68 bb 3c 3f 51 62 3d bd 10 9c bc 22 4e 07 3d
       0.02287712 0.055253264 -0.01905095 0.033033498
0001e0 f4 dc 25 3c f8 1e 41 3b 09 77 fe 3c 94 81 66 ba
       0.01012348 0.0029467922 0.03106262 -0.00087931124
0001f0 5f c6 69 3c f4 bd 48 3c 5b 95 fb bc f8 d6 aa 3c
       0.014268487 0.01225232 -0.030710867 0.020854458
000200 a2 9c cb 3c 26 2d 38 3c 54 da d7 3c 90 0a b3 3c
       0.024854962 0.011241233 0.026349224 0.021855623
000210 5d c2 3f bc cb d7 e2 3c df fc b4 bb 08 5e d1 bc
       -0.011704055 0.027690789 -0.0055233086 -0.025557533
000220 f0 f7 a3 3a 0d 26 b0 bc e9 84 41 3d f3 23 48 3c
       0.0012509804 -0.021502519 0.047245894 0.012215602
000230 cd 6c f9 bc 45 ad 14 3c 50 58 e2 3c 23 4b 29 bd
       -0.030447388 0.009074514 0.027630001 -0.04133142
000240 8b 60 a7 3c 01 ef 44 bb a5 a1 8a 3b c5 57 c5 3c
       0.020431777 -0.0030049684 0.0042306953 0.024089703
000250 b5 a9 8d bc 51 5e e4 3c 89 df ee 3b f4 89 51 bd
       -0.017292837 0.027877005 0.007289831 -0.051156953
000260 80 73 04 bd 83 4c 12 3b d0 d4 8c bc 0c 9d 96 3c
       -0.032336712 0.0022323437 -0.01719132 0.018385433
000270 1f e2 44 3d c3 bd 1f 3d 1c 92 36 bd 74 39 cd bc
       0.04806721 0.03899933 -0.044572935 -0.02505181
000280 da 9c 89 3c 7e 77 eb bc c4 77 8f bc 6f f7 ad 3c
       0.016798425 -0.028743502 -0.017513163 0.02123615
000290 82 0f bc bc 8f a2 b2 3c 4c 7d 36 bd 8b 90 1a 3d
       -0.022956613 0.02180603 -0.044553086 0.037735503
0002a0 a4 f2 2d 3d 10 87 e7 bc f6 c8 f0 3c 21 c8 59 bd
       0.04246773 -0.028262645 0.0293927 -0.053169373
0002b0 ba a7 ca 3c 3c de ed 3c 80 da 17 3c e1 95 f8 3c
       0.024738181 0.029036634 0.009268403 0.030344905
0002c0 c3 53 9a bc ab b0 d4 3c 27 d2 40 3d f4 f5 e5 bc
       -0.018838769 0.025963148 0.047075417 -0.028071381
0002d0 5e d6 10 bd 90 32 ac bc 29 fa c2 3b e4 ec 21 bd
       -0.035360686 -0.021020204 0.0059502316 -0.039532557
0002e0 96 ee 14 3c 0d d4 1b bd 16 2e f7 3c 01 c1 83 3c
       0.009090086 -0.038044024 0.030173343 0.016083242
0002f0 b6 97 31 3d 93 ae 34 bd 28 37 16 bc ff 6e 06 bd
       0.043357573 -0.0441118 -0.009168424 -0.032820698
000300 45 be 26 bc 50 0d 4a 3c a1 78 10 bc df 91 04 bb
       -0.0101772 0.0123322755 -0.008817823 -0.0020228548
000310 cb 61 0c bd a9 4b 54 bc cc c2 a2 bd 64 49 30 bd
       -0.03427295 -0.012957492 -0.07947311 -0.04303874
000320 69 ec 33 bb e8 09 ca bc 76 d0 a4 3b 30 f8 6c 3b
       -0.0027454144 -0.024662927 0.0050297333 0.0036158673
000330 4a 4d 7a bc e0 3c 02 3f b4 84 82 3c a9 ef 6f 3e
       -0.015277216 0.5087414 0.015932418 0.23431267
000340 e0 e0 88 bc 7c 1c e8 bb 33 66 32 3c 0f 53 b1 b9
       -0.016708791 -0.0070834737 0.010888624 -0.00033821954
000350 97 5d 77 bb 2d 66 02 bd bc 00 df 3d e3 9a 90 3c
       -0.0037744993 -0.031835724 0.10888812 0.01765198
000360 ce 4f 68 bd da e7 77 3d 43 2b 9a 3a 0a 93 87 3b
       -0.056716733 0.060523845 0.001176216 0.0041374015
000370 2e d2 d7 3c 04 c6 01 3d ab d5 02 3d 5c 76 35 bd
       0.026345339 0.031682983 0.03194205 -0.04430233
000380 29 e3 c2 39 10 a4 3c 3b a0 d1 44 bd f9 59 69 bd
       0.0003717181 0.0028784312 -0.048051476 -0.05697057
000390 12 6e c0 bb c9 fa a9 bc 40 70 af 3b f4 bc 32 3c
       -0.0058724964 -0.020749466 0.0053539574 0.010909308
0003a0 c7 14 84 3c 43 c4 97 bb a5 b7 b5 3d 2a 50 89 3e
       0.016123189 -0.0046315505 0.08872918 0.26818973
0003b0 25 ac 5c bc aa 9a 85 ba a4 b9 7a bc 11 d5 02 bb
       -0.013468777 -0.0010193188 -0.015303049 -0.0019963423
0003c0 b2 b0 26 3d 70 36 be 3c 83 88 d7 ba cf b1 94 3c
       0.040695854 0.023219317 -0.0016443882 0.018151192
0003d0 ad 2e 0a bd 40 3c af 3c 96 74 ea bc e8 1d 75 3c
       -0.03373592 0.021391034 -0.028620046 0.0149607435
0003e0 8d 2f ce 3c 01 7e ae bb f6 75 57 3a 19 be 75 bc
       0.025169158 -0.0053250794 0.00082191767 -0.014998936
0003f0 b1 5e 53 3a 54 ab cb 3c 2e 46 1a bd 4f a5 06 3c
       0.00080631213 0.024861969 -0.037664585 0.008218124

weight_ih_l1 f4 [256, 64]
000000 8b 61 f3 3d 6d 2b 92 bd b2 b8 c9 bd 39 be 03 3e
       0.11883839 -0.07137189 -0.09849681 0.12865533
000010 6a 63 61 bb fc 01 ce 3d 63 aa d5 bd e6 25 b8 bd
       -0.003439153 0.10058972 -0.10432889 -0.089916036
000020 39 6b 18 3e 22 f8 90 3d bf 2f 46 3e b3 09 8e 3d
       0.14884652 0.070785776 0.19354151 0.06935444
000030 e3 15 00 be 2e b7 a6 3e f9 7d a4 bd b4 9f c1 be
       -0.12508349 0.3256163 -0.0803184 -0.37817156
000040 3d 9d 8d 3c 6e bb 53 3d b8 57 bb 3d 4e 4a 5f 3c
       0.017286891 0.05169242 0.091475904 0.013628555
000050 e3 0b 83 3d 27 d9 2b 3e c1 fe 1b be 6d ce 0d be
       0.063987516 0.16782056 -0.152339 -0.13848276
000060 73 14 dc bb 94 93 77 3e 4b 6b 06 be c6 0d c8 3d
       -0.006716305 0.2417739 -0.13126867 0.09768252
000070 41 9c 08 3e 03 40 2a 3e ad db bb bd f3 32 c3 bd
       0.13340856 0.16625981 -0.09172759 -0.09531202
000080 ba 06 e7 bd 8a 7d 09 be ff 5f 22 be b5 40 cb 3c
       -0.1128058 -0.13426796 -0.15856932 0.024811128
000090 24 54 fa bd 3d d3 ee bd c6 66 62 bc 97 1a ab 3d
       -0.1222308 -0.11661384 -0.013818448 0.08354681
0000a0 2c 55 84 3d 09 f4 fb 3d 12 b3 ec 3d 4a 65 f9 bd
       0.06461558 0.123024054 0.115575925 -0.121775225
0000b0 d6 57 13 3e 4a 1b b1 bd 8e cb 83 3d cf bd 0a 3d
       0.14388976 -0.08647783 0.06435309 0.03387242
0000c0 e5 c5 f4 bd 0a 35 57 3d a4 f2 2a bd 3d 64 12 3d
       -0.11951808 0.052540816 -0.041735306 0.035740126
0000d0 3b d8 d6 bd c1 36 a6 3d 0c 03 cf 3d 57 18 b9 3d
       -0.104904614 0.08115912 0.10108003 0.090378456
0000e0 dd 9e b8 3d f9 99 10 be bb 40 f0 3d 1c ac f6 bc
       0.09014676 -0.14121236 0.11731096 -0.030111365
0000f0 68 28 b0 3d 71 9b d3 3d e7 22 f3 3b 64 ad a2 bc
       0.08601457 0.103323825 0.007419932 -0.01985807
000100 2d bc 2c 3e 3a a7 ca 3c 38 7f a1 3e 4b 2a 58 3e
       0.16868658 0.024737943 0.31542373 0.21109883
000110 0e 66 57 bd bf 55 88 3e 73 1f 14 be 49 bc 2d be
       -0.05258756 0.2662792 -0.14465122 -0.16966356
000120 d2 f5 29 3e f7 09 49 be 7f 2d b9 3d 69 f2 e5 bd
       0.1659768 -0.19632708 0.09041881 -0.11227877
000130 b0 2d 5a be 70 8c 03 bf 67 1f 64 bc b3 65 9e bc
       -0.21306491 -0.51386166 -0.0139235025 -0.019335603
000140 ee 8c e2 3d a7 e0 58 3d 54 91 ff 3d 52 b4 47 3e
       0.110620365 0.05294862 0.12478891 0.1950238
000150 25 66 60 be f9 07 d8 3c 55 51 38 be 60 fd 15 be
       -0.21913965 0.02637099 -0.17999776 -0.14647436
000160 64 2e 94 bd 57 ff 0b bc cc 1e a2 3d 49 2c 63 3e
       -0.07235411 -0.0085447645 0.0791603 0.22184862
000170 4d fd 58 3e 7e 8c da 3d 4a 76 99 bd 02 ad 17 be
       0.21190377 0.10671328 -0.07493265 -0.14812091
000180 96 28 05 3e cc ee 8e be 7a d4 f3 bd 31 e7 22 3e
       0.13003764 -0.27916563 -0.11905761 0.15908505
000190 f4 d6 94 bc 46 66 29 3e 3f 19 95 be 17 a0 7d 3e
       -0.018168904 0.1654292 -0.29120824 0.247681
0001a0 07 2f a5 3d 01 5e 86 be 1a 9a bf 3d 64 01 4c be
       0.080656104 -0.26243594 0.093555644 -0.19922405
0001b0 be 30 4c 3d bf 35 2c 3e c3 5d 30 3c d0 47 b5 3c
       0.04985117 0.16817378 0.010764542 0.02212897
0001c0 67 5e da bd 53 b0 a6 3e 1b 2c 07 3e 26 2e 5d be
       -0.10662537 0.325564 0.13200419 -0.21599635
0001d0 b9 ac 34 be c8 49 23 bd 73 51 15 bb c0 6b ba be
       -0.17644013 -0.039865285 -0.0022784143 -0.36410332
0001e0 51 f5 dd 3e ea cb 12 be 3d a0 46 3e 7f f3 49 3d
       0.43351224 -0.143356 0.19397064 0.04930448
0001f0 aa 9c e9 3d ac 74 30 3e 25 05 18 bd 60 b3 2e be
       0.114068344 0.17232007 -0.03711428 -0.17060614
000200 7a 35 04 bd 0d a0 00 3c 9c df 0c 3e ba 63 8c 3d
       -0.03227756 0.007850659 0.13757175 0.06854959
000210 85 b2 77 bd 68 55 59 3d e2 db f9 bd 14 09 1f be
       -0.060472984 0.053059965 -0.122001424 -0.15530807
000220 6e bb 10 3e ef f6 15 be 72 cf 0f 3d 55 f7 44 3d
       0.14133999 -0.14644979 0.035109945 0.048087437
000230 d8 19 a1 3d b4 3a d2 3e e7 f8 cd 3d db 96 e6 3e
       0.078662574 0.41060412 0.1005724 0.4503697
000240 31 f5 2d 3e c5 27 1d 3e f0 75 cf bc b6 2c 8f 3e
       0.16988064 0.15347202 -0.025324792 0.279638
000250 a1 bd 16 be b8 33 6b bd a0 61 fb bd 25 6d 19 be
       -0.14720775 -0.05742237 -0.1227448 -0.14983042
000260 02 26 15 bd ce d0 be be 0b 2a 2f be ca 0c b7 3c
       -0.0364132 -0.3726868 -0.17105882 0.022344965
000270 8e 17 1d 3e 41 97 9b bb 1c 79 2d 3d ee 4c bd 3d
       0.15341017 -0.0047482555 0.042351827 0.09243189
000280 49 da b9 3b b2 9b 9f 3d ef cc 99 3c 4a de 94 3d
       0.0056717736 0.077933684 0.018774478 0.07268961
000290 e9 e2 ff bc a2 81 11 3e 9d 74 98 3d 69 cf b5 3c
       -0.031236129 0.14209607 0.07444117 0.022193627
0002a0 d7 22 c5 bb 30 ff 56 bc af ec d7 3d 22 90 13 3c
       -0.006016116 -0.013122365 0.10543191 0.009006532
0002b0 b1 92 3f 3e 21 6f 03 3e e3 d1 38 3e 86 04 a4 bc
       0.18708302 0.12835361 0.18048815 -0.020021688
0002c0 9b 9b cd 3d d7 80 f9 bc 2c 2e a3 bc e0 b5 73 be
       0.10039445 -0.030456943 -0.019919477 -0.23799849
0002d0 d4 21 26 be 94 ef 5e bd 93 f0 4f bd 42 ed ae bd
       -0.16223842 -0.0544277 -0.05076654 -0.08541347
0002e0 b2 61 0e 3d bf 40 1e bd 62 a7 0b 3a 3c 46 81 3d
       0.03476114 -0.038635965 0.0005327371 0.06312224
0002f0 17 30 2f bc ba d0 e4 bb 82 64 67 be 5e 06 72 bd
       -0.010692618 -0.00698289 -0.22596934 -0.059088103
000300 4b 89 be 3d 47 7d 91 3e 25 31 af 3d 88 45 96 bd
       0.0930353 0.28415892 0.085542955 -0.07337481
000310 3e 78 0d be ec 84 ec bc 9e 33 0e be d7 75 18 be
       -0.138154 -0.028871976 -0.13886878 -0.14888702
000320 5d 9e ab bd 34 d9 b3 bd 84 19 26 3e 98 0c f1 3d
       -0.08379815 -0.087816626 0.16220671 0.1176998
000330 dd 9e 8d bd 82 75 cd be 4a 11 bd bd 69 e5 e9 3d
       -0.069150664 -0.40128714 -0.09231813 0.1142071
000340 b5 52 41 3e 1f fa 77 3d 8f dd 2e 3d b4 14 99 3d
       0.18879206 0.06054127 0.042691763 0.07474652
000350 cb f9 15 be e7 05 35 3d 38 59 04 bc 0b 41 a1 bd
       -0.1464607 0.044195082 -0.008077912 -0.07873734
000360 85 31 d4 bc 9f 97 8a bd b2 83 3e bc 26 3d d0 3c
       -0.025902519 -0.06767201 -0.011628078 0.025419783
000370 7d 97 3f 3e e8 2c 3b bc 63 a8 1b be 0e ce 08 be
       0.18710132 -0.011424281 -0.15200953 -0.13359854
000380 fc 40 0d 3e 4e d6 bf bd e1 6f af 3d 24 81 40 3d
       0.13794321 -0.09367047 0.08566261 0.046998158
000390 74 d8 bb bd 91 ad cd 3b 90 0f e3 3c 68 09 bc 3c
       -0.091721445 0.0062767942 0.027717382 0.022953704
0003a0 41 f3 74 bd 7d a5 94 bc ba c6 ad bd 47 a6 15 3c
       -0.059802298 -0.018145317 -0.0848517 0.009133882
0003b0 df 5c 1f 3c b7 40 83 bd 10 bc 9e 3d d5 92 2f bd
       0.009726732 -0.06408828 0.07750714 -0.04286464
0003c0 3f 5c 38 bd 16 73 f8 3d 04 84 aa bc 1e e0 a9 bd
       -0.045009848 0.12131326 -0.020814903 -0.082947
0003d0 eb ff 11 3d 1d 70 f9 3c a3 7e 1b ba b7 e7 20 be
       0.035644453 0.030448968 -0.0005931651 -0.15713392
0003e0 36 59 d8 3d 84 9d da bd 7c 88 8a 3d e5 91 2f 3d
       0.10563891 -0.10674575 0.067643136 0.042863745
0003f0 64 07 1e bd 8e 72 2e 3e 33 bd 70 bd 74 a7 57 bc
       -0.038581267 0.17035887 -0.058774184 -0.0131624825

weight_hh_l1 f4 [256, 64]
000000 b4 97 ca bc 6b 88 01 bb 0f 83 38 bd 19 9c 3f 3c
       -0.02473054 -0.001976515 -0.045046862 0.011694931
000010 f4 3b ac bd 03 58 00 bd cc c6 18 3e 05 13 18 3c
       -0.08409873 -0.031333935 0.14919585 0.009281878
000020 78 76 67 3c 94 9e 83 bd 3c ad ad bd f8 93 2c be
       0.014127366 -0.06426731 -0.084803075 -0.1685332
000030 b5 b2 be 3d 4d 82 7f 3d 54 09 93 3c a8 84 03 bd
       0.093114294 0.062380124 0.017948784 -0.032108933
000040 66 22 ba bd 2b 53 d2 3b 0d da b3 bd 0d b2 8f bc
       -0.09088592 0.006418606 -0.08781824 -0.017540956
000050 31 9c 34 3d d2 11 af bd d5 a8 c6 3d f0 7d 00 be
       0.04409427 -0.08548321 0.09700171 -0.12548041
000060 1a f8 26 bd 2f 58 8f bd 5d 89 65 bd aa 5b 63 bd
       -0.04076395 -0.069992416 -0.056039203 -0.05550734
000070 a0 0e 53 3c b2 be 54 bd 94 31 22 3d 1a f7 99 bb
       0.012881905 -0.051939674 0.039598063 -0.0046986463
000080 00 cc 84 3d 11 99 53 bd 9f 7d 25 bc 6c e5 97 bc
       0.064842224 -0.051659647 -0.010100751 -0.018542014
000090 e5 6e 57 bc e9 18 83 bc 13 f0 0d bd 4a 5a 96 3d
       -0.013148998 -0.016003089 -0.03465278 0.0734144
0000a0 45 73 c6 3d b6 fd 6d bd a9 88 04 be 48 de a0 3c
       0.09689955 -0.058103286 -0.12942757 0.019637242
0000b0 28 a4 d1 bc 4e 6c 88 3d 70 30 ce 3b 37 45 c9 3d
       -0.025590971 0.066612825 0.0062923953 0.09827655
0000c0 cc 5a f0 bc 86 67 0c bc 95 74 06 3e ca 61 a9 bd
       -0.02934017 -0.008569604 0.1313041 -0.08270605
0000d0 dc 17 03 3e 1c 44 fd bd a1 b3 1c bd b8 3e 09 3d
       0.1280207 -0.123665065 -0.038257245 0.03350708
0000e0 8f 01 91 3c 66 3f f4 3c 98 bc 89 3a be 88 0f bd
       0.017700939 0.029815387 0.0010508476 -0.035042517
0000f0 96 c1 83 bd 70 a6 e8 bc 8c 98 65 3e 36 c8 01 3e
       -0.06433408 -0.028399676 0.22421473 0.1267403
000100 67 5c 75 be 00 12 8f 3d 6c 79 0c be de 50 10 3d
       -0.2396103 0.06985855 -0.13718194 0.03523337
000110 1a c5 29 be f7 ea 75 be 5d 8f 8d 3d 30 3e f5 bd
       -0.16579095 -0.24015413 0.0691211 -0.11974752
000120 95 5d 11 3e f1 16 64 bd 95 c8 59 3c 53 e8 dd 3c
       0.14195855 -0.05568594 0.013292451 0.02708832
000130 8d b1 6c bd 47 a8 70 3d eb bd dc 3d 53 47 a3 bd
       -0.057786513 0.05875423 0.107784115 -0.079725884
000140 c7 db 0f 3d b1 39 d9 3d 27 bd 4d 3d fb 46 f6 bd
       0.035121705 0.10606707 0.050229218 -0.12025257
000150 a8 82 c5 3d 66 c6 00 bf 32 42 92 3d 80 5a b6 bc
       0.09644061 -0.5030273 0.07141532 -0.02225995
000160 a5 a4 d8 bd b7 0b b4 3b e4 5c 4b bd c1 47 68 3d
       -0.105782785 0.0054945606 -0.049649134 0.056709055
000170 ca 97 0b be 5e ff 84 bd 28 81 4b bb 97 6c 60 3d
       -0.13632122 -0.0649402 -0.0031052325 0.05479106
000180 66 c4 b0 bd b3 17 77 3d a7 eb d1 3d 42 a7 4c 3e
       -0.0863121 0.060325336 0.10250025 0.19985679
000190 49 8b 84 3d 80 60 1e bd 2b 8d 9e 3e 57 0b 34 3e
       0.06471879 -0.03866625 0.30967078 0.17582451
0001a0 b5 2d d6 bd 86 dc 9a bb 2d 9d 5f bd 5f fa d0 bd
       -0.10457937 -0.0047259955 -0.054593254 -0.102040045
0001b0 fc 6c 5a bd 75 85 6d 3d cf d4 4f bd 38 b8 75 3e
       -0.05332659 0.057988603 -0.05074006 0.23996055
0001c0 4e b7 b9 bd ac f2 85 be 5f 17 a0 3d b8 cc 0d be
       -0.09068166 -0.26161706 0.07816958 -0.13847625
0001d0 2b b0 55 be c9 d9 fb bd 9e 93 c9 bc f7 bb 81 be
       -0.20867984 -0.122973986 -0.024606522 -0.25338718
0001e0 db 16 0b be 97 3b ec 3b 04 43 12 bd f7 32 2b be
       -0.13582937 0.007209252 -0.035708442 -0.1671866
0001f0 cb b3 20 bc c0 f4 17 39 49 fa cc 3d 21 ba 03 3d
       -0.009808491 0.00014491659 0.100086756 0.03215993
000200 f3 55 f0 bc d5 01 fb bd 83 3c 2c be 80 ed 25 3e
       -0.029337859 -0.12256209 -0.16819958 0.1620388
000210 77 ca 4a bc c9 70 5c bd dd 12 f1 3c 8b 3d 63 bc
       -0.012377373 -0.053818498 0.02942794 -0.013869653
000220 06 6c ac 3d 47 9c 72 be 5b 4f d1 bd c3 3a ca 3b
       0.08419041 -0.23692428 -0.10220214 0.0061715557
000230 34 83 b0 3d 1a b2 0b 3e 82 f1 bd 3d ed dc 0f be
       0.08618775 0.13642159 0.092745796 -0.1404912
000240 55 36 04 3c 94 9f 96 bd 0b 31 89 3d c3 6e 3b bd
       0.008069594 -0.07354656 0.06698807 -0.045759927
000250 33 de 38 3d b4 97 21 be da f3 e4 3c e8 9b 9a bd
       0.04513378 -0.15780526 0.027948309 -0.07549268
000260 46 f2 86 bd 40 90 11 3e cd c5 47 be 22 84 32 3e
       -0.06589179 0.14215183 -0.19509049 0.17433217
000270 5d 8f 03 3d e3 60 37 be e8 3d d6 bc ef 2c 2d ba
       0.032119144 -0.17908053 -0.026152566 -0.0006606122
000280 8c 63 4c bd c3 2c eb 3d 71 30 8e 3b 11 45 a2 3d
       -0.049899623 0.11483147 0.0043392708 0.079233296
000290 f9 a2 60 3d 78 3f 59 bd 56 67 95 3d cc 7f 60 3d
       0.054842923 -0.053039044 0.072951004 0.054809377
0002a0 a3 ed 5b be 8a 3f ff bd a0 83 b2 bd 5b 77 5e be
       -0.2147737 -0.12463291 -0.08716512 -0.21725218
0002b0 ed 74 5e be cb 0b 18 3e e9 92 32 3d 18 2e 35 3e
       -0.21724291 0.14848249 0.043597136 0.17693365
0002c0 a0 16 4b bd 0e 80 38 be 09 26 a5 3c cc c2 6a be
       -0.049582124 -0.18017599 0.020159738 -0.22925872
0002d0 21 e3 ab bd 60 96 18 3c 84 37 ab 3d f6 fc 65 be
       -0.08392931 0.009313196 0.08360198 -0.22459778
0002e0 ad 90 f2 bb db c4 8f bd 55 d6 c6 3d 69 14 98 bd
       -0.0074025006 -0.07019969 0.09708849 -0.07425768
0002f0 87 87 57 3d 45 e1 4c 3d 83 ed 15 3e 5e 2f 76 3e
       0.052619483 0.05001952 0.14641385 0.24041507
000300 36 f0 29 bd 8b af 82 3c 64 cf c3 bb 69 d7 95 3d
       -0.04148885 0.015952846 -0.0059756506 0.07316477
000310 11 88 0f 3c 3c e4 14 be c9 3f 30 3e 92 8f 6c bd
       0.008760468 -0.1454019 0.17211832 -0.057754107
000320 ac 31 16 3d 09 f0 33 3c 0e b3 55 3d 91 02 32 bd
       0.036668465 0.010982522 0.052172713 -0.04345948
000330 f8 ac f9 3d b5 2f 82 bd 2d 5a 52 3c 4c 87 a5 bd
       0.12191194 -0.06356756 0.012838882 -0.080824465
000340 15 89 91 bc a5 9e 6c bc d6 5e fa ba ea aa cc bd
       -0.017765561 -0.014442121 -0.001910175 -0.09993537
000350 81 ce a4 3d 6e 34 98 bd 94 dd 47 bd 97 6d 36 3c
       0.080472 -0.07431875 -0.048795298 0.011134527
000360 57 8e e4 bd 1c 97 c4 3d 2a 91 7d 3c 6d 34 91 bd
       -0.11159962 0.09599134 0.015476504 -0.070900775
000370 8e aa 9d 3d 85 df 04 3d 27 00 09 3c ee 40 ce 3b
       0.07698546 0.032439727 0.008361853 0.0062943613
000380 12 b3 0c 3d 9f 0c 16 3e 77 5f a5 bc be ee 8d 3c
       0.034350462 0.14653252 -0.020187123 0.017325755
000390 a0 f0 4c bd 45 e9 20 3d 39 23 d8 3d 26 6d 24 bd
       -0.050034165 0.039284963 0.10553593 -0.040143155
0003a0 4f 56 f1 3d a9 8a ab 3d ee 49 9b bb 93 58 a2 bd
       0.1178404 0.08376057 -0.0047390377 -0.079270504
0003b0 8e 08 94 3c b3 c6 81 3d ab f5 e8 bb 90 a6 26 3e
       0.018070485 0.06336727 -0.007109364 0.16274476
0003c0 94 e0 e8 3c e3 93 27 be 3b df d6 3c 30 2a 25 bd
       0.0284274 -0.16365008 0.026229491 -0.040323436
0003d0 68 45 0f bc 0d e0 38 be aa f4 a6 3d 1a 85 42 3d
       -0.008744575 -0.18054219 0.08152135 0.047490217
0003e0 8e 40 02 bb a0 64 6d 3c d0 ef 99 37 d3 4b 44 bc
       -0.0019874903 0.014489323 1.8350693e-05 -0.0119809685
0003f0 0f 59 18 3d b8 98 ad bd 0a 0e 9a bc 0b c2 23 3d
       0.037194308 -0.084763944 -0.018805522 0.039979976

bias_ih_l1 f4 [256]
000000 34 a0 21 3d d2 fc 39 3e e9 c6 c9 3d fb 5f a6 3d
       0.039459422 0.1816285 0.09852392 0.081237756
000010 6c 61 6f 3e 99 8f 8f bb a3 b9 d3 3d 69 b9 43 3d
       0.23377007 -0.004381132 0.10338142 0.047784243
000020 7a fd 36 3e 41 86 be 3c d3 0f 43 3d 72 b5 b9 3c
       0.17870131 0.023257377 0.047622513 0.022669528
000030 7f 5b 56 3d 81 42 a3 3c 65 65 03 3d ec b5 91 3c
       0.05233335 0.019929172 0.03207912 0.017786942
000040 4b 11 14 3d d8 73 02 3d fa eb 0c 3d 2b 30 6f 3d
       0.036149304 0.03184876 0.034404732 0.058395546
000050 c3 2c 22 3d d5 9f 34 3e 39 75 cf 3d 90 85 44 3c
       0.03959347 0.17639096 0.1012978 0.011994734
000060 e0 8d 9f 3d 10 bc 07 3d b7 52 b6 3c 28 8f ab 3b
       0.077907324 0.033138335 0.022256238 0.0052355714
000070 b7 7c 0d 3d 48 34 7c 3d ff ed b5 3c cf f4 33 3c
       0.034542765 0.061573297 0.022208212 0.01098366
000080 8d 9b 22 3d a6 33 91 3d ca 90 9a 3c b3 3b 6f 3d
       0.039699126 0.07089929 0.018867869 0.058406543
000090 75 35 21 3d cd 78 9c bb 81 76 ff 3d 56 da 1c 3e
       0.03935762 -0.0047751428 0.12473775 0.15317664
0000a0 6f de fb 3c dc 45 b0 3c 4b 7e 54 bc 22 d2 9f 3c
       0.030745713 0.021517687 -0.012969564 0.019509379
0000b0 47 91 4f 3e 88 e9 95 3d f9 94 61 3d d7 1c 55 3d
       0.20270263 0.07319933 0.055073712 0.052029457
0000c0 66 1b 2d 3d 06 68 1a 3d 6b 7a 35 3d f4 a1 26 3d
       0.042262457 0.03769686 0.0443062 0.040681794
0000d0 da ba 74 3d 94 f8 f2 3d 5e f9 12 3c da aa 03 bb
       0.059748508 0.11863819 0.008970587 -0.002009085
0000e0 d9 cd 51 3c 97 6c 54 3d f5 59 0a 3d 7a 8e 18 3d
       0.012805426 0.05186137 0.033777196 0.03724525
0000f0 69 7c 6e 3d 36 b0 66 3d c6 94 28 3d 5d 16 bd 3d
       0.058224116 0.05632039 0.041157506 0.09232781
000100 55 d4 45 3d 6a b8 23 3d e1 c5 34 3d b3 27 a2 3d
       0.0482982 0.039970793 0.044134025 0.07917728
000110 03 e0 d3 3d 22 6e 2e 3d 42 b8 c8 3d a6 6e a6 3c
       0.10345461 0.0425855 0.098007694 0.020316433
000120 37 66 f2 3d 63 7c 00 3b d6 b0 b9 3c cd b9 bb 3c
       0.11835902 0.001960539 0.02266733 0.022915745
000130 08 e4 9a 3d 7c 07 4a 3c 34 77 ad 3c 76 2f 14 3d
       0.07563025 0.012330886 0.021175005 0.036178075
000140 46 32 61 3d 23 a5 5c 3d 25 3f 52 3c 9a a4 8a 3d
       0.054979585 0.053868424 0.012832438 0.067696765
000150 62 e3 83 3d d8 d7 03 3e 29 05 a7 3d 44 ea 8e 3c
       0.06439854 0.12875307 0.08155281 0.01744569
000160 1a 8a a7 3d b5 f8 00 3d 8c 04 d5 3c e6 3f 2d 3d
       0.08180638 0.031487186 0.026003145 0.042297266
000170 f9 70 7b 3d 28 f4 a3 3d 95 0e 8e 3c e0 d6 1b 3c
       0.061387036 0.080055535 0.017340938 0.009511679
000180 39 34 3d 3d 0d 0c 1e 3d 5d 6f a2 3c ce 72 59 3d
       0.04619238 0.03858571 0.019828493 0.053088002
000190 dd 4d 5e 3d 22 11 1f bc f9 dc 48 3c 2a 84 1f 3d
       0.054273475 -0.009708675 0.012259715 0.0389444
0001a0 e3 a3 37 3c e9 dd 15 3d 8e 8d 1a bc 96 af 12 3b
       0.011208507 0.036588583 -0.009433163 0.002238249
0001b0 87 b1 e7 3d 18 97 a0 3d e1 19 14 3d 21 9b 0a 3d
       0.113131575 0.07841319 0.036157493 0.03383935
0001c0 23 ce b8 3c 03 52 7f 3c 8e 59 42 3d b8 00 bd 3c
       0.022559231 0.015583518 0.047448687 0.023071632
0001d0 64 fc 49 3d e8 43 d5 3d d7 a0 b1 3d 16 31 ad bb
       0.049312964 0.10413343 0.08673256 -0.0052853925
0001e0 fa 75 b3 3c 24 19 ce 3c 34 57 7f 3d b7 7d 29 3d
       0.021906842 0.025158472 0.062339023 0.041379657
0001f0 b8 dd 17 3d e3 6b 45 3d d0 65 29 3d c2 4f 60 3d
       0.03707668 0.048198592 0.04135686 0.054763563
000200 b5 06 88 bc d2 73 2f bc 11 b7 18 bc 3f 6d 2b 3d
       -0.01660476 -0.010708766 -0.00932099 0.041852232
000210 a8 4b 3d bd 22 6f c7 3c 8d 31 75 3d f1 94 10 bd
       -0.04621473 0.024344984 0.05986171 -0.03529829
000220 af 2a d7 ba b9 ce 99 bc a7 4e 71 3c b9 43 bf bc
       -0.0016415919 -0.01877533 0.014728225 -0.023347722
000230 f3 f3 96 3c 7e 8d a8 3c 15 1c 1b 3d 15 e0 cc bc
       0.01842687 0.020575281 0.037868578 -0.025009194
000240 c0 b8 e0 bc 88 e5 4b 3c 4b 76 a2 3c 34 83 32 bb
       -0.027431846 0.012444861 0.019831797 -0.0027238848
000250 d0 4b d2 3c 9a 57 c3 3d fe 92 62 bb 9b 02 49 bd
       0.025670916 0.09538193 -0.0034572477 -0.04907475
000260 5c 30 5e bd d9 92 20 bc ed 3f 7c bc ad 99 0d 3d
       -0.054245338 -0.009800636 -0.0153961005 0.034570385
000270 11 46 66 3d 6d 91 69 bd e1 42 24 3d ec 5d a3 3c
       0.056219164 -0.057023454 0.040102843 0.019942246
000280 4d 27 cb 3c f8 25 54 3c 18 eb e2 bb 76 59 66 3c
       0.024799014 0.012948506 -0.006924998 0.014059415
000290 59 60 9e 3c 98 d9 0f bd d4 08 59 bb ba 52 3c 3d
       0.019333052 -0.035119623 -0.0033116834 0.04597733
0002a0 18 de 2c bd cb ee 33 bd 86 ac b3 3b fd 4e 26 bc
       -0.042203993 -0.043928903 0.005483213 -0.010150668
0002b0 40 80 7e bb 40 af 22 3d a1 42 09 3d 2a c5 60 3d
       -0.0038833767 0.039717913 0.033510808 0.05487553
0002c0 3b 31 31 bd 4f d3 1e bd a2 21 9c 3c 14 c5 47 bd
       -0.04325984 -0.03877574 0.019059006 -0.048771933
0002d0 e2 02 30 bc d0 b7 2f bd 66 ee d6 ba 94 fe 57 bc
       -0.010742875 -0.042899907 -0.0016397953 -0.013183255
0002e0 b8 9f 88 bc 5e 1c 52 bb 31 20 ef 3c f8 5b 97 bc
       -0.016677722 -0.0032060365 0.029190155 -0.018476471
0002f0 59 dc eb 3c 12 16 45 bc 63 4b d4 3c 24 f6 86 bc
       0.028791593 -0.012029188 0.025914853 -0.01647479
000300 91 da 80 bc ba 4a 20 3e 58 1c c9 3d ed 63 5f 3d
       -0.01572922 0.15653506 0.09819859 0.054538656
000310 93 19 f4 3d 6a 44 7c 3d 94 9f 0b 3d 86 dd f4 3c
       0.119189404 0.061588682 0.034087732 0.029890787
000320 ca 8d cf 3c 8f fd 24 3d f2 bd a7 3d 35 01 33 3d
       0.025336165 0.040280875 0.08190526 0.043702323
000330 3d 0b 81 3d 54 d5 79 3c 2e ca 9a bc bc e7 d2 3c
       0.06300972 0.015248615 -0.018895235 0.025745265
000340 01 30 10 3d 3a 42 1d 3d e0 0b 2e bc d7 f9 3a 3d
       0.03520203 0.038393237 -0.010622948 0.045648422
000350 0f 61 93 3d 8f e0 01 3e 6b b6 2b 3c b4 71 df 3b
       0.07196247 0.12683319 0.010480504 0.0068189744
000360 79 e7 3a 3d 1a 27 16 3d 5f 21 12 3d a4 33 6e 3d
       0.045630906 0.036658384 0.035676356 0.058154717
000370 0d 02 bb 3c 4e 14 6c bd a3 02 eb 3c b5 76 1b 3b
       0.022828126 -0.05763655 0.02868778 0.0023721878
000380 57 85 f4 3c 8e bc 1a 3d 3b f5 80 3b 7f 41 1b 3d
       0.029848738 0.037777476 0.0039354837 0.03790426
000390 c5 8c 34 3d be 9e 23 3c 12 72 0f 3d cf e2 39 bc
       0.04407956 0.009986578 0.035020895 -0.011345579
0003a0 61 a6 80 3c 7c 50 20 3d 08 ed d7 bb 48 9c 6b 3c
       0.015704336 0.039139256 -0.0065895356 0.014380522
0003b0 2a b0 41 3d 6a be 14 3d 52 15 2d bc f9 48 a2 3c
       0.047287144 0.036314406 -0.010564165 0.019810187
0003c0 c2 14 e2 3c 0e 07 fb 3c 1c 6b b4 3d 02 e8 8c 3c
       0.027597789 0.030643012 0.08809492 0.017200474
0003d0 c0 cd 47 bd 18 ae 09 3e 32 a9 06 3d 43 5e 9c 3c
       -0.048780203 0.13445318 0.0328762 0.019087916
0003e0 9f ca c0 3c df 6b ed 3c 82 41 68 3d 8c 59 04 3d
       0.023534117 0.028982101 0.056703098 0.03231196
0003f0 40 cf 16 3e 56 03 6a 3d 23 8f 04 3d a4 ff a0 bb
       0.14727497 0.057132088 0.03236307 -0.0049132872
