transfer_learning/models/lstm_small.pth (torch, 413992 bytes, 18 tensors)

weight_ih_l0 f4 [256, 3]
0	0xbe060883	-0.13089184
1	0xbcfa1042	-0.03052533
2	0x3d15d4c7	0.036579873
3	0xbcc8b8d8	-0.024502203
4	0x3c12fa67	0.008970833
5	0x3c0ed9d5	0.008718927
6	0xbd7f53d2	-0.062335797
7	0xbdfc303a	-0.12313886
8	0x3dac1be5	0.08403758
9	0x3d4a2b4a	0.04935769
10	0x3e012e55	0.1261533
11	0xbdb3c5a3	-0.087779306
12	0x3d2aa0d9	0.041657303
13	0xbd22d96e	-0.03975814
14	0x3d8b8b52	0.068136826
15	0x3e14c71e	0.14529082
16	0xbca2fcfa	-0.01989602
17	0x3c6c75c6	0.014432376
18	0xb9adcf98	-0.000331518
19	0x3dcf0568	0.10108453
20	0x3d8876da	0.06663294
21	0x3d46036c	0.048343107
22	0xbdcd65ea	-0.10029204
23	0xbb0c94a3	-0.00214509
24	0xbdf0defe	-0.117612824
25	0x3e20495a	0.15652981
26	0x3dd1354b	0.10215243
27	0xbdc090ee	-0.09402643
28	0xbdce5c0d	-0.10076151
29	0xbe09693e	-0.13419053
30	0x3d874d8d	0.066065885
31	0x3e105d5a	0.14098111
32	0xbd8ae150	-0.06781256
33	0x3e1444e0	0.14479399
34	0xbd899cf2	-0.06719388
35	0x3d57ca33	0.052683067
36	0x3e0467da	0.12930241
37	0x3c115512	0.00887038
38	0xbcb020b5	-0.02149997
39	0xbcc42e59	-0.023947882
40	0xbdc8c974	-0.09804049
41	0x3dc5daa0	0.0966084
42	0x3a639bec	0.0008682597
43	0xbd91d968	-0.07121545
44	0x3dd02fcf	0.10165369
45	0xbd9a0805	-0.07521061
46	0xbdfdaa98	-0.12386054
47	0xbde4f0f9	-0.111787744
48	0x3df18cca	0.117944315
49	0xbd92a049	-0.07159478
50	0x3bd79585	0.0065791034
51	0xbdefaffe	-0.1170349
52	0x3cb4f04f	0.022087244
53	0xbd144a3b	-0.036203604
54	0xbde95e04	-0.11394885
55	0x3e00511f	0.12530945
56	0xbe01fa7b	-0.12693207
57	0xbe12cd6d	-0.14336176
58	0x3dbfe373	0.09369554
59	0x3cf8c92d	0.030369366
60	0x3dd06f1e	0.10177444
61	0x3cd2ec23	0.025747364
62	0x3e19b189	0.1500913
63	0xbe02b387	-0.12763797
64	0x3d02592d	0.031823326
65	0xbcedf0c4	-0.02904547
66	0x3deeb123	0.1165488
67	0x3decaa7b	0.11555954
68	0x3dc7ba95	0.097523846
69	0x3c9c18ae	0.019054737
70	0x3d003fb8	0.031310767
71	0x3d8f4587	0.06995683
72	0xbdc781d6	-0.09741561
73	0x3d80c0c2	0.06286766
74	0x3d00be4e	0.03143149
75	0x3da9739c	0.08274004
76	0x3e293bb0	0.16526675
77	0x3da5d814	0.08097854
78	0xbdb68b98	-0.08913344
79	0xbda35b4c	-0.07976398
80	0xbd91ad26	-0.071131036
81	0xbd2ae765	-0.04172458
82	0x3d65c1c2	0.056092985
83	0xbc918a33	-0.017766094
84	0x3d277081	0.040878776
85	0xbd8cb515	-0.06870476
86	0xbe06a590	-0.13149095
87	0x3ccc3ec4	0.024932273
88	0xba108f3b	-0.0005514507
89	0xbcc32d5f	-0.023825346
90	0xbdae44ae	-0.08509193
91	0x3ccd8c15	0.02509121
92	0x3de26f21	0.110563524
93	0xbd8171ea	-0.063205555
94	0x3cac4c4e	0.021032479
95	0x3e0c7981	0.13718225
96	0x3db76a8b	0.08955868
97	0x3db33699	0.08750648
98	0xbde1ae2c	-0.11019549
99	0x3da76f7a	0.08175559
100	0xbca0c88c	-0.019626878
101	0xbde731cd	-0.112887956
102	0xbc801d82	-0.01563907
103	0xbdd97c5c	-0.10619423
104	0xbcbb28f4	-0.022846676
105	0x3e13fe29	0.14452423
106	0xbd6da115	-0.058014948
107	0x3d9059cb	0.07048377
108	0x3ddf1953	0.10893502
109	0x3d87cf22	0.06631304
110	0x3e090235	0.13379748
111	0xba91d6b5	-0.001112661
112	0x3e18f676	0.14937767
113	0x3d92c5ce	0.071666345
114	0xbdc01557	-0.0937907
115	0x3cd78ea0	0.026313126
116	0x3d9ebcf5	0.077508844
117	0xbda5d291	-0.08096803
118	0xbd1eecd6	-0.038800083
119	0xbda493b3	-0.08035984
120	0x3d8aa382	0.06769468
121	0xbe0ce32d	-0.13758536
122	0x3d5bbefc	0.053648934
123	0xbe0cc80c	-0.13748187
124	0xbdab049e	-0.0835049
125	0x3bce4f39	0.006296065
126	0xbe0b3a24	-0.13596398
127	0x3e210ea8	0.15728247
128	0x3e4a5d07	0.1976205
129	0xbda31954	-0.07963815
130	0x3d6acb3c	0.057322726
131	0xbd21dbae	-0.039516144
132	0x3d708d2c	0.058728382
133	0xbc7b2d2e	-0.015330596
134	0xbd907f61	-0.070555456
135	0x3e016703	0.12636952
136	0x3e08c058	0.13354623
137	0x3e234565	0.1594444
138	0x3e108746	0.14114103
139	0xbdc08dac	-0.09402022
140	0x3e198087	0.14990436
141	0xbccd38a6	-0.025051426
142	0xbdb128e8	-0.086503804
143	0x3c9d9404	0.019235618
144	0xbe16908c	-0.14703578
145	0x3dbed0a3	0.09317138
146	0x3e19425c	0.1496672
147	0x3e1bd979	0.15219678
148	0x3caaa569	0.020830827
149	0x3c8c96fc	0.017161839
150	0x3d16aa73	0.036783647
151	0x3d67af42	0.056563623
152	0x3d71becd	0.059019852
153	0xbe0545ca	-0.13014904
154	0xbd8f8f28	-0.07009727
155	0x3ddc9c0c	0.10771951
156	0x3d4da4c5	0.050205965
157	0x3dd1b890	0.10240281
158	0x3e045d0b	0.12926118
159	0x3e0dd757	0.13851677
160	0xbddd5edb	-0.10809108
161	0x3cc824ef	0.024431674
162	0x3dc49c6e	0.09600149
163	0x3e50ffdc	0.20410103
164	0x3e0f3382	0.13984492
165	0xbc5564a7	-0.013024486
166	0x3bc8fa32	0.006133341
167	0x3e00b699	0.12569655
168	0xbd830b38	-0.06398624
169	0x3e8232fc	0.25429523
170	0x3e9ce235	0.30641332
171	0x3df4e044	0.11956838
172	0xbe0d59ab	-0.13803737
173	0xbd6df96f	-0.058099207
174	0xbdc0c539	-0.09412617
175	0x3cb6eca6	0.02232964
176	0xbddbb97f	-0.1072874
177	0xbdb373c8	-0.08762318
178	0x3d189d54	0.037259415
179	0x3c5ccfa8	0.0134772435
180	0x3da4b4a6	0.080422685
181	0x3d3b4124	0.04571642
182	0x3c276c3b	0.010218675
183	0x3e0593a5	0.13044603
184	0x3dc7957e	0.0974531
185	0xbdc4cc0c	-0.09609231
186	0x3e0e4d0e	0.13896582
187	0x3d2b637d	0.041842926
188	0x3df0f4ae	0.11765419
189	0xbdd67376	-0.10471241
190	0x3e3224fb	0.1739692
191	0x3c830498	0.015993401
192	0x3d869f58	0.06573361
193	0x3c18c936	0.009325316
194	0xbc4fa5f7	-0.012673846
195	0xbdd52f70	-0.104094386
196	0x3bf82a3b	0.0075733936
197	0x3d3d757b	0.046254616
198	0xbd2df4b7	-0.042469706
199	0x3dd3e5dd	0.10346577
200	0x3d309713	0.043112826
201	0x3d02cd87	0.031934287
202	0xbda5cbee	-0.08095537
203	0xbcb30f3d	-0.021857852
204	0x3d13f196	0.036119066
205	0xbbd2b96f	-0.006430797
206	0x3cafed50	0.021475464
207	0xbe091ecb	-0.13390653
208	0x3cc733d0	0.024316698
209	0x3dc9a0a5	0.09845094
210	0xbde7edb9	-0.11324639
211	0xbd46ee93	-0.048567366
212	0x3e13c32c	0.14429921
213	0xbcfd509c	-0.030922227
214	0x3dc1421c	0.094364375
215	0xbd29b28a	-0.041430034
216	0xbd8248c2	-0.06361534
217	0x3d3255d8	0.0435389
218	0x3e26f681	0.16304971
219	0xbd93c78a	-0.072157934
220	0xbc67ee7e	-0.014155982
221	0xbd3887b7	-0.045051303
222	0xbdd207c9	-0.10255391
223	0x3d813745	0.0630937
224	0xbdb9dc4d	-0.09075222
225	0x3dcf0c2e	0.10109745
226	0xbd96972c	-0.073530525
227	0x3e0ec81b	0.13943522
228	0xbddfc403	-0.10926058
229	0x3d51fdf5	0.051267583
230	0xbe365d56	-0.17809042
231	0xbcf549f9	-0.0299425
232	0xbdd3aacd	-0.10335312
233	0x3a561220	0.0008166153
234	0xbd81dd1a	-0.06341
235	0xbe04393b	-0.12912457
236	0xbd01857f	-0.031621452
237	0xbd194c86	-0.037426494
238	0xbd34b387	-0.044116523
239	0xbe0b1ae3	-0.13584475
240	0x3e0b77cb	0.13619916
241	0xbd88cdbe	-0.06679867
242	0xbcaa3bc7	-0.020780457
243	0x3debbd5e	0.11510728
244	0xbd5ed02b	-0.054397743
245	0x3d6e915b	0.05824409
246	0xbd6606ba	-0.05615876
247	0x3dc8a602	0.097972885
248	0x3dc9e5b4	0.098582655
249	0x3da7f450	0.08200896
250	0x3e132326	0.14368877
251	0x3c4b7d48	0.012420006
252	0x3d1d5791	0.038413588
253	0xbd86db06	-0.06584744
254	0xbded5511	-0.11588491
255	0x3d3e6a98	0.046488374

weight_hh_l0 f4 [256, 64]
0	0x3d5deff3	0.05418391
1	0xbcaf2002	-0.021377567
2	0x3c3849ca	0.011248061
3	0xbe0a0c09	-0.13481154
4	0x3dac8c06	0.08425145
5	0x3da29941	0.07939387
6	0xbda84bfb	-0.08217617
7	0x3d2c4530	0.04205817
8	0xbbd42972	-0.006474667
9	0xbc42fd05	-0.011901145
10	0xbda628f7	-0.08113282
11	0x3d8d2968	0.06892663
12	0x3d14f331	0.036364738
13	0xbd1e28e7	-0.038613226
14	0x3d0e60b8	0.034760207
15	0x3d451a59	0.04812083
16	0x3d1f7560	0.038930297
17	0xbd771d1a	-0.060330488
18	0x3c77da65	0.015127753
19	0x3d8d51d9	0.06900377
20	0x3c1cd5ce	0.009572459
21	0x3dd142ed	0.10217843
22	0xbdf520b8	-0.11969131
23	0x3d44e015	0.048065264
24	0xbd51d172	-0.051225133
25	0x3c002e0f	0.007823481
26	0xbda344e9	-0.07972128
27	0xbdbf8b7e	-0.09352778
28	0xbc872ff7	-0.016502364
29	0x3d735184	0.05940391
30	0xbd4e1904	-0.050316826
31	0x3dc4a8cf	0.0960251
32	0xbbfa8c8b	-0.0076461486
33	0xbd210e50	-0.03932029
34	0xbbe0ba12	-0.006858119
35	0x3b89cf9c	0.004205657
36	0x3df1b279	0.11801619
37	0x3e05516f	0.13019346
38	0xbc8af5c1	-0.016962888
39	0x3c5b63ac	0.013390463
40	0xbd59fce3	-0.053219687
41	0x3d674a39	0.05646727
42	0x3d52c375	0.051455934
43	0x3df2dca4	0.1185849
44	0xbd143db4	-0.036191657
45	0x3dcc8b98	0.09987563
46	0x3df919c1	0.12163115
47	0xbb6e693b	-0.003637864
48	0x3d2d409f	0.042297956
49	0xbd140ca8	-0.036144882
50	0xbd7653e3	-0.060138594
51	0x3d07f252	0.03319008
52	0xba8fb88f	-0.0010965037
53	0xbdd037de	-0.10166906
54	0x3d2c596e	0.042077474
55	0xbd158085	-0.03649952
56	0x3e8ecbb1	0.2788978
57	0xbd5dac8b	-0.054119628
58	0xbd9dd5b4	-0.07706776
59	0x3caac6dd	0.020846779
60	0xbdecf391	-0.11569894
61	0x3c2b2c2b	0.010447542
62	0x3cf95018	0.0304337
63	0x3e1b0c0b	0.15141313
64	0xbd48813a	-0.048951365
65	0x3ba738a9	0.00510319
66	0xbad18612	-0.0015985391
67	0x3d708d9c	0.0587288
68	0x3a235ad1	0.0006231489
69	0xbb9c4e79	-0.004770097
70	0xbd4e42a4	-0.050356522
71	0x3db7fd3b	0.08983847
72	0x3d135429	0.035968933
73	0xbcb46232	-0.02201948
74	0x3d902d03	0.07039835
75	0xbc4719f7	-0.012152187
76	0x3b32ca92	0.0027281386
77	0xbd041156	-0.032243095
78	0x3d0f0040	0.034912348
79	0x3d8c6cfb	0.06856724
80	0xbd3c1e80	-0.045927525
81	0x3d2e044d	0.04248457
82	0x3a44a8e4	0.00075019733
83	0xbe33074c	-0.17483252
84	0xbd88e17e	-0.06683634
85	0xbdc7425f	-0.09729456
86	0x3c64b39b	0.013958837
87	0x3d19d0d0	0.037552655
88	0xbce30c06	-0.027715694
89	0x3bbe244a	0.005802666
90	0x3ce6dce0	0.028181493
91	0xbd6f1786	-0.058372043
92	0x3d627cee	0.055294923
93	0x3dec554c	0.115397066
94	0xbdaa0e51	-0.08303512
95	0x3dc32670	0.09528816
96	0xbdd59b1d	-0.10429976
97	0xbc73dbcd	-0.014883948
98	0x3ccfe253	0.025376474
99	0x3d70e433	0.058811378
100	0xbd329bec	-0.04360573
101	0x3dd9a5a4	0.106272966
102	0xbe142e12	-0.144707
103	0x3e21de6d	0.15807505
104	0xbdcfc1ee	-0.10144411
105	0xbce914b0	-0.028452247
106	0xbdfb9e47	-0.122860484
107	0xbe153c07	-0.1457368
108	0x3d516313	0.051119875
109	0xbad6b98c	-0.0016382202
110	0x3db49c21	0.08818842
111	0xbd7a034a	-0.061038293
112	0xbcea7bc8	-0.028623477
113	0x3da97ba8	0.08275539
114	0x3daad911	0.083421834
115	0xbd0d2dfa	-0.034467675
116	0xbd818068	-0.0632332
117	0xbd5d5e31	-0.054044906
118	0xbd5ba596	-0.053624712
119	0x3d5269fa	0.0513706
120	0x3d860847	0.065445475
121	0xbc8c7013	-0.017143285
122	0x3c4ce718	0.012506269
123	0x3b897093	0.004194328
124	0xbc6a6ade	-0.014307706
125	0x3d1a19b0	0.037622154
126	0x3d75cd8f	0.06001049
127	0x3d6475fe	0.05577659
128	0x3d64e6b1	0.055884067
129	0x3cd9fb84	0.02660919
130	0x3d10a81f	0.035316583
131	0x3d5b60e4	0.0535592
132	0x3cd2dbdf	0.025739608
133	0xbc2b8a57	-0.0104699945
134	0x3dbe96f4	0.09306136
135	0x3b132c24	0.002245673
136	0x3dc33b2c	0.095327705
137	0x3cedb7c1	0.029018285
138	0x3b9096a7	0.0044124904
139	0x3d547fdd	0.051879752
140	0x3dca45b6	0.098765776
141	0x3d5d9153	0.05409367
142	0x3dc79391	0.09744943
143	0xbc646cfe	-0.013942001
144	0x3d5bff76	0.053710423
145	0xbd3ca540	-0.046056032
146	0x3d02b22f	0.03190821
147	0x3da28a07	0.07936483
148	0xbdc65d21	-0.09685732
149	0x3d44820d	0.04797559
150	0x3dc64f4e	0.09683095
151	0x3cfd7ad5	0.03094236
152	0x3d1ada92	0.0378061
153	0x3e11533c	0.14191908
154	0x3dc736e2	0.09727265
155	0xbc9df355	-0.019281069
156	0xbdad028c	-0.084477514
157	0x3c01fac6	0.007933324
158	0xbdeeb3e6	-0.11655407
159	0xbd19f3c5	-0.037585992
160	0xbcdb1b39	-0.02674638
161	0x3d99a270	0.075016856
162	0xbd99f79b	-0.0751793
163	0xbdca4847	-0.09877067
164	0x3d9a7c79	0.075432725
165	0xbb82084a	-0.0039682733
166	0xbcf3be14	-0.029753722
167	0x3dffed5f	0.12496447
168	0xbd88a7e6	-0.06672649
169	0x3e2b5955	0.16733296
170	0x3cc1a680	0.023638964
171	0x3af8ec00	0.0018991232
172	0x3da65c2d	0.0812305
173	0xbd3d7c46	-0.046261095
174	0xbd314794	-0.043281153
175	0x3d040e1b	0.032240015
176	0x3dd0ffde	0.10205053
177	0x3d4492db	0.047991615
178	0x3dc47ad1	0.09593738
179	0x3d7cbe06	0.061704658
180	0xbcedf84f	-0.029049067
181	0x3c0131d0	0.007885411
182	0x3e222ca5	0.15837343
183	0x3d9787c5	0.07398943
184	0x3d3d0ee1	0.046156768
185	0xbd9eb4a9	-0.07749302
186	0xbe3fa1c1	-0.18714048
187	0x3c71915e	0.014744131
188	0xbdade2dd	-0.08490536
189	0x3c7459a3	0.014913949
190	0xbc2fdb0a	-0.010733375
191	0xbd3059f0	-0.04305452
192	0x3c4297c4	0.011877004
193	0xbd74b964	-0.059747115
194	0xbda3bbcb	-0.07994803
195	0x3d2470a1	0.040146474
196	0x3d25c405	0.040470142
197	0xbc86fa8e	-0.016476896
198	0xbba9d3da	-0.0051827254
199	0xbcd1ec8a	-0.025625486
200	0x3d36be0b	0.044614833
201	0xbd1688f5	-0.036751706
202	0xbc1523c4	-0.0091027655
203	0x3d109717	0.03530034
204	0xb9223ec5	-0.00015472907
205	0xbd8e0a46	-0.06935553
206	0x3debcbf9	0.11513514
207	0x3b1383ab	0.00225089
208	0xbd92c50d	-0.07166491
209	0x3d194574	0.03741975
210	0xbd957562	-0.072977796
211	0xbcba4354	-0.022737183
212	0x3d8b547c	0.068032235
213	0x3d1ea150	0.03872806
214	0xbbe357c2	-0.006937952
215	0x3ddf94c8	0.1091705
216	0xbd2dc769	-0.0424265
217	0x3ddbeda8	0.10738689
218	0x3de2fb52	0.11083092
219	0x3e2992cd	0.16559906
220	0xbcf2a094	-0.029617585
221	0xbd90ab15	-0.07063881
222	0x3dbb8e90	0.09158051
223	0x3c52f806	0.012876516
224	0x3dc70ed7	0.09719627
225	0x3d372c52	0.04472
226	0xbd450e45	-0.04810931
227	0xbca54464	-0.020174213
228	0xbbf58793	-0.0074929683
229	0xbb876167	-0.0041314843
230	0xbc8cd1ba	-0.01718985
231	0x3d811d2e	0.06304394
232	0x3d4bce20	0.049757123
233	0xbe40910e	-0.18805334
234	0xbd994e51	-0.07485641
235	0xbb4684f0	-0.003029164
236	0x3d24edf9	0.04026601
237	0xbd812ec4	-0.06307748
238	0x3d2b5401	0.04182816
239	0xbd7c652a	-0.061619915
240	0x3c80de2a	0.015730936
241	0x3cf1bcca	0.029508967
242	0xbdb76970	-0.089556575
243	0x3ddd98b4	0.108201414
244	0x3c05643d	0.008141574
245	0xbd7babaa	-0.06144301
246	0xbd00fccc	-0.031491086
247	0x3d191228	0.03737083
248	0xbd8b2a55	-0.067951836
249	0x3de3fb74	0.11131945
250	0xbc5c9bef	-0.013464912
251	0x3c9a7888	0.018856302
252	0x3d57e78c	0.052711055
253	0xbd91c02f	-0.07116734
254	0x3be19893	0.0068846433
255	0xbd7f221b	-0.062288385

bias_ih_l0 f4 [256]
0	0x3cab8922	0.020939413
1	0x3cb156fe	0.021647926
2	0x3c851b33	0.016248321
3	0x3c95baaa	0.018277485
4	0x3d18f13e	0.03733944
5	0x3ca65358	0.020303413
6	0x3c91c076	0.017791968
7	0x3c84caac	0.016209923
8	0x3c8503c5	0.016237149
9	0x3ba12a06	0.0049183397
10	0x3c89b83b	0.01681148
11	0x3d4dec55	0.050274212
12	0x3de01536	0.10941546
13	0x3ca5584b	0.020183703
14	0x3c130459	0.0089732045
15	0x3c6d074b	0.014467071
16	0x3c16acc2	0.009196462
17	0x3c3e58ce	0.011617852
18	0x3c7a19e2	0.01526496
19	0x3cc50720	0.024051249
20	0x3bd4ae35	0.0064904937
21	0x3c85e261	0.016343297
22	0x3c0e3a4e	0.008680893
23	0x3c8ba461	0.017046155
24	0x3c78a5de	0.015176265
25	0x3ccce4a4	0.025011368
26	0x3c881672	0.016612265
27	0x3c9a06e6	0.018802118
28	0x3c62a782	0.013833882
29	0x3c847b2a	0.01617201
30	0x3c8ad331	0.016946407
31	0x3c053b89	0.00813187
32	0x3c8f6300	0.017503262
33	0x3c82a24e	0.015946534
34	0x3c3eb9a4	0.01164094
35	0xbb0fd182	-0.0021944945
36	0xba8c8511	-0.0010720809
37	0x3d9a1ffc	0.07525632
38	0x3c6df3fc	0.014523502
39	0x3a09a551	0.00052507693
40	0x3b8ab801	0.0042333608
41	0x3c74697d	0.0149177285
42	0x3dc71e8e	0.09722625
43	0x3c44d62a	0.012013951
44	0x3c61308a	0.013744483
45	0x3c78a372	0.015175687
46	0x3c835aae	0.01603445
47	0x3c923c07	0.017850889
48	0x3c8b7856	0.017025154
49	0xba4b0a7e	-0.0007745399
50	0x3c8eceb7	0.017432554
51	0x3c0bf72b	0.008542816
52	0x3bab1d3e	0.005221992
53	0x3c78c963	0.015184733
54	0x3db41183	0.087924026
55	0x3c645659	0.0139366025
56	0x3e6d553f	0.2317705
57	0x3b4b9dc3	0.0031069375
58	0x3c6e1b26	0.01453284
59	0x3cb2b1e6	0.021813344
60	0x3beaf474	0.0071702544
61	0x3c606421	0.013695748
62	0x3c54fdf0	0.012999997
63	0x3d71d5c0	0.05904174
64	0x3c877921	0.016537251
65	0x3c97af20	0.018516123
66	0x3c6c41b8	0.014419965
67	0x3c71802f	0.014740034
68	0xbc6d0fca	-0.014469096
69	0x3c931c65	0.017957876
70	0x3c8753a0	0.016519368
71	0x3c7a494b	0.0152762635
72	0x3c807967	0.01568289
73	0x3b84d39b	0.0040535457
74	0x3c8aa972	0.016926501
75	0x3c9be11b	0.019028237
76	0xbb11d77e	-0.0022253687
77	0x3c84f08a	0.01622798
78	0x3c0ba7b3	0.008523869
79	0x3c39c197	0.011337659
80	0x3bc5d3a7	0.006037194
81	0x3bd69d50	0.006549515
82	0x3c6e538a	0.014546284
83	0x3c7b35c2	0.015332641
84	0x3b542f2d	0.0032376752
85	0x3c37207f	0.011177181
86	0xbbfd0533	-0.007721567
87	0x3c881742	0.016612653
88	0x3c71788a	0.014738211
89	0x3cbf517e	0.023354288
90	0x3c831a9a	0.016003896
91	0x3c9c12e7	0.019051982
92	0x3c6a790d	0.014311087
93	0x3c6ea48e	0.0145656
94	0x3c751793	0.014959234
95	0x3bfce9be	0.007718294
96	0x3c8ea755	0.017413775
97	0x3c57c211	0.013168828
98	0x3c87de3f	0.016585467
99	0xbc16f0a2	-0.009212645
100	0xbaebd525	-0.0017992599
101	0x3d0e7d34	0.03478737
102	0x3c46c7cd	0.012132597
103	0xbc39cb38	-0.011339955
104	0xba92db50	-0.0011204276
105	0x3c76a949	0.015055009
106	0x3cadf9f8	0.021237358
107	0x3bc95444	0.0061440784
108	0x3c4a9c6d	0.012366396
109	0x3c5ee331	0.013603971
110	0x3c8358aa	0.01603349
111	0x3c757bd0	0.0149831325
112	0x3c870727	0.016482903
113	0x39fe621c	0.00048519752
114	0x3c718746	0.014741724
115	0x3c08b2fc	0.008343454
116	0x3b9d301c	0.004796995
117	0x3c81b8df	0.015835224
118	0x3cc77280	0.02434659
119	0x3bbc75ef	0.0057513635
120	0x3d875adf	0.06609129
121	0xbba0e14d	-0.0049096704
122	0x3c56630f	0.013085141
123	0x3c832534	0.01600895
124	0xbbf65c9f	-0.0075183655
125	0x3c50c4a6	0.012742197
126	0x3beac7ca	0.00716493
127	0x3caefd80	0.021361113
128	0x3ca5efb6	0.020255905
129	0xbc6ca010	-0.014442459
130	0xbc8017e3	-0.01563639
131	0x3c91b86c	0.017788135
132	0xbb68393c	-0.0035434505
133	0x3c8d91ec	0.017281495
134	0xbc8bc70d	-0.017062688
135	0x3c9c0aba	0.019048084
136	0x3c95d86e	0.018291678
137	0x3c0e548d	0.008687151
138	0x3cab0d05	0.020880232
139	0xbc11e2a5	-0.008904134
140	0xbc7b3f70	-0.015334949
141	0xbc887fda	-0.016662527
142	0x3c3684c2	0.01114005
143	0x3c8de352	0.017320309
144	0xbc1fc65c	-0.009751882
145	0x3c7b6e5a	0.015346134
146	0xbc91d1fd	-0.017800326
147	0x3b8a5f39	0.004222777
148	0x3bef335e	0.0072998246
149	0x3c8470e8	0.01616712
150	0x3b1cd7c5	0.002393232
151	0x3c9efb6a	0.019406993
152	0xbc8c3495	-0.017114917
153	0x3c95bfb1	0.018279882
154	0xbca5cfa4	-0.020240612
155	0xbcb1fdc3	-0.021727448
156	0xbc8b7b27	-0.017026497
157	0x3ca0c72b	0.01962622
158	0x3c8c40b8	0.017120704
159	0x3c4a7cff	0.012358903
160	0x3c9f9c6b	0.019483766
161	0x3c4f243a	0.012642914
162	0xbc80fec1	-0.015746476
163	0x3c0daa76	0.008646598
164	0xbc95dcfc	-0.01829385
165	0xbc9d6482	-0.019212965
166	0xbc95b410	-0.018274337
167	0xbc0f48cf	-0.008745386
168	0x3cc774c7	0.024347676
169	0x3c99017f	0.018677471
170	0xbb7fdb1a	-0.0039040507
171	0x3c907eb1	0.017638536
172	0xbc931733	-0.017955398
173	0x3c876f86	0.01653267
174	0x3c9d8544	0.019228585
175	0x3c90a4f2	0.017656777
176	0x3c9430fe	0.018089768
177	0x3bb70f18	0.005586516
178	0x3c8bc8fd	0.017063612
179	0x3c536262	0.012901874
180	0xbbd7ada3	-0.0065819784
181	0xbc7a746d	-0.015286547
182	0x39eacf4f	0.00044786415
183	0xba474ea0	-0.00076029636
184	0x3ccb6244	0.02482713
185	0x3b603ef6	0.0034217215
186	0xbc90054c	-0.01758065
187	0x3cb028bf	0.021503804
188	0x3c9fffe5	0.0195312
189	0xbc90b1d8	-0.017662928
190	0xbc81370f	-0.015773324
191	0xbc493a13	-0.012281912
192	0x3c8e63dd	0.017381603
193	0x3bb78790	0.005600877
194	0x3c88fd4c	0.016722344
195	0x3c991f44	0.018691666
196	0x3ce66bfb	0.028127661
197	0x3ca2f30d	0.019891286
198	0x3c215c9e	0.009848742
199	0x3c8b9604	0.017039306
200	0x3c845eb4	0.01615844
201	0x3b0ac524	0.0021174634
202	0x3c89cc8f	0.016821174
203	0x3d2becff	0.041974064
204	0x3e15401b	0.14575236
205	0x3bb5002c	0.005523702
206	0x3b488481	0.0030596557
207	0x3c767db2	0.015044617
208	0x3c874026	0.01651008
209	0x3c821c04	0.0158825
210	0x3c8e200b	0.017349264
211	0x3cae3c78	0.021269068
212	0x3c5e9545	0.013585393
213	0x3cb619b7	0.022229059
214	0x3c0bdc4a	0.008536408
215	0x3c8700a4	0.016479798
216	0x3c835b82	0.016034845
217	0x3c2a6ffb	0.010402675
218	0x3c9ac015	0.01889042
219	0x3c99fc75	0.018797139
220	0x3c8e32f1	0.017358275
221	0x3c7f4026	0.015579259
222	0x3c8d7d02	0.017271522
223	0x3c786000	0.015159607
224	0x3c75d5e7	0.015004612
225	0x3c34499f	0.011003881
226	0x39e8796d	0.00044340958
227	0x3c0f6c75	0.0087538855
228	0xba169c79	-0.0005745362
229	0x3da29c66	0.07939987
230	0x3c0455fa	0.008077139
231	0xbafec10c	-0.0019436195
232	0x3bf412d6	0.0074485345
233	0x3c704881	0.014665724
234	0x3dd91b1a	0.10600872
235	0x3b0707e9	0.002060408
236	0x3c855f0f	0.016280679
237	0x3c5ab0ac	0.013347786
238	0x3c833ac1	0.016019227
239	0x3c91544b	0.01774039
240	0x3bdac431	0.00667622
241	0xbc073af3	-0.008253801
242	0x3c9266ed	0.017871344
243	0x3c617815	0.01376154
244	0x3c03c35c	0.008042183
245	0x3c793378	0.015210025
246	0x3dce5c56	0.100762054
247	0x3c073a90	0.0082537085
248	0x3e590fe3	0.21197467
249	0x3ad73583	0.0016419146
250	0x3b90755d	0.004408522
251	0x3cba5610	0.022746116
252	0xbc2a4c7a	-0.01039421
253	0x3c53957a	0.012914056
254	0x3c171ce6	0.0092231985
255	0x3d59f47e	0.05321168

bias_hh_l0 f4 [256]
0	0x3cab8922	0.020939413
1	0x3cb156fe	0.021647926
2	0x3c851b33	0.016248321
3	0x3c95baaa	0.018277485
4	0x3d18f13e	0.03733944
5	0x3ca65358	0.020303413
6	0x3c91c076	0.017791968
7	0x3c84caac	0.016209923
8	0x3c8503c5	0.016237149
9	0x3ba12a06	0.0049183397
10	0x3c89b83b	0.01681148
11	0x3d4dec55	0.050274212
12	0x3de01536	0.10941546
13	0x3ca5584b	0.020183703
14	0x3c130459	0.0089732045
15	0x3c6d074b	0.014467071
16	0x3c16acc2	0.009196462
17	0x3c3e58ce	0.011617852
18	0x3c7a19e2	0.01526496
19	0x3cc50720	0.024051249
20	0x3bd4ae35	0.0064904937
21	0x3c85e261	0.016343297
22	0x3c0e3a4e	0.008680893
23	0x3c8ba461	0.017046155
24	0x3c78a5de	0.015176265
25	0x3ccce4a4	0.025011368
26	0x3c881672	0.016612265
27	0x3c9a06e6	0.018802118
28	0x3c62a782	0.013833882
29	0x3c847b2a	0.01617201
30	0x3c8ad331	0.016946407
31	0x3c053b89	0.00813187
32	0x3c8f6300	0.017503262
33	0x3c82a24e	0.015946534
34	0x3c3eb9a4	0.01164094
35	0xbb0fd182	-0.0021944945
36	0xba8c8511	-0.0010720809
37	0x3d9a1ffc	0.07525632
38	0x3c6df3fc	0.014523502
39	0x3a09a551	0.00052507693
40	0x3b8ab801	0.0042333608
41	0x3c74697d	0.0149177285
42	0x3dc71e8e	0.09722625
43	0x3c44d62a	0.012013951
44	0x3c61308a	0.013744483
45	0x3c78a372	0.015175687
46	0x3c835aae	0.01603445
47	0x3c923c07	0.017850889
48	0x3c8b7856	0.017025154
49	0xba4b0a7e	-0.0007745399
50	0x3c8eceb7	0.017432554
51	0x3c0bf72b	0.008542816
52	0x3bab1d3e	0.005221992
53	0x3c78c963	0.015184733
54	0x3db41183	0.087924026
55	0x3c645659	0.0139366025
56	0x3e6d553f	0.2317705
57	0x3b4b9dc3	0.0031069375
58	0x3c6e1b26	0.01453284
59	0x3cb2b1e6	0.021813344
60	0x3beaf474	0.0071702544
61	0x3c606421	0.013695748
62	0x3c54fdf0	0.012999997
63	0x3d71d5c0	0.05904174
64	0x3c877921	0.016537251
65	0x3c97af20	0.018516123
66	0x3c6c41b8	0.014419965
67	0x3c71802f	0.014740034
68	0xbc6d0fca	-0.014469096
69	0x3c931c65	0.017957876
70	0x3c8753a0	0.016519368
71	0x3c7a494b	0.0152762635
72	0x3c807967	0.01568289
73	0x3b84d39b	0.0040535457
74	0x3c8aa972	0.016926501
75	0x3c9be11b	0.019028237
76	0xbb11d77e	-0.0022253687
77	0x3c84f08a	0.01622798
78	0x3c0ba7b3	0.008523869
79	0x3c39c197	0.011337659
80	0x3bc5d3a7	0.006037194
81	0x3bd69d50	0.006549515
82	0x3c6e538a	0.014546284
83	0x3c7b35c2	0.015332641
84	0x3b542f2d	0.0032376752
85	0x3c37207f	0.011177181
86	0xbbfd0533	-0.007721567
87	0x3c881742	0.016612653
88	0x3c71788a	0.014738211
89	0x3cbf517e	0.023354288
90	0x3c831a9a	0.016003896
91	0x3c9c12e7	0.019051982
92	0x3c6a790d	0.014311087
93	0x3c6ea48e	0.0145656
94	0x3c751793	0.014959234
95	0x3bfce9be	0.007718294
96	0x3c8ea755	0.017413775
97	0x3c57c211	0.013168828
98	0x3c87de3f	0.016585467
99	0xbc16f0a2	-0.009212645
100	0xbaebd525	-0.0017992599
101	0x3d0e7d34	0.03478737
102	0x3c46c7cd	0.012132597
103	0xbc39cb38	-0.011339955
104	0xba92db50	-0.0011204276
105	0x3c76a949	0.015055009
106	0x3cadf9f8	0.021237358
107	0x3bc95444	0.0061440784
108	0x3c4a9c6d	0.012366396
109	0x3c5ee331	0.013603971
110	0x3c8358aa	0.01603349
111	0x3c757bd0	0.0149831325
112	0x3c870727	0.016482903
113	0x39fe621c	0.00048519752
114	0x3c718746	0.014741724
115	0x3c08b2fc	0.008343454
116	0x3b9d301c	0.004796995
117	0x3c81b8df	0.015835224
118	0x3cc77280	0.02434659
119	0x3bbc75ef	0.0057513635
120	0x3d875adf	0.06609129
121	0xbba0e14d	-0.0049096704
122	0x3c56630f	0.013085141
123	0x3c832534	0.01600895
124	0xbbf65c9f	-0.0075183655
125	0x3c50c4a6	0.012742197
126	0x3beac7ca	0.00716493
127	0x3caefd80	0.021361113
128	0x3ca5efb6	0.020255905
129	0xbc6ca010	-0.014442459
130	0xbc8017e3	-0.01563639
131	0x3c91b86c	0.017788135
132	0xbb68393c	-0.0035434505
133	0x3c8d91ec	0.017281495
134	0xbc8bc70d	-0.017062688
135	0x3c9c0aba	0.019048084
136	0x3c95d86e	0.018291678
137	0x3c0e548d	0.008687151
138	0x3cab0d05	0.020880232
139	0xbc11e2a5	-0.008904134
140	0xbc7b3f70	-0.015334949
141	0xbc887fda	-0.016662527
142	0x3c3684c2	0.01114005
143	0x3c8de352	0.017320309
144	0xbc1fc65c	-0.009751882
145	0x3c7b6e5a	0.015346134
146	0xbc91d1fd	-0.017800326
147	0x3b8a5f39	0.004222777
148	0x3bef335e	0.0072998246
149	0x3c8470e8	0.01616712
150	0x3b1cd7c5	0.002393232
151	0x3c9efb6a	0.019406993
152	0xbc8c3495	-0.017114917
153	0x3c95bfb1	0.018279882
154	0xbca5cfa4	-0.020240612
155	0xbcb1fdc3	-0.021727448
156	0xbc8b7b27	-0.017026497
157	0x3ca0c72b	0.01962622
158	0x3c8c40b8	0.017120704
159	0x3c4a7cff	0.012358903
160	0x3c9f9c6b	0.019483766
161	0x3c4f243a	0.012642914
162	0xbc80fec1	-0.015746476
163	0x3c0daa76	0.008646598
164	0xbc95dcfc	-0.01829385
165	0xbc9d6482	-0.019212965
166	0xbc95b410	-0.018274337
167	0xbc0f48cf	-0.008745386
168	0x3cc774c7	0.024347676
169	0x3c99017f	0.018677471
170	0xbb7fdb1a	-0.0039040507
171	0x3c907eb1	0.017638536
172	0xbc931733	-0.017955398
173	0x3c876f86	0.01653267
174	0x3c9d8544	0.019228585
175	0x3c90a4f2	0.017656777
176	0x3c9430fe	0.018089768
177	0x3bb70f18	0.005586516
178	0x3c8bc8fd	0.017063612
179	0x3c536262	0.012901874
180	0xbbd7ada3	-0.0065819784
181	0xbc7a746d	-0.015286547
182	0x39eacf4f	0.00044786415
183	0xba474ea0	-0.00076029636
184	0x3ccb6244	0.02482713
185	0x3b603ef6	0.0034217215
186	0xbc90054c	-0.01758065
187	0x3cb028bf	0.021503804
188	0x3c9fffe5	0.0195312
189	0xbc90b1d8	-0.017662928
190	0xbc81370f	-0.015773324
191	0xbc493a13	-0.012281912
192	0x3c8e63dd	0.017381603
193	0x3bb78790	0.005600877
194	0x3c88fd4c	0.016722344
195	0x3c991f44	0.018691666
196	0x3ce66bfb	0.028127661
197	0x3ca2f30d	0.019891286
198	0x3c215c9e	0.009848742
199	0x3c8b9604	0.017039306
200	0x3c845eb4	0.01615844
201	0x3b0ac524	0.0021174634
202	0x3c89cc8f	0.016821174
203	0x3d2becff	0.041974064
204	0x3e15401b	0.14575236
205	0x3bb5002c	0.005523702
206	0x3b488481	0.0030596557
207	0x3c767db2	0.015044617
208	0x3c874026	0.01651008
209	0x3c821c04	0.0158825
210	0x3c8e200b	0.017349264
211	0x3cae3c78	0.021269068
212	0x3c5e9545	0.013585393
213	0x3cb619b7	0.022229059
214	0x3c0bdc4a	0.008536408
215	0x3c8700a4	0.016479798
216	0x3c835b82	0.016034845
217	0x3c2a6ffb	0.010402675
218	0x3c9ac015	0.01889042
219	0x3c99fc75	0.018797139
220	0x3c8e32f1	0.017358275
221	0x3c7f4026	0.015579259
222	0x3c8d7d02	0.017271522
223	0x3c786000	0.015159607
224	0x3c75d5e7	0.015004612
225	0x3c34499f	0.011003881
226	0x39e8796d	0.00044340958
227	0x3c0f6c75	0.0087538855
228	0xba169c79	-0.0005745362
229	0x3da29c66	0.07939987
230	0x3c0455fa	0.008077139
231	0xbafec10c	-0.0019436195
232	0x3bf412d6	0.0074485345
233	0x3c704881	0.014665724
234	0x3dd91b1a	0.10600872
235	0x3b0707e9	0.002060408
236	0x3c855f0f	0.016280679
237	0x3c5ab0ac	0.013347786
238	0x3c833ac1	0.016019227
239	0x3c91544b	0.01774039
240	0x3bdac431	0.00667622
241	0xbc073af3	-0.008253801
242	0x3c9266ed	0.017871344
243	0x3c617815	0.01376154
244	0x3c03c35c	0.008042183
245	0x3c793378	0.015210025
246	0x3dce5c56	0.100762054
247	0x3c073a90	0.0082537085
248	0x3e590fe3	0.21197467
249	0x3ad73583	0.0016419146
250	0x3b90755d	0.004408522
251	0x3cba5610	0.022746116
252	0xbc2a4c7a	-0.01039421
253	0x3c53957a	0.012914056
254	0x3c171ce6	0.0092231985
255	0x3d59f47e	0.05321168

weight_ih_l1 f4 [256, 64]
0	0xbcc9ff77	-0.024657948
1	0xbd8b28b8	-0.06794876
2	0x3db294c7	0.08719783
3	0x3e00468b	0.1252691
4	0x3d8a041e	0.067390665
5	0xbdbcea01	-0.0922432
6	0x3dcbbb64	0.09947851
7	0x3e164b97	0.14677273
8	0x3db81f2e	0.08990322
9	0xbd92c414	-0.07166305
10	0xbd32679f	-0.043555852
11	0x3d1fad14	0.03898342
12	0x3d9da260	0.07696986
13	0x3d7395a6	0.059468888
14	0x3e099f91	0.13439776
15	0x3be199dc	0.0068847965
16	0x3cfa6fb7	0.030570848
17	0xbd8514e8	-0.06498128
18	0x3d99a415	0.07501999
19	0x3df72970	0.120684505
20	0xbdbad5d0	-0.09122813
21	0x3be384d8	0.0069433264
22	0xbd524d13	-0.051343035
23	0x3c71ddf4	0.01476239
24	0xbe0bd119	-0.13653983
25	0xbc8f54b1	-0.017496439
26	0xbdd5982f	-0.10429417
27	0xbc10c207	-0.008835322
28	0x3da36a7f	0.07979297
29	0xbda94258	-0.08264607
30	0x3e08f97c	0.1337642
31	0x3e1333fb	0.14375298
32	0xbd8b53f3	-0.068031214
33	0x3def0e55	0.116726555
34	0xbded8048	-0.11596733
35	0x3df6e8ff	0.12056159
36	0x3d71ff95	0.059081633
37	0xbd77d5a9	-0.060506497
38	0x3dd3e9a6	0.10347299
39	0x3d3ad9e7	0.045617964
40	0xbdb71571	-0.089396365
41	0x3db78d91	0.089625485
42	0x3db6660a	0.08906181
43	0x3cf29924	0.029614039
44	0x3d3b83ce	0.045779996
45	0x3db8913e	0.09012078
46	0xbc113cd5	-0.008864601
47	0x3e0e1438	0.138749
48	0x3dbfa666	0.0935791
49	0xbde7d701	-0.113203056
50	0x3d18a783	0.037269127
51	0xbdf8e8a3	-0.12153747
52	0x3de2abd2	0.110679284
53	0xbc21df41	-0.009879888
54	0xbdbcd470	-0.09220207
55	0xbd8b77d5	-0.068099655
56	0xbd332cd9	-0.043743942
57	0x3dc9d0cf	0.0985428
58	0x3c583409	0.013196
59	0xbb4507af	-0.0030064394
60	0xbe19080b	-0.14944474
61	0xbd67c723	-0.056586396
62	0xbdbd721c	-0.0925028
63	0x3d5fd63e	0.054647677
64	0xbe0cffea	-0.13769498
65	0xbd8bdb40	-0.06828928
66	0x3da1cdf9	0.07900614
67	0x3dc8dfbf	0.09808301
68	0xbe93c155	-0.28858438
69	0x3d0d4a34	0.034494594
70	0xbd83edfa	-0.06441875
71	0xbbfce83e	-0.007718115
72	0xbdadc54e	-0.084848985
73	0xbe0dea31	-0.13858868
74	0xbd6e70e5	-0.058213133
75	0xbe67aa24	-0.22623497
76	0xbcd0c49c	-0.025484376
77	0xbdf5d558	-0.12003583
78	0x3c9c5ecb	0.01908817
79	0x3dc5941f	0.096473925
80	0x3d03cf60	0.03218019
81	0xbae14896	-0.001718777
82	0xbe048c54	-0.12944156
83	0x3b315229	0.0027057028
84	0xbe0627d6	-0.13101134
85	0xbe456901	-0.19278337
86	0x3e55d462	0.20881799
87	0xbdfa2338	-0.12213749
88	0x3cf5e7a5	0.030017683
89	0x3ce78967	0.02826376
90	0xbe023fd9	-0.12719668
91	0x3dfb3967	0.12266808
92	0x3dc937fd	0.09825132
93	0xbdfeda83	-0.124440216
94	0x3da57352	0.08078636
95	0xbe10af2a	-0.1412932
96	0x3be7e01e	0.0070762774
97	0xbcf8d9a8	-0.030377224
98	0xbdf6ad01	-0.120447166
99	0x3c8acb5c	0.016942672
100	0x3e0a4bf4	0.13505536
101	0xbd96b81f	-0.07359337
102	0x3e09f2e8	0.13471568
103	0xbe05e884	-0.13076979
104	0xbd730bdc	-0.05933748
105	0x3de6573e	0.11247109
106	0x3e581dc5	0.21105106
107	0xbe2272c4	-0.15864092
108	0x3cc1ff7c	0.023681395
109	0xbd006a34	-0.031351283
110	0xbdd11672	-0.10209359
111	0xbdb92a02	-0.090412155
112	0x3d9c18ae	0.07621895
113	0xbddc5213	-0.10757842
114	0xbe20a8b3	-0.15689354
115	0x3c79b6df	0.015241354
116	0xbdc43801	-0.095809944
117	0xbda4203f	-0.08013963
118	0x3e37f4ef	0.17964529
119	0x3dd07269	0.10178072
120	0xbe86f7f8	-0.2636106
121	0x3e15381d	0.14572187
122	0xbd57b7c5	-0.05266549
123	0x3dec5fc9	0.11541707
124	0x3e5197e3	0.20468096
125	0xbd82a5b8	-0.063792646
126	0x3d3f151f	0.046651002
127	0xbd828468	-0.06372911
128	0x3db1649d	0.086617686
129	0xbdad0824	-0.08448818
130	0xbe5eef37	-0.2177094
131	0x3e50f702	0.20406726
132	0x3e8593c2	0.26089293
133	0x3dfeac87	0.12435251
134	0xbdee089e	-0.11622737
135	0x3ce40c58	0.027837917
136	0xbd5ac75e	-0.053412788
137	0xbcdd30eb	-0.027000865
138	0x3d195a6e	0.037439756
139	0x3e82bfde	0.25537008
140	0x3e248353	0.16065721
141	0xbe0f0f58	-0.13970697
142	0x3da58475	0.08081905
143	0x3e501169	0.20319141
144	0x3cd60a8e	0.02612808
145	0x3cf699a0	0.030102551
146	0xbd26b175	-0.04069658
147	0x3d8a49ef	0.06752383
148	0x3e077039	0.13226403
149	0x3e8a3085	0.26990142
150	0xbe760214	-0.2402423
151	0x3d73f2b5	0.059557635
152	0xbd817629	-0.063213654
153	0x3dce3862	0.10069348
154	0xbc48e9c6	-0.012262767
155	0xbe32ea6b	-0.17472236
156	0x3d4f750c	0.050648734
157	0x3e43e5d6	0.19130644
158	0x3e01729a	0.12641373
159	0x3b78f360	0.003798686
160	0x3db7539e	0.089514956
161	0x3da418a6	0.08012514
162	0xbe53482f	-0.20633005
163	0x3c9a1d9d	0.018812949
164	0xbe17ad26	-0.14812145
165	0xbe7a6fd0	-0.24456716
166	0xbe2b1100	-0.16705704
167	0xbd9bac7c	-0.07601258
168	0x3df75d63	0.12078359
169	0x3e11a63f	0.14223574
170	0xbe8505d1	-0.25981
171	0x3e05fa20	0.13083696
172	0xbe6083a5	-0.21925218
173	0x3ddb9aab	0.1072286
174	0x3d0b1a46	0.033960603
175	0x3e7b82d2	0.24561623
176	0x3d207878	0.039177388
177	0x3e01ac38	0.12663352
178	0x3da1f7f7	0.07908624
179	0x3c01295f	0.007883399
180	0xbe400189	-0.18750586
181	0xbe4db19d	-0.20087285
182	0xbe77d686	-0.24202928
183	0x3cd42d73	0.025900578
184	0x3eeb6d77	0.45981953
185	0xbc842ce3	-0.016134685
186	0x3c93f15a	0.018059421
187	0x3da92207	0.08258443
188	0xbe45d9a2	-0.19321302
189	0xbdc0fd0d	-0.094232656
190	0x3c8e7cea	0.017393548
191	0xbdb8a7bd	-0.090163685
192	0x398811b0	0.0002595312
193	0x3db24164	0.087038785
194	0x3d84c042	0.06481983
195	0xbd4d67ba	-0.05014775
196	0xbd2870be	-0.041123144
197	0xbd9d15ec	-0.07670197
198	0xbdcbd1f2	-0.09952153
199	0xbd100622	-0.0351621
200	0x3dc4a904	0.0960255
201	0x3d26c432	0.04071445
202	0x3e1a871e	0.15090606
203	0x3d879c1e	0.06621574
204	0xbe4d28e6	-0.20035133
205	0xbde22f56	-0.11044185
206	0x3bcbcf3a	0.0062197717
207	0x3e1c292d	0.15250082
208	0x3cbe0269	0.023194509
209	0x3cce6a54	0.025197186
210	0xbe1b33eb	-0.15156524
211	0x3e113851	0.14181639
212	0x3e3a82a4	0.18213898
213	0x3dc57d71	0.09643067
214	0xbdee9e66	-0.11651306
215	0x3d6aae14	0.05729492
216	0x3d3febfa	0.046855904
217	0x3db4fe86	0.08837609
218	0xbe2789d0	-0.16361165
219	0x3d2fa18e	0.04287868
220	0xbda64aca	-0.08119734
221	0x3dc9b75d	0.09849427
222	0x3decc546	0.115610644
223	0x3df3b86d	0.11900411
224	0x3e0decc2	0.13859847
225	0xbd7a0fed	-0.061050344
226	0x3c407f07	0.011749036
227	0x3e32ae24	0.17449242
228	0xbdc2a4e1	-0.095041044
229	0xbe01cab1	-0.12674977
230	0x3ca5efc6	0.020255934
231	0x3d93d28b	0.07217892
232	0xbd5d132c	-0.05397336
233	0xbb1eb887	-0.0024218874
234	0x3c88acae	0.016683903
235	0x3df77709	0.12083251
236	0xbd922fdb	-0.07138034
237	0xbcc6065b	-0.024172952
238	0xbd369b9c	-0.044581994
239	0x3d48ad12	0.048993178
240	0x3e12907a	0.14312926
241	0x3d30dfa3	0.043182027
242	0x3e0f9401	0.14021303
243	0xbbb14469	-0.0054097665
244	0x3d13dbc3	0.036098253
245	0x3dd6a7d5	0.1048123
246	0x3e49bfe0	0.19702101
247	0xbe38b6ed	-0.1803853
248	0x3e3d21ba	0.18469897
249	0xbdbcc661	-0.09217525
250	0xbe152efa	-0.14568701
251	0x3d5ea373	0.054355096
252	0xbbee1285	-0.0072653913
253	0x3c7aa5e0	0.015298337
254	0xbda6fa38	-0.08153194
255	0xbe6cfb62	-0.2314277

weight_hh_l1 f4 [256, 64]
0	0x3d9ba00c	0.07598886
1	0xbc9ed4f7	-0.019388659
2	0xbcd49eba	-0.025954593
3	0x3d8a20f2	0.06744565
4	0x3d9395e8	0.07206327
5	0x3c82a350	0.015947014
6	0xbd26d006	-0.04072573
7	0xbd73910c	-0.0594645
8	0xbd55e359	-0.05221877
9	0x3d43996b	0.047753733
10	0xbc2333d6	-0.009961089
11	0x3db425e3	0.08796289
12	0x3cacd491	0.021097453
13	0x3cf352a8	0.0297025
14	0xbda23a27	-0.07921248
15	0xbc686a75	-0.014185538
16	0x3afcb07d	0.0019278672
17	0xbdf9b5fa	-0.121929124
18	0xbd73ea9f	-0.059549924
19	0x3d426dcd	0.047467995
20	0x3d773bad	0.060359646
21	0xbd386c62	-0.045025237
22	0xbe00a63c	-0.12563413
23	0x3d09931c	0.03358756
24	0xbc72e71f	-0.014825611
25	0xbd34572f	-0.044028457
26	0xbb55910c	-0.0032587675
27	0xbbae4b11	-0.005319007
28	0xbbada794	-0.005299518
29	0xbda9fef0	-0.083005786
30	0xbc3db26c	-0.011578184
31	0xbd17ff74	-0.037108853
32	0x3c7ba0f6	0.0153582
33	0x3d993d65	0.07482413
34	0xbd250a9f	-0.040293332
35	0xbca7c75e	-0.020480808
36	0x3d0b507e	0.03401231
37	0x3d0afb09	0.033930812
38	0x3d3f5bb0	0.0467183
39	0x3ba4f9e0	0.0050346702
40	0xbd80789c	-0.062730044
41	0xbc181eec	-0.009284716
42	0xbc4f3395	-0.012646575
43	0x3d83a77a	0.06428428
44	0x3da204f5	0.07911102
45	0xbc1cebbb	-0.009577687
46	0x3c726441	0.01479441
47	0x3d56dab7	0.052454676
48	0xbdbc162f	-0.09183919
49	0x3d1448a1	0.036202077
50	0x3d6fc9ea	0.05854217
51	0x3d18751b	0.037221055
52	0x3d96362f	0.073345535
53	0x3d1e47cc	0.03864269
54	0xbcccca13	-0.0249987
55	0xbd62cbfc	-0.055370316
56	0x3d9258a3	0.07145812
57	0x3d1a9863	0.037742984
58	0x3dc93558	0.09824628
59	0xbd36bb0d	-0.04461198
60	0xbdd538a0	-0.10411191
61	0xbdeffeb5	-0.117185034
62	0xbdf73229	-0.12070114
63	0xbe128b27	-0.14310895
64	0xbc80d39a	-0.0157259
65	0xbd3f2c40	-0.04667306
66	0xbdf9311b	-0.12167569
67	0x3db6db22	0.08928515
68	0xbd351193	-0.044206213
69	0x3dcb504c	0.09927425
70	0x3d96af57	0.07357662
71	0xbaf46f1f	-0.0018648839
72	0x3cb1378e	0.021632936
73	0xbb8dab7b	-0.0043234206
74	0x3d5e5c8d	0.054287482
75	0xbe340ef8	-0.17583835
76	0xbcb5080e	-0.022098567
77	0xbd36e160	-0.044648528
78	0xbd054961	-0.032540683
79	0xbda90807	-0.08253484
80	0x3dbdab8c	0.092612356
81	0x3dc5aa20	0.096515894
82	0xbd114fd0	-0.035476506
83	0xbd108cc0	-0.03529048
84	0x3c82583e	0.015911218
85	0xbd0a4d30	-0.033765018
86	0xbd7b4fc2	-0.06135536
87	0x3cfe4a00	0.031041145
88	0x3d7e0f9b	0.0620266
89	0xbcaccbc4	-0.021093257
90	0x3c03612c	0.008018773
91	0x3d9ea53c	0.0774636
92	0x3da74403	0.08167269
93	0x3de19bee	0.11016069
94	0xbd386c05	-0.04502489
95	0xbac5a417	-0.001507881
96	0xbdbee9b2	-0.093219176
97	0x3dad84f5	0.08472625
98	0x3dde3e67	0.10851746
99	0xbdea6933	-0.114458464
100	0x3dc8f784	0.09812835
101	0xbdf94651	-0.12171615
102	0xbd87e38a	-0.066351965
103	0x3d33c631	0.043890182
104	0xbc4a5369	-0.012348988
105	0xbc93f4ec	-0.018061124
106	0x3dcc60d8	0.09979409
107	0x3c49342b	0.012280504
108	0x3de1e3cc	0.11029777
109	0xbc736058	-0.014854513
110	0x3d9ba6f0	0.076002
111	0xbdc5549c	-0.096352786
112	0xbce44772	-0.027866099
113	0xbcd1e559	-0.025622057
114	0xbd22939c	-0.039691553
115	0x3b5bc93e	0.0033536698
116	0xbd58f43f	-0.052967306
117	0x3c18ad52	0.0093186665
118	0x3e99728f	0.29970214
119	0x3de5ff2f	0.11230313
120	0x3defea94	0.11714664
121	0xbdcc0eba	-0.09963746
122	0x3dff6bf7	0.124717645
123	0x3d38fb3d	0.045161474
124	0xbe8c0fb0	-0.2735572
125	0xbce2e026	-0.027694773
126	0x3e248ca4	0.16069275
127	0xbdf83ade	-0.12120603
128	0x3e126b3e	0.14298722
129	0xbd45836b	-0.048221033
130	0x3e0ad197	0.13556515
131	0x3e26d119	0.16290702
132	0x3d811446	0.06302695
133	0x3df3ccc0	0.11904287
134	0xbe11f912	-0.14255169
135	0x3e147c85	0.14500625
136	0xbd3b674e	-0.045752816
137	0x3df94ac4	0.121724635
138	0x3e0b37cc	0.13595504
139	0x3e260dae	0.16216156
140	0xbe0f7938	-0.14011085
141	0x3e22bcff	0.15892409
142	0x3e5d7daf	0.21629976
143	0xbdbe9b30	-0.093069434
144	0x3d94d136	0.07266466
145	0xbe11baf9	-0.1423148
146	0x3d30e790	0.043189585
147	0xbcfa3117	-0.030540986
148	0x3e4af717	0.1982082
149	0xbe4b0691	-0.19826724
150	0xbd9d2194	-0.0767242
151	0xbce3b103	-0.027794367
152	0xbe03fc2d	-0.12889166
153	0xbe617721	-0.220181
154	0x3d421998	0.04738769
155	0x3ce58947	0.02801956
156	0xbdd45692	-0.103680745
157	0x3e38ff3e	0.18066117
158	0x3dd79199	0.105258174
159	0x3d180781	0.03711653
160	0x3dc79fa8	0.09747249
161	0xbe1708a1	-0.14749385
162	0x3e28028b	0.1640722
163	0x3de4a3f8	0.11164087
164	0x3d36d136	0.044633113
165	0x3df73b52	0.12071861
166	0xbdccdad3	-0.10002675
167	0x3e28664d	0.16445275
168	0x3dd8752d	0.105692245
169	0x3d774aa3	0.060373913
170	0x3e15b05b	0.14618056
171	0x3b090f7e	0.0020913775
172	0x3ec98235	0.39357153
173	0x3e18e5a6	0.14931354
174	0x3d8f4ab1	0.06996668
175	0x3e386948	0.18008912
176	0xbca57d26	-0.020201277
177	0x3d3cf11a	0.04612837
178	0x3d6cf4c0	0.0578506
179	0xbddfea6a	-0.10933383
180	0xbe19e245	-0.15027721
181	0x3d17cbce	0.037059598
182	0x3e72266c	0.2364747
183	0x3e676c57	0.22599922
184	0x3e059710	0.13045907
185	0x3dcc112d	0.099642135
186	0x3e0283ad	0.12745543
187	0xbc959e48	-0.018263951
188	0xbe7b9dbc	-0.2457189
189	0x3d52af6e	0.051436834
190	0x3e13514f	0.14386486
191	0xbde612ef	-0.1123408
192	0x3e09f9d3	0.13474207
193	0xbdcc5c6a	-0.09978564
194	0x3d798b2c	0.06092374
195	0x3e55377a	0.20821944
196	0x3e29c7b5	0.16580088
197	0x3de0eb09	0.109823294
198	0x3d458f31	0.04823226
199	0x3daa4ca7	0.083154015
200	0xbd6d57d9	-0.057945106
201	0x3de0b0d2	0.10971226
202	0x3db4f7c2	0.088363186
203	0x3d925062	0.07144238
204	0xbdccacc0	-0.09993887
205	0xbbdb1e84	-0.0066869874
206	0xbd079080	-0.03309679
207	0xbd8a7790	-0.06761086
208	0x3dd83fae	0.10559021
209	0xbd51c9c8	-0.051217824
210	0x3db372ee	0.087621555
211	0x3d260be4	0.040538684
212	0x3dc6c237	0.09705012
213	0x3dc60ddf	0.096706145
214	0xbccf0e91	-0.0252755
215	0xbb44bb87	-0.0030019002
216	0xbc36fd27	-0.011168755
217	0xbd387b38	-0.045039386
218	0x3ca4fe74	0.020140864
219	0x3dcfa55a	0.1013896
220	0xbc051a85	-0.0081239985
221	0x3d1a5978	0.03768298
222	0x3e300e95	0.17193063
223	0xbe1de95c	-0.15421051
224	0x3e2aa8aa	0.16665903
225	0xbdc5184f	-0.09623777
226	0xbb804ac2	-0.003915162
227	0x3d113f6c	0.035460874
228	0xbdf0ec34	-0.11763802
229	0xbccb4b07	-0.02481605
230	0xbe5c36a0	-0.21505213
231	0xbca07253	-0.019585764
232	0x3bd5cc81	0.006524623
233	0x3d423c3c	0.047420725
234	0x3bac3d73	0.0052563488
235	0xbbda2264	-0.0066569317
236	0x3e3ce45a	0.18446484
237	0x3e135dcf	0.14391254
238	0x3e07b965	0.13254316
239	0x3dbc502e	0.091949806
240	0x3a6c111d	0.00090052356
241	0xbdfcb5b6	-0.12339346
242	0x3d8e160c	0.06937799
243	0xbd9df477	-0.077126436
244	0xbd401f65	-0.04690494
245	0x3d319586	0.043355487
246	0x3e345d3b	0.1761369
247	0x3c918b93	0.01776675
248	0x3c67ebfb	0.014155383
249	0xbd97f87c	-0.074204415
250	0x3de76476	0.11298458
251	0xbe0db577	-0.13838755
252	0xbe3a2026	-0.18176326
253	0xbd47d1dc	-0.048784122
254	0xbd751a4e	-0.05983954
255	0x3d1dae2f	0.038496193

bias_ih_l1 f4 [256]
0	0x3c6d6951	0.014490441
1	0x3c660c9d	0.014041093
2	0x3dd40882	0.10353185
3	0x3d0b5c17	0.03402337
4	0x3c5bc261	0.013413043
5	0x3c176cd5	0.009242256
6	0x3c8e9b20	0.017407954
7	0x3c9693f1	0.01838109
8	0x3d8f4184	0.06994918
9	0x3b3fb25b	0.0029250595
10	0x3cfc9175	0.030831078
11	0x3ca642ca	0.02029552
12	0x3c48d168	0.012256958
13	0x3c83a364	0.016069122
14	0x3d39fd2d	0.045407463
15	0x3d2fb6ef	0.04289907
16	0x3df481bf	0.119388096
17	0x3d24cdfd	0.04023551
18	0x3c8a1144	0.016853936
19	0x3c36cfa2	0.011157902
20	0x3cfea53c	0.03108465
21	0x3e719cf8	0.23595035
22	0x3cb8965d	0.022532636
23	0x3cb8a4b2	0.02253947
24	0x3cbf85c5	0.023379216
25	0x3c1efc45	0.0097037
26	0x3cd17f18	0.025573298
27	0x3d43c627	0.047796395
28	0x3c6827cf	0.014169647
29	0x3c7b6abf	0.0153452745
30	0x3cb62454	0.02223412
31	0x3b6e40dd	0.003635458
32	0x3ccc265e	0.024920639
33	0x3bc1d6b1	0.005915486
34	0x3d8c33d6	0.068458244
35	0x3c80c1a6	0.015717339
36	0x3c57ae48	0.0131641105
37	0x3cd7644c	0.026292942
38	0x3cf7f89c	0.030269913
39	0x3c9ea9ac	0.019368015
40	0x3c9a716d	0.018852914
41	0x3cc3006e	0.023803916
42	0x3ce80046	0.028320443
43	0x3c9b3f85	0.018951187
44	0x3e1a7e32	0.15087202
45	0x3cd01b37	0.025403602
46	0x3ca9eebc	0.02074372
47	0x3c8caa63	0.01717109
48	0xbb956ac2	-0.0045598457
49	0x3d84b195	0.064791836
50	0x3c77cdad	0.0151247205
51	0x3bc5cc0f	0.0060362886
52	0x3c626b4e	0.013819529
53	0x3c527ce7	0.012847162
54	0x3e1ae2d2	0.15125588
55	0x3d6a1e1f	0.057157632
56	0x3cf3957f	0.029734371
57	0x3c8973c3	0.016778832
58	0x3d3e66e9	0.04648486
59	0x3c9a45f8	0.018832192
60	0x3e26c1a6	0.16284809
61	0x3ca9fa57	0.020749254
62	0x3dfef2b8	0.12448639
63	0x3c820b12	0.01587442
64	0x3c4cd446	0.012501782
65	0x3ba4fee4	0.005035268
66	0x3d3e8f8b	0.046523612
67	0x3ccc71af	0.024956552
68	0x3c48bbd8	0.012251817
69	0x3be20ba2	0.0068983594
70	0x3c920603	0.017825132
71	0x3c83a242	0.016068581
72	0x3d3cd5dd	0.046102393
73	0x3b273120	0.0025511459
74	0x3cd3d8c3	0.025860196
75	0x3c9dc39f	0.019258318
76	0x3c2491db	0.01004454
77	0x3c66b1cb	0.014080475
78	0x3d1f43a0	0.03888285
79	0x3cad1772	0.021129344
80	0x3d92de4e	0.071713075
81	0x3cd2d5e7	0.025736762
82	0x3c76cafa	0.015063042
83	0x3c4a907c	0.012363549
84	0x3d08c213	0.03338821
85	0x3d87d716	0.06632821
86	0x3ca755db	0.020426681
87	0x3cc654cb	0.024210354
88	0x3c564ccc	0.013079833
89	0x3c239ce1	0.009986133
90	0x3cd23f31	0.025664898
91	0x3b97981c	0.004626287
92	0x3c51c5cd	0.012803507
93	0x3c89e537	0.016832931
94	0x3cb521f2	0.022110913
95	0x3b268716	0.0025410107
96	0x3cc9e6f0	0.024646252
97	0x3bf1af6e	0.007375649
98	0x3d7ad5d1	0.061239067
99	0x3c683d84	0.014174823
100	0x3c45fbc4	0.012083951
101	0x3caada17	0.020855946
102	0x3ca598dd	0.020214492
103	0x3c876497	0.016527457
104	0x3c99f623	0.018794125
105	0x3cbdbb73	0.023160672
106	0x3ce7a976	0.028279047
107	0x3c9cd4de	0.019144472
108	0x3d76635f	0.06015336
109	0x3cbaf76a	0.022823054
110	0x3c9727a6	0.018451523
111	0x3c9eba39	0.019375907
112	0x392df109	0.00016588358
113	0x3d181821	0.037132386
114	0x3c2ac8c6	0.010423845
115	0x3bbc269f	0.0057419087
116	0x3c5de2b0	0.013542816
117	0x3c50725d	0.012722579
118	0x3d74abf5	0.059734304
119	0x3ca43b3e	0.02004778
120	0x3cde07a4	0.027103253
121	0x3c6ac85e	0.014329998
122	0x3cf01039	0.02930461
123	0x3c840a86	0.0161183
124	0x3dafa7c2	0.08576919
125	0x3ca39c73	0.019972062
126	0x3d551b21	0.052027825
127	0x3c7c460d	0.015397561
128	0x3cb86393	0.022508418
129	0xbd1f4c3d	-0.038891066
130	0x3ccb05a0	0.024782956
131	0x3b275a2d	0.0025535927
132	0x3c9014ce	0.017588045
133	0x3cc1b42a	0.02364548
134	0xbcd80bb9	-0.026372777
135	0x3cd3bf7b	0.025848141
136	0xbc6597b3	-0.014013219
137	0x3ccfc4df	0.02536243
138	0x3cd2cdd1	0.025732907
139	0x3ccb5189	0.024819152
140	0xbcd1b4e5	-0.025598953
141	0x3ccc1379	0.024911629
142	0x3d054ca5	0.032543797
143	0xbcb717da	-0.02235024
144	0x3c9912c6	0.01868571
145	0xbc8366d2	-0.01604024
146	0x3caa04fe	0.020754334
147	0xbcce0a0c	-0.025151275
148	0x3d0ac57d	0.033879746
149	0xbdcbfea2	-0.09960677
150	0xbcb32ccf	-0.021871952
151	0x39976d12	0.00028882228
152	0xbcfc1005	-0.030769357
153	0xbcc4fd39	-0.024046527
154	0x3cd68f67	0.026191426
155	0x3d066a33	0.032816123
156	0xbcc51c48	-0.024061337
157	0x3cc0b6b2	0.023524616
158	0x3cf3ec62	0.029775802
159	0xbca5d06d	-0.020240987
160	0x3ce1cb98	0.027562901
161	0xbce39739	-0.02778207
162	0x3d06d8c0	0.032921553
163	0x3cc60c6b	0.024175843
164	0x3cc84946	0.024449002
165	0x3cd7cdf9	0.026343333
166	0xbcfe1235	-0.031014541
167	0x3cb88699	0.022525119
168	0x3cdd7a82	0.027035955
169	0x3cd0995d	0.025463754
170	0x3cbcee5c	0.023062877
171	0xbcdb8484	-0.026796587
172	0x3d692328	0.056918293
173	0x3ccdfa8d	0.025143886
174	0x3cefe716	0.029284995
175	0x3cd8475b	0.026401212
176	0xbcdf263d	-0.027239913
177	0xbcea97a7	-0.028636767
178	0x3cd6cc04	0.02622033
179	0xbc8b7ada	-0.017026354
180	0xbcd0b8ec	-0.025478803
181	0x3cf192a5	0.02948887
182	0x3cd9b007	0.026573194
183	0x3d1f27a4	0.038856164
184	0x3cf6e361	0.03013772
185	0x3cb0cd91	0.021582397
186	0x3d16c215	0.036806185
187	0xbcc76220	-0.024338782
188	0xbc67c1d4	-0.014145333
189	0x3ccb784e	0.02483764
190	0x3d10e275	0.035372216
191	0xbcd6036a	-0.026124675
192	0x3c0a8684	0.008454923
193	0x3da57a8e	0.08080016
194	0x3dbce54f	0.09223425
195	0x3d0d3254	0.034471825
196	0x3c8fb7e1	0.017543735
197	0x3bd55f56	0.006511609
198	0x3c96d3c9	0.018411534
199	0x3c8ac2d3	0.016938603
200	0x3d9ad2f3	0.075597666
201	0x3c412d8e	0.011790646
202	0x39dd33b7	0.00042190935
203	0x3ca70504	0.020388134
204	0x3c496df5	0.012294282
205	0x3c44e6b3	0.012017894
206	0x3ce8d7d0	0.02842322
207	0x3cd10d37	0.025518997
208	0x3dc43f2a	0.0958236
209	0x3c9b383b	0.018947711
210	0x3c568ef2	0.013095604
211	0xbb49b9ac	-0.0030780835
212	0x3d54c972	0.051949926
213	0x3df92ada	0.121663764
214	0x3c7d0e39	0.0154452855
215	0x3c1bf7bd	0.009519515
216	0x3cb6b070	0.022300929
217	0x3c33537f	0.0109452
218	0x3c50cc68	0.012744047
219	0x3db1ce72	0.086819544
220	0x3c65e35c	0.0140312575
221	0x3c0885d9	0.008332693
222	0x3c90af73	0.017661786
223	0x3b79aadd	0.0038096227
224	0x3c0e8d92	0.008700745
225	0xba588797	-0.00082599506
226	0x3d1e5f6c	0.03866522
227	0xbaa84d9c	-0.0012840512
228	0x3c1f7002	0.009731295
229	0x3bd2b5c1	0.006430358
230	0x3c889459	0.0166723
231	0x3ca37eec	0.019957982
232	0x3c8e2cda	0.017355371
233	0x3c9d6a84	0.01921583
234	0x3c68d6d6	0.014211377
235	0x3c7b36b6	0.015332868
236	0x3e390451	0.18068053
237	0x3c98c2a7	0.018647505
238	0x3c99078f	0.018680362
239	0x3ba67ee8	0.0050810464
240	0xbc4d80de	-0.012542931
241	0x3d4f87a0	0.05066645
242	0x3b74da44	0.0037361542
243	0xbbb655f9	-0.005564448
244	0x3c856e49	0.01628794
245	0x3c14984f	0.009069516
246	0x3e185601	0.14876558
247	0x3d12415e	0.03570687
248	0x3b9c6aa3	0.0047734543
249	0x3ca0fb13	0.019650972
250	0x3d27b7b2	0.04094667
251	0x3c90e78e	0.017688539
252	0x3e2712d9	0.16315784
253	0x3ca8f75b	0.02062576
254	0x3e1bfa3b	0.15232174
255	0x3c834f03	0.016028887
