transfer_learning/models/lstm_TL_u2.pth (torch, 413992 bytes, 18 tensors)

weight_ih_l0 f4 [256, 3]
0.12288424 0.18250364 -0.04819384 -0.087873206 0.05259244 -0.0122029465 0.042305093 0.2545308
0.24508458 -0.07821508 0.14471431 0.095315315 0.101180375 0.09035716 0.078647435 -0.09124444
0.18588032 0.18964899 -0.006893698 -0.071198545 0.06997538 0.13432737 0.0906143 0.24208634
0.018787134 -0.07652077 0.24476552 -0.10676724 0.06568677 0.1530813 0.09625141 0.15251572
0.2342025 0.022923395 -0.09765507 0.18019535 -0.02996811 -0.08212583 0.12609553 0.13626766
0.12491016 -0.0035769749 0.09017087 0.31842208 0.46132606 -0.06970777 -0.038761586 0.017790517
0.094623104 0.12658301 0.074322276 0.14074042 -0.019686274 -0.13046017 -0.1035112 0.06164497
-0.14537786 -0.104231395 0.17188093 0.097355805 -0.12176322 -0.08179913 -0.073884815 0.049690347
-0.099468574 0.08116609 -0.13694417 0.0070848926 -0.027901819 0.010007918 -0.06759915 -0.02844849
-0.038390428 0.02292147 0.09181716 0.14885198 0.18609154 0.094734386 0.13842219 0.070947595
0.07053219 -0.081414774 0.040604945 0.15920219 0.035527196 0.122210875 -0.020867487 0.14751032
0.111206755 -0.12516312 0.13775018 0.034004983 0.0018917214 -0.012394817 0.022532284 -0.1466502
-0.1108852 0.04604561 -0.015133984 -0.040214784 0.15888943 0.1377582 0.05373988 0.085877985
0.08405669 -0.10897824 -0.13124517 0.17442879 0.13539645 0.14229898 0.042038765 0.10060847
0.0059193107 -0.23245667 -0.11087715 -0.008615909 0.043601718 0.09781872 0.055617396 -0.053970337
0.045993812 -0.03735577 0.19132845 -0.12518105 0.0609418 -0.15712927 -0.03636522 0.01658865
0.229812 0.07706227 -0.08009316 0.12367302 -0.1492106 -0.13197002 -0.063593395 -0.032958206
0.071414515 0.1542306 -0.068999715 -0.10497057 -0.1538014 0.14110741 0.083753526 -0.03467234
0.076841004 0.009089468 0.025585229 -0.024015734 0.05213706 0.079346314 0.095214605 0.11871807
0.18801022 -0.010014758 0.09643457 -0.004820727 -0.12848487 -0.050954156 0.18653926 0.08205573
-0.09356455 -0.19230564 0.116202034 -0.0123412525 0.04501484 -0.13849284 0.092203945 0.110394344
0.062964275 -0.10725627 -0.0013928695 0.013325084 -0.07051504 0.29023093 -0.05946335 -0.016412014
0.119335145 -0.11306139 0.014298732 0.078213826 -0.1089151 0.122567415 -0.2410445 0.145513
0.19937491 0.04329574 -0.022526165 0.13052219 0.02977424 0.07893242 -0.05795397 -0.14327815
0.11160669 -0.08821219 -0.007654993 0.15030739 0.03894269 0.14242761 0.08220344 0.0997364
-0.09474693 0.074399695 0.059668027 0.26734763 -0.00053514173 0.03351029 -0.046118822 0.089206494
-0.13363653 0.10592278 -0.01512861 -0.06924082 0.05614452 -0.0644428 0.0042095636 0.17901488
-0.048493326 -0.047129497 0.10553271 0.118569255 -0.11787962 -0.01669003 0.11571388 -0.11103352
0.061758127 0.07739032 -0.08714077 -0.08347938 -0.050393883 0.04275946 -0.025071839 -0.12711333
-0.039686516 -0.040257532 0.09936995 0.54649645 0.36118174 -0.03446092 0.029046137 -0.055069458
0.07567122 0.11809651 -0.021839673 0.069588676 0.13465692 0.0045851087 -0.05186118 0.07218504
0.12743893 -0.032803275 -0.020623509 0.12601264 -0.09567498 0.15463509 -0.118199654 0.076925084
00000000: bbaa fb3d 3ce2 3a3e e766 45bd def6 b3bd
00000010: 2c6b 573d deee 47bc 1b48 2d3d dc51 823e
00000020: 74f7 7a3e 3a2f a0bd fd2f 143e ad34 c33d
00000030: a837 cf3d 2d0d b93d e811 a13d 5dde babd
00000040: 6957 3e3e 5833 423e 88e4 e1bb 8bd0 91bd
00000050: 414f 8f3d 1d8d 093e fd93 b93d 7be5 773e
00000060: 7ae7 993c ecb6 9cbd d0a3 7a3e c8a8 dabd
00000070: c986 863d 58c1 1c3e 761f c53d 152d 1c3e
00000080: c8d2 6f3e d8c9 bb3c 62ff c7bd 2185 383e
00000090: af7f f5bc 9631 a8bd 301f 013e c089 0b3e
000000a0: e6d0 ff3d ae6b 6abb 81ab b83d 3808 a33e
000000b0: ee32 ec3e f3c2 8ebd 78c4 1ebd 6bbd 913c
000000c0: c2c9 c13d fa9e 013e 4736 983d 421e 103e
000000d0: 1c45 a1bc 5a97 05be aefd d3bd 707f 7c3d
000000e0: efdd 14be 4577 d5bd 8e01 303e 7b62 c73d
000000f0: ff5e f9bd 4d86 a7bd ec50 97bd 1b88 4b3d
00000100: 2eb6 cbbd 683a a63d 183b 0cbe 6328 e83b
00000110: 5b92 e4bc 40f8 233c 6c71 8abd cf0c e9bc
00000120: 483f 1dbd cfc5 bb3c a30a bc3d a76c 183e
00000130: c88e 3e3e 1a04 c23d 8cbe 0d3e f94c 913d
00000140: 2e73 903d cabc a6bd 5f51 263d e605 233e
00000150: f784 113d b249 fa3d 4bf2 aabc f20c 173e
00000160: 5ec0 e33d c32a 00be 620e 0d3e cf48 0b3d
00000170: a3f3 f73a a113 4bbc a095 b83c 782b 16be
00000180: c817 e3bd 529a 3c3d 88f4 77bc 42b8 24bd
00000190: e9b3 223e 7c10 0d3e 591e 5c3d cce0 af3d
000001a0: ea25 ac3d fc2f dfbd 2265 06be 769d 323e
000001b0: 5ea5 0a3e d3b6 113e d730 2c3d d00b ce3d
000001c0: c7f6 c13b 1f09 6ebe 8f13 e3bd be29 0dbc
000001d0: b797 323d 2e55 c83d 11cf 633d 0010 5dbd
000001e0: 0264 3c3d 5d02 19bd 9beb 433e 762f 00be
000001f0: 1c9e 793d 7fe6 20be b2f3 14bd ece4 873c
00000200: d653 6b3e d3d2 9d3d e207 a4bd 4848 fd3d
00000210: aaca 18be 2623 07be 413d 82bd 2fff 06bd
00000220: c641 923d a0ee 1d3e b94f 8dbd cffa d6bd
00000230: 1d7e 1dbe 767e 103e f886 ab3d 9504 0ebd
00000240: d15e 9d3d feeb 143c 1d98 d13c a5bc c4bc
00000250: ab8d 553d 5280 a23d e0ff c23d 7622 f33d
00000260: c085 403e f114 24bc 7d7f c53d 30f7 9dbb
00000270: 8a91 03be 4eb5 50bd 2604 3f3e d60c a83d
00000280: c59e bfbd c5eb 44be 55fb ed3d f732 4abc
00000290: 7b61 383d 11d1 0dbe 6cd5 bc3d 6e16 e23d
000002a0: 6af3 803d 2da9 dbbd f290 b6ba 7451 5a3c
000002b0: 306a 90bd 2699 943e d78f 73bd 7d72 86bc
000002c0: fc65 f43d bb8c e7bd 3b45 6a3c 922e a03d
000002d0: e10e dfbd a004 fb3d 5fd4 76be 5c01 153e
000002e0: f028 4c3e e056 313d cb88 b8bc 9ca7 053e
000002f0: 1be9 f33c 52a7 a13d 2461 6dbd 82b7 12be
00000300: 0c92 e43d 98a8 b4bd bcd6 fabb 2eea 193e
00000310: 5f82 1f3d 8bd8 113e 475a a83d 9942 cc3d
00000320: ae0a c2bd de5e 983d 7666 743d cae1 883e
00000330: c148 0cba 1642 093d 17e7 3cbd e5b1 b63d
00000340: 04d8 08be 0bee d83d fddd 77bc 22ce 8dbd
00000350: ccf7 653d 96fa 83bd 61f0 893b ad4f 373e
00000360: f0a0 46bd dc0a 41bd 8921 d83d 70d4 f23d
00000370: df6a f1bd 88b9 88bc 66fb ec3d 8b65 e3bd
00000380: 17f6 7c3d d17e 9e3d dc76 b2bd 3df7 aabd
00000390: d169 4ebd 8b24 2f3d 7563 cdbc ff29 02be
000003a0: 548e 22bd 15e5 24bd 7982 cb3d 31e7 0b3f
000003b0: d0ec b83e e526 0dbd 2af2 ed3c 8390 61bd
000003c0: 83f9 9a3d 95dc f13d 1de9 b2bc 8284 8e3d
000003d0: 81e3 093e ae3e 963b 646c 54bd c0d5 933d
000003e0: 5a7f 023e ba5c 06bd a2f2 a8bc 7509 013e
000003f0: 3ef1 c3bd a958 1e3e a912 f2bd e68a 9d3d

weight_hh_l0 f4 [256, 64]
0.057811327 -0.092102066 0.13070077 0.064062245 -0.0022900302 0.2903284 0.014723119 -0.043555483
-0.14390348 0.028853914 -0.007019213 -0.04293828 -0.050031282 -0.14679867 -0.01941027 -0.01736444
-0.070020065 -0.005390788 0.09230983 -0.14967665 0.033225693 -0.015084516 -0.06898989 0.09692761
0.14762525 -0.04570069 0.06971798 0.030396976 0.014160118 -0.0004786746 -0.014215133 -0.01929622
-0.032033004 0.11525528 -0.070735835 0.09256999 0.06285567 0.00091471034 0.06691824 0.04082408
0.067409806 0.051863078 0.06733826 0.14353111 0.006795845 -0.16858047 0.14589535 -0.061433043
0.021486228 0.11162401 0.053162817 0.0035116922 0.12289604 -0.0029570234 -0.020922685 0.1423173
-0.0014074101 0.06644083 0.07777688 0.20618889 0.11080115 0.077100486 0.1459936 0.042318434
0.13352115 -0.005954557 -0.011486774 0.09383534 0.04476462 0.0017695802 -0.08953887 -0.06826208
-0.09548313 -0.0032459907 0.043344848 0.011916399 0.011382037 -0.0851693 -0.12712696 0.04856299
0.1393071 -0.10630205 0.14415513 -0.0660235 0.0180983 0.027475819 -0.09863061 -0.10391629
0.16302401 0.02031012 0.06354263 -0.03733158 -0.071661115 -0.07465381 -0.039152272 0.0781277
0.024734102 0.05523185 0.050428074 0.014480186 0.0053795204 0.051443174 0.0967133 0.03781744
0.085915685 -0.0061222 0.1255485 -0.0070508257 0.008912446 -0.03735764 0.0885299 0.090554684
0.05319169 0.02707906 -0.008079172 -0.031900816 0.0035989755 0.040786233 -0.11582996 -0.03842187
0.0020764521 0.120809235 -0.015537982 -0.0013442464 -0.005868575 0.113903634 0.05102661 0.005572407
0.09950283 -0.043950584 -0.11144999 0.13459274 0.16951275 0.048161533 -0.11852819 -0.20184101
-0.18769184 0.07276919 0.23982024 0.010807522 -0.10884454 -0.1491584 -0.026487336 -0.030642755
0.109468795 -0.097312324 0.12728609 0.09265706 0.011657354 -0.054082662 -0.15655074 0.16936645
0.039303735 0.047258954 0.10676911 -0.23119693 -0.18467751 -0.13859196 -0.104536094 0.21635967
0.28300667 -0.018318176 0.070200816 0.13170318 -0.2674876 -0.15453376 0.023650415 -0.0013101384
0.0011209515 0.08988928 -0.018872077 0.22132003 -0.20052457 -0.31580994 -0.2627678 0.17089671
0.14977741 0.11247903 0.1707742 -0.25503564 0.1581027 0.1455606 -0.16790374 0.15144596
0.08941929 0.1901075 0.17566395 0.1857273 -0.1505555 0.35186023 0.06469891 0.13526976
0.019544255 -0.13531765 0.06431999 -0.02761968 0.095469035 -0.054262564 -0.09465742 -0.043532457
-0.046696693 0.014615497 0.08201408 -0.007634697 -0.063790716 -0.1280953 -0.124662764 -0.0075725433
-0.029230734 -0.09180586 0.07596302 -0.08542565 0.16085275 0.22402754 -0.10081776 -0.016897002
-0.04458178 0.03503688 0.070768446 -0.19832279 -0.10721287 -0.06870674 -0.05703582 0.12035496
-0.033228476 0.052142493 0.0697227 -0.019586302 -0.073674 -0.08137567 -0.019578476 0.13672927
0.053996306 0.20545086 0.06399902 0.03623997 0.024183823 -0.08453217 -0.12035187 -0.123853974
0.052441075 -0.04045712 0.011971287 -0.084246986 0.17279477 0.16056629 -0.039000053 0.08806659
0.025894621 0.03414095 -0.034994885 0.10986085 -0.0005057114 0.060581774 0.06941974 0.1106479
00000000: 92cb 6c3d 02a0 bcbd 6cd6 053e 1133 833d
00000010: 5514 16bb eda5 943e 3d39 713c 3c67 32bd
00000020: 6f5b 13be 0b5f ec3c 6d01 e6bb 0de0 2fbd
00000030: 9aed 4cbd 6452 16be 4902 9fbc df3f 8ebc
00000040: ae66 8fbd 35a5 b0bb f00c bd3d d644 19be
00000050: aa17 083d 0c25 77bc 924a 8dbd fc81 c63d
00000060: 132b 173e a630 3bbd 4dc8 8e3d 1403 f93c
00000070: d7ff 673c 9ef6 fab9 97e6 68bc 1b13 9ebc
00000080: 0a35 03bd f60a ec3d f3dd 90bd 5695 bd3d
00000090: 79ba 803d 2cc9 6f3a 6e0c 893d 2737 273d
000000a0: 270e 8a3d 616e 543d a4e8 893d d2f9 123e
000000b0: aeaf de3b 5ca0 2cbe 9765 153e 37a1 7bbd
000000c0: e303 b03c 219b e43d 41c1 593d 6b24 663b
000000d0: ebb0 fb3d 9fca 41bb 0d66 abbc a0bb 113e
000000e0: d978 b8ba 2112 883d 7c49 9f3d 2e23 533e
000000f0: b7eb e23d dce6 9d3d 597f 153e 1856 2d3d
00000100: c5b9 083e 721e c3bb 0633 3cbc be2c c03d
00000110: 1b5b 373d 42f1 e73a 2860 b7bd fdcc 8bbd
00000120: a98c c3bd b0ba 54bb 5e8a 313d 003d 433c
00000130: b97b 3a3c 3e6d aebd 922d 02be fce9 463d
00000140: 85a6 0e3e e4b4 d9bd 679d 133e 5437 87bd
00000150: e342 943c f814 e13c d8fe c9bd 10d2 d4bd
00000160: c4ef 263e 6961 a63c a322 823d 00e9 18bd
00000170: 10c3 92bd 19e4 98bd 225e 20bd 6a01 a03d
00000180: 2c9f ca3c cb3a 623d ab8d 4e3d 4d3e 6d3c
00000190: b046 b03b 14b6 523d 9f11 c63d 76e6 1a3d
000001a0: 90f4 af3d bc9c c8bb c98f 003e 9d0a e7bb
000001b0: 8205 123c 5304 19bd 2a4f b53d bc74 b93d
000001c0: 88df 593d e8d4 dd3c 815e 04bc 6eaa 02bd
000001d0: cadc 6b3b 770f 273d 4238 edbd 4060 1dbd
000001e0: 1615 083b d56a f73d 0593 7ebc 6d31 b0ba
000001f0: 2d4d c0bb 4f46 e93d 4701 513d bd98 b63b
00000200: 24c8 cb3d 8705 34bd e43f e4bd aed2 093e
00000210: c094 2d3e 0745 453d e8be f2bd 69af 4ebe
00000220: 4a32 40be 0308 953d 7093 753e 0812 313c
00000230: e3e9 debd fbbc 18be f8fb d8bc 8406 fbbc
00000240: 2d31 e03d af4b c7bd 4957 023e fcc2 bd3d
00000250: 7dfe 3e3c c885 5dbd d64e 20be 666e 2d3e
00000260: f4fc 203d 9b92 413d c3a9 da3d e3be 6cbe
00000270: 1a1c 3dbe 0deb 0dbe 0517 d6bd 648d 5d3e
00000280: 40e6 903e 0010 96bc 72c5 8f3d 33dd 063e
00000290: 22f4 88be 193e 1ebe 84be c13c f3b8 abba
000002a0: e4ec 923a df17 b83d 9d99 9abc b8a1 623e
000002b0: 5056 4dbe d7b1 a1be 8089 86be 8cff 2e3e
000002c0: 405f 193e 685b e63d 6fdf 2e3e 0894 82be
000002d0: ade5 213e d70d 153e f5ee 2bbe a614 1b3e
000002e0: 7621 b73d 8aab 423e 40e1 333e 4c2f 3e3e
000002f0: 392b 1abe 0627 b43e dd80 843d 2884 0a3e
00000300: 461b a03c b690 0abe 33ba 833d ab42 e2bc
00000310: 4585 c33d 6c42 5ebd c0db c1bd 174f 32bd
00000320: 0845 3fbd d675 6f3c fff6 a73d 7b2c fabb
00000330: b5a4 82bd 6a2b 03be 314f ffbd 1923 f8bb
00000340: 4b75 efbc b604 bcbd 8092 9b3d a5f3 aebd
00000350: 95b6 243e 7a67 653e 8b79 cebd 956b 8abc
00000360: 629b 36bd d582 0f3d 0cef 903d 2115 4bbe
00000370: 6c92 dbbd 1fb6 8cbd 649e 69bd a97c f63d
00000380: 951a 08bd 5e93 553d c6ca 8e3d 7473 a0bc
00000390: 65e2 96bd 4aa8 a6bd 0a63 a0bc c202 0c3e
000003a0: 3b2b 5d3d b661 523e eb11 833d 5d70 143d
000003b0: 271d c63c 341f adbd 0b7b f6bd 27a7 fdbd
000003c0: 74cc 563d 5db6 25bd 3823 443c af89 acbd
000003d0: 1df1 303e 7d6b 243e 85be 1fbd 425c b43d
000003e0: f520 d43c 61d7 0b3d cc56 0fbd bafe e03d
000003f0: b891 04ba 9824 783d f02b 8e3d 5e9b e23d

bias_ih_l0 f4 [256]
0.061090074 0.03977417 0.13145365 0.07463543 0.046039756 0.03709885 0.029228156 0.041022994
0.009936277 0.02145772 0.025430257 0.01908689 0.05770844 0.018511662 0.36179444 0.035408795
0.022938076 0.0004458822 0.008005896 0.0832271 0.00504244 0.01119072 0.007419065 0.040254205
-0.0137806265 0.04948017 0.0031064698 0.008511058 0.008725112 0.042818516 0.0041566053 0.010564037
0.016350286 0.08907669 0.010515765 -0.009517632 0.007761091 0.07872278 0.048057206 0.059633818
0.020061867 0.0063646613 0.1569986 0.014827065 0.017172413 0.050319787 0.013711348 0.007219844
0.015653266 0.009125437 0.05621086 0.012048368 0.003580688 0.023688022 0.00015810037 0.008763212
0.014737097 0.0426326 0.023009088 0.01186241 0.05320612 0.14061134 0.023324424 -0.0009018937
0.052339584 0.028054817 0.05523713 0.03261218 0.03421665 -0.0019191579 0.040033635 0.04436716
0.00696425 0.026484089 0.024466904 0.028580459 0.03584888 0.08165824 0.39860016 0.03864188
0.018720763 0.003274938 0.011295948 0.040565845 0.0026563096 0.01172147 -0.00088843727 0.027590595
-0.011139823 0.03185396 0.016520435 0.008459126 0.010441277 0.02795804 0.0056305216 0.009539448
0.03145223 0.023647506 -0.0019100816 0.011169274 0.04183454 0.076840974 0.024026446 0.04727997
0.019883392 0.0072265896 0.080638364 0.051911946 0.0159937 -0.01661448 0.005887766 0.011553881
0.010247009 0.0057204277 0.030588029 0.027860517 0.010457897 0.04130533 0.0018456343 0.011801052
0.023928622 0.031561717 0.022667939 0.021773024 0.06057468 0.14662942 0.011300288 -0.0012869872
-0.0014584276 0.0043821386 0.0051755602 0.014379228 0.011550832 0.0054355687 -0.007553202 0.00074780226
0.0102981925 0.01778662 0.016717013 0.008775984 -0.009252137 -0.013947502 0.018286373 -0.0020519067
0.011725971 -0.009209614 0.008126199 0.0004645172 0.003208978 -0.021700062 0.016501645 -0.011967445
-0.0013414581 -0.006172206 0.016833603 -0.010986652 -0.022823542 -0.026869612 -0.011431277 0.017366322
0.008979879 0.004814205 -0.0073747584 0.0016950755 -0.013490857 -0.024140907 -0.006016011 0.01572722
-0.0016326781 0.016894134 -0.0043380307 0.0026817124 -0.02495162 -0.0087975925 -0.022838317 0.017076392
-0.0050893286 -0.02153314 0.0072373254 -0.016147867 0.0064057223 0.020323655 -0.015476988 -0.015499086
0.007923857 0.014653131 7.877348e-05 -0.010028019 -0.019554136 0.012085763 -0.0031592387 0.0057309815
0.051647726 0.04087671 0.13984357 0.06372481 0.02488719 0.046755154 0.0165019 0.048994552
0.004835328 0.013541824 0.018100608 -0.0027639794 0.03718507 0.05712564 0.25965247 0.040490627
0.031476993 -0.0005077078 -0.004402074 0.08342405 0.00046517438 0.008890717 0.0154186115 0.038206916
-0.009483733 0.048121147 0.0038122137 0.0026087984 -0.005587673 0.052959397 -0.0066991216 0.0067516644
0.026362158 0.06763795 0.0010465815 -0.020437261 0.0056162803 0.07716439 0.05163354 0.023550622
0.018192401 0.0053354786 0.15725768 0.0073749973 0.007151982 0.048946306 0.005931562 0.0014978859
0.0072851493 0.0079899635 0.01185396 0.0078037092 0.004434253 0.019986518 -0.0058577685 0.009744376
0.008074364 0.06828386 0.02086081 0.00560012 0.087990575 0.14653562 0.022728411 -0.0071472293
00000000: 9639 7a3d 3dea 223d c99b 063e 76da 983d
00000010: 2f94 3c3d f7f4 173d e36f ef3c ba07 283d
00000020: c4cb 223c 1ac8 af3c 1d53 d03c 1c5c 9c3c
00000030: af5f 6c3d c5a5 973c 1f3d b93e d008 113d
00000040: a2e8 bb3c 4cc5 e939 292b 033c f872 aa3d
00000050: 0d3b a53b 4859 373c a11b f33b 98e1 243d
00000060: 23c8 61bc b8ab 4a3d ea95 4b3b f771 0b3c
00000070: c6f3 0e3c 7862 2f3d 2234 883b c814 2d3c
00000080: 09f1 853c d76d b63d 514a 2c3c d8ef 1bbc
00000090: c050 fe3b 6939 a13d a2d7 443d 9742 743d
000000a0: c958 a43c a68e d03b 3ec4 203e 38ed 723c
000000b0: 29ad 8c3c 1f1c 4e3d 90a5 603c 7194 ec3b
000000c0: 473b 803c db82 153c 5c3d 663d 8566 453c
000000d0: faa9 6a3b 620d c23c bfc7 2539 9393 0f3c
000000e0: dd73 713c 859f 2e3d 8e7d bc3c 8e5a 423c
000000f0: a9ee 593d 6bfc 0f3e dd12 bf3c 106d 6cba
00000100: 0862 563d 37d3 e53c 5440 623d 5994 053d
00000110: c226 0c3d 418c fbba 4ffa 233d 57ba 353d
00000120: 5d34 e43b 29f5 d83c d16e c83c 9121 ea3c
00000130: 46d6 123d 6f3c a73d 5215 cc3e f346 1e3d
00000140: 495c 993c 58a0 563b a412 393c 5f28 263d
00000150: 7b15 2e3b 690b 403c 04e6 68ba ac05 e23c
00000160: ce83 36bc 4c79 023d dd55 873c 2598 0a3c
00000170: e411 2b3c 4208 e53c 3d80 b83b 584b 1c3c
00000180: 0ed4 003d 6ab8 c13c b45b faba 55ff 363c
00000190: b25a 2b3d cd5e 9d3d 1cd3 c43c a4a8 413d
000001a0: 7fe2 a23c 07cd ec3b ba25 a53d 9fa1 543d
000001b0: 3805 833c 171b 88bc 29ee c03b 7d4c 3d3c
000001c0: 12e3 273c 6d72 bb3b bf93 fa3c bd3b e43c
000001d0: 9957 2b3c c72f 293d 36e9 f13a 3359 413c
000001e0: f505 c43c dc46 013d 1db2 b93c 575d b23c
000001f0: 281d 783d 0626 163e d824 393c 20b0 a8ba
00000200: b628 bfba 0b98 8f3b bf97 a93b db96 6b3c
00000210: b33f 3d3c db1c b23b da80 f7bb 2908 443a
00000220: c0b9 283c 3fb5 913c 1ef2 883c 25c9 0f3c
00000230: 4696 17bc 1084 64bc 4ecd 953c 4879 06bb
00000240: 491e 403c ece3 16bc c023 053c 718a f339
00000250: b84d 523b 54c4 b1bc 752e 873c 1a13 44bc
00000260: ddd3 afba 3740 cabb a0e6 893c 5c01 34bc
00000270: 70f8 babc a91d dcbc 404a 3bbc d143 8e3c
00000280: 5820 133c 7bc0 9d3b f5a7 f1bb 4c2d de3a
00000290: c108 5dbc 27c3 c5bc f521 c5bb 5fd6 803c
000002a0: 96ff d5ba 9165 8a3c 0a26 8ebb abbf 2f3b
000002b0: 5767 ccbc c723 10bc 6c17 bbbc cae3 8b3c
000002c0: 62c4 a6bb 4566 b0bc 1627 ed3b 8848 84bc
000002d0: 18e7 d13b cb7d a63c 3193 7dbc e1ef 7dbc
000002e0: 11d3 013c b013 703c 3133 a538 8f4c 24bc
000002f0: ff2f a0bc 5d03 463c 3b0b 4fbb f5ca bb3b
00000300: 918c 533d 566e 273d 2733 0f3e 2782 823d
00000310: 38e0 cb3c 5582 3f3d fe2e 873c 83ae 483d
00000320: ac71 9e3b 87de 5d3c ba47 943c e123 35bb
00000330: 5f4f 183d 93fc 693d 2bf1 843e 80d9 253d
00000340: 05ee 003d b217 05ba 463f 90bb 3ada aa3d
00000350: a6e2 f339 5faa 113c 589e 7c3c db7e 1c3d
00000360: a961 1bbc ae1a 453d 55d6 793b 60f8 2a3b
00000370: cc18 b7bb f4eb 583d 4e84 dbbb 113d dd3b
00000380: 74f5 d73c c485 8a3d 732d 893a 0b6c a7bc
00000390: c608 b83b 5d08 9e3d b17d 533d 3ced c03c
000003a0: 3b08 953c 3dd5 ae3b 2808 213e f6a9 f13b
000003b0: 2c5b ea3b ec7b 483d 8c5d c23b b654 c43a
000003c0: 43b8 ee3b 56e8 023c 1d37 423c 42b6 ff3b
000003d0: 364d 913b c4ba a33c 86f2 bfbb e0a6 1f3c
000003e0: 564a 043c 69d8 8b3d 4ae4 aa3c 3681 b73b
000003f0: 6734 b43d 6f0d 163e ef30 ba3c 4e33 eabb

bias_hh_l0 f4 [256]
0.061090074 0.03977417 0.13145365 0.07463543 0.046039756 0.03709885 0.029228156 0.041022994
0.009936277 0.02145772 0.025430257 0.01908689 0.05770844 0.018511662 0.36179444 0.035408795
0.022938076 0.0004458822 0.008005896 0.0832271 0.00504244 0.01119072 0.007419065 0.040254205
-0.0137806265 0.04948017 0.0031064698 0.008511058 0.008725112 0.042818516 0.0041566053 0.010564037
0.016350286 0.08907669 0.010515765 -0.009517632 0.007761091 0.07872278 0.048057206 0.059633818
0.020061867 0.0063646613 0.1569986 0.014827065 0.017172413 0.050319787 0.013711348 0.007219844
0.015653266 0.009125437 0.05621086 0.012048368 0.003580688 0.023688022 0.00015810037 0.008763212
0.014737097 0.0426326 0.023009088 0.01186241 0.05320612 0.14061134 0.023324424 -0.0009018937
0.052339584 0.028054817 0.05523713 0.03261218 0.03421665 -0.0019191579 0.040033635 0.04436716
0.00696425 0.026484089 0.024466904 0.028580459 0.03584888 0.08165824 0.39860016 0.03864188
0.018720763 0.003274938 0.011295948 0.040565845 0.0026563096 0.01172147 -0.00088843727 0.027590595
-0.011139823 0.03185396 0.016520435 0.008459126 0.010441277 0.02795804 0.0056305216 0.009539448
0.03145223 0.023647506 -0.0019100816 0.011169274 0.04183454 0.076840974 0.024026446 0.04727997
0.019883392 0.0072265896 0.080638364 0.051911946 0.0159937 -0.01661448 0.005887766 0.011553881
0.010247009 0.0057204277 0.030588029 0.027860517 0.010457897 0.04130533 0.0018456343 0.011801052
0.023928622 0.031561717 0.022667939 0.021773024 0.06057468 0.14662942 0.011300288 -0.0012869872
-0.0014584276 0.0043821386 0.0051755602 0.014379228 0.011550832 0.0054355687 -0.007553202 0.00074780226
0.0102981925 0.01778662 0.016717013 0.008775984 -0.009252137 -0.013947502 0.018286373 -0.0020519067
0.011725971 -0.009209614 0.008126199 0.0004645172 0.003208978 -0.021700062 0.016501645 -0.011967445
-0.0013414581 -0.006172206 0.016833603 -0.010986652 -0.022823542 -0.026869612 -0.011431277 0.017366322
0.008979879 0.004814205 -0.0073747584 0.0016950755 -0.013490857 -0.024140907 -0.006016011 0.01572722
-0.0016326781 0.016894134 -0.0043380307 0.0026817124 -0.02495162 -0.0087975925 -0.022838317 0.017076392
-0.0050893286 -0.02153314 0.0072373254 -0.016147867 0.0064057223 0.020323655 -0.015476988 -0.015499086
0.007923857 0.014653131 7.877348e-05 -0.010028019 -0.019554136 0.012085763 -0.0031592387 0.0057309815
0.051647726 0.04087671 0.13984357 0.06372481 0.02488719 0.046755154 0.0165019 0.048994552
0.004835328 0.013541824 0.018100608 -0.0027639794 0.03718507 0.05712564 0.25965247 0.040490627
0.031476993 -0.0005077078 -0.004402074 0.08342405 0.00046517438 0.008890717 0.0154186115 0.038206916
-0.009483733 0.048121147 0.0038122137 0.0026087984 -0.005587673 0.052959397 -0.0066991216 0.0067516644
0.026362158 0.06763795 0.0010465815 -0.020437261 0.0056162803 0.07716439 0.05163354 0.023550622
0.018192401 0.0053354786 0.15725768 0.0073749973 0.007151982 0.048946306 0.005931562 0.0014978859
0.0072851493 0.0079899635 0.01185396 0.0078037092 0.004434253 0.019986518 -0.0058577685 0.009744376
0.008074364 0.06828386 0.02086081 0.00560012 0.087990575 0.14653562 0.022728411 -0.0071472293
00000000: 9639 7a3d 3dea 223d c99b 063e 76da 983d
00000010: 2f94 3c3d f7f4 173d e36f ef3c ba07 283d
00000020: c4cb 223c 1ac8 af3c 1d53 d03c 1c5c 9c3c
00000030: af5f 6c3d c5a5 973c 1f3d b93e d008 113d
00000040: a2e8 bb3c 4cc5 e939 292b 033c f872 aa3d
00000050: 0d3b a53b 4859 373c a11b f33b 98e1 243d
00000060: 23c8 61bc b8ab 4a3d ea95 4b3b f771 0b3c
00000070: c6f3 0e3c 7862 2f3d 2234 883b c814 2d3c
00000080: 09f1 853c d76d b63d 514a 2c3c d8ef 1bbc
00000090: c050 fe3b 6939 a13d a2d7 443d 9742 743d
000000a0: c958 a43c a68e d03b 3ec4 203e 38ed 723c
000000b0: 29ad 8c3c 1f1c 4e3d 90a5 603c 7194 ec3b
000000c0: 473b 803c db82 153c 5c3d 663d 8566 453c
000000d0: faa9 6a3b 620d c23c bfc7 2539 9393 0f3c
000000e0: dd73 713c 859f 2e3d 8e7d bc3c 8e5a 423c
000000f0: a9ee 593d 6bfc 0f3e dd12 bf3c 106d 6cba
00000100: 0862 563d 37d3 e53c 5440 623d 5994 053d
00000110: c226 0c3d 418c fbba 4ffa 233d 57ba 353d
00000120: 5d34 e43b 29f5 d83c d16e c83c 9121 ea3c
00000130: 46d6 123d 6f3c a73d 5215 cc3e f346 1e3d
00000140: 495c 993c 58a0 563b a412 393c 5f28 263d
00000150: 7b15 2e3b 690b 403c 04e6 68ba ac05 e23c
00000160: ce83 36bc 4c79 023d dd55 873c 2598 0a3c
00000170: e411 2b3c 4208 e53c 3d80 b83b 584b 1c3c
00000180: 0ed4 003d 6ab8 c13c b45b faba 55ff 363c
00000190: b25a 2b3d cd5e 9d3d 1cd3 c43c a4a8 413d
000001a0: 7fe2 a23c 07cd ec3b ba25 a53d 9fa1 543d
000001b0: 3805 833c 171b 88bc 29ee c03b 7d4c 3d3c
000001c0: 12e3 273c 6d72 bb3b bf93 fa3c bd3b e43c
000001d0: 9957 2b3c c72f 293d 36e9 f13a 3359 413c
000001e0: f505 c43c dc46 013d 1db2 b93c 575d b23c
000001f0: 281d 783d 0626 163e d824 393c 20b0 a8ba
00000200: b628 bfba 0b98 8f3b bf97 a93b db96 6b3c
00000210: b33f 3d3c db1c b23b da80 f7bb 2908 443a
00000220: c0b9 283c 3fb5 913c 1ef2 883c 25c9 0f3c
00000230: 4696 17bc 1084 64bc 4ecd 953c 4879 06bb
00000240: 491e 403c ece3 16bc c023 053c 718a f339
00000250: b84d 523b 54c4 b1bc 752e 873c 1a13 44bc
00000260: ddd3 afba 3740 cabb a0e6 893c 5c01 34bc
00000270: 70f8 babc a91d dcbc 404a 3bbc d143 8e3c
00000280: 5820 133c 7bc0 9d3b f5a7 f1bb 4c2d de3a
00000290: c108 5dbc 27c3 c5bc f521 c5bb 5fd6 803c
000002a0: 96ff d5ba 9165 8a3c 0a26 8ebb abbf 2f3b
000002b0: 5767 ccbc c723 10bc 6c17 bbbc cae3 8b3c
000002c0: 62c4 a6bb 4566 b0bc 1627 ed3b 8848 84bc
000002d0: 18e7 d13b cb7d a63c 3193 7dbc e1ef 7dbc
000002e0: 11d3 013c b013 703c 3133 a538 8f4c 24bc
000002f0: ff2f a0bc 5d03 463c 3b0b 4fbb f5ca bb3b
00000300: 918c 533d 566e 273d 2733 0f3e 2782 823d
00000310: 38e0 cb3c 5582 3f3d fe2e 873c 83ae 483d
00000320: ac71 9e3b 87de 5d3c ba47 943c e123 35bb
00000330: 5f4f 183d 93fc 693d 2bf1 843e 80d9 253d
00000340: 05ee 003d b217 05ba 463f 90bb 3ada aa3d
00000350: a6e2 f339 5faa 113c 589e 7c3c db7e 1c3d
00000360: a961 1bbc ae1a 453d 55d6 793b 60f8 2a3b
00000370: cc18 b7bb f4eb 583d 4e84 dbbb 113d dd3b
00000380: 74f5 d73c c485 8a3d 732d 893a 0b6c a7bc
00000390: c608 b83b 5d08 9e3d b17d 533d 3ced c03c
000003a0: 3b08 953c 3dd5 ae3b 2808 213e f6a9 f13b
000003b0: 2c5b ea3b ec7b 483d 8c5d c23b b654 c43a
000003c0: 43b8 ee3b 56e8 023c 1d37 423c 42b6 ff3b
000003d0: 364d 913b c4ba a33c 86f2 bfbb e0a6 1f3c
000003e0: 564a 043c 69d8 8b3d 4ae4 aa3c 3681 b73b
000003f0: 6734 b43d 6f0d 163e ef30 ba3c 4e33 eabb

weight_ih_l1 f4 [256, 64]
-0.13148567 0.093867436 -0.06097846 -0.016038902 0.014115696 0.06427718 0.09275511 -0.09255048
0.0033974457 -0.08992152 -0.05545764 0.13230349 0.15297818 -0.073669724 0.05233288 -0.020315746
-0.15742858 -0.01266945 -0.063701905 0.037717268 -0.11296744 0.035702795 0.016905785 0.051489584
-0.019905334 -0.051732194 0.093592435 -0.021715848 0.07508979 0.15030357 -0.02743428 0.07426543
-0.011183948 0.09828714 0.05983767 -0.075464495 -0.054998983 0.050759614 -0.13742812 -0.024482867
0.06864366 -0.17337497 0.0137281455 -0.1643556 0.08505841 0.04442368 0.12040135 0.10520463
0.07068487 -0.12230236 0.061541226 0.11618833 -0.06733425 -0.1398846 0.1307085 -0.10423835
-0.06877421 0.061942544 0.08222971 0.014520062 0.072414815 0.076540165 -0.017626906 0.07868987
-0.028456401 0.085593134 -0.13246371 -0.0028806347 0.1365125 -0.116279796 0.07743385 -0.068006486
-0.15551956 0.09442005 0.15573451 -0.002329761 -0.050572205 -0.1941873 -0.09121494 -0.019572848
-0.04393271 -0.051099304 0.03944663 0.020430386 0.020054888 0.007720241 -0.15215613 -0.01668687
0.14666164 -0.071429305 -0.039476853 -0.062205773 0.007848835 -0.18347175 0.055730432 -0.07152867
-0.07676861 -0.029446643 0.08053676 0.016955398 -0.00085566804 -0.042119753 0.109915525 -0.14138578
-0.04348547 -0.052743364 -0.022153312 0.18266493 -0.049860112 -0.100175634 0.045116756 0.049886692
-0.09365301 0.090743035 -0.043624155 -0.103916764 -0.06890068 0.16826317 -0.028819267 -0.038280107
-0.07830014 0.08524264 0.109760486 0.052891817 -0.0073267305 0.14463195 0.12126819 -0.03267644
0.03647084 -0.100061595 -0.20051013 0.07650959 0.12644151 -0.038953267 -0.019310523 -0.12132888
-0.029057583 0.037039414 0.101838194 0.059184775 0.030119311 0.07289442 0.02524967 -0.11804471
0.027568487 -0.16120195 0.1306013 -0.045709975 -0.0063442546 0.010193531 -0.014440965 -0.002268464
-0.06486421 0.1601745 0.09173308 -0.0127219595 0.033172883 0.00762114 -0.10273605 0.07921765
0.08217125 0.08717005 0.03571281 -0.033330433 -0.106070116 -0.06353662 -0.16724497 -0.08627357
0.05237264 -0.016854053 -0.08036121 -0.09366599 -0.11333668 -0.15702538 0.08490394 0.124750525
0.033580996 0.023029272 -0.003998355 -0.003352943 0.055643957 -0.07357687 -0.046801437 -0.055474274
0.16665153 -0.0031080546 -0.038071543 -0.09571384 0.035498366 -0.05510466 0.10767167 -0.07467082
0.00043276016 -0.025052287 -0.0003360782 -0.064102925 -0.0134369815 0.13576409 -0.08639013 -0.14352174
-0.023750309 -0.029925352 0.06428407 0.113665454 -0.16294636 -0.12413297 -0.147153 -0.0323204
0.19245824 -0.056759566 -0.07661653 -0.061335403 0.017234018 -0.067227 0.08137601 0.14823031
-0.0034420735 0.06449152 0.06177235 0.07438095 -0.12594162 -0.09955469 -0.14409018 -0.028529745
0.04127837 -0.06724345 -0.08996418 -0.10030196 -0.17293437 0.0026139107 -0.07933822 0.11836626
0.053696934 0.06159223 -0.014919788 0.06856843 -0.07157724 -0.10283018 -0.10976488 0.16612618
-0.080163576 -0.019952185 0.080272205 0.006204575 0.027896913 0.12556767 0.05830477 0.17122602
0.0036263925 0.18034515 0.0062996624 0.010129004 0.25354183 0.18344839 0.15076804 0.099204764
00000000: 2ea4 06be 923d c03d 8dc4 79bd 0464 83bc
00000010: 8545 673c c1a3 833d 64f6 bd3d 1b8b bdbd
00000020: aea7 5e3b c628 b8bd 8d27 63bd 917a 073e
00000030: 50a6 1c3e 27e0 96bd 015b 563d 356d a6bc
00000040: f534 21be 8693 4fbc 2576 82bd 6c7d 1a3d
00000050: 795b e7bd 183d 123d 007e 8a3c bee6 523d
00000060: 8310 a3bc 23e5 53bd 64ad bf3d 6fe5 b1bc
00000070: adc8 993d 2ee9 193e dbbd e0bc 7918 983d
00000080: e13c 37bc c54a c93d 5818 753d 218d 9abd
00000090: 9d46 61bd 50e9 4f3d f5b9 0cbe 4b90 c8bc
000000a0: 0c95 8c3d 3589 31be 04ec 603c d64c 28be
000000b0: 1b33 ae3d 9bf5 353d fc94 f63d 8675 d73d
000000c0: 3bc3 903d a979 fabd a712 7c3d 26f4 ed3d
000000d0: 8ae6 89bd e93d 0fbe 73d8 053e eb7a d5bd
000000e0: 7ed9 8cbd 77b7 7d3d 0d68 a83d 8ee5 6d3c
000000f0: 384e 943d 17c1 9c3d 4d66 90bc 2828 a13d
00000100: 661d e9bc 744b af3d 91a4 07be 08c9 3cbb
00000110: efc9 0b3e 1a24 eebd a395 9e3d fc46 8bbd
00000120: 8540 1fbe 4d5f c13d de78 1f3e e7ae 18bb
00000130: cd24 4fbd 09d9 46be e6ce babd 3d57 a0bc
00000140: c9f2 33bd 814d 51bd ca92 213d a05d a73c
00000150: 264a a43c 13fa fc3b d1ce 1bbe e7b2 88bc
00000160: 782e 163e 8749 92bd 7bb2 21bd 7bcb 7ebd
00000170: 6698 003c 05e0 3bbe 9845 643d a07d 92bd
00000180: dc38 9dbd 163a f1bc 75f0 a43d 0ce6 8a3c
00000190: e94e 60ba c385 2cbd 641b e13d 6fc7 10be
000001a0: d21d 32bd 6d09 58bd dd7a b5bc 840c 3b3e
000001b0: 1e3a 4cbd e228 cdbd 59cc 383d fd55 4c3d
000001c0: 26cd bfbd 7cd7 b93d 3eaf 32bd 50d2 d4bd
000001d0: cd1b 8dbd 2e4d 2c3e 6216 ecbc 9acb 1cbd
000001e0: d35b a0bd b193 ae3d 1bca e03d 17a5 583d
000001f0: 1215 f0bb 661a 143e 755b f83d bbd7 05bd
00000200: 7362 153d 18ed ccbd 8752 4dbe 0fb1 9c3d
00000210: e279 013e 768d 1fbd 1a31 9ebc 477b f8bd
00000220: 2b0a eebc a4b6 173d 8b90 d03d bc6b 723d
00000230: c6bc f63c ab49 953d 65d8 ce3c 6dc1 f1bd
00000240: 4fd7 e13c 2012 25be 59bc 053e 623a 3bbd
00000250: 77e3 cfbb c502 273c cc99 6cbc 83aa 14bb
00000260: 87d7 84bd c904 243e 8ede bb3d c46f 50bc
00000270: 4ae0 073d c2ba f93b 4767 d2bd dd3c a23d
00000280: 6649 a83d 3686 b23d 9847 123d 7e85 08bd
00000290: 4a3b d9bd 7d1f 82bd 4442 2bbe 33b0 b0bd
000002a0: b284 563d 8311 8abc 6b94 a4bd f4d3 bfbd
000002b0: 101d e8bd 43cb 20be 1ee2 ad3d 347d ff3d
000002c0: 3a8c 093d e2a7 bc3c a204 83bb 0dbd 5bbb
000002d0: ebea 633d 78af 96bd ddb2 3fbd fe38 63bd
000002e0: b3a6 2a3e 81b0 4bbb e8f0 1bbd 9e05 c4bd
000002f0: bc66 113d 6db5 61bd f782 dc3d 04ed 98bd
00000300: 16e4 e239 743a cdbc a733 b0b9 6548 83bd
00000310: c926 5cbc be05 0b3e 4fed b0bd 5df7 12be
00000320: 0290 c2bc 0326 f5bc 5ea7 833d 6fc9 e83d
00000330: 69db 26be 6d39 febd 47af 16be 6562 04bd
00000340: c613 453e b87c 68bd 21e9 9cbd d53a 7bbd
00000350: 5b2e 8d3c 4fae 89bd 77a8 a63d b0c9 173e
00000360: 6994 61bb 2114 843d 0105 7d3d 0a55 983d
00000370: d7f6 00be 54e3 cbbd 608c 13be 36b7 e9bc
00000380: 8213 293d efb6 89bd 243f b8bd 1d6b cdbd
00000390: b515 31be 254e 2b3b 147c a2bd 026a f23d
000003a0: 51f1 5b3d 2248 7c3d 2072 74bc 9b6d 8c3d
000003b0: 1797 92bd a198 d2bd 69cc e0bd fb1c 2a3e
000003c0: cd2c a4bd c472 a3bc c165 a43d bf4f cb3b
000003d0: 1188 e43c d094 003e fcd0 6e3d e055 2f3e
000003e0: c5a8 6d3b 66ac 383e 666d ce3b 1ff4 253c
000003f0: 3cd0 813e e5d9 3b3e f062 1a3e de2b cb3d

weight_hh_l1 f4 [256, 64]
-0.030441903 -0.06854874 -0.07050494 -0.0637763 0.020413306 0.08142718 -0.057337347 0.07504499
-0.08575831 0.016812077 0.060050342 0.042967565 0.08276873 -0.017226798 -0.05505697 -0.00072121184
0.16259259 -0.09190278 0.020033441 -0.062492337 0.04300083 0.045968663 -0.14163925 -0.01851683
-0.03938623 -0.090292506 -0.01172878 0.04318881 -0.10934286 -0.03766639 0.08444834 0.10948287
0.03406699 -0.0889598 -0.17089802 0.006306266 -0.062295973 -0.109955914 0.06886602 -0.13976133
0.061122287 0.033228215 0.10550814 0.05183223 0.11248826 -0.026849315 -0.13589422 -0.07517189
0.0815155 0.03448191 -0.08676992 -0.014841049 -0.11767135 -0.10960117 0.10028871 0.054892592
-0.05548799 -0.04990672 0.028481869 -0.0878638 0.04930922 -0.068445556 -0.060034636 0.013617817
-0.03253268 -0.094306454 0.05617058 -0.17517503 0.051522933 0.02894125 -0.058350865 -0.082879126
-0.0016882614 -0.070878394 0.024330001 -0.08842627 0.045749497 -0.059120815 -0.124841504 -0.021454051
-0.042685397 0.1970188 -0.037118174 -0.022869408 -0.06951998 -0.07069749 0.09621929 0.030198185
-0.07565765 0.028610555 0.117070675 0.10846809 0.025262257 0.034559686 0.014725577 -0.1167231
-0.04141893 0.03553698 0.09257131 0.024074156 -0.012539598 0.023801172 -0.1555067 -0.030640611
-0.044180624 0.05344583 -0.07916592 -0.030246079 0.09208309 0.089092635 0.038387414 -0.0059995977
-0.15270475 -0.074112386 -0.009299827 -0.0050473493 0.010650583 0.0894389 -0.046229567 -0.03230765
0.14006534 0.053923603 0.040530507 -0.056033466 -0.12834583 0.09087106 0.014544673 -0.04913852
-0.020312373 -0.037599973 0.08845994 -0.027125094 -0.017263317 0.036150187 -0.035209406 -0.123995505
-0.07673812 -0.0282764 0.08530621 0.017632023 -0.018713944 0.13040034 -0.06476977 -0.15563376
-0.038180582 0.037286725 -0.10428631 0.084923774 -0.08860822 -0.17812672 0.16441981 -0.03829271
0.10824848 -0.015267907 0.023738438 0.0041149673 0.020675253 0.14409113 -0.027629156 -0.050135043
0.08249291 0.10505314 0.019805681 0.0048429403 -0.0027968974 -0.012232155 -0.03584112 0.1401426
-0.19179434 -0.14572167 -0.14267667 0.034022324 -0.020498386 -0.045477215 0.084959336 0.031059187
-0.041288506 -0.08419093 -0.038766112 -0.00043521117 -0.034024402 0.065692954 -0.13140045 -0.0698271
0.05120226 -0.042403575 0.02527262 0.021363592 -0.00255194 -0.028989997 -0.03324884 -0.033901658
-0.0012761453 0.018025413 0.035942845 -0.13185285 0.039107762 -0.008335984 0.117879406 -0.01744999
-0.107639976 0.011580769 -0.007394843 0.1712564 -0.057357416 0.0807938 0.012203791 -0.080131166
-0.032783717 0.09601698 -0.038752086 -0.052530665 -0.09040716 -0.002385948 0.045510612 -0.06502552
0.10731101 0.12842079 -0.060856085 -0.048141163 0.123693764 0.046479262 -0.111261845 0.032446243
-0.09627377 0.08127877 0.051198628 0.1406274 0.002098835 0.14717846 -0.050648067 0.16017605
0.0039399043 -0.07080466 -0.12857796 0.055951767 -0.13010766 0.105871 0.03815958 -0.07637288
0.00026218392 -0.10097095 -0.047890898 -0.051017873 0.02343085 0.20463113 -0.06937845 0.05986201
0.24073637 0.011539983 -0.08747023 -0.01438236 -0.07979656 0.0033125791 -0.0017976526 -0.036403626
00000000: 4c61 f9bc 4863 8cbd e564 90bd 269d 82bd
00000010: ce39 a73c 4bc3 a63d 91da 6abd 30b1 993d
00000020: 0ea2 afbd 7bb9 893c 59f7 753d c2fe 2f3d
00000030: a782 a93d 371f 8dbc 6b83 61bd b50f 3dba
00000040: ac7e 263e 8637 bcbd 2c1d a43c f7f7 7fbd
00000050: a321 303d a349 3c3d e109 11be 9bb0 97bc
00000060: 7553 21bd 47eb b8bd 122a 40bc c0e6 303d
00000070: 26ef dfbd 1348 1abd 40f3 ac3d 8e38 e03d
00000080: d489 0b3d 8e30 b6bd e4ff 2ebe cba4 ce3b
00000090: 102a 7fbd 9130 e1bd a109 8d3d 981d 0fbe
000000a0: 5d5b 7a3d 4f1a 083d a714 d83d 084e 543d
000000b0: 3f60 e63d 18f3 dbbc db27 0bbe b8f3 99bd
000000c0: 99f1 a63d e73c 0d3d 6eb4 b1bd df27 73bc
000000d0: adfd f0bd 9476 e0bd 2b64 cd3d 0ed7 603d
000000e0: 6047 63bd fd6a 4cbd cf52 e93c f0f1 b3bd
000000f0: 77f8 493d 2f2d 8cbd e1e6 75bd 441d 5f3c
00000100: fd40 05bd be23 c1bd 1f13 663d 1561 33be
00000110: b609 533d 3316 ed3c 5101 6fbd 88bc a9bd
00000120: a748 ddba b128 91bd b64f c73c d518 b5bd
00000130: d363 3b3d ab28 72bd e7ac ffbd 68c0 afbc
00000140: e2d6 2ebd 4cbf 493e 3a09 18bd a058 bbbc
00000150: 7e60 8ebd d8c9 90bd 9e0e c53d 2f62 f73c
00000160: 66f2 9abd af60 ea3c c0c2 ef3d 8524 de3d
00000170: cbf2 ce3c 758e 0d3d 8c43 713c 850c efbd
00000180: e5a6 29bd 398f 113d 0796 bd3d 2a37 c53c
00000190: e372 4dbc adfa c23c 263d 1fbe 0502 fbbc
000001a0: bef6 34bd 04ea 5a3d be21 a2bd a0c6 f7bc
000001b0: 0f96 bc3d 3376 b63d 1f3c 1d3d 4698 c4bb
000001c0: a25e 1cbe 3cc8 97bd 4d5e 18bc 3c64 a5bb
000001d0: c87f 2e3c be2b b73d 375b 3dbd 0755 04bd
000001e0: 4a6d 0f3e ffde 5c3d 5103 263d 5983 65bd
000001f0: 176d 03be 9b1a ba3d c84c 6e3c 7945 49bd
00000200: 2266 a6bc 6e02 1abd 7c2a b53d 7235 debc
00000210: cd6b 8dbc 3812 143d bd37 10bd 5bf1 fdbd
00000220: e028 9dbd e9a3 e7bc 06b5 ae3d 0871 903c
00000230: fc4d 99bc ab87 053e 03a6 84bd 755e 1fbe
00000240: 3e63 1cbd f7b9 183d 1094 d5bd 84ec ad3d
00000250: 3a78 b5bd da66 36be ab5d 283e d1d8 1cbd
00000260: 61b1 dd3d 3e26 7abc 1d77 c23c d9d6 863b
00000270: 265f a93c a08c 133e 8a56 e2bc 675a 4dbd
00000280: 0bf2 a83d 1a26 d73d 863f a23c 87b1 9e3b
00000290: 274c 37bb 6069 48bc 23ce 12bd 8b81 0f3e
000002a0: bc65 44be 1038 15be d519 12be fe5a 0b3d
000002b0: 3bec a7bc 5146 3abd 29ff ad3d d66f fe3c
000002c0: 231e 29bd 4b6c acbd 37c9 1ebd 0e2d e4b9
000002d0: 2c5d 0bbd 078a 863d d78d 06be 8301 8fbd
000002e0: 76b9 513d 5faf 2dbd 8708 cf3c b302 af3c
000002f0: 733e 27bb 6e7c edbc f02f 08bd 77dc 0abd
00000300: 5544 a7ba 08aa 933c ce38 133d 6f04 07be
00000310: 762f 203d a793 08bc c26a f13d 48f3 8ebc
00000320: 5972 dcbd 44bd 3d3c 7050 f2bb d65d 2f3e
00000330: 9cef 6abd 3877 a53d 69f2 473c cf1b a4bd
00000340: 3848 06bd 8da4 c43d 82ba 1ebd 652a 57bd
00000350: 6427 b9bd 915d 1cbb 5669 3a3d 1a2c 85bd
00000360: e0c5 db3d bd80 033e 3b44 79bd ab2f 45bd
00000370: 2853 fd3d 0a61 3e3d 40dd e3bd 5ae6 043d
00000380: 2f2b c5bd 7c75 a63d a7b5 513d a100 103e
00000390: 9c8c 093b f3b5 163e 5974 4fbd 3105 243e
000003a0: 501a 813b 0902 91bd f1a9 03be ae2d 653d
000003b0: f13a 05be e5d2 d83d 384d 1c3d 6269 9cbd
000003c0: bb75 8939 dcc9 cebd 3f29 44bd 1ef8 50bd
000003d0: 0ef2 bf3c d38a 513e 4a16 8ebd de31 753d
000003e0: 9883 763e 3212 3d3c 9823 b3bd fda3 6bbc
000003f0: 616c a3bd db17 593b 369f ebba f81b 15bd

bias_ih_l1 f4 [256]
-0.04955244 0.04174307 0.055702902 0.05120915 -0.026093304 0.04491631 0.009802518 0.002827219
0.02006689 0.038370807 0.036134403 0.009958644 0.006283082 0.017077643 -0.018126778 0.0054670675
0.030851161 0.025781447 0.039146155 -0.005070113 0.034916822 0.03780518 0.05595593 0.14492413
0.045465376 0.039691646 0.22933163 -0.02052665 0.025191437 0.019798351 0.000113273374 0.010827641
0.060674913 -0.03592919 0.018028753 -0.008492277 0.036800634 0.028859343 0.019199053 0.035317566
0.014630739 -0.0063797464 0.006009901 0.05937353 0.03813613 0.03914676 0.036500152 0.014852115
-0.008105733 -0.042738553 0.004092517 0.041139506 0.034039374 0.025709182 -0.012361541 0.014380232
0.021028478 0.11164985 -0.020915056 0.016861722 0.040925294 -0.031396437 0.02414477 0.00891143
-0.046147358 0.0638895 0.04708652 0.108176686 -0.05633856 0.07902705 0.054063052 0.06908313
0.016233768 0.039460726 0.042457588 0.041358482 -0.0037142176 0.006750808 -0.002194052 -0.00074580143
0.027688647 0.040703475 0.06816074 0.0040652375 0.01026766 0.033287354 0.06892974 0.23201998
0.05787472 0.04146348 0.3111835 -0.020107495 0.044794176 0.012959561 -0.005081255 0.021087725
0.07415385 -0.036938332 0.013269302 -0.0022256398 0.019334592 0.04266702 0.013676047 0.032290727
0.013966984 -0.011043202 0.041937757 0.07285364 0.05541488 0.053977128 0.04041211 0.013047083
-0.012011917 -0.036131307 -0.00069251755 0.02361012 0.027185796 0.021840373 -0.014205515 0.049561318
0.035190366 0.014527558 -0.021234153 0.00040233895 0.044054154 -0.013353824 0.024108795 0.0007396656
-0.00393274 -0.046086963 0.047354534 -0.029204085 -0.0045754216 0.0045812535 0.011351651 5.0419898e-05
-0.03768569 -0.051950045 -0.052495915 0.04115743 -0.045276545 0.03305839 -0.020616198 -0.03239498
-0.055076532 0.025373278 -0.039134257 -0.02089403 -0.016249917 -0.055044007 0.052835625 -0.054805294
0.033001367 0.029826544 -0.02553502 -0.011552639 0.016824618 0.04339235 -0.032275207 -0.03668991
0.0038620098 0.045928247 0.036191575 0.031471457 0.031686686 0.016202481 -0.035669953 0.0453207
-0.031590648 -0.031971946 -0.00840725 0.046999644 -0.0624897 0.04419013 0.050568778 0.04470793
-0.035007704 0.029144777 -0.02594456 -0.019226892 0.026295476 0.030842887 -0.02315251 0.011450949
0.011439616 0.038059097 0.02827456 0.023534225 -0.046284262 0.043818243 0.0075210906 -0.017042328
0.010602056 0.034004405 0.008561796 0.029678263 -0.046040073 0.014560457 0.13168553 0.02137026
0.024456685 -0.0006930571 0.0156076895 0.04606996 0.011991354 0.011894963 -0.003655 0.0021004584
0.022527613 0.021310061 0.03151012 -0.011890959 0.02376403 0.015186709 0.018746851 0.16988124
-0.00993004 0.026989114 0.18025105 0.014293389 -0.0024458778 0.008815222 -0.005021458 -0.0010848332
0.010024004 -0.05435567 0.0024175989 0.013745854 0.0066963485 -0.029016769 0.0032639867 0.013574993
0.00782966 -0.03214808 -0.011095652 0.009099817 -0.00048717696 0.042912062 0.017083436 -0.0058052964
-0.023863338 -0.018208109 0.012495762 0.009067847 0.017459655 -0.0006662581 -0.0058174543 0.043693513
-0.005559989 0.08515749 -0.009498766 -0.00706503 -0.0024874646 -0.016740063 0.023397563 -0.03688614
00000000: 80f7 4abd c8fa 2a3d ba28 643d b0c0 513d
00000010: a0c1 d5bc 2afa 373d be9a 203c dd48 393b
00000020: 5263 a43c b52a 1d3d ab01 143d 9529 233c
00000030: 50e2 cd3b 6ae6 8b3c 9c7e 94bc 1625 b33b
00000040: 93bb fc3c 9d33 d33c b857 203d 3123 a6bb
00000050: f104 0f3d 9bd9 1a3d 0c32 653d fe66 143e
00000060: e739 3a3d b593 223d e9d5 6a3e 8127 a8bc
00000070: 465e ce3c 2730 a23c 2e8d ed38 6b66 313c
00000080: 4286 783d 7d2a 13bd 09b1 933c 3123 0bbc
00000090: 43bc 163d 6e6a ec3c 5547 9d3c 27a9 103d
000000a0: c4b5 6f3c 310d d1bb b4ee c43b a931 733d
000000b0: a134 1c3d 5a58 203d 2f81 153d 4956 733c
000000c0: e9cd 04bc 9f0e 2fbd 851a 863b e681 283d
000000d0: df6c 0b3d 109c d23c 1088 4abc 119b 6b3c
000000e0: ea43 ac3c ada8 e43d 0d56 abbc 9821 8a3c
000000f0: 48a1 273d 8d99 00bd 41cb c53c 3f01 123c
00000100: 0305 3dbd 80d8 823d cbdd 403d bd8b dd3d
00000110: 43c3 66bd efd8 a13d 3871 5d3d 757b 8d3d
00000120: aefc 843c 92a1 213d 02e8 2d3d 8367 293d
00000130: 3b6a 73bb e235 dd3b 16ca 0fbb e381 43ba
00000140: 4dd3 e23c b0b8 263d dc97 8b3d af35 853b
00000150: b039 283c 5258 083d 092b 8d3d a596 6d3e
00000160: 0b0e 6d3d 9cd5 293d 7253 9f3e 79b8 a4bc
00000170: 197a 373d 5754 543c a880 a6bb 2ac0 ac3c
00000180: f9dd 973d a64c 17bd 7d67 593c 0adc 11bb
00000190: 9463 9e3c 9dc3 2e3d 8011 603c 4843 043d
000001a0: c7d5 643c 8cee 34bc edc6 2b3d 4a34 953d
000001b0: b7fa 623d 1f17 5d3d 2b87 253d 6fc3 553c
000001c0: a2cd 44bc 6cfe 13bd 118a 35ba 036a c13c
000001d0: bfb4 de3c 95ea b23c 40be 68bc cf00 4b3d
000001e0: c623 103d ff04 6e3c 3ff3 adbc 05f1 d239
000001f0: 2172 343d ffc9 5abc cf7f c53c 1ee6 413a
00000200: 37de 80bb afc5 3cbd d4f6 413d 683d efbc
00000210: 6bed 95bb 571e 963b 46fc 393c f479 5338
00000220: 4f5c 1abd 92c9 54bd f505 57bd b194 283d
00000230: e673 39bd 3c68 073d 4de3 a8bc 99b0 04bd
00000240: ee97 61bd 9fdb cf3c 3e4b 20bd f529 abbc
00000250: 8c1e 85bc d375 61bd 2b6a 583d 847b 60bd
00000260: 712c 073d cc56 f43c d12e d1bc 4847 3dbc
00000270: c8d3 893c 2dbc 313d 0233 04bd 2948 16bd
00000280: c619 7d3b 421f 3c3d 9e3d 143d 37e8 003d
00000290: e6c9 013d 11bb 843c a81a 12bd 33a2 393d
000002a0: 3265 01bd 04f5 02bd 90be 09bc b382 403d
000002b0: 33f5 7fbd b600 353d 3521 4f3d aa1f 373d
000002c0: 3d64 0fbd 07c1 ee3c b089 d4bc b781 9dbc
000002d0: 9c69 d73c 39aa fc3c 55aa bdbc c39c 3b3c
000002e0: 3a6d 3b3c dbe3 1b3d 0da0 e73c d9ca c03c
000002f0: 9194 3dbd c27a 333d 7b73 f63b 5a9c 8bbc
00000300: 3fb4 2d3c 3448 0b3d c646 0c3c d41f f33c
00000310: 8494 3cbd fc8e 6e3c 92d8 063e af10 af3c
00000320: 6359 c83c 46ae 35ba 65b7 7f3c dbb3 3c3d
00000330: 6277 443c 17e3 423c b988 6fbb d8a7 093b
00000340: d48b b83c 7092 ae3c c110 013d 4cd2 42bc
00000350: c8ac c23c add1 783c ff92 993c 59f5 2d3e
00000360: 9bb1 22bc 4618 dd3c bb93 383e d22e 6a3c
00000370: 054b 20bb b96d 103c 0b8b a4bb f630 8eba
00000380: b83b 243c 0da4 5ebd 9470 1e3b 4a36 613c
00000390: 0b6d db3b 93b4 edbc 9ce8 553b a669 5e3c
000003a0: f947 003c b5ad 03bd 8aca 35bc 6617 153c
000003b0: c96b ffb9 8fc4 2f3d 90f2 8b3c 5b3a bebb
000003c0: 0c7d c3bc 2c29 95bc 06bb 4c3c 4f91 143c
000003d0: 8d07 8f3c d3a7 2eba 58a0 bebb f8f7 323d
000003e0: 9130 b6bb 0d67 ae3d b6a0 1bbc c481 e7bb
000003f0: bb04 23bb 7522 89bc 3fac bf3c ec15 17bd
