transfer_learning/models/lstm_small_v1.pth (torch, 413736 bytes, 18 tensors)

weight_ih_l0 f4 [256, 3]
00000000: 4e15 ab1d 3b29 e33c fc89 da3b e917 8997
00000010: 0ae9 ba3d e8b1 2e3d 48bc 6719 a4d5 063e
00000020: dc3d 163e a711 1418 a19b d33d 30e6 af3d
00000030: 0d7d b495 d9be 943d 54d8 db3d 387e db96
00000040: 8019 9dbb b935 cdba a1ff 6820 69de 673d
00000050: 5fbf 9f3c 21bc df16 de47 083d 74de 07bc
00000060: a8f6 aa17 3049 473d e1e7 b2bb 1f92 251e
00000070: d254 b93c 61c1 e73c 5062 0d9a f696 cd3d
00000080: c57b 873d abc5 c396 a5c4 f73d 1018 133e
00000090: c12e a31a c70e a53d e52a cc3c 6467 2e94
000000a0: 9ee6 8d3d 1bb6 e63d 68de ae98 7e57 9c3d
000000b0: df1c 5a3d 4aef 8193 b695 3c3d aba9 ff3b
000000c0: a34f e099 a324 c63d 4bc4 8f3d 017f 8d19
000000d0: 5e53 863d d8c4 133d cabb a19c 42a7 b93d
000000e0: d4d8 08bc 35b1 5396 e0d8 053d 104b cc3c
000000f0: d1cf 9f16 6b04 1a3e f97d 46bd 352a c81d
00000100: e4e5 2f3d 9d15 9e3c cfd5 ca15 7da5 a63e
00000110: 4ff6 623e 33f1 d216 bed3 9d3d 9fae 2a3d
00000120: b9f8 1497 537b 7d3d 8266 d6bc 0675 3718
00000130: d197 773d fa19 e23c 7742 0a9d 0f24 c33c
00000140: cbba 513c 2719 e395 b74b 19bc bb8c e13d
00000150: 1f60 341a be6c b63d 9e3c 223d ea46 329d
00000160: 24c1 323d 5284 d139 17f4 6315 aee2 213d
00000170: 8ba2 b83c c440 2197 b0db 1b3d e509 243d
00000180: 41e6 8118 b675 a23d fc32 96bc 5bbd 911b
00000190: 839a a23d 3d7a 843d feba 3418 fa89 5e3c
000001a0: 85a0 ed3d 8459 7615 7f65 a23c 8eb6 003c
000001b0: 172e 0b96 aa5f 803d 7616 353d 987c 1b95
000001c0: 541d 913d 8991 a1bb 546d 9a18 aa58 2d3e
000001d0: 458e d73d 6d63 0e17 e40e f6bc d50c 323b
000001e0: b892 7213 308d a63d ec5c ac3d c20d 9e17
000001f0: fdd9 363d 8865 863d c1d0 7816 ebbc e63d
00000200: f3a2 3d3d 5f4f 0a98 868a 86bc b09b 303d
00000210: f8ce 871f ce1c 2d3d faa2 353c 65c6 de14
00000220: 229b 9d3d 8890 df3d 5b7b f318 e5d9 0e3e
00000230: 16ba 153e adc0 6917 4fa6 00bc e526 9a3c
00000240: d062 4d1c e7e9 3e3d a60b bf3d 4d91 039e
00000250: adea 2f3e 1087 083e f332 1f9d ad8c c63c
00000260: 14c5 a33c 7cc2 a096 5d33 e93d 40f3 c03d
00000270: 1121 f119 c775 403d 2e0c 2f3d 9e5f 9a9f
00000280: 6b7d 513d 7fa5 7d3d 1042 4397 971f 183d
00000290: 28c1 2f3d b0c3 0c98 538d 1b3e 09b5 5d3e
000002a0: b9bd b898 129d f53d 24e4 e13d cfcb 111c
000002b0: a99a 60bc 7b36 1c38 7b3d 8a16 3df9 483d
000002c0: c022 213d 0fa6 ca9e 8616 b83d 4f18 0a3e
000002d0: ddd1 a39f 6747 e93d 37a8 183d 1f73 c51b
000002e0: 2b2e 3f3d 4f8e 763d 6636 271d 3c48 b83d
000002f0: 2ef1 8f3d 0f14 cf96 ab79 a13c af46 b53d
00000300: 8381 8097 af29 823c ce42 9cbb 797d 899e
00000310: aa4f 04bc 416c 443d 4268 d319 2575 db3d
00000320: e12d fa3d 20fb 3c9f 0ebb 7e3b 287f 7e3d
00000330: d602 0816 49b6 723d 6151 4d3d f350 021d
00000340: baa3 2e3c fed4 beba 6864 001e 9553 753d
00000350: b4d5 263c d68d 181b 3352 003d ba37 6f3a
00000360: 7822 cf98 5db1 833d 688d 87bb 3c6f 1720
00000370: a324 003c 8865 983c e7e1 e69d 790c 8dbc
00000380: be5a 993d fef2 921b 37c2 283d 145c 843d
00000390: fab7 631a cd99 653d f004 833b b17d 1e98
000003a0: fcdd ca3d d183 e63d 5d5f 001e d68a e13a
000003b0: 65e1 163d f6fc 4796 3e56 293d 49e8 2abc
000003c0: c841 d497 033a d93d ac51 213d 07bb 9c16
000003d0: 6863 ae3d 7caf 373d e765 8b96 a51a b23c
000003e0: 0d10 1cbd 24d2 d997 78d7 f93c bc40 213d
000003f0: b85a 071d 26cb 0d3e 42ed 5e3d 333c 4c1f
4.528535e-21 0.027729621 0.006669281 -8.859453e-25 0.0912648 0.042650133 1.1980443e-23 0.13167435
0.14672035 1.9137464e-24 0.10332418 0.08588827 -7.2898716e-26 0.07262964 0.10734621 -3.5461013e-25
-0.0047942996 -0.0015656269 1.9735745e-19 0.05660859 0.019500433 3.614632e-25 0.033271663 -0.008292783
1.1048257e-24 0.04865378 -0.005459771 8.765244e-21 0.022623453 0.028290452 -2.9237533e-23 0.10038559
0.06615404 -3.1628695e-25 0.12098054 0.14364648 6.7490755e-23 0.08059459 0.024922797 -8.805145e-27
0.06928752 0.112652026 -4.520252e-24 0.07633875 0.05325019 -3.2800135e-27 0.046041213 0.0078022084
-2.3193222e-23 0.09674957 0.07019862 1.4630355e-23 0.0655887 0.036076397 -1.0702629e-21 0.09065105
-0.008352477 -1.7100361e-25 0.03267753 0.024938136 2.5818986e-25 0.15040748 -0.04845998 5.29832e-21
0.04294385 0.019297415 8.192448e-26 0.32548133 0.22164272 3.4079548e-25 0.07706402 0.041670438
-4.813531e-25 0.06188519 -0.026171926 2.3711277e-24 0.060447518 0.027600277 -1.829851e-21 0.023820905
0.012800883 -9.1724253e-26 -0.009356431 0.1101317 3.7300774e-23 0.0890746 0.03960859 -2.3594766e-21
0.043641225 0.00039962173 4.6034838e-26 0.03952282 0.022538444 -5.210365e-25 0.038051307 0.0400485
3.3578215e-24 0.07932608 -0.018334858 2.4110606e-22 0.07939627 0.064686276 2.3358862e-24 0.013582701
0.11602882 4.974992e-26 0.019823788 0.007856024 -1.1242874e-25 0.062682465 0.044210874 -3.1400288e-26
0.07085672 -0.004930679 3.991846e-24 0.16928354 0.10525183 4.600817e-25 -0.030036397 0.0027168293
3.0617032e-27 0.08132398 0.08416161 1.0213984e-24 0.044641484 0.06562334 2.0099152e-25 0.11266502
0.04629798 -1.7876154e-24 -0.016423475 0.043117225 5.7517125e-20 0.0422638 0.01108622 2.2494524e-26
0.07695605 0.10916239 6.2938585e-24 0.13950308 0.14621767 7.552955e-25 -0.007852151 0.018817374
6.795652e-22 0.046609785 0.09328394 -6.96513e-21 0.17179365 0.13332772 -2.1069815e-21 0.024237001
0.019991435 -2.597213e-25 0.1138675 0.09421396 2.4932171e-23 0.04698732 0.042736225 -6.537972e-20
0.051145 0.061925407 -6.309128e-25 0.0371395 0.042908818 -1.8193373e-24 0.1519063 0.2165109
-4.7754456e-24 0.119928494 0.110298425 4.823989e-22 -0.013708749 3.7244037e-05 2.2333902e-25 0.049065817
0.03933978 -2.1456262e-20 0.08988671 0.13485835 -6.9380375e-20 0.11390572 0.037269797 3.2665311e-22
0.04667489 0.06019431 2.213039e-21 0.089981526 0.07028423 -3.3455312e-25 0.019711336 0.088513725
-8.304499e-25 0.015889017 -0.004768706 -1.4557333e-20 -0.008075634 0.0479548 2.1858998e-23 0.10715703
0.12215782 -4.0018274e-20 0.0038868818 0.062132984 1.0986887e-25 0.059255872 0.050126437 1.7247207e-21
0.010659153 -0.0014559326 6.797027e-21 0.059894163 0.010182787 1.2618975e-22 0.03132839 0.00091254304
-5.354305e-24 0.06430314 -0.00413673 1.2827002e-19 0.007821235 0.018603101 -6.111407e-21 -0.017217861
0.07488011 2.4310704e-22 0.041200843 0.06462875 4.7091115e-23 0.05605488 0.0039983913 -2.048448e-24
0.099056214 0.11255611 6.795984e-21 0.0017207514 0.036836047 -1.6154912e-25 0.041342013 -0.010431358
-1.3716784e-24 0.10606768 0.03938453 2.532119e-25 0.08515054 0.04484509 -2.252097e-25 0.02174122
-0.038101245 -1.4076343e-24 0.030498251 0.039368376 1.7914002e-21 0.13847026 0.054425485 4.3248476e-20

weight_hh_l0 f4 [256, 64]
00000000: 5196 04bd 514d b03c 1897 6b3b e027 f73c
00000010: 506d 7bbc bebe 013c 9cde 043c 85b2 d03a
00000020: a4af 08bd ed6e 993c 21d3 42bc 4def 5e3c
00000030: f523 bf3c a436 6e3d 5253 fa3c 3a66 a93b
00000040: 3aa7 163d 372b 743c 2eb6 a7bc 67f7 a43b
00000050: dcdd e8ba efdc a53c e864 843c ec91 863c
00000060: f6f4 4c3b aff7 26bd 2ca1 913c aacf fe3c
00000070: 0100 483d b21b 923c ed06 ad3c 2cbe 60bb
00000080: b576 873b f5c3 983b a81d febc 1201 903c
00000090: 3ff2 d1bc a49c c43b 03fe 413c 9a8f 6bbc
000000a0: 5c92 033d 5589 d2bc 47ea fd3c 4ca2 df3b
000000b0: 8e19 e93b 74dd a0bc d29f 5dbd 9102 d03c
000000c0: db04 1b3d cf73 cfba cbe0 87bc 9a1d 88bc
000000d0: b1a0 013d e946 d83c 4d9a ae3c 9398 d9bc
000000e0: e293 203d ce1a 4ebc 1766 4abc 0475 093c
000000f0: 6f8e 0abc bab7 843c d394 afbc f521 923c
00000100: ec4f 1bbc 5c05 353c 17c8 e73b 2507 583c
00000110: 4092 1bbc 3384 043c 5860 ee3a 89a2 14bb
00000120: 5451 a2bb 0c7d 0a3c 95a0 09bc 4816 753b
00000130: 184d a03b c291 fc3c 0e0d 843c 07cf 0b3c
00000140: 6818 6e3c 2509 563c fd12 27bc 60fd a93b
00000150: b843 2dbc e710 063c 3d74 f23c 566b 513c
00000160: de3a 2b3c 3480 55bc b6a9 4f3c 933b 0a3c
00000170: 6621 fd3b 29d8 0a3c d1c2 6f3c 45c3 4c3c
00000180: 6caa 213c 16c6 df3b 5652 6ebc 209e 413c
00000190: b3d4 8fbc 0eff 0c3c 9c88 3bbb 5dd7 02bc
000001a0: 2a79 8b3c 67e4 66bc 0099 5238 8dea 2a3c
000001b0: 7735 2d3c d9d2 5ebc 0d0d c9bc acfe 6b3c
000001c0: 29d8 8a3c 8f16 0e3c 1a17 51bc 39a5 26bb
000001d0: eb8b 813c 8a97 833c 6ba5 973c 0405 a0bc
000001e0: 36f6 ec3c 036e 36bc ebe9 60bc f6be 253c
000001f0: a98c 3bbc b990 393c 6451 0dbc a7e4 6c3c
00000200: fb87 90bd 4859 5c3d ba2d 9abc 4269 213d
00000210: 9613 9cbc cba5 f23c 79a3 ed3c 1402 013c
00000220: ae2c 92bd d630 3d3d 2a3a 77bc 7cb7 8dbc
00000230: 816d 1a3d 307b 783d 03c0 523d 104a 873c
00000240: bf93 7e3d f43e 833c 169c 83bd 9d7a 443a
00000250: 938a 5c3c 05d2 543d 4c40 163d 425f d63b
00000260: 805d 093d 58d7 8abd f715 213d 1338 233d
00000270: c9b6 8a3d dd5d 3f3d 5858 3a3d 7268 6d3c
00000280: efee 663c c91c 5ebb 5512 1dbd ef75 373d
00000290: bead 4abd b8f6 e33c c566 2cbd 9a9a 28bd
000002a0: 60f9 4d3d e5be 3cbd 5f9b 9c3d 14d4 b43c
000002b0: 30c0 c93c 4770 7ebc 779d 55bd 85a3 853d
000002c0: 76d9 243d 08e9 3a3c 6548 15bd 43bf ee3b
000002d0: d544 853d 43c7 3d3d 075a 263d 0b16 193b
000002e0: ef5e 843d 4b60 44bd 925e 2fbd 9643 d639
000002f0: b705 743c c5f6 8b3c e807 20bd cb55 0b3d
00000300: 5aed 8cbc 735a aa3c 8d79 973c b335 b53c
00000310: 98f7 b1bc 3fc0 173c ab98 bc3b a562 02bb
00000320: 8fab 6dbc c20d 933c dee6 85bc 11a4 9f3c
00000330: 9e62 2a3c 2a5d df3c f7fb c73c 58d8 dc3b
00000340: c88e bc3c 9cfe 5a3c 6053 80bc e3eb de3b
00000350: 0d46 cabb e17c 893c b8a1 af3c 765f 4c3c
00000360: 1715 333c 57a8 58bc 6d2d 4b3c b3d5 c83c
00000370: 8a56 583c 6bd9 733c 235b 843c 5ab9 903c
00000380: bfea d73b 5975 213b 0e88 d5bc 1661 3c3c
00000390: e91d a6bc b625 4d3c c9fc 3d3c 690e 4cbc
000003a0: 89a2 db3c 57be c5bc e414 b63c 407f 5f3c
000003b0: 83e7 823c 9c63 b6bc b4de 0ebd c4af 953c
000003c0: 0d36 da3c 9a04 ecba 5487 65bc 5d0d 9abc
000003d0: 4d55 c73c ca08 983c 5c4d b93c a858 1dbd
000003e0: fe39 0a3d db69 69bc 7cf5 90bc 5fc4 a53c
000003f0: 042e 27bc fafe 733c d157 97bc b44d c73c
-0.032369915 0.021521242 0.0035948213 0.030170381 -0.015345886 0.007919012 0.008109715 0.0015922344
-0.03337063 0.018729651 -0.011891157 0.013606858 0.023332575 0.058157578 0.030557308 0.005169657
0.036780573 0.014902881 -0.020472612 0.0050343755 -0.0017766315 0.02024695 0.016161397 0.016427003
0.0031273938 -0.040763553 0.017777048 0.031104881 0.04882813 0.017835472 0.021121467 -0.0034293039
0.004134024 0.004662032 -0.03102 0.017578635 -0.025628207 0.0060001183 0.011840346 -0.014377499
0.032122 -0.02570025 0.030995501 0.006824767 0.007113642 -0.019636847 -0.054107495 0.025391849
0.037846427 -0.001582736 -0.016586682 -0.016615678 0.031647388 0.026401 0.02131381 -0.02656201
0.039203532 -0.012579633 -0.012353442 0.008389715 -0.00845681 0.016200889 -0.02143327 0.017838458
-0.009479504 0.011048641 0.007073413 0.013185297 -0.009495318 0.008088159 0.0018186672 -0.0022679886
-0.0049535427 0.008452665 -0.008400102 0.0037397314 0.004892003 0.030831221 0.016119506 0.008533246
0.014532186 0.013063704 -0.010197398 0.0051876754 -0.010575227 0.008182741 0.029596442 0.012781939
0.010451047 -0.013031054 0.01267474 0.008437055 0.0077249287 0.008474388 0.01463385 0.012497728
0.009867292 0.0068290336 -0.014545998 0.011817485 -0.017557478 0.008605732 -0.002861536 -0.007985917
0.017025549 -0.014092541 5.0210394e-05 0.010431898 0.010571829 -0.013600075 -0.024542356 0.01440398
0.016948776 0.008672371 -0.0127618555 -0.002542807 0.015813788 0.01606347 0.018511495 -0.019533642
0.028925996 -0.011134627 -0.013727645 0.010116329 -0.01144711 0.0113260085 -0.008625362 0.014458812
-0.07057186 0.053796083 -0.018820632 0.039407022 -0.019052308 0.029620072 0.029008614 0.007874031
-0.07137428 0.04618915 -0.015089551 -0.017299406 0.037702087 0.060664356 0.051452648 0.016514808
0.06215262 0.01602123 -0.064262554 0.00074950774 0.013460773 0.051958103 0.036682412 0.0065421173
0.033536434 -0.06779355 0.039327588 0.0398484 0.06773145 0.046720374 0.045494407 0.014490234
0.014095052 -0.003389167 -0.03834756 0.044790205 -0.0494821 0.027827606 -0.042090196 -0.041163065
0.05028665 -0.04608049 0.07646822 0.022073783 0.024627775 -0.015529699 -0.052152123 0.065253295
0.04024645 0.011408098 -0.036445994 0.007285984 0.06507269 0.04633261 0.0406132 0.0023359086
0.0646342 -0.047943395 -0.0428148 0.00040867616 0.014893941 0.017085442 -0.03907004 0.034017365
-0.017203022 0.020795083 0.018490577 0.022120332 -0.021724507 0.009262144 0.005755504 -0.0019895223
-0.014506235 0.017950896 -0.016345438 0.019487413 0.010399489 0.027266104 0.024412138 0.0067396574
0.023017302 0.013366368 -0.015664756 0.006803022 -0.0061729015 0.01678318 0.021439418 0.012473932
0.010930321 -0.013223729 0.012400967 0.024515962 0.013204226 0.014883379 0.016156739 0.017666508
0.006589263 0.0024636595 -0.026065852 0.0114977565 -0.020277934 0.012521198 0.011595913 -0.0124546075
0.026810901 -0.024138613 0.022226758 0.013641179 0.015979534 -0.022264294 -0.034880355 0.018272288
0.026637102 -0.0018006742 -0.0140093155 -0.0188052 0.024332667 0.018558878 0.022619896 -0.038414627
0.033746712 -0.014246429 -0.017695181 0.020235239 -0.010203842 0.014892334 -0.018474491 0.024329044

bias_ih_l0 f4 [256]
00000000: 6efb 7f3d eb86 afbc 9366 243e db75 893d
00000010: e233 003d 6e97 083d c78f e33c 1c9f 1f3d
00000020: 7133 ab3d 088f 323d 074f b03d 9a9c df3d
00000030: 9396 b73d e531 933d 3535 ae3d 1a25 053d
00000040: c92c 6e3b 2c30 903d 5a49 cc3d 6dea f13c
00000050: e73e 2d3e 4525 513d 582b a63e a7e4 9d3d
00000060: b460 82bc dcbd 653d c2a5 123c 18ac 933d
00000070: ca4a 993d b67d 833d 520b bbbc aba6 2f3d
00000080: 7a21 bd3d cdf7 773d 34c3 7d3d 988c 6a3d
00000090: d347 3d3d c108 05bd cf20 343e 2acd 2d3d
000000a0: 7ce4 723d 57f1 433d 50af 8d3d 331e 443c
000000b0: c6a4 a43d ed12 953d bd1e 213d e1f1 433d
000000c0: 4e15 593d d891 193e e1ff 023d 169c 9c3d
000000d0: 9455 6137 20e7 073d e0b7 3d3d 7303 cf3d
000000e0: 2637 c3bc 829c b23c 9696 183d 0cef f93d
000000f0: ecee 093e 1c66 ad3c e8b3 c53d a170 753c
00000100: 9289 c43d 958a b43d 9b6c d33d b2a7 943d
00000110: 8c12 f33c ef5c 7d3c eff9 943d b37d 103d
00000120: 857f ee3c 1dc5 813d 66f2 843d 14b2 903d
00000130: 4d5c 603d 73eb e33d 4e93 a83c 7904 5d3d
00000140: 48d2 833d a29a b63d acff 3e3d c1ee c23c
00000150: 45f6 243e 0c24 26bd f3ec 6d3e cacd e93d
00000160: 0527 833d eba5 ab3c d4b2 c83c e573 e83c
00000170: 2115 a73d a7a2 243d ba02 903c c0e9 b93d
00000180: b4e8 d43d 881d 9e3d 6c69 833d 2655 6a3d
00000190: 5c6a 833d f1d5 20bb 1463 f23c a2b1 a83d
000001a0: a27e 7f3d ef0b aabc 5060 84bb 4201 183d
000001b0: eb05 d63c d992 653d 6d89 593d 2242 a43d
000001c0: ad80 b03d 4dc6 d73d fed6 cc3c 769d 373d
000001d0: 8405 18bc c646 e23d 7475 d9bc b488 2e3d
000001e0: 6c03 8e3d 0319 7e3d c591 f43c 8ac0 46bc
000001f0: 936f 0b3e 87a2 f33c 5673 bf3d 0b13 dbbb
00000200: d385 8cbd f15f 843d 8dc9 fa3d ba3d 93bd
00000210: d51f ffbd 982e da3d a37f b0bd 302b bd3c
00000220: 1217 f3bd 30b2 023e 37e8 46bd 1fb3 acbc
00000230: fb1c aabd 6e09 24bc 0bb4 a73d 3ec3 c43c
00000240: f377 e13d f2d7 7cbd 02a5 18be 4c97 853d
00000250: 75ae 8cbd 418f babc 98e7 0c3e f1e7 97bb
00000260: 371f a93d 5918 4abd c34d 60bd bbef bcbc
00000270: f1c4 e7bd 1bcd 5ebd 1796 dd3d 744f d93d
00000280: 87da 993d 009c 9ebd 4e49 2d3d ccbf a7bd
00000290: 552a dcbd 1028 d63d a171 c7bd 76b7 68bc
000002a0: d179 453c dc14 ddbc 8e27 173e c3f1 ca3d
000002b0: 0d36 a53d 232f a13c efce 88bd 16a6 853d
000002c0: 20b3 15bc a77b 94bd 5cbd bc3c 4c51 b7bd
000002d0: 9df0 033e 833d c63d 4451 b63d 0caa 97bd
000002e0: bdf3 0a3e fc5b b8bd 87f6 f1ba 5808 b83d
000002f0: 1a8e f2bd f7d8 733a c457 cdbb 2315 d73d
00000300: 15d2 183d 40bf aa3c e3ae 2d3e cded ad3d
00000310: be2f 5a3d 4ec5 ce3c ad87 903d 55ff 183d
00000320: 50ac 4b3d f61d f73c a100 b23c b026 043e
00000330: dc26 9e3d 75ab 003e 229c 2d3d a974 483d
00000340: 89cb de3c 93ef 8a3d 8eb7 bb3d 353a 113d
00000350: d30a 293e fd61 a0bc 506a a33e 8918 a33d
00000360: 798f d03d d445 9f3d abb2 183d 6d32 563d
00000370: eb6f d53d 481c c03c 34d0 4cba a6bf e13d
00000380: 6627 a53d 3494 953d a03d 0b3d e43c 3a3d
00000390: b38d 5abc 1d9b 9e3d 3d65 343e 2218 e3bc
000003a0: 4bf2 8b3d bd57 d6bb b9eb c9bc d812 b53d
000003b0: 4635 2a3d 8297 853d e249 a53d 8cf3 983d
000003c0: ef14 673d 515e 5a3e 3447 133d 81bd dd3d
000003d0: aded b83d 89be ffbb a585 033d 7f9d 0b3e
000003e0: 3b4a ef3d f261 96bb f3fe 1a3d 8da9 cf3d
000003f0: ae80 083e c0f3 263d 8b11 db3c 68dd 133d
0.06249564 -0.021426639 0.16054754 0.06711932 0.03129948 0.03334754 0.02777852 0.038970098
0.08359421 0.043593436 0.08608823 0.10918541 0.08964267 0.07187251 0.08506242 0.032506086
0.0036342612 0.07040438 0.09974928 0.029530728 0.16918527 0.051060934 0.32454944 0.077096276
-0.015915252 0.056089267 0.008950653 0.07210559 0.07484968 0.06420462 -0.022832546 0.042883556
0.09234901 0.060539056 0.06195374 0.057262987 0.046211075 -0.03247905 0.1759064 0.042431988
0.05929993 0.04783758 0.06918204 0.011970091 0.080392405 0.072790004 0.039335955 0.047838096
0.052998833 0.14997041 0.031982306 0.076469585 1.343097e-05 0.033179402 0.046317935 0.1010808
-0.023830008 0.021803144 0.037252985 0.12203798 0.13470048 0.021166854 0.09653455 0.014980466
0.09596552 0.08815495 0.10323449 0.07258548 0.02967193 0.015464052 0.072742335 0.035276126
0.02911354 0.063364245 0.06491546 0.07065216 0.054775525 0.11128893 0.020578053 0.053959344
0.06436592 0.089162126 0.046630546 0.023795487 0.1610957 -0.04056172 0.2323492 0.11416204
0.06403927 0.02095314 0.024499334 0.028375575 0.08158327 0.04019418 0.017579425 0.090777874
0.10395947 0.077204764 0.06416592 0.05721011 0.06416771 -0.0024541582 0.02958826 0.08237006
0.062376626 -0.020757644 -0.0040398017 0.037110575 0.026125869 0.056048248 0.053109575 0.08020426
0.08618293 0.1053587 0.02500486 0.0448279 -0.009278659 0.11048655 -0.026545264 0.04261084
0.069342464 0.06203557 0.029854665 -0.012130866 0.13616781 0.029740585 0.093481705 -0.0066856197
-0.068614624 0.06463612 0.12245474 -0.07189508 -0.12457243 0.10653418 -0.08618095 0.023091882
-0.11869635 0.12763286 -0.0485613 -0.021081505 -0.08306309 -0.010012014 0.08188637 0.02401888
0.110092066 -0.06172938 -0.14906695 0.06522998 -0.068692125 -0.022773387 0.13760221 -0.004635804
0.08257907 -0.049339626 -0.05476166 -0.023063531 -0.113168605 -0.054394823 0.10819643 0.106108576
0.07512384 -0.077445984 0.042306237 -0.08190879 -0.10750262 0.1045686 -0.0973847 -0.014203897
0.012052969 -0.026987486 0.14761183 0.09909394 0.0806695 0.019675797 -0.066800945 0.06525819
-0.009136945 -0.07250147 0.023039512 -0.08951053 0.12884755 0.09679701 0.08902219 -0.07405481
0.13569541 -0.090019196 -0.0018460312 0.089859664 -0.1184351 0.00093020446 -0.006266566 0.105020784
0.037309725 0.020843148 0.16961245 0.084926225 0.053268187 0.025240567 0.07057128 0.03735288
0.049724877 0.030165654 0.021728816 0.12905383 0.077222556 0.12565406 0.042385228 0.04893938
0.027196663 0.067839764 0.0916587 0.0354559 0.16508035 -0.019577974 0.31917048 0.07963664
0.10183615 0.077769905 0.037279766 0.052294184 0.10421737 0.023450986 -0.0007813007 0.11022882
0.08064155 0.07303658 0.033994317 0.045468226 -0.013339448 0.07744429 0.17616744 -0.027721468
0.06833323 -0.006541221 -0.024648534 0.08841485 0.04155471 0.065230384 0.08070733 0.07468328
0.05641645 0.21325041 0.035956576 0.108271606 0.09029708 -0.007804696 0.032109875 0.13634299
0.1168408 -0.0045893127 0.037840795 0.10139761 0.13330337 0.040759802 0.026741764 0.03609982

bias_hh_l0 f4 [256]
00000000: 0355 363d 8e28 733d 05b1 dc3d 30cf 623d
00000010: 9c83 893d 2b99 1ebb 449b e03c b193 173d
00000020: a124 f23d 9990 5e3d a77d a03d 7cc2 033e
00000030: 1ede 9b3d c78a f33d f43c 8c3d 125b 153d
00000040: b6ac c53d 0e64 903d 33c7 833d 4090 ad3c
00000050: 43eb 143e 1347 a43d 4055 bb3e 07a0 b03d
00000060: 8bd0 bc3d 49f7 723d d843 5a3d c6b4 de3c
00000070: bf40 933d bb38 703d f1b6 a63d 82af 9c3d
00000080: 9588 843d 8ace a83d 15be 193d e0f7 823d
00000090: 7851 653c becb 18bd a45f 313e 75c3 093a
000000a0: 8c5e 303b 9b5f 8d3d 8330 433d 935e 66bb
000000b0: 6487 b93c 3bcb 723d c201 593d ab22 5f3b
000000c0: b09c 823c 0b5f 3d3e f080 023d e565 b03d
000000d0: a18e 173d a67c df3c 742b ad3d 5662 253e
000000e0: 49d3 dd3d 15cf 3b3c 0855 4e3b 268d 3f3d
000000f0: 195c 0b3e d13c b53c 982a e33d eb6f 5d3d
00000100: 1f78 953d b92b 803d 7d5d 473d ae60 39bc
00000110: ed72 833d 5b2e 2ebc 7ee7 5e3d 4752 0d3d
00000120: 467a 7ebc f90e f23c db19 8a3d 9cff 663d
00000130: 053c 923d aa33 f63d 11ce 153d 4974 643d
00000140: f4f9 c93d a5bc b13d 2480 903c e604 f83c
00000150: 1d00 0e3e f9f2 22bd 613e 863e 8aab f73d
00000160: e2b0 523d ae0d ec3c 3ed2 3e3d fba7 013d
00000170: 79df a93d 5882 4f3c 78fe 3c3d c0da bf3d
00000180: 6f10 dd3d cded 943d 53fa 993c 54ac 1b3d
00000190: b739 9a3d 7571 223c 1bc5 043d 037c dfbc
000001a0: d955 8a3d faf1 a13c ac2c a03d 9e41 0d3d
000001b0: 7f49 813d b4c6 113d 684f 043e c2ec 10bd
000001c0: a1f2 863d 9b00 063e 4180 cd3c 382a 593d
000001d0: b0f5 9bbb 7919 9a3d 9937 7f3c ea04 2b3d
000001e0: 91ba 2b3d b922 b33d daf8 473d 96d2 cb3c
000001f0: b779 0d3e 4953 123d 8f3e a73d 8482 b0bc
00000200: 76c0 95bd 826e e23d 445b 5f3d 0bd4 163d
00000210: 8056 68bd c133 423d 1e76 773d be8d 3dbd
00000220: 152e b03d 8e0f 593d 32b3 0dbd 604a ea3d
00000230: e97e a03c f822 83bd c83f ac3d 8e46 5a3c
00000240: 3dec 94bd 53a1 ef3d e3f3 7c3d 5881 18bb
00000250: 87c3 bdbd 22ba ae3d 3cc7 61bd eee7 7e3d
00000260: 9583 003e 2092 423d 4efc 1a3b 3222 ce3d
00000270: dc3f 363d f2a7 cb3d 512a 95bb 2c89 ff3d
00000280: 9a5d 4fbd 6988 b73d 4d1a 86bd d922 c03d
00000290: 70af b63c 63b3 c83d ad80 a53c ab77 84bd
000002a0: e7a5 0f3e d380 55bb a78a 0f3e 9aa2 b43d
000002b0: 1c1d fe3d 21d7 adbd 722b 9c3d fbdf 623d
000002c0: 6df0 b53d fff9 ce3d b72b 99bd 969e b63c
000002d0: 306c e23d bad6 393c 4b8f bf3d a934 383d
000002e0: 490f fb3d be52 09be 84df 1bbe f87c bb3d
000002f0: 4d2d c43d 2708 5b3d 7f46 3ebc 7bdb b13d
00000300: 04c9 15bb 6a49 893d d80e e03d ddba b53d
00000310: 7c28 3c3d 4c88 313c 935c 753d 411f 193d
00000320: 7ce0 af3d a9ce fe3c b6a9 313d f77d f83d
00000330: 3d36 893d c8a3 ea3d 1803 ac3d 800c 4f3d
00000340: eecd 943d a325 863d a000 a7bb b5e1 113d
00000350: e71b 173e f5f0 103d 69c6 9a3e b552 b73d
00000360: c5af 133d c2d8 a23d 5da7 413d 549d 56bb
00000370: 0363 d13d db50 ac3c 3c22 383d ebf6 c93d
00000380: 689b 9f3d 2240 c63d 8535 fc3c d59d 1a3d
00000390: c0fe 943d e782 933d 4edf 3a3e b62f aa3d
000003a0: 2ed5 363c 0635 473d 02e4 923d bbaf 0fbc
000003b0: 5676 2c3d 9a28 983d bd6b d83d efd3 a63c
000003c0: 8d01 d63d 1469 5a3e 58ab 643c fd15 d33d
000003d0: f744 ac3d a2f8 a63c 728d dcba 9198 073e
000003e0: a0e4 1fbc 86aa 6f3d dac3 bf3c a576 ca3d
000003f0: 9408 093e a1c5 253d eddb a13d 81a7 533d
0.044514667 0.059364848 0.10775951 0.05537337 0.067145556 -0.0024200182 0.027417786 0.037006084
0.11823393 0.054337118 0.07836466 0.12867159 0.07610725 0.11891704 0.068475634 0.036463805
0.096520826 0.07050334 0.064344786 0.021186948 0.1454287 0.08021369 0.36588478 0.08624273
0.09219464 0.05931786 0.053287357 0.027185809 0.07190084 0.058647852 0.08140362 0.07650663
0.064713635 0.08242519 0.037534792 0.06394935 0.013996474 -0.03730368 0.1732164 0.00052552606
0.0026911823 0.06903001 0.047653686 -0.0035151585 0.022647567 0.059275847 0.052980192 0.0034047763
0.015943855 0.18493287 0.031861246 0.08613185 0.037001256 0.027281117 0.08455554 0.16150793
0.10831315 0.011462946 0.0031483788 0.04676547 0.13609351 0.022123726 0.110921085 0.05406181
0.07298302 0.062583394 0.04867314 -0.011314554 0.06418405 -0.010631169 0.054419987 0.034502294
-0.015532082 0.029548155 0.06743213 0.05639611 0.07140354 0.12021573 0.036573473 0.05577496
0.09862128 0.08678559 0.017639227 0.030275773 0.1386723 -0.039782498 0.26219466 0.12093265
0.05143822 0.028815117 0.04658722 0.03165434 0.08294577 0.012665354 0.046141118 0.09367895
0.1079415 0.072719194 0.018796122 0.03800614 0.075305395 0.009914746 0.032414537 -0.027280813
0.067546554 0.019768704 0.078210205 0.034486406 0.063128464 0.03558989 0.12920916 -0.03538204
0.065892465 0.13086168 0.02508557 0.05301878 -0.004759513 0.0752439 0.01557722 0.041752733
0.04192597 0.08746857 0.048821308 0.024880689 0.13815962 0.03572396 0.08166229 -0.02154661
-0.073121 0.11056234 0.054530397 0.036823314 -0.056723118 0.047412638 0.06041538 -0.046277754
0.086025394 0.05299335 -0.034594722 0.11439967 0.019591765 -0.06403154 0.08410603 0.013322486
-0.072716214 0.11700692 0.061756026 -0.0023270454 -0.092658095 0.08531596 -0.055121645 0.062232904
0.12550195 0.047502637 0.002364892 0.10065116 0.044494495 0.099441424 -0.0045521636 0.12477335
-0.050626375 0.08961565 -0.06547985 0.09381647 0.022300452 0.0979984 0.020202959 -0.06468137
0.1402813 -0.0032578006 0.14017735 0.08820076 0.12407896 -0.08488298 0.07625474 0.055389386
0.08883748 0.10106277 -0.07479041 0.022292417 0.110557914 0.011342699 0.09353503 0.044972096
0.12258775 -0.1341047 -0.15221983 0.09154695 0.09578953 0.05347457 -0.011613487 0.08684441
-0.002285541 0.06703456 0.10940331 0.08873532 0.045937046 0.010835718 0.05990274 0.03738332
0.08587739 0.031104403 0.04337474 0.12133401 0.06699798 0.1145702 0.083990276 0.05054903
0.072658405 0.065501474 -0.00509651 0.03561564 0.14756738 0.035386045 0.302295 0.08951322
0.0360563 0.079514995 0.04727875 -0.0032747583 0.10223963 0.021034649 0.044954523 0.09861549
0.07793313 0.09680201 0.030787239 0.037748177 0.07275152 0.07202702 0.18249246 0.083098814
0.011159224 0.04863455 0.07172395 -0.008769925 0.04210504 0.07429619 0.105674244 0.02036473
0.104495145 0.21329147 0.013956867 0.10306928 0.084115915 0.02038223 -0.0016826822 0.13241793
-0.009759098 0.058512233 0.023408819 0.09885911 0.13382179 0.040471677 0.07903276 0.051673416

weight_ih_l1 f4 [256, 64]
00000000: d362 5dbc 519b 3b3c 4270 50bb afe0 e83b
00000010: 0470 51bb 2ab4 b83b b0c0 4a3a bd23 44ba
00000020: 2524 1bbc ce31 ef3b 5b27 7abb e947 31bb
00000030: 870c e73a 9222 9f3c b319 133c 7877 c03b
00000040: 7f41 213c 7db2 f83b 7380 54bc 1660 123b
00000050: 2bc5 7fbb 8b57 153c cd5e 0a3c 1d67 d53b
00000060: b379 e33b 2eb1 41bc d8be 1f3c 8c5f e93b
00000070: 4462 083c 3e28 dc3b 7c62 2a3c 3652 dc3b
00000080: f307 ca3b c611 ad3b 27c8 26bc 62fd 243c
00000090: 11e5 3abc bf66 b83b 936c edbb 5d5c 0cbc
000000a0: 22c3 253c c8cd 33bc 1156 663c e6bd c43b
000000b0: 56f9 ae3b 8a23 c5bb 498f 4dbc 6722 523c
000000c0: 8e37 103c e115 e93b b889 08bc 9565 373b
000000d0: 72ba 633c f23c 423c 7fbd 1f3c 1a7e e3bb
000000e0: 5170 5c3c 3d81 0fbc fb60 0ebc 3f05 f13a
000000f0: 6299 a8bb 5cb4 df3b 1126 a1bb 7197 093c
00000100: d835 42bc 687a 4b3c d648 bd3b 9fcd 9c3b
00000110: ce3c 8ebb 1c30 b33b fc18 4cbb ec20 66bb
00000120: a048 5abb 1183 da3b a498 43bb 9e15 893a
00000130: 0de0 acbb 58b4 903c b4ae 053c 6a48 0b3c
00000140: 10b2 a93b c00e 363c ef96 72bc c3fb 953b
00000150: 9d5e 3abc 171a 073c d60c b93c 47f1 2c3c
00000160: 0fa8 343c 0e21 9dbb cf9c 443c 220c fc3b
00000170: 3c12 c2bb e4bc a23b fa19 4c3c c0d0 613c
00000180: af59 2e3c ad7d 1e3c 79e2 1fbc 0825 433c
00000190: 4fb9 82bc 5f55 083c 1ed0 81bb 817e 2dbc
000001a0: 5699 f83b abcb 59bc a3ef 763c 63e7 493c
000001b0: d991 583c 792a 05bc a93e eabb 5afc 793c
000001c0: 9655 a93b e06d 2e3c ef3b 27bc e843 6d3b
000001d0: e66d 7a3c b458 773c 54f4 6e3c 154b 98bb
000001e0: 6d67 583c 3a42 2fbc eb6c 37bc bb00 243c
000001f0: 5564 4bbc 3d1b 0c3c 361f c2bb 6943 453c
00000200: 20e0 adbb be84 9a3b 046f 05bb 045a d83a
00000210: 7ff4 9fba 5869 3a3b 0ef5 513b e7e6 c63a
00000220: 6b76 a3bb 7e9e 843b 839b 08bb 504c 9cba
00000230: 0a99 4d3b b335 5a3b e878 7f3b a4dd bb3a
00000240: 1dc2 673b 0bd0 4d3a 8a76 c9bb 033f 4fba
00000250: 1bcc fd3a 3187 863b e1b9 c83a 232e 3dba
00000260: eafb 5b3b 018f 42bb 7187 643b 3687 143b
00000270: 42d1 053b 49fe 743b 37ce 733b dc55 2f3b
00000280: 69ed c73a d7dc 95b9 50cc b1ba fa5c 723b
00000290: 7ae3 86bb 77cd 4c3b 4d69 90bb 1da8 75bb
000002a0: 0afa 423b d5d2 87bb 762f e83b dff3 243b
000002b0: 780b 103b 2c6d ddb8 40d0 3cba b185 c53b
000002c0: 6a97 c83a b057 aa3a f24e 40bb b540 d53a
000002d0: 4806 b83b 3000 803b ed27 7a3b 39fa e33a
000002e0: a559 903b e16e 93bb ecd1 9abb 41a7 d2b9
000002f0: 70f8 063b 9ce1 453a 4ee7 66bb 77d4 3e3b
00000300: 248b 2abb 35b6 5c3b 2008 463b 6530 0b3a
00000310: 9aaa bbba b7e5 953a fba0 57ba 63aa 93ba
00000320: 0639 9a3a 0e7e a73a fd2f a6ba fb68 3c3a
00000330: 1e32 13bb fb2d 3b3b 6c6a a43a b543 333b
00000340: a165 3eb9 118b 3b3b be4a a9bb d562 a53a
00000350: abab 83bb 3d44 ad3a 2552 383c 65e1 183b
00000360: 6613 953b 9210 e13a e317 583b 3828 973a
00000370: 13d5 99bb 33bc 1e39 cba6 673b e066 cc3b
00000380: 272f 8f3b 48c8 443b 6f90 1bb8 f592 6b3b
00000390: 03e5 b7bb 4f0b 533b c82c 03bb bd14 5dbb
000003a0: 9fd2 143a 7305 5bbb 3e3f 923b 432e a13b
000003b0: 0e1b b33b f149 c9ba 68fb d33a e991 a43b
000003c0: fcb5 a9b9 ab0e a83b 48da 46bb b8c0 0e3b
000003d0: 31df 813b 05d9 a13b 7d4e 953b b263 a6ba
000003e0: 4079 0d3b 3214 61bb 8423 72bb 5398 803b
000003f0: d105 80bb ddc8 b43a dec1 89ba 5a6b 573b
-0.013512331 0.011450605 -0.0031805192 0.0071068625 -0.0031957636 0.0056367116 0.0007734401 -0.0007482132
-0.009469067 0.0072996384 -0.003817043 -0.0027050918 0.0017627635 0.019425664 0.008978295 0.005873617
0.009842276 0.007589637 -0.012970078 0.0022335104 -0.0039027433 0.00911511 0.008445454 0.006512536
0.006941998 -0.011822028 0.009750091 0.007121986 0.00832421 0.0067186644 0.010399457 0.0067236675
0.0061654984 0.00528166 -0.010179556 0.010070177 -0.011407153 0.0056274827 -0.007245609 -0.008566943
0.010117324 -0.010974355 0.014058606 0.006004083 0.0053397818 -0.0060161995 -0.012546369 0.012825585
0.008802308 0.007113204 -0.008333616 0.0027984132 0.0138994325 0.011855351 0.009749769 -0.0069425227
0.013454513 -0.00875884 -0.008690114 0.0018388404 -0.005145238 0.0068269204 -0.004917868 0.008397923
-0.011853658 0.012419321 0.005776505 0.004785254 -0.0043407446 0.0054683816 -0.0031142822 -0.0035114838
-0.0033307448 0.0066684564 -0.002984562 0.0010458713 -0.0052757324 0.01766412 0.008159328 0.008501152
0.0051786974 0.011111915 -0.014806493 0.0045771315 -0.011375097 0.008245966 0.022589128 0.010555572
0.011026396 -0.0047952 0.012000277 0.007691876 -0.005922584 0.004966365 0.012457365 0.01378268
0.010641499 0.009673518 -0.009758585 0.011910684 -0.015957503 0.008321135 -0.003961577 -0.010589243
0.0075866384 -0.013293187 0.015071782 0.012323233 0.013218367 -0.008127802 -0.007148583 0.015257919
0.0051676733 0.010646313 -0.01020716 0.0036203805 0.015284991 0.015096832 0.01458462 -0.0046476224
0.013208252 -0.010696942 -0.011195402 0.01000994 -0.012414058 0.008551416 -0.005924131 0.012039998
-0.005306259 0.004715531 -0.002036036 0.0016506319 -0.0012203603 0.0028444137 0.0032036933 0.0015175015
-0.0049884818 0.004047214 -0.0020844645 -0.0011924598 0.0031371736 0.0033296167 0.0038981978 0.0014333022
0.0035363503 0.000785113 -0.006148164 -0.0007905813 0.0019363196 0.0041054715 0.0015314185 -0.0007216653
0.00335669 -0.0029687288 0.0034870768 0.00226636 0.0020418917 0.003738301 0.003720177 0.0026754057
0.0015253249 -0.00028584033 -0.0013564918 0.0036981688 -0.004116473 0.0031250396 -0.004407084 -0.0037484237
0.0029751086 -0.004145006 0.007085736 0.0025169773 0.0021979492 -0.00010558436 -0.00072026625 0.0060279
0.0015303914 0.0012996104 -0.002934393 0.0016269895 0.005615983 0.0039062724 0.003817077 0.0017393298
0.0044052177 -0.004499302 -0.0047247317 -0.00040178935 0.0020594858 0.0007548572 -0.0035233083 0.0029118338
-0.0026022876 0.003367794 0.0030217245 0.00053096405 -0.0014317811 0.0011436258 -0.0008225587 -0.0011265989
0.0011766262 0.0012778656 -0.0012679097 0.0007187274 -0.0022460292 0.0028561342 0.0012543923 0.002735359
-0.00018157672 0.0028616826 -0.0051663807 0.0012617955 -0.004018267 0.0013219189 0.0112500535 0.0023327705
0.0045494316 0.0017171076 0.0032973222 0.0011532372 -0.00469459 0.00015138164 0.003534722 0.0062378496
0.0043696347 0.0030026603 -3.7089394e-05 0.0035945748 -0.005612017 0.0032202785 -0.0020015705 -0.0033734285
0.0005677137 -0.0033419996 0.0044631055 0.004918845 0.0054658717 -0.0015357119 0.0016172947 0.0050222767
-0.0003236978 0.0051287017 -0.0030342508 0.002178235 0.003963374 0.004939201 0.0045564757 -0.0012694506
0.0021587163 -0.0034344313 -0.0036947438 0.0039244085 -0.0039069434 0.0013792772 -0.0010510047 0.0032870383

weight_hh_l1 f4 [256, 64]
00000000: 236e 103c 6e00 4a3b e267 083c d868 833a
00000010: 0d0d f03b 29e2 64bc f9d9 61bc 51f5 03bc
00000020: 6f10 57bb 35fe 0dbc a93d bdbb b5c8 10ba
00000030: ec12 35b8 3596 423c 2cdf b8bb fa78 a0bb
00000040: 7e87 9939 9dea 2d3c c34a dc3b c0ac 07bc
00000050: e2ce 863b 0018 0a3c fd21 183c dfc2 0f3c
00000060: 312b 0ebc 8b5c 9e3c f224 803c 4335 6d3c
00000070: 328f 52bc ed60 cbbc bb42 963a dca7 253c
00000080: b02b 483c 8a42 4cbc 95da a73b d89e 3b3c
00000090: 55e1 533c a301 abba 0882 8e3c 1f52 22bc
000000a0: 96c2 1bbc f318 393c 962c 54bc 1ffa 433c
000000b0: cb6b 373c d621 303c a4cc 84bc e04a cb3b
000000c0: 3c5f 35bc 73d0 e1ba 62ac eebb 1b96 943b
000000d0: d758 cebb 5541 62bc ffd7 473c b5d2 44bc
000000e0: 6b56 613b 6b78 183b cb75 a7bb e2ee 873c
000000f0: cfda 1d3c 0d9e eb3b c235 48bc 87e3 4b3c
00000100: 8516 083c 6f60 11bc 92ae 4b3c 41f2 ddbb
00000110: 57d9 193c 5506 a3bc c43d b2bc 77fc febb
00000120: b570 d23a 2a72 5cbc 7d4f f93a a2fa b1bc
00000130: bd80 0bbb 8662 a23c 2095 e4bb 49c9 af3c
00000140: bfa7 80bb eb97 8b3c 5eca 763b b37c 8bbc
00000150: bc5f 03bd d93a 903c bce7 ddba 5a64 063c
00000160: a617 35bc e14a cfbb 24f0 87bc 0651 2c3c
00000170: a9d5 a1bc 6033 053d 8445 2bbc 6b30 403c
00000180: 07e5 923c 4d86 ef3b c1fa 693c 0484 863c
00000190: a4f0 823b d5a2 103a 8307 af3c d801 78bc
000001a0: 2d7e 6bbc da99 803c 1cbb a1bc 4b55 843c
000001b0: 2785 233c c100 763c a1f8 babc ab6e 493c
000001c0: d829 d5bc a7c1 2f3b 63f6 25bc 5966 00bc
000001d0: 7df8 fdbb 1d40 9ebc 30f5 873c 9d42 aabc
000001e0: 92a8 eeba 8fab 223b c073 81bc f8a9 a63c
000001f0: 1c00 433c 0276 a23c e24b 82bc 931c 913c
00000200: 1de3 a33b d1f9 103b a037 a83b a381 973a
00000210: 8956 8b3b c15a afbb 1f74 11bc 7a0a 7dbb
00000220: 429e daba 1899 94bb f7aa 85bb dbff d539
00000230: 30c4 a93a 57f1 f03b e203 69bb e3d4 913a
00000240: 98be 1fba b820 b73b abea a33b ca57 96bb
00000250: 07ae 62bb b4c9 dc3b 4499 ac3b 12a8 ac3b
00000260: 2764 8fbb 438a 2a3c 54c1 d53b f3d0 1a3c
00000270: f14d 06bc d808 a6bb 1ed3 5b3b fb43 bb3b
00000280: 5436 d13b b716 a5bb 6143 4d3b aef1 d73b
00000290: 1bdc a33b e9b1 3d39 cc30 203c c8ea c4bb
000002a0: 7f31 cebb f297 e03b 5dc6 0dbc eb80 b73b
000002b0: 93e8 1e3c 014c b33b dccf 0cbc 6ed5 a33b
000002c0: b762 05bc 1b0b 403a a215 72bb 8e71 613a
000002d0: fc4b 48bb c3be ecbb 098a e73b a8e7 d4bb
000002e0: e7f7 543b 7f22 203b aaa2 8339 3872 0c3c
000002f0: 933c c73b 8481 e63b 0c60 c6bb 02c9 e13b
00000300: 52ea 0b3b f489 4abb 14ea 933b 1bc8 35bb
00000310: 55dc 283b 5d9e 05bc b9d6 13bc 8d40 0abb
00000320: 0a9b 8b3a 9e8a a3bb fc91 81ba 30ef 24bc
00000330: e06d d0ba f6c7 013c bf19 25bb 17b1 3d3c
00000340: 6d0c c8ba 5d3e d33b 7cca 9139 c4f3 e4bb
00000350: fd2e 81bc 9ec7 e23b 7213 19bb dd51 163b
00000360: dd8c 74bb 2e65 72b7 77c5 dbbb d1f5 7b3b
00000370: 1226 febb d379 703c 17a7 37bb 5c12 833b
00000380: 976d e83b 1c0c 8e3b 3007 b73b 68c8 d53b
00000390: 8470 943a a176 c4b9 c606 103c 8d85 c4bb
000003a0: 7b2f a8bb 07e5 be3b f7b8 08bc 4606 cb3b
000003b0: fe5a 863b aa96 b43b f023 1dbc f175 ad3b
000003c0: 6d94 29bc 3d25 0a3a e64a 61bb 6de4 53bb
000003d0: 2121 0cbb 3198 f3bb b716 d83b 06a0 0abc
000003e0: f7f5 26ba df5c dc3a 7f4b a5bb ad28 fd3b
000003f0: 4e67 873b 8d08 033c 2502 cdbb 6ddf e33b
0.008815321 0.003082301 0.008325549 0.0010025753 0.0073257745 -0.013969936 -0.013784879 -0.008054093
-0.0032816192 -0.008666565 -0.0057751727 -0.0005523072 -4.3171385e-05 0.011876632 -0.0056418385 -0.004897234
0.00029283384 0.010615018 0.0067227795 -0.008280933 0.004114018 0.008428574 0.009285447 0.008774488
-0.00867729 0.019331237 0.015642617 0.014478031 -0.012851523 -0.024826491 0.0011463979 0.010110822
0.012217447 -0.012467036 0.0051224926 0.0114514455 0.012932141 -0.0013046752 0.017395988 -0.0099072745
-0.009506842 0.011297452 -0.012950083 0.011961489 0.011195133 0.010750255 -0.016210862 0.006203994
-0.011070069 -0.001722826 -0.007283733 0.0045344955 -0.0062972116 -0.013809522 0.012197494 -0.012013127
0.0034383785 0.0023265134 -0.0051104776 0.0165934 0.009634688 0.007190472 -0.012219848 0.012444383
0.00830615 -0.008873089 0.0124317575 -0.0067732637 0.009390197 -0.01990048 -0.021757968 -0.007781561
0.0016055318 -0.013454953 0.0019020882 -0.021725956 -0.002128645 0.01982237 -0.006975785 0.021458285
-0.003926247 0.017040214 0.0037657241 -0.017027235 -0.03207372 0.017606186 -0.0016930024 0.008202637
-0.0110530015 -0.006326065 -0.016594 0.010517364 -0.019755201 0.0325197 -0.010453586 0.011730294
0.017931474 0.007309711 0.014280976 0.016420372 0.0039959718 0.0005517428 0.021365887 -0.015137158
-0.014373344 0.015698362 -0.019742541 0.016153952 0.009980476 0.015014828 -0.022823634 0.012294452
-0.02602093 0.0026818307 -0.010129544 -0.007836902 -0.0077505694 -0.019317681 0.016596407 -0.020783717
-0.0018208197 0.0024821495 -0.015802264 0.02034472 0.011901882 0.019831661 -0.015905324 0.01771382
0.0050014392 0.0022121558 0.005133584 0.001155902 0.004252259 -0.005351395 -0.008877783 -0.003861098
-0.0016679245 -0.0045348518 -0.0040792185 0.00040817153 0.0012952145 0.0073529887 -0.0035555293 0.0011126067
-0.00060937693 0.005588617 0.00500234 -0.004588102 -0.0034588592 0.006737912 0.005267294 0.005269059
-0.0043759528 0.010408941 0.0065232906 0.009449231 -0.008197294 -0.005066972 0.0033542584 0.005714891
0.0063846502 -0.005038108 0.0031320679 0.0065900898 0.005000604 0.00018090721 0.009777259 -0.0060094334
-0.0062925215 0.006854051 -0.0086532505 0.005600085 0.009699005 0.005471707 -0.008594479 0.004999808
-0.008141211 0.00073258736 -0.0036939164 0.000859999 -0.0030562868 -0.007224889 0.0070660156 -0.006497342
0.0032496394 0.0024434624 0.0002510746 0.008572154 0.006080219 0.0070344824 -0.00605393 0.006890417
0.0021349383 -0.003090498 0.0045139883 -0.002773768 0.0025766094 -0.0081554325 -0.009023362 -0.0021095604
0.0010651064 -0.0049908897 -0.0009885426 -0.010066792 -0.0015901886 0.00792121 -0.0025192348 0.011577866
-0.0015262492 0.0064466433 0.00027807418 -0.006987067 -0.015769476 0.006920769 -0.0023357538 0.0022936978
-0.0037315406 -1.4447882e-05 -0.0067068893 0.0038446079 -0.007756003 0.014677483 -0.0028023177 0.0039999913
0.0070931423 0.0043349396 0.0055855736 0.0065241344 0.0011325036 -0.0003747242 0.008790677 -0.005997366
-0.0051326132 0.005825642 -0.00834488 0.006195816 0.0041002026 0.0055111246 -0.009591088 0.0052936007
-0.010350329 0.0005269831 -0.0034376918 -0.0032332197 -0.002138205 -0.007433914 0.0065945047 -0.008461004
-0.0006369049 0.0016812346 -0.0050444 0.007725796 0.004132188 0.007997644 -0.006256359 0.0069541247

bias_ih_l1 f4 [256]
00000000: c0ab 053d fa17 543d d1b8 b83c f4e5 b73c
00000010: 73e3 ac3c 597f 8c3d 9cba 273d 0100 1d3c
00000020: 4a60 273c f19a 733c 5dc7 b43d ae19 843d
00000030: 5a1b 123d 24ef 9f3c bc8f 753c cfb2 5a3d
00000040: 16eb d53c 1d56 4a3d 207e 753d dc74 dc3c
00000050: f0a8 9a3d 7d78 34bc b7d2 913d 76fb 0d3d
00000060: dee9 273d fabf 843d 69e2 d83d b186 5a3d
00000070: 8344 ed3c 77b0 d23d 2612 3d3d 2c72 65bc
00000080: 1f73 4c3d c7dd 883d b477 c53b 7d89 593c
00000090: 853d 133d c5d1 f63c 40e2 ee3d 069e 01bc
000000a0: 3851 03bd 108f 1b3c 816e 8a3c 0aa5 d03c
000000b0: b542 d33d 903c 143d 4202 353d fb7c c63c
000000c0: e722 1c3d 7992 5f3d 9b50 3c3c dc12 b53d
000000d0: d1a4 d93c fb7f 4d3d f4ab 6d3c 7eb0 643d
000000e0: c72b 953c 2336 c93c 03aa b4bc 1c2c 3d3d
000000f0: dd5f 5e3d 95b7 803c 2f00 573d 1f5e 3f3d
00000100: 0a42 1bbc f1fd fc3c afed ad3c e777 a63c
00000110: 7abd fb3b e5aa 2b3d fa0f a33d 62f6 a93c
00000120: 436f 453c 948a dc3c 9310 8b3d 7df9 443d
00000130: 42d1 4c3c 2043 113d ba89 533c af65 733d
00000140: 3235 623c 450d 533d c242 6b3d 6f21 1f3b
00000150: b482 d13d f8e8 4fbb c0de 143d 6a37 5d3d
00000160: 49ae 183c 114a 9e3d 0328 9a3d 2f9c a83d
00000170: e7f6 713d 83c1 463d 8398 8b3d 2600 593d
00000180: de64 ec3c 600c 893d fca9 af3c 2af5 a4bc
00000190: b63d 173d 49d0 6b3c ecf7 b13c 70e7 8a3d
000001a0: 6d1b 643d c546 1f3d 1642 b43c d3fd 753d
000001b0: 3643 c23d c921 2a3d 5bb7 de3d 96ce 7d3c
000001c0: 8365 663d a31d 2ebb 9c55 8a3c d8fc 153d
000001d0: aad0 aa3c 6c8d 243d 242f af3b 99e4 2d3d
000001e0: 6f43 f63c 1be8 763c 6777 8b3d 979e 903d
000001f0: b00c 863c 57b3 963d 2983 f83c 4aa3 5fbc
00000200: 19fc bbbc 701f d53b 84aa 7f3d ef46 c23d
00000210: ab7f f23b 1baa cbbb bb62 b1bd 20a7 f7bd
00000220: ab45 c3bc 2dcf a43c e748 4fbd 98f1 903d
00000230: 03c9 64bc 6adf ea3d 0b73 4c3d dd22 313a
00000240: 18d8 043d 54bf 95bb 4012 db3d 4aec 83bc
00000250: 90dc 3c3d 8f5d 583d 3bea a9bd 782d 303c
00000260: 097c 19bd d93a 8b3d 925f abbd 2075 b23d
00000270: 7aa8 d5bd 5ff8 dfbd c11c 073c 5583 8b3d
00000280: ebfd 9e3d 5d4a 57bd 5e82 24bc 6075 97bb
00000290: f73d 083b dfb6 6bbd 68ad 123e be0f e4bd
000002a0: 27d4 2cbc 2048 1b3d ba4a a0bd 6982 88bb
000002b0: 3c14 5ebd ed90 afbc 83d7 f4bd 8842 4d3d
000002c0: 2950 70bd e623 f8bc d607 013d 13eb b73d
000002d0: 1d3a b1bd ea8e dfbb 80b6 c53d 7561 e7bc
000002e0: 9607 8c3d abb0 babc fb38 70bd c972 dd3d
000002f0: a45b 18bc b352 a63d 571e 11bd e411 da3d
00000300: c780 7c3c 39cf 1a3d 3fa1 d73c 9393 ae3c
00000310: cca3 1c3c ef7a 2f3d 4e9a a03d c4cb 823c
00000320: 067c 243c 014e bd3c f59e e53d aa1b f33c
00000330: c470 193d 6d61 9b3c 3c6a 563c af10 a03d
00000340: 80f9 033d 6149 8f3c f78b ad3a 7d8b b73c
00000350: 38fb 003e af6e 0f3b 81b3 a03d 7fe4 cb3c
00000360: 3ea4 533c 80a4 843d 81d3 b13d 69b1 8c3d
00000370: 1583 463b 4aea 063e c38b f63c 0523 873d
00000380: 0bcd 6d3d 0f43 ab3d c971 ca3c b37b 4f3d
00000390: 854c ea3c 4994 e93c 424b 723d af38 0f3d
000003a0: 204a 613d cf04 ed3c 8ac2 883d f5a6 103d
000003b0: b24f 28bb e80c 013d 92f0 6d3d e727 2b3d
000003c0: 5966 0b3d 4095 7f3d e98b 043d e2f0 f03d
000003d0: 7903 9c3b 931c 453d 15dc 8a3d e9bf 013d
000003e0: af7b 013d da5e 2d3c 3ffc 8fba 9127 873d
000003f0: c7a7 ac3c aa7d 01bc 6f92 263d 31c3 853d
0.032634497 0.05178068 0.022549065 0.022448517 0.02110455 0.06860227 0.04094945 0.00958252
0.010215828 0.014868484 0.08827088 0.064502105 0.035670616 0.01952321 0.014987882 0.05339318
0.026113074 0.04939853 0.059934735 0.026911192 0.075517535 -0.011015055 0.07120269 0.03466364
0.040994518 0.06481929 0.10590059 0.053351108 0.028963333 0.10287564 0.046159886 -0.0140042715
0.049914476 0.06682926 0.0060262326 0.013277409 0.03594734 0.030129323 0.116642475 -0.007911211
-0.032059878 0.009494558 0.016898395 0.025469322 0.10315458 0.03619057 0.044191606 0.024229517
0.038119223 0.054583047 0.011493827 0.08841488 0.026567848 0.05017088 0.014506329 0.05583238
0.018209351 0.024561947 -0.022053724 0.046184644 0.05429064 0.015712539 0.05249041 0.04672062
-0.009476194 0.030882807 0.0212315 0.020320846 0.0076824995 0.041911025 0.07962032 0.020747367
0.012050453 0.026921548 0.06790271 0.048089493 0.012501063 0.035464406 0.012911255 0.059423145
0.013806628 0.051526327 0.057436712 0.0024281403 0.10230008 -0.0031724554 0.036345243 0.054007925
0.009318897 0.07728971 0.07527163 0.08232915 0.059073355 0.04852439 0.06816199 0.052978657
0.028856691 0.066918135 0.02144336 -0.020136435 0.036924087 0.014392921 0.021724664 0.067824244
0.055690218 0.03888585 0.022004168 0.06005652 0.09485476 0.041536126 0.10874816 0.015491148
0.056249153 -0.0026567958 0.016886525 0.036618084 0.020851452 0.040173933 0.005346196 0.042454336
0.030061452 0.015069987 0.068098836 0.070614986 0.016363472 0.07358425 0.03033598 -0.013649771
-0.022947358 0.006503992 0.062418476 0.09486186 0.007400473 -0.0062153465 -0.086614095 -0.120924234
-0.023836931 0.02011832 -0.050606634 0.0707733 -0.013963941 0.11468394 0.0499144 0.0006757209
0.032432646 -0.004569927 0.1069684 -0.016103882 0.046108782 0.0528236 -0.08296629 0.010753028
-0.037471805 0.06798334 -0.08367838 0.08713746 -0.10432525 -0.10936045 0.008246602 0.06812159
0.07763275 -0.052561153 -0.010040848 -0.0046221465 0.0020788887 -0.057547446 0.14323962 -0.11135815
-0.010548628 0.03791058 -0.07826753 -0.0041659367 -0.054218516 -0.02143141 -0.11955168 0.050112277
-0.058670197 -0.030290555 0.031501614 0.08980384 -0.08653662 -0.0068224566 0.0965395 -0.028244713
0.068373844 -0.02278932 -0.05864809 0.10812909 -0.009299193 0.081212424 -0.035429325 0.106479436
0.015411562 0.03779528 0.026322005 0.021310603 0.009560537 0.042841848 0.07841931 0.015966304
0.010039335 0.023108484 0.11211959 0.029676277 0.037461057 0.018967355 0.013086852 0.07815682
0.032220364 0.017491044 0.0013240565 0.02240538 0.12595832 0.002188604 0.07846738 0.024889229
0.012917576 0.064766884 0.08682919 0.06869776 0.0030290533 0.13175312 0.03009594 0.06598476
0.058056872 0.083624 0.02471246 0.05065508 0.02860094 0.02851309 0.059153803 0.034966167
0.05500233 0.028932957 0.066777304 0.035315473 -0.0025682268 0.03150645 0.058090754 0.0417861
0.034033153 0.062398195 0.03235999 0.11764695 0.004761156 0.048122954 0.067802586 0.03167716
0.031612094 0.010581696 -0.0010985209 0.065993436 0.021076096 -0.007903496 0.040666994 0.065313704
