transfer_learning/models/lstm_TL_p2.pth (torch, 413992 bytes, 18 tensors)

weight_ih_l0 f4 [256, 3]
00000000: 7f5f 07be fa48 8b3c ea63 dbbd b3b5 eb3d
00000010: 4e85 adbd e21f 363e c66d 8cbc 3776 eabd
00000020: 1c99 873e b937 41bd 087d a7bd 8685 8cbe
00000030: 6958 f23d 04ea 073e 3a80 ffbd 291c 31be
00000040: a03c 01be ecc5 8f3c fd09 313d 6c22 d83d
00000050: a0d4 933e 33bc 43bc b041 9abd 3664 bd3d
00000060: 6d04 573d 9df8 87bd 1500 1f3e c32f 5d3d
00000070: 9318 983c 080f 9bbd 3948 d33d bced d63d
00000080: e5e7 d93d 0909 0fbe dd3c 15be 09f0 a5bd
00000090: c46a dabd 0fc7 c8bd 3948 38ba ce70 033d
000000a0: df15 2bbc 4500 8d3d f15a b4bb 09b6 e5bc
000000b0: 9ecc f8bb 1393 ad3d 8403 48bd 2996 d73d
000000c0: 6c5e fdbd a0ab 17be 8a0d 413e cdfb 4dbd
000000d0: 561d e7bc 3de7 933e ee0d 0c3e b354 42bd
000000e0: 36db ae3e 80df 073e fe66 d63c e247 cd3d
000000f0: 9d10 5e3e c18b 6c3e b29a 5c3f 6a8d 85bd
00000100: 5175 143e c642 543e c663 e53c 6e9c 10bc
00000110: ecae d93d dc38 e13d b77b 043e 68f7 b9bd
00000120: f934 d3bd e7fb 9f3d 88e1 353c e651 8a3d
00000130: 1857 1dbd 068a 0cbe 21b2 ab3d b54a dfbd
00000140: ba3f efba d224 bebb 0097 423e 717c 0f3e
00000150: de42 10be 3ef1 11be f5d9 663d 5fed 2d3d
00000160: 188b 243d d4c0 c03d 50ab c3bd 4701 2e3e
00000170: 8f69 123c daab 1abe 6b4b ec3d beaa 213e
00000180: 1a6e 1a3e 88b7 303e be8b 213f 1bc4 fa3d
00000190: d487 803d e0a2 853e 571d 053d 48f5 fcbd
000001a0: 6b82 3fbd 349e 0fbd bf16 0b3e bd9f 823c
000001b0: e83d a03d f874 613b 3409 263e ea6f 9cbd
000001c0: 4b34 efbd b4c6 eabd 868f 0dbe c113 24bd
000001d0: 0c6c 16be b5bd 20be e5d3 223e 7a60 1cbb
000001e0: 125d de3d 070b 78bd e839 73be 573b e9bd
000001f0: 7c14 c23c dbb7 893d 8ab2 a13d bfa8 363e
00000200: 84f3 44be 90a6 b6bd 0230 f6bd 7e50 fc3d
00000210: 93ce 18be 8b07 af3d e9a0 f5bd 8004 bebd
00000220: e4f5 353d a1ec 3e3e cd22 563d ee99 cdbd
00000230: e0c3 603e 842d 0dbe bbd5 44bc 5c71 0a3e
00000240: 917b fd3d 6acd 43bd b8b7 583d f1a9 0fbe
00000250: d1eb 133e 436e 883c 1d92 d2bd f4d7 febd
00000260: 91d5 1ebe a2b7 90bd 55ff 0cbe 0675 353e
00000270: 673f e4bd 5ee3 a33d 378f d2bb 8705 cbbd
00000280: aca0 fabc d856 683e 6b99 bfbc cf46 f5bd
00000290: 7974 e43d 4672 0d3e 0cbe aebd 0f62 33be
000002a0: 750c 2f3d c59c 19be 7215 1cbe 16af 973d
000002b0: e9e1 c1bd bf00 3dbe 2b15 bc3d 2c29 9c3d
000002c0: 8d99 90bd 6940 97bd ba5d 06be 1699 793e
000002d0: f2f5 f1bc 3783 0c3e 6c9e 16be 014a 1b3e
000002e0: 4245 dabd a5c4 203d 6bff d03d f150 103d
000002f0: d601 9e3c a992 81bd c836 0d3e 8485 1d3f
00000300: 395c 34bd 7cf8 1f3e 4907 d63d 4f48 5fbc
00000310: cf98 213c f559 48be c31c 2bbc 692b f43d
00000320: 6e6c 513e 71e1 1ebd ca5e 0b3e 2fc5 45be
00000330: bc8e a1bd 86ee e53d 1c40 bd3d b86d 2c3c
00000340: 499b 7d3d 1d06 3dbe cc99 06bd 97d8 1b3d
00000350: db9e a43c 307e 8e3c 9ef7 053d f8e8 273e
00000360: cddb 503d 87ba d83d 09d5 2bbc 27a7 a23d
00000370: 7c9d 803d 5d31 85bc fc1a 01be b708 603d
00000380: 9388 573d b117 d4bd 7413 fcbd 27a4 f1bc
00000390: 231d 703d f242 e93b a9ce 3b3d cd0f 29bd
000003a0: bbf8 4e3d b60a c0bc 4bbb f4bd 8c09 cc3d
000003b0: 602f 283d c177 e73d 6a76 bc3d bb7a 57be
000003c0: d2f9 323d c0af 863d e38e f43d d7a0 903d
000003d0: a856 e3bd 1a0c 15bd 74bf f2bd dcda e1bd
000003e0: e49d 5f3e d70b 5dbc 726e 713d ae28 f93c
000003f0: b913 4d3c ffa7 833c e200 40be 33dc 96bd
-0.13220023 0.017002571 -0.107124165 0.11509266 -0.084726915 0.177856 -0.017142188 -0.11448329
0.26484 -0.047172282 -0.08178145 -0.2744562 0.11833269 0.13272864 -0.12475629 -0.17295898
-0.12620783 0.017550431 0.043222416 0.105534405 0.28873158 -0.011946726 -0.0753206 0.09247629
0.052494455 -0.06639216 0.15527375 0.054000627 0.018566405 -0.07571226 0.1031651 0.10494563
0.106399335 -0.1396829 -0.14573999 -0.08102424 -0.10664895 -0.098035924 -0.0007029805 0.03209
-0.010442226 0.06884817 -0.005504005 -0.028040903 -0.0075927516 0.08475318 -0.048831478 0.10526688
-0.12371525 -0.14811563 0.18852821 -0.050288964 -0.02821223 0.28887358 0.13677189 -0.047444057
0.3415162 0.13268852 0.026172157 0.10023476 0.21686025 0.23100187 0.86173546 -0.06521113
0.14497878 0.20728597 0.028001677 -0.008826358 0.10629067 0.10997173 0.12937818 -0.09080392
-0.10312838 0.078117184 0.011101134 0.06753902 -0.038413137 -0.13724527 0.08383585 -0.10902921
-0.0018253245 -0.005802729 0.19002914 0.14012314 -0.14088008 -0.14252183 0.056360204 0.042462703
0.040171713 0.09411779 -0.0955416 0.16992675 0.0089363 -0.15104619 0.11537822 0.15787789
0.15081063 0.17257512 0.63103855 0.122444354 0.06275907 0.26100826 0.032498684 -0.12351471
-0.046755236 -0.035062984 0.13582896 0.01594531 0.07824308 0.0034401994 0.16214448 -0.076385334
-0.11679896 -0.11463681 -0.13824281 -0.0400579 -0.14689654 -0.15697367 0.15901144 -0.0023861215
0.108575955 -0.06055739 -0.23752558 -0.11388271 0.023691408 0.06724521 0.07895382 0.17837809
-0.19233519 -0.08918488 -0.120208755 0.1232004 -0.14922552 0.085463606 -0.11993582 -0.09278202
0.044423953 0.18644954 0.052279282 -0.100391254 0.2194972 -0.13786894 -0.012013848 0.13519806
0.12377084 -0.04780332 0.052909583 -0.14029671 0.14445426 0.01665414 -0.10281775 -0.124435335
-0.15511157 -0.07066275 -0.13769276 0.17720422 -0.111449055 0.08002351 -0.006425764 -0.09913164
-0.030594192 0.22689378 -0.023388585 -0.11976396 0.11155028 0.13813123 -0.08532342 -0.17517875
0.04273649 -0.15001209 -0.15242556 0.07406442 -0.09466917 -0.18457316 0.09183725 0.076250404
-0.070605375 -0.07385332 -0.13121691 0.24374804 -0.029536221 0.1372193 -0.1470887 0.15164949
-0.10657741 0.039250035 0.10204967 0.03523344 0.019287985 -0.06326801 0.13790429 0.61531854
-0.044033263 0.15622133 0.10450608 -0.01362808 0.009863093 -0.19565566 -0.010443869 0.11922342
0.20451519 -0.038789216 0.13610378 -0.19313501 -0.078885525 0.11227135 0.092407435 0.010524206
0.06191567 -0.18459363 -0.032861516 0.038048353 0.02009528 0.017394155 0.03270685 0.16397464
0.05099087 0.10582452 -0.010487803 0.07942038 0.06280038 -0.01625889 -0.1260795 0.05469581
0.05262048 -0.10356081 -0.12308398 -0.02949722 0.058621537 0.007118576 0.045851383 -0.041274834
0.050530177 -0.023442607 -0.11949786 0.099627584 0.041060805 0.11302138 0.09202273 -0.21042912
0.04369528 0.065764904 0.11941316 0.07061928 -0.11100513 -0.036388494 -0.11852923 -0.11028072
0.21837574 -0.013491592 0.05894322 0.030414905 0.012516909 0.016071318 -0.18750337 -0.073662184

weight_hh_l0 f4 [256, 64]
00000000: 494f 0e3e f66b 2dbc a754 83bd 172a d43c
00000010: 5079 173d 8851 903c eed0 bd3b dd0f 0c3d
00000020: ec2c 23be 3b77 53bd 3483 56bd c313 5b3d
00000030: 7794 09bd 574a 04bc 8fb0 853d 17ab 163d
00000040: 063b afbd d978 0dbd c381 27bc a927 b2bc
00000050: 9875 4cbd 521f 0e3c d9bd 223d 278e 7b3c
00000060: f96c ea3c 67c2 993b a9ed 0bbd fa7f fbbb
00000070: e7a2 babd 50a8 22be 604c c03d 7275 7ebd
00000080: 25e7 eabd 31ee 7cbc fe33 623c d8b2 893d
00000090: 2a1e 32bc 8fed c8bc 98c7 dabc 745d a6bd
000000a0: 1e4e 4e3d 8cfa 83bc 966b 823d f945 fd3c
000000b0: 072a e8bb 3ef5 613d 56fe 713d 3783 833d
000000c0: 64a8 dfbd 4813 48bd 1d9e d9bd df0d 8abd
000000d0: 9451 ebbd 1f72 92bc c717 aabc edae a6bd
000000e0: 33ac 733d 390a 893c 9f20 35bc 48fb 9f3b
000000f0: 5906 afbc bcd7 623d 1d6e 513d 7893 023d
00000100: a56e 833d a6fa bb3d 4153 2f3c d359 b43d
00000110: f01e 8a3d d7c9 8f3c 162b 5c3d 6114 99bd
00000120: 27fa 9abd ca8d b9bd 5bbf 51bd d7b4 9d3d
00000130: 2810 4d3d 7b37 2bbd 4d9a f3bd ebef 253e
00000140: 5037 89bd 6c10 f1bd fbe6 eabc 451d 633d
00000150: 3819 9e3d 79f6 c5bc 5a12 0f3a 9558 993c
00000160: 5db9 cbbc 92da 553d 6266 b3bd 5fbd 5a3d
00000170: 9e5b 3e3d ab62 e6bd 2c4f 5dbd 96a6 523d
00000180: ec74 093e aca7 123e 5844 533c fb58 8fbd
00000190: d778 373d 71a7 0bbd d216 f3bc bfa4 9cbc
000001a0: b104 8c3d 5068 7b3d 7a76 d6bc f268 183d
000001b0: faf5 ec3d 506f 92bc 6d4f 8abc 7d2d 06be
000001c0: e1a8 7fbd 0d9c e3bd 0e4e 8c3d e3b9 1abc
000001d0: e517 573d ece2 17be 60a8 afbd 7128 9dbd
000001e0: b34e 913d 2bb7 febd 7c64 8a3d fd13 fd3b
000001f0: 202a 37bc 4614 49bd 2c75 c23d f678 38bd
00000200: 3537 8d3d e1ee a73d b615 753d 7c47 d9bd
00000210: 4559 7ebd 6c6b 66bd b9e8 f23c 66ee 853d
00000220: 317b 233d a628 a03d 954e 3abd 2b0a a6bd
00000230: 0915 ebbc 6aee da3d 22d6 5d3c a9da 99bd
00000240: 92cb e4bc 6ebd 0abe 757a 183d 8631 d23c
00000250: 7563 e6bd f943 783d 0a48 823d c242 ac3b
00000260: 0b57 42bd ee42 9f3d 7796 d6bc e4c2 193d
00000270: ce7f 243d 72b0 0bbd 7b0b 42bd 35ef 083d
00000280: d26c 583d 2cf7 263d 5fc9 30bd 8dbc 083c
00000290: c142 33bd fdaf 80bd a6ef f93c 4a32 293d
000002a0: 992b 3d3d 6475 ee3d be20 0cbd c981 95bb
000002b0: 7b42 38bd aca2 00be 08e6 a2bc 8d66 0dbd
000002c0: 3355 3b3d fdf0 4a3b 38ab f13c 7620 943d
000002d0: 18a8 883c 708f f03d cc72 35bd 649c 1bbd
000002e0: c461 ec3d 0009 95bc 91f1 44bd 17a8 883d
000002f0: 2495 adbd cb8a c73d 0b36 9d3c e3b4 14bd
00000300: 2005 0dbd e637 013d 28b1 08bd 0076 d83d
00000310: 3f44 3c3d 8705 18bc c562 323e f15a 61bc
00000320: 1308 a43d eaae e0bc 89e1 e63d 2e33 c73d
00000330: 0008 bbbb eff4 e2bd 1d17 aabc 56ef 423d
00000340: b865 77bd ae28 283d 687c bb3b 2a62 90bc
00000350: 716e b0bd f045 21bd 0269 c73d 1031 7dbc
00000360: 8efe 643d 18d6 8dbb ccdb fbbc 232e 383d
00000370: 5997 a23d 00fb 87bd 0893 06be 69a6 10bd
00000380: ea58 483e b30d 40bd 31f6 c23d 7666 723d
00000390: fba4 1cbc 4a84 2dbb cd33 133c 7b5f 24be
000003a0: ad0c 883d c448 00bd db37 debd 928a c63c
000003b0: 826a 1cbd a768 143c a7b4 a9bd f8c8 cebd
000003c0: a59b d03d 2b0c 2cbd 5296 223d 1eb9 1d3d
000003d0: 8184 303d 4660 193c b7ba 9c3d 907a b6bc
000003e0: 605b f33c 525d f83d d294 2d3c f7f7 e4bc
000003f0: 645a 5dbd 0c31 00be c48c 82bc 9b94 673d
0.13897432 -0.010584822 -0.064126305 0.025898976 0.036980927 0.017617002 0.0057927286 0.034194816
-0.15935105 -0.05162738 -0.05237122 0.053485643 -0.033588853 -0.008074365 0.065278165 0.036784258
-0.0855618 -0.034539077 -0.010223809 -0.021747427 -0.049916834 0.0086744595 0.039731834 0.015353716
0.028616415 0.004692364 -0.034162197 -0.007675168 -0.091131024 -0.15884519 0.093895674 -0.062123723
-0.114698686 -0.015437649 0.013806341 0.06723565 -0.0108714495 -0.02452734 -0.026706502 -0.081232935
0.050367467 -0.016110681 0.06368177 0.030917155 -0.007085088 0.05516552 0.059080444 0.064215116
-0.1092079 -0.048846513 -0.10625861 -0.06740927 -0.11490169 -0.017876683 -0.020763291 -0.08138833
0.059490394 0.016728507 -0.011055141 0.00488225 -0.021365331 0.05538152 0.051130403 0.03187892
0.06417588 0.09178667 0.010701002 0.08806195 0.06744182 0.0175523 0.053752027 -0.0747459
-0.07567244 -0.09060247 -0.05120788 0.07700508 0.050064236 -0.041800957 -0.11894665 0.16204803
-0.06700003 -0.1177071 -0.028674593 0.055447835 0.07719654 -0.024165379 0.00054577517 0.018718997
-0.024868662 0.052210398 -0.08759762 0.053403255 0.04647409 -0.11249288 -0.054030582 0.0514284
0.13423508 0.14321774 0.012894712 -0.069993936 0.044792976 -0.03409523 -0.029673968 -0.019121526
0.06836832 0.061378777 -0.02617954 0.03720946 0.11570354 -0.017875344 -0.016883576 -0.1310329
-0.062416915 -0.11113749 0.06850825 -0.009443733 0.052513022 -0.14832658 -0.08577037 -0.07673729
0.07095089 -0.1243728 0.06757447 0.00772333 -0.011179477 -0.0490916 0.09495005 -0.045037232
0.068952955 0.081998594 0.05983516 -0.10609338 -0.062096853 -0.05625479 0.029651986 0.065396115
0.039912406 0.07820253 -0.045485098 -0.08107408 -0.028696554 0.10690005 0.013539823 -0.07512409
-0.027929101 -0.13548824 0.03722616 0.02565838 -0.11249439 0.0606117 0.063613966 0.0052569816
-0.047446292 0.07776438 -0.026194794 0.037539378 0.040160947 -0.03410382 -0.04737423 0.03343125
0.052838154 0.040763065 -0.043160792 0.008345735 -0.043764833 -0.06283567 0.030509781 0.041307725
0.046184156 0.11643484 -0.034210913 -0.0045625907 -0.044985276 -0.12562054 -0.019885078 -0.03452163
0.04573555 0.0030966394 0.029500589 0.07232754 0.016681716 0.117461085 -0.044298932 -0.037990943
0.11542085 -0.018192768 -0.04808194 0.066726856 -0.08475712 0.097432695 0.019190809 -0.03630532
-0.034428716 0.03154745 -0.033372074 0.10569382 0.045963522 -0.009278662 0.1742049 -0.013754592
0.080093525 -0.027427156 0.11273486 0.097265586 -0.005707741 -0.110818736 -0.020762974 0.04759153
-0.06039974 0.04105442 0.0057216175 -0.017624933 -0.08614815 -0.03937334 0.097368255 -0.015453592
0.055906825 -0.0043285005 -0.030744456 0.044965874 0.079390235 -0.06639671 -0.13142025 -0.03531495
0.19565168 -0.046888065 0.095196135 0.059179746 -0.009560819 -0.0026476556 0.008984518 -0.16052048
0.06643043 -0.031319395 -0.10850497 0.024235997 -0.03818751 0.009058154 -0.0828641 -0.100969255
0.10185937 -0.04200379 0.039694138 0.03850662 0.043095116 0.009361332 0.076528005 -0.02227524
0.029706657 0.121271744 0.010594564 -0.02795027 -0.05404128 -0.1251871 -0.015936263 0.056538206

bias_ih_l0 f4 [256]
00000000: 5184 9b3a 3684 2c3c 5d13 f0bb 017f bdbc
00000010: 8675 113c 2fd2 06bd 5ca2 033c a5a2 5eba
00000020: c53d 0a3b b296 45bd 8185 4d3b 2092 b9bb
00000030: 5943 aebc c611 c83b 2d11 463b 46fb 0a3c
00000040: 9e0d d03b afa9 4e3d a1a7 733c 0cbd a93c
00000050: 2926 973e 1899 81ba d095 1e3d 8fd2 a3bc
00000060: 95bf f03b 1401 913b 1992 133c 8980 433d
00000070: 1cca e2bb d0d4 28bb 608a b33c aa32 883b
00000080: 3ddf fc3c bc1d 8c3c 381a a83c 9548 b0bb
00000090: 0b46 143c 9315 a0bc 28cc 24bd a5f4 043c
000000a0: 70db 1b3c b63b cf3b cd19 fb3d 21f4 82bb
000000b0: bfbc 10bb 09ca 563c ed50 96bd 7a4d 38bc
000000c0: 03af 963d b02b 573c d30c 15bd 22f7 f0bb
000000d0: 2a49 05bd f327 0bbb 3a5d a23b 2fb9 5e3d
000000e0: a519 d6bc 1387 9d3b 60b0 37bd e282 903b
000000f0: cbe8 4abc 457d 423d 717f 8b3c 8013 943c
00000100: 9067 2e3c 41ed 4e3c 3b0f 78bb 0ebb ad3a
00000110: 328e 3d3c 4772 bfbc 2160 95bc 5cdf 753a
00000120: 414f 143b 4628 11bd 4603 9a3a 2cb4 213c
00000130: ac1a b2ba db2c 083b 1229 6b3c 1ef3 f63c
00000140: 57a6 1f3b 38e2 103d e915 29bb fc8c ea3c
00000150: 6fb3 113e 9013 92bc 2d19 cc3c b6a4 41bc
00000160: 03a8 ca3a 7320 cf3c fe76 ca3c f4fa f93c
00000170: 9937 dabc 93e7 483a 1dcd c93c fe63 33bc
00000180: aa40 0a3e 8afd 083a 8f20 0d3c 5bb5 29bc
00000190: b415 21ba c9bf 583b 554a 03bd 8073 04bc
000001a0: b9d6 1d3c 39c1 203b 5da9 1a3e 8a68 b3bc
000001b0: 19f3 173c c3fd 783c 117d 0ebd 76a5 63ba
000001c0: 2c83 183d 165e 0c3d 33ed 87bc 90b0 cebb
000001d0: 4276 8dbb 7058 8dbb f43c c43b 1799 dc3c
000001e0: f791 43bc 7632 043c 64d5 21bd e56e 7ebc
000001f0: 62f4 22bb c9df 0c3c 0b4e 263c 0cbf 50bc
00000200: af2c ab3b d1cb c1bc 1c89 6abb 31a3 683c
00000210: c9ce a93b 0f05 a23c 887e d9bc c4ae 0ebc
00000220: 5bbd 333d ba45 4f3b 77f0 9dbc 9e54 a6bb
00000230: e598 0b3d 3365 15bb ebcc eaba 9aa4 98ba
00000240: a013 3d3c 49f5 023d 617f 953b 639c d1bb
00000250: 89b4 4a3d cc4f 1f3b 1fe7 cfbc ce02 2a3b
00000260: 998e d23c 82d4 e13a 6b60 f63b a676 3139
00000270: 1831 ecbb 502d 403b 2209 213d 96a1 1d3c
00000280: 6865 09bd 4563 0b3c d3af ae3c a344 39b8
00000290: 4539 9fbc c912 523c 195c 1dbc ba26 b53c
000002a0: bacf 4a3c 1e8d df3b a361 343d 950e 4cbb
000002b0: e6ba a43c d2a3 013d d7a8 10bd 275e 87bb
000002c0: 34a0 2f3c cca4 8939 2ef0 d6bb c0e9 043c
000002d0: 0e52 0fbc 1301 173b e932 0f3c c88d 9fbc
000002e0: 75b0 e4bb e826 15bc b275 5d3b 8be3 b6bc
000002f0: 4b21 d5bb 4043 f93c 6bb2 89bc caf5 aa3c
00000300: 99f3 033b 056c 9c3c de04 a9bc 684a 83bc
00000310: 04e1 823b c746 4bbd 73d1 b33b 51ce 44bc
00000320: 7646 9439 71e6 8dbd 6e70 abbb 23fc fdbb
00000330: 6bde 81bc 1949 f2ba c8db b93b 573a 96b9
00000340: 7e17 7fbc 4d33 d9bc 564d 663c 2a5a 813c
00000350: b4c9 b43e 0dc2 2fbc 7746 a13b 32a5 c3bc
00000360: a90b a3bc 67e8 c9bc 59c2 c83b 3949 ce3c
00000370: 4294 a0bc 87ff efbb 71cc 87b7 5547 a4bb
00000380: 94ed 433e 19c8 253b 0886 bab9 36b7 e7bb
00000390: bced a13b 6ee2 f9bc d637 67bd a3b1 563b
000003a0: 221e 4a3c b4c2 1abd 5146 c43d 2852 7dbb
000003b0: f1ce 06bc 73ad 24ba dd89 b1bd e8cf c73b
000003c0: 5846 373d 1a3b bf3c 0a00 3abd c615 d4bc
000003d0: 50a9 24bd 83bc 9cbb 46cb 213b 4d5c 043c
000003e0: 1ed6 cebc 39ca 973b abb8 0ebd 0d1d 88bc
000003f0: e290 93bc 49d7 343c db25 8abb 8777 643d
0.0011864995 0.010529568 -0.007326527 -0.02313185 0.008878117 -0.03291529 0.008034315 -0.0008492864
0.0021093946 -0.048239417 0.0031360092 -0.0056631714 -0.021272348 0.0061056344 0.003022264 0.00848276
0.0063492795 0.05045479 0.014871509 0.020720027 0.295213 -0.0009887544 0.03871709 -0.019997863
0.007347057 0.0044251774 0.009007 0.047730003 -0.006921066 -0.0025761612 0.021916568 0.0041564303
0.030868167 0.017104022 0.020520315 -0.005379746 0.009049903 -0.019541537 -0.04023376 0.008114968
0.009512767 0.006324257 0.122607805 -0.0039963876 -0.0022085158 0.013109692 -0.07339654 -0.011248941
0.073575996 0.0131329745 -0.036389183 -0.0073536793 -0.032540478 -0.0021233528 0.004954961 0.054375824
-0.026135275 0.004807362 -0.04484594 0.0044101337 -0.012384604 0.047482748 0.017028542 0.018075705
0.010644808 0.012629808 -0.0037850875 0.0013254599 0.011569547 -0.023369921 -0.018234314 0.00093792914
0.0022630247 -0.0354388 0.0011750243 0.0098696165 -0.0013588271 0.002077869 0.014353054 0.030145224
0.002436062 0.03537199 -0.0025800413 0.02863168 0.14228605 -0.017831594 0.024914348 -0.011819055
0.0015461448 0.025284028 0.024714943 0.030515172 -0.02663784 0.0007663902 0.024633938 -0.010949133
0.1350123 0.00052257685 0.00861372 -0.01035818 -0.00061448966 0.0033073297 -0.03205331 -0.008084178
0.009633713 0.0024529232 0.1510367 -0.021900434 0.009274268 0.01519722 -0.03478724 -0.00086840184
0.03723447 0.034269415 -0.016592598 -0.006307669 -0.004317076 -0.004313521 0.0059887115 0.026928468
-0.011936656 0.008068671 -0.039510146 -0.015529369 -0.0024864902 0.008598276 0.010150443 -0.012740862
0.0052238326 -0.023656758 -0.003578729 0.014199064 0.0051821214 0.019777803 -0.026549593 -0.00870866
0.043881755 0.0031627254 -0.019279702 -0.005076005 0.03408136 -0.0022795915 -0.0017913854 -0.0011645735
0.0115403235 0.031972203 0.004562304 -0.0063968166 0.049488578 0.0024309037 -0.025378762 0.0025941613
0.025702761 0.001722947 0.007518818 0.00016924235 -0.007208001 0.0029323883 0.03931535 0.009621045
-0.033543974 0.008507554 0.021324074 -4.417136e-05 -0.019436488 0.012821862 -0.009604477 0.022113193
0.012378627 0.0068222424 0.044038426 -0.0031136621 0.020108651 0.03165037 -0.03531727 -0.004131097
0.010719348 0.0002625346 -0.0065593934 0.008112371 -0.008747591 0.0023041412 0.008740165 -0.019476786
-0.006979043 -0.009103514 0.0033792076 -0.022325298 -0.006504213 0.030427575 -0.01680871 0.020869154
0.002013421 0.019094476 -0.020632204 -0.01602669 0.003994109 -0.049628045 0.005487615 -0.01201208
0.00028281257 -0.06928719 -0.0052319085 -0.0077510043 -0.015853127 -0.001848492 0.005671952 -0.00028653696
-0.015569566 -0.02651372 0.014056524 0.015790064 0.35310137 -0.010727418 0.00492173 -0.023882482
-0.019903021 -0.02464695 0.0061266837 0.0251814 -0.019601945 -0.0073241624 -1.6188455e-05 -0.0050133863
0.19133598 0.002529627 -0.00035576546 -0.007071401 0.00494167 -0.030503478 -0.056449734 0.0032759688
0.012336286 -0.03778334 0.09583724 -0.0038653705 -0.00822805 -0.00062819495 -0.086688735 0.0060977824
0.04474482 0.023343612 -0.045410194 -0.025889289 -0.04020053 -0.0047832145 0.002468781 0.008078647
-0.025248583 0.004632261 -0.03484408 -0.016615415 -0.018013421 0.011037656 -0.0042159385 0.055778053

bias_hh_l0 f4 [256]
00000000: 5184 9b3a 3684 2c3c 5d13 f0bb 017f bdbc
00000010: 8675 113c 2fd2 06bd 5ca2 033c a5a2 5eba
00000020: c53d 0a3b b296 45bd 8185 4d3b 2092 b9bb
00000030: 5943 aebc c611 c83b 2d11 463b 46fb 0a3c
00000040: 9e0d d03b afa9 4e3d a1a7 733c 0cbd a93c
00000050: 2926 973e 1899 81ba d095 1e3d 8fd2 a3bc
00000060: 95bf f03b 1401 913b 1992 133c 8980 433d
00000070: 1cca e2bb d0d4 28bb 608a b33c aa32 883b
00000080: 3ddf fc3c bc1d 8c3c 381a a83c 9548 b0bb
00000090: 0b46 143c 9315 a0bc 28cc 24bd a5f4 043c
000000a0: 70db 1b3c b63b cf3b cd19 fb3d 21f4 82bb
000000b0: bfbc 10bb 09ca 563c ed50 96bd 7a4d 38bc
000000c0: 03af 963d b02b 573c d30c 15bd 22f7 f0bb
000000d0: 2a49 05bd f327 0bbb 3a5d a23b 2fb9 5e3d
000000e0: a519 d6bc 1387 9d3b 60b0 37bd e282 903b
000000f0: cbe8 4abc 457d 423d 717f 8b3c 8013 943c
00000100: 9067 2e3c 41ed 4e3c 3b0f 78bb 0ebb ad3a
00000110: 328e 3d3c 4772 bfbc 2160 95bc 5cdf 753a
00000120: 414f 143b 4628 11bd 4603 9a3a 2cb4 213c
00000130: ac1a b2ba db2c 083b 1229 6b3c 1ef3 f63c
00000140: 57a6 1f3b 38e2 103d e915 29bb fc8c ea3c
00000150: 6fb3 113e 9013 92bc 2d19 cc3c b6a4 41bc
00000160: 03a8 ca3a 7320 cf3c fe76 ca3c f4fa f93c
00000170: 9937 dabc 93e7 483a 1dcd c93c fe63 33bc
00000180: aa40 0a3e 8afd 083a 8f20 0d3c 5bb5 29bc
00000190: b415 21ba c9bf 583b 554a 03bd 8073 04bc
000001a0: b9d6 1d3c 39c1 203b 5da9 1a3e 8a68 b3bc
000001b0: 19f3 173c c3fd 783c 117d 0ebd 76a5 63ba
000001c0: 2c83 183d 165e 0c3d 33ed 87bc 90b0 cebb
000001d0: 4276 8dbb 7058 8dbb f43c c43b 1799 dc3c
000001e0: f791 43bc 7632 043c 64d5 21bd e56e 7ebc
000001f0: 62f4 22bb c9df 0c3c 0b4e 263c 0cbf 50bc
00000200: af2c ab3b d1cb c1bc 1c89 6abb 31a3 683c
00000210: c9ce a93b 0f05 a23c 887e d9bc c4ae 0ebc
00000220: 5bbd 333d ba45 4f3b 77f0 9dbc 9e54 a6bb
00000230: e598 0b3d 3365 15bb ebcc eaba 9aa4 98ba
00000240: a013 3d3c 49f5 023d 617f 953b 639c d1bb
00000250: 89b4 4a3d cc4f 1f3b 1fe7 cfbc ce02 2a3b
00000260: 998e d23c 82d4 e13a 6b60 f63b a676 3139
00000270: 1831 ecbb 502d 403b 2209 213d 96a1 1d3c
00000280: 6865 09bd 4563 0b3c d3af ae3c a344 39b8
00000290: 4539 9fbc c912 523c 195c 1dbc ba26 b53c
000002a0: bacf 4a3c 1e8d df3b a361 343d 950e 4cbb
000002b0: e6ba a43c d2a3 013d d7a8 10bd 275e 87bb
000002c0: 34a0 2f3c cca4 8939 2ef0 d6bb c0e9 043c
000002d0: 0e52 0fbc 1301 173b e932 0f3c c88d 9fbc
000002e0: 75b0 e4bb e826 15bc b275 5d3b 8be3 b6bc
000002f0: 4b21 d5bb 4043 f93c 6bb2 89bc caf5 aa3c
00000300: 99f3 033b 056c 9c3c de04 a9bc 684a 83bc
00000310: 04e1 823b c746 4bbd 73d1 b33b 51ce 44bc
00000320: 7646 9439 71e6 8dbd 6e70 abbb 23fc fdbb
00000330: 6bde 81bc 1949 f2ba c8db b93b 573a 96b9
00000340: 7e17 7fbc 4d33 d9bc 564d 663c 2a5a 813c
00000350: b4c9 b43e 0dc2 2fbc 7746 a13b 32a5 c3bc
00000360: a90b a3bc 67e8 c9bc 59c2 c83b 3949 ce3c
00000370: 4294 a0bc 87ff efbb 71cc 87b7 5547 a4bb
00000380: 94ed 433e 19c8 253b 0886 bab9 36b7 e7bb
00000390: bced a13b 6ee2 f9bc d637 67bd a3b1 563b
000003a0: 221e 4a3c b4c2 1abd 5146 c43d 2852 7dbb
000003b0: f1ce 06bc 73ad 24ba dd89 b1bd e8cf c73b
000003c0: 5846 373d 1a3b bf3c 0a00 3abd c615 d4bc
000003d0: 50a9 24bd 83bc 9cbb 46cb 213b 4d5c 043c
000003e0: 1ed6 cebc 39ca 973b abb8 0ebd 0d1d 88bc
000003f0: e290 93bc 49d7 343c db25 8abb 8777 643d
0.0011864995 0.010529568 -0.007326527 -0.02313185 0.008878117 -0.03291529 0.008034315 -0.0008492864
0.0021093946 -0.048239417 0.0031360092 -0.0056631714 -0.021272348 0.0061056344 0.003022264 0.00848276
0.0063492795 0.05045479 0.014871509 0.020720027 0.295213 -0.0009887544 0.03871709 -0.019997863
0.007347057 0.0044251774 0.009007 0.047730003 -0.006921066 -0.0025761612 0.021916568 0.0041564303
0.030868167 0.017104022 0.020520315 -0.005379746 0.009049903 -0.019541537 -0.04023376 0.008114968
0.009512767 0.006324257 0.122607805 -0.0039963876 -0.0022085158 0.013109692 -0.07339654 -0.011248941
0.073575996 0.0131329745 -0.036389183 -0.0073536793 -0.032540478 -0.0021233528 0.004954961 0.054375824
-0.026135275 0.004807362 -0.04484594 0.0044101337 -0.012384604 0.047482748 0.017028542 0.018075705
0.010644808 0.012629808 -0.0037850875 0.0013254599 0.011569547 -0.023369921 -0.018234314 0.00093792914
0.0022630247 -0.0354388 0.0011750243 0.0098696165 -0.0013588271 0.002077869 0.014353054 0.030145224
0.002436062 0.03537199 -0.0025800413 0.02863168 0.14228605 -0.017831594 0.024914348 -0.011819055
0.0015461448 0.025284028 0.024714943 0.030515172 -0.02663784 0.0007663902 0.024633938 -0.010949133
0.1350123 0.00052257685 0.00861372 -0.01035818 -0.00061448966 0.0033073297 -0.03205331 -0.008084178
0.009633713 0.0024529232 0.1510367 -0.021900434 0.009274268 0.01519722 -0.03478724 -0.00086840184
0.03723447 0.034269415 -0.016592598 -0.006307669 -0.004317076 -0.004313521 0.0059887115 0.026928468
-0.011936656 0.008068671 -0.039510146 -0.015529369 -0.0024864902 0.008598276 0.010150443 -0.012740862
0.0052238326 -0.023656758 -0.003578729 0.014199064 0.0051821214 0.019777803 -0.026549593 -0.00870866
0.043881755 0.0031627254 -0.019279702 -0.005076005 0.03408136 -0.0022795915 -0.0017913854 -0.0011645735
0.0115403235 0.031972203 0.004562304 -0.0063968166 0.049488578 0.0024309037 -0.025378762 0.0025941613
0.025702761 0.001722947 0.007518818 0.00016924235 -0.007208001 0.0029323883 0.03931535 0.009621045
-0.033543974 0.008507554 0.021324074 -4.417136e-05 -0.019436488 0.012821862 -0.009604477 0.022113193
0.012378627 0.0068222424 0.044038426 -0.0031136621 0.020108651 0.03165037 -0.03531727 -0.004131097
0.010719348 0.0002625346 -0.0065593934 0.008112371 -0.008747591 0.0023041412 0.008740165 -0.019476786
-0.006979043 -0.009103514 0.0033792076 -0.022325298 -0.006504213 0.030427575 -0.01680871 0.020869154
0.002013421 0.019094476 -0.020632204 -0.01602669 0.003994109 -0.049628045 0.005487615 -0.01201208
0.00028281257 -0.06928719 -0.0052319085 -0.0077510043 -0.015853127 -0.001848492 0.005671952 -0.00028653696
-0.015569566 -0.02651372 0.014056524 0.015790064 0.35310137 -0.010727418 0.00492173 -0.023882482
-0.019903021 -0.02464695 0.0061266837 0.0251814 -0.019601945 -0.0073241624 -1.6188455e-05 -0.0050133863
0.19133598 0.002529627 -0.00035576546 -0.007071401 0.00494167 -0.030503478 -0.056449734 0.0032759688
0.012336286 -0.03778334 0.09583724 -0.0038653705 -0.00822805 -0.00062819495 -0.086688735 0.0060977824
0.04474482 0.023343612 -0.045410194 -0.025889289 -0.04020053 -0.0047832145 0.002468781 0.008078647
-0.025248583 0.004632261 -0.03484408 -0.016615415 -0.018013421 0.011037656 -0.0042159385 0.055778053

weight_ih_l1 f4 [256, 64]
00000000: 5dcc 8bbd e3a3 a2bd ceb3 da3d beae ce3d
00000010: 311c 0abe 3a0e a3bd e17a 41bd 2fb7 233d
00000020: dde0 12bd f7b6 fa3d 42bc e9bd c2a5 ac3d
00000030: 2a1a 8f3d a881 70bc ec75 0abd 6b35 863d
00000040: e156 043e 6961 3d3a c0b7 cbbb c1ce fa3d
00000050: 5372 36bb cea4 de3c 1018 bfbd 3bdc 8f3d
00000060: a97a 983d 2269 033e e1e3 2b3d 70ea a13b
00000070: dd0e f5bc 53a5 9abd 059d 0e3e eb11 81bc
00000080: c89d ed3c 2d79 843d e66f cd3c 324c dabd
00000090: 7f96 ac3d 980f 203e dcd7 3c3d 35de 2e3e
000000a0: e5e1 0cbe 0b34 07be e9b3 853e 90ed 13be
000000b0: 0e89 c83d d9a5 083c 1e15 5e3d 0fec aebd
000000c0: 28c5 bdbd c15b e7bd 4a6a ff3d 5cbb d1bd
000000d0: 5b70 2c3c d915 7fbc 6933 bd3d fd15 c7bd
000000e0: 7096 723d 52a2 14bd a2af 963d 1898 9abd
000000f0: a574 02be d0f1 013e 9907 33bd 58aa 50bc
00000100: 8668 1abd 28bd 3ebe b28d 17be ef36 723d
00000110: 52e6 a1bd e2dd 1dbe fa27 fb3d 1658 afbd
00000120: 862f db3d 59f7 39bd c7ae 1ebe 906e 213b
00000130: 79e8 31bd 39d6 3e3e 5ffc c1bd f1fc 823c
00000140: db6b 1bbe 8fff 903d d379 283b 984e 6dbc
00000150: e8d1 723e 48c4 05bd a858 c13d 424e 393c
00000160: 5bfe 173e 7db4 aa3d bff9 e7bc b25a c93d
00000170: ea5c be3d 065b 10be 065c 75bc ada2 06bc
00000180: c59e 79b9 a899 6a3d bbd0 e7bd 51e8 673d
00000190: f31f 2fbe bd59 d9bd 2e99 c6bd 2438 b63d
000001a0: c6e0 0f3e 6700 433c 6efd 84bd 71f0 2f3d
000001b0: eef4 34bc 5ee5 d83d fd64 5cbe 4cf2 823d
000001c0: f19e a6be ce8f ba3c 5f94 d13d d4f5 7cbd
000001d0: 942b 92bd 76cc 8e3d 9c14 bebd fede 593d
000001e0: 2c3e 09be f070 0f3d 0e5d 87bc 5f84 16bd
000001f0: cc1c d0bd 50b0 efbb d4d2 5dbd 64be b13e
00000200: 4e17 e53d f313 873d fb02 6ebd 9037 a2bd
00000210: ad37 49bb fb75 c23c 0a57 bebd dc2e f2bd
00000220: 5da6 1a3e 2f86 d9bd 9982 b13c 30cf 8f3c
00000230: bb60 153e f53a c1bd ea4e 70bd 89d3 a0bd
00000240: cf14 573e 080c 173e a0fe 173e 4f80 f5bd
00000250: 9e4d 71bd 7d6c ee3b 4da6 47be 6b7c 173e
00000260: ec93 1b3c 2360 0e3d 23e7 dd3d 8f33 18bd
00000270: 0721 5ebd 3085 a2bd 7f3f 67bd 4514 063d
00000280: 6e26 0e3c 4c2f edbd 6b94 da3d a6a8 663d
00000290: 2a76 ffbc c975 6abd b01e 1d3d 66f2 aebd
000002a0: ab70 1e3d 3345 963a b5cc 603d 6256 38be
000002b0: 4958 c2bd 5449 98bd e17e b7bd dcba b23d
000002c0: 66f2 763b c55b 2e3e fc44 3a3d dd01 193e
000002d0: b1ec b9bd ef98 413e 085d 38bd 7f30 153d
000002e0: bb50 f1bd a1dd bb3c 5d1b 52bd 5637 8a3c
000002f0: 9c64 1bbc 70b0 2c3e 1e67 7f3c c4ce b9bd
00000300: 18f2 873d 0a7e 193d 2a65 e23c 7f90 0e3a
00000310: 9902 8ebb 2022 173e 5601 233d e283 81bd
00000320: 0e67 33bd debc 33bd 5bdb 81bd 3f52 83bc
00000330: 2fac 8bbb 8ab3 49bd c0f3 afbd c703 9cbd
00000340: 57dc d43c 8bfb ac3c 17c5 893c b189 97bd
00000350: 4b4b 11bd 2f7a efbd 86f8 44bd f462 c93d
00000360: d172 14bc e748 c4bc 806e 5ebc 0ae8 6d3c
00000370: 3055 e63d e8e8 d73d b6cc 833d 86cb d33d
00000380: 4e01 3d3d 8a00 adbd 2ce0 23bc 46a7 efbd
00000390: e490 923d 3373 8cbb 253d 913c 01c5 eabc
000003a0: b9cd 3c3d d698 06be 88f3 95bc 1182 dd3d
000003b0: ac71 9c3d 5b11 9d3d 046e 5ebd e466 803d
000003c0: 174b 243e 0b0f 8d3d 88bd f03b 75e8 d1bd
000003d0: 0a80 a9bc fb20 4c3c 0988 813b f6b5 bf3d
000003e0: d953 d2bd efdd fa3b 5cf5 7f3d 265b e8bd
000003f0: 703a 9b3c 3387 a0bd 4714 67bc de29 d3bd
-0.068260886 -0.07941415 0.10678826 0.10091923 -0.13487317 -0.07961698 -0.047236327 0.03996962
-0.035858978 0.12241929 -0.114128605 0.08430053 0.06987412 -0.01467935 -0.033803865 0.065531574
0.12923767 0.0007224293 -0.006216973 0.122464664 -0.0027839139 0.027178194 -0.093307614 0.070244275
0.074452706 0.12833074 0.04196537 0.004941277 -0.029914314 -0.07551064 0.13927086 -0.015755614
0.0290059 0.06468425 0.025077771 -0.10659064 0.08427142 0.15630949 0.046104297 0.17076953
-0.13758047 -0.13203447 0.26113823 -0.14446092 0.09791766 0.008340322 0.054219358 -0.08541118
-0.0926612 -0.112967975 0.12471445 -0.10240814 0.0105248345 -0.015569174 0.09238321 -0.09720991
0.0592255 -0.036287613 0.07357718 -0.07548541 -0.12739809 0.126899 -0.043708418 -0.012735926
-0.037697338 -0.18626845 -0.14800146 0.05913442 -0.07905258 -0.15416673 0.12263484 -0.08561723
0.10702424 -0.045401905 -0.1549636 0.002463255 -0.043434594 0.18636407 -0.09471964 0.015989752
-0.15177862 0.07079994 0.0025707379 -0.01448407 0.23712885 -0.03265789 0.09440738 0.011310162
0.14843123 0.08335207 -0.02831733 0.09831752 0.09295066 -0.14097223 -0.014975553 -0.008217496
-0.00023805637 0.057275444 -0.11319109 0.05661804 -0.17102031 -0.10612819 -0.096971855 0.08897427
0.14050588 0.011901951 -0.064936504 0.042953912 -0.011044724 0.10590623 -0.21522899 0.06393871
-0.32543138 0.02277365 0.10233378 -0.061757877 -0.07137218 0.069725916 -0.09281275 0.053191178
-0.13402623 0.035019815 -0.016523864 -0.036747333 -0.101617426 -0.0073147193 -0.05415614 0.3471557
0.11186086 0.06595602 -0.05810831 -0.07920754 -0.0030703351 0.023737898 -0.09293945 -0.11825344
0.15102525 -0.106212966 0.02166872 0.01755485 0.14587681 -0.09435073 -0.05866901 -0.07852847
0.21004032 0.14750683 0.14843225 -0.119873635 -0.058911912 0.0072761164 -0.19497032 0.14793555
0.009495717 0.034759652 0.108351015 -0.037158545 -0.054230716 -0.0793556 -0.05645704 0.032734174
0.008676155 -0.11581287 0.1067284 0.05631318 -0.031184275 -0.057241235 0.038359344 -0.085423276
0.038681667 0.0011464715 0.054882724 -0.18001702 -0.09489495 -0.07435861 -0.08959747 0.08727047
0.0037681102 0.17027195 0.045475945 0.14942117 -0.090783484 0.18905996 -0.045010597 0.036423203
-0.11782976 0.02293283 -0.051295627 0.01687209 -0.009484436 0.1686418 0.01558855 -0.090726405
0.066379726 0.037473716 0.02763613 0.0005438402 -0.0043338058 0.14759111 0.039796196 -0.06323983
-0.043799452 -0.04388129 -0.06340667 -0.016030429 -0.0042624692 -0.049243487 -0.085914135 -0.07617908
0.025983972 0.021116039 0.016817613 -0.073993094 -0.035472196 -0.116932265 -0.048088573 0.09833327
-0.0090605775 -0.023960544 -0.01357615 0.014520654 0.11246717 0.1054247 0.0643553 0.103415534
0.046143822 -0.084473684 -0.010002177 -0.11701827 0.07156542 -0.0042861938 0.017729351 -0.028658392
0.04609463 -0.1314424 -0.018304601 0.10815824 0.07638869 0.07669326 -0.054304138 0.06269625
0.1604427 0.06887635 0.0073468126 -0.10249416 -0.020690937 0.012459035 0.003952984 0.09360878
-0.10269899 0.007655851 0.062489852 -0.1134551 0.018948764 -0.07838287 -0.014103956 -0.1031072

weight_hh_l1 f4 [256, 64]
00000000: 8306 6c3d ba01 35bd da19 08bd a38b 3ebd
00000010: c1e4 583e 95ba dcbd 5ec1 ea3c 4964 363d
00000020: 0c69 35bd d88f eb3c bd38 bebd 944e b3bc
00000030: ad97 e63d 4ff7 7e3d 142a eebd 699e 9c3c
00000040: 3fa1 db3d 51ae 99bd fd87 b43c 85d8 30be
00000050: 7faf 5dbc e0d3 25bc 8952 39bd c17a 903c
00000060: 794d d1bc e9e1 28be cc3b 003d e926 0aba
00000070: 82fa c4b8 cfc7 aabd 1d91 a93b c3ba dabc
00000080: f8a6 b63d 5067 48bd 651f a43d 124d 08bd
00000090: c95f 373d b498 bc3d a459 c03b 6580 fb3d
000000a0: cb19 1d3e 1af2 673d 1346 09be 704b f8bc
000000b0: 1969 0d3e 2a23 dabc c5bb 84bd 3029 90bd
000000c0: b2d3 2a3d 234a 57bc d9f4 a63d 4953 9bbc
000000d0: 46ec 04bd 83ba eabd ba12 783d 2da1 963d
000000e0: b367 8fbb 5d94 013b edb6 ab3c 2b16 013d
000000f0: 925c c9bd fa9f 0d3c 7482 28bd 2343 45bd
00000100: a756 893c f32f c73c e893 7cbd d5a9 70bd
00000110: 065f 513e 4651 ad3d c167 183e 4075 023d
00000120: 5950 70bc b34f 0ebd f377 9bbd 520e 533d
00000130: a3bf debc 87cf 2e3e ad30 0cbe c9d6 043d
00000140: 008f 7c3c 3316 75bd 8735 b23d e9f1 d0bd
00000150: a39b 193d 2f6e 79bc c187 85bc e484 263d
00000160: 0cc6 f8bd e4f8 15bd 2a32 e83d d83a 8dbd
00000170: f28b 15bd 3e0c 92bd 9a99 62bd 9ab9 773d
00000180: e976 e23c 8ab0 0d3d 7ce4 813d 563b c8bd
00000190: 4bd8 29bd dec9 963d acb5 36bd afad 493e
000001a0: 29f6 b43d 4b80 86bd b4fd 053e 45c6 603d
000001b0: c09d 3a3d 708b 34bd 175c 2abe ca20 69bd
000001c0: 0821 6dbd 2e1c 0ebd 9b78 bebd 5f2a d83d
000001d0: 0f26 73bc bd65 a53c ae9c 143c c183 313d
000001e0: f975 903d ec89 1e3d 8241 133d f47e b43d
000001f0: 2b88 a8bc 207d e3bd c00a 7bbd 2c27 98bc
00000200: 9d83 6e3d 84eb b63b 0da9 cbbd 29dd ccbd
00000210: 1faa 0bbd 97ab 1cbd 37dc da3c b47c 8dbb
00000220: 1ac8 97bb 5988 b1bc 8d08 30bd fa98 0d3d
00000230: 28f5 3dbb 2d66 10bc f4de d73c 1544 c83d
00000240: 1b96 943c 508d a23d e57e 453c 96fb eebc
00000250: 9723 d0bd 2221 c7bc 1bbf 35bd c0f7 0abe
00000260: ddef 3ebd 1b67 65be 48cc f9bd 8be9 c63d
00000270: bf4c dfbd 1972 5dbd 6ed2 a73d 771e 64be
00000280: b84a 6e3d 5a55 9c3d 480c d0bd 4ece d73d
00000290: d03a 26bd 2b8b 61bd bce7 a93d 049c 323d
000002a0: d1ab 483d c196 083e 3d14 733c 7777 963d
000002b0: a80c 533b 16c6 2d3d 9b87 213d ae8f dcbd
000002c0: 38f2 53be 5adb 30bd 45ec 2a3c 7070 db3d
000002d0: 898f 16bd 9e72 8f3c f3ee 703d fdb2 a8bd
000002e0: 92a2 3c3e 5cbc 183d 7a8d 283c b1a4 6a3d
000002f0: 2cf1 49be 03b9 a33d 86dc 37bd 1a41 e03c
00000300: f309 15bc 4503 76bd 83f1 5c3d 4759 873c
00000310: 30bd 5bbd e928 9d3d 3a68 2c3d 2827 efbc
00000320: 2b10 87bd f012 9a3d 0ab3 b5bd d191 b1bc
00000330: 4907 e0bd 3d18 c9bc 15a3 bb3d 49f1 b13d
00000340: 7f4e b2bc 0588 d0bd df86 d93c 1090 63bc
00000350: efd4 e0bb bd9f afbd 29fd 823d d80b 8a3d
00000360: a505 0abe ee81 0e3c eb8c 6b3b 05e5 e5bc
00000370: 6005 603d 1a66 dd3d 5f9e 133d 6b13 813b
00000380: a6fd 49bb ec5d a23c e895 8abc fed4 c23c
00000390: 572f fc3d c64d 463b 5310 003d 8756 9a3d
000003a0: b9db 783d 8f6f 553d 2b0c 8abd c381 7a3d
000003b0: c918 24bd e450 fa3d 2746 a2bb 8b75 88bd
000003c0: 4d48 383d d7a3 5d3d 8932 83bb c671 9cbd
000003d0: 0e85 0dbe c1ef a9bc a383 da3d 2bcb 50bc
000003e0: fb88 d6bd 5ef3 9fbd 0c85 fa3c b457 823d
000003f0: d7f3 aa3d fe44 26bd f0fe 47bd 9336 243e
0.057623398 -0.0441911 -0.03322778 -0.046519887 0.21181013 -0.10777775 0.028656658 0.044529233
-0.044289634 0.028755113 -0.09288166 -0.021888055 0.112593986 0.06224757 -0.116291195 0.019118505
0.107241146 -0.07503951 0.0220375 -0.17270096 -0.013530611 -0.010121316 -0.045244727 0.017636659
-0.025549637 -0.16492428 0.031307027 -0.00052700803 -9.392669e-05 -0.08338892 0.0051747696 -0.026700383
0.089185655 -0.04892665 0.080138005 -0.033276625 0.044769082 0.09208813 0.005870061 0.12280349
0.1534187 0.05662737 -0.13405637 -0.030309409 0.13809623 -0.026628096 -0.06481127 -0.07039106
0.041705795 -0.013140234 0.0815217 -0.018960612 -0.03245189 -0.114613555 0.060564734 0.073549606
-0.0043763756 0.001977227 0.02096125 0.03151528 -0.098321095 0.008644098 -0.041140035 -0.04815973
0.016764952 0.024314856 -0.061664492 -0.058755714 0.20446405 0.08462767 0.14883329 0.0318501
-0.014667594 -0.034743976 -0.07591238 0.05152733 -0.027190989 0.17071353 -0.13690443 0.032431398
0.015414953 -0.059835624 0.08701616 -0.10202391 0.037501942 -0.015224024 -0.016300084 0.040654078
-0.121471494 -0.036614314 0.11337693 -0.06895989 -0.036510415 -0.07131241 -0.055322267 0.060479738
0.027644591 0.03459219 0.06342408 -0.097769424 -0.04146604 0.07362722 -0.04460685 0.19695161
0.08836014 -0.06567439 0.13085061 0.054876585 0.0455606 -0.04407829 -0.16636692 -0.056916036
-0.05789283 -0.034694843 -0.093003474 0.10554957 -0.014840617 0.020190114 0.0090705585 0.04333854
0.070537515 0.03870575 0.035951145 0.08813277 -0.020572742 -0.1110785 -0.06128955 -0.018573366
0.058230985 0.005582275 -0.09944353 -0.100031205 -0.034097787 -0.03824958 0.026716335 -0.0043178443
-0.0046320083 -0.021671461 -0.042976905 0.034569718 -0.0028985236 -0.008813423 0.02635143 0.097786106
0.018137982 0.079371095 0.01205418 -0.0291727 -0.10163038 -0.024307791 -0.044371706 -0.13571072
-0.04661547 -0.22402613 -0.12197167 0.097125135 -0.1090331 -0.05406389 0.08194433 -0.22277246
0.058176726 0.07633467 -0.101585925 0.10537396 -0.04058343 -0.05506436 0.08296153 0.04360582
0.048991982 0.13338758 0.014836368 0.07347005 0.0032203589 0.042425238 0.039435964 -0.10769592
-0.20697868 -0.04317794 0.010432308 0.10714805 -0.03675798 0.017510708 0.05882163 -0.08237264
0.1842139 0.03728901 0.010287637 0.05728597 -0.19720906 0.079942726 -0.044888042 0.027374793
-0.00909661 -0.06006171 0.05394126 0.016522063 -0.05364722 0.076738186 0.042091586 -0.029193476
-0.06594881 0.07523143 -0.088720396 -0.021675976 -0.109388895 -0.02454769 0.09161965 0.086885996
-0.021765945 -0.10182194 0.02655357 -0.013889328 -0.006861321 -0.085753895 0.06395943 0.0674054
-0.13478716 0.00869797 0.0035942148 -0.028063307 0.054692626 0.1081049 0.036039706 0.0039390824
-0.0030821352 0.019820176 -0.016917184 0.023783203 0.12313717 0.003025876 0.031265568 0.07536035
0.06075642 0.052108344 -0.06740602 0.061158907 -0.0400627 0.1222246 -0.0049522105 -0.066630445
0.044990826 0.054111328 -0.004003827 -0.07638888 -0.13820288 -0.020744206 0.10669639 -0.0127437515
-0.10475346 -0.078100905 0.03058102 0.06364384 0.0834729 -0.04059314 -0.04882711 0.16036443

bias_ih_l1 f4 [256]
00000000: 4e92 3a3d 0545 1d3d 368c 923d f2c2 5a3c
00000010: 7f0d c93d 10f4 823d c5a4 433c f10a 253d
00000020: afe4 c73c fc63 043d 85fc fd3c d671 4d3d
00000030: b3e8 263c afaf 813d e4b3 b43d 1f99 9d3d
00000040: 5bbd 623d d738 293d e516 cd3d a619 203e
00000050: d533 5abd de9d aa3b 3c20 6bbd 92ef 0b3d
00000060: e022 37bd 66f1 90bc 5c44 323c 8a3f 6e3d
00000070: c24f a83d cd56 d53c 5685 cc3c 8366 683c
00000080: fc3e 733b efce 073d e163 783d f832 013e
00000090: c11d a23d 7242 6c3d c454 813d f5ca c73c
000000a0: c9c0 123d 30ba 523d f96e 9f3d 6336 633b
000000b0: d173 913d 6c1f e93c 97e9 aebb ac45 3e3d
000000c0: 6933 263d e405 2b3d 8324 5d3d 782e 86bc
000000d0: 1eb2 943d 7dfe 4a3e 6cd7 35bd 08e6 d43c
000000e0: da73 bd3d da10 d33c ce56 1d3d b8a3 783d
000000f0: ec6a 9d3d 8c15 e73c 3762 b63d 4a07 7e3d
00000100: d673 443d 97ab 523c ef4c 2e3d a4fe c33c
00000110: f529 a23d 6ce8 993d 67d6 1f3c e287 e63c
00000120: 0484 013d 5b9d 243d 30a3 593d f7e7 743d
00000130: 138f d9bb 0293 dc3c 3c2d 8b3d 98e2 ea3c
00000140: 0019 303d cd4e 313d 7ed1 013e 3f5b c03c
00000150: 989a d6bc e957 02bc 5934 1cbd a1b2 f83b
00000160: a646 babc 005a babc 0e18 4f3d 7a8a a73d
00000170: 049b 2b3d 9045 363c 4f97 4e3d 9e83 093d
00000180: 4fed d23c 5123 2d3c 8b70 393d c8bc 023e
00000190: fe3d 323d 310e e9bc 8c39 9c3d 31cb 0e3d
000001a0: b24c 2e3d d1eb 133d 9756 633d 1b5f 4b3c
000001b0: 7aa6 863d d52d 07bc 525f 32ba 9a5a 493c
000001c0: 4e8f 893d 2e7a 393d 9e82 743d db32 30bc
000001d0: 7acc c33d c19b 2a3e 20bd de3c cd18 f73c
000001e0: 9fbf 873d e4a4 b63c f504 1a3d 3822 763d
000001f0: 5378 f13c d5ad 7c3c 5d07 283d 330c 4b3d
00000200: 9ce9 363d b777 3b3d f6a5 10bd a441 02bd
00000210: 6378 083d 4e7a 3cbd cabd e6bc 9af9 203d
00000220: e341 29bd 9742 1fbd 2d22 61bd 4e9b 15bd
00000230: 8462 2e3d 0488 24bc a7f2 6cbd db5b e83c
00000240: 5ef1 163d 26c9 043d 29b9 443d 7a2f 0cbc
00000250: e35e 51bd 5581 d6bc 2b92 11bd 4133 f13c
00000260: 4a56 9f3c b339 48bd 0cf6 13bd 2ceb 13bd
00000270: aa2d 20bd fd75 16bd 02f8 353d 7302 00bd
00000280: 101f 0e3d 31ed 223d e77b 30bd c4c7 f13c
00000290: fd6b 543d 1a7c 07bd a0ab 323d 7c29 a43c
000002a0: 3d11 0d3d c769 eabb bfe8 b53b 8b26 143d
000002b0: b30b 203d 1389 e5ba f3f7 9a3b 54ea 6b3b
000002c0: 4510 76bc c56e 89bc a993 89bd f0f2 e73c
000002d0: dbd1 1f3d b504 95bd 4bf4 413d d1eb 13bd
000002e0: d2e4 133d 8629 183d 3d25 0ebd a025 5f3d
000002f0: 3267 95bd bf57 5f3d 3333 d6bc b2f1 2d3c
00000300: 141d 263d 4eba 673d 69e2 19bc 66dc 723c
00000310: ddd7 853e b793 7f3c e04d 583b 16b8 d53c
00000320: e4ad 85bc 57c0 0c3d 8078 823c b4b0 8e3d
00000330: 31cc 303d 716c 093d 458e 0d3e 5990 b33d
00000340: 9007 233c c64d 733d 6db4 063e f84a 0c3e
00000350: 1978 cfbc 4570 6e3c 433c c5bc da13 c63c
00000360: 3935 73bd f5a1 273d 0858 d93a 93f9 9fbc
00000370: 5fb6 963d 76c6 c43c 3826 7b3c 22e7 883c
00000380: ed38 a63c 86c3 063c e89e 9e3c 1cf4 093d
00000390: 20dd 9b3d e137 cbbc 7e46 243d c728 143d
000003a0: 60f0 8a3c 2a9a 853e 1cc8 283e 0fcf 9a3c
000003b0: 1e74 59bb 0863 b93d 2693 34bc 4abf 0b3e
000003c0: 3a42 1f3d a7be fcbc 4e28 1e3d b33c 51bd
000003d0: 6f37 0f3e c947 ce3d 7d7b 0dbd 089e ce3c
000003e0: cbb2 683d 111e 8f3c b4d3 bb3c e4ae 043d
000003f0: c26f ce3c 7d3c 71bc 3074 d63c 0a55 dbbc
0.045549683 0.0383959 0.07155649 0.013352143 0.09817027 0.063942075 0.01194114 0.040293638
0.024401037 0.032321915 0.0310042 0.05015739 0.010187316 0.06332337 0.08823374 0.07695221
0.055356365 0.041313972 0.100141324 0.15634784 -0.053272087 0.0052068075 -0.057403788 0.03416402
-0.044710994 -0.017693233 0.010880556 0.058166064 0.082183376 0.026042366 0.024965923 0.014184597
0.00371164 0.03315633 0.060642127 0.126171 0.07915831 0.057680555 0.06314996 0.02438877
0.035828386 0.051447093 0.07784838 0.0034669868 0.07102168 0.028457366 -0.0053379047 0.046453163
0.040576372 0.041753665 0.0539899 -0.01637958 0.07260536 0.19823642 -0.044394895 0.025988594
0.092506126 0.025764871 0.03841286 0.06070301 0.07686409 0.028208517 0.08905452 0.06201867
0.047962032 0.012858293 0.04255384 0.023925133 0.07918159 0.07515034 0.009755707 0.028140966
0.03162004 0.04018913 0.053134143 0.05979153 -0.00663937 0.026925568 0.06795737 0.028672501
0.04299259 0.04328804 0.12677571 0.02348101 -0.026196763 -0.00795553 -0.03813586 0.0075896536
-0.022738766 -0.022747993 0.05056005 0.08180709 0.04189588 0.011124983 0.050437268 0.033572786
0.025747923 0.010567502 0.045273345 0.12767327 0.04351615 -0.02844915 0.07628164 0.034861747
0.04255361 0.036113564 0.0555025 0.012412812 0.06574722 -0.008250673 -0.0006804365 0.0122896675
0.06716786 0.045282535 0.05969488 -0.010754312 0.09560485 0.16660978 0.027189791 0.030163193
0.06628346 0.022295423 0.037602384 0.060091227 0.02947632 0.015422304 0.041022647 0.04957218
0.04465638 0.045768466 -0.035314523 -0.03180088 0.033317935 -0.046015076 -0.02816667 0.03930054
-0.0413226 -0.038881864 -0.054964233 -0.036525063 0.04257442 -0.010042194 -0.0578486 0.028364113
0.03685128 0.032418393 0.048028145 -0.008556241 -0.05111588 -0.026184717 -0.035539787 0.029443385
0.019450326 -0.04888315 -0.03612332 -0.03611295 -0.03910605 -0.036733616 0.04442597 -0.031252336
0.034697592 0.039776985 -0.043086912 0.029514201 0.0518608 -0.033077337 0.043620706 0.020039313
0.034440268 -0.007153723 0.005551427 0.03616957 0.039073657 -0.0017512165 0.004729265 0.0035997825
-0.015018527 -0.016776452 -0.06717617 0.028314084 0.039018493 -0.072762884 0.047352117 -0.036113564
0.036106892 0.037148975 -0.034703482 0.05447924 -0.072950736 0.05452704 -0.02614746 0.010616707
0.040555075 0.05657416 -0.009392359 0.014823055 0.26141253 0.015599183 0.0033005401 0.026088756
-0.01631827 0.034363117 0.0159266 0.06967297 0.043163482 0.033550683 0.13823803 0.087677665
0.0099505335 0.059400342 0.13154764 0.13700473 -0.025325822 0.014553134 -0.024076587 0.024179388
-0.05937693 0.04092594 0.0016582021 -0.019528186 0.07359003 0.024020415 0.015328936 0.016711775
0.020290816 0.008225327 0.019362882 0.033680066 0.076105356 -0.024806919 0.04010629 0.0361717
0.016960323 0.2609418 0.16482586 0.018897561 -0.0033180784 0.09052092 -0.011021411 0.1364719
0.038881518 -0.030852629 0.038612656 -0.051083278 0.1398599 0.10072286 -0.034541596 0.02522184
0.056811135 0.017470391 0.022928096 0.03239335 0.025199775 -0.014723894 0.02617845 -0.026773948
