transfer_learning/models/lstm_TL_u1.pth (torch, 413992 bytes, 18 tensors)

weight_ih_l0 f4 [256, 3]
00000000: 53d4 8a3d 1bce fdbd 57df 4abe d3cf eabc
00000010: 74a8 efbc 6862 0cbe 68cf ed3a bbd6 de3d
00000020: 1bc5 9a3e 92d2 e7bc 6bf4 d8bc 4bee 2f3d
00000030: 2078 383c 331f bfbd 01d6 e23e a068 023e
00000040: 2523 c7bb b7d8 973e 493f c2bd d79e 3e3e
00000050: a111 bd3c 6700 4a3e c87e ca3d 0444 ad3e
00000060: fb5e 293e facd 953d f88b debc 4fd0 07be
00000070: 5c62 04be 007e c83c bc0b 073e 44c9 e83d
00000080: 5d6f 1d3e c6eb 883d 8c93 8e3d e015 e73d
00000090: 39a7 1d3d ccaf d93d 253e 043d 1af3 03be
000000a0: fa3a 30be 99a6 f63d 8feb 09bc 3abb ffbd
000000b0: fd07 f2bd d7d2 cbbd 7697 b8bd fd72 623e
000000c0: f5cf 1dbe d03c 733d 065e b43d 56f8 aebd
000000d0: 7a28 b23d 2ece 803d c05e e23d 287c fb3d
000000e0: 0d61 d03d 63fc 77bc 98b0 473e 4797 c13e
000000f0: 7c96 a6ba d4e8 163e 3306 6e3e 1d11 a0bd
00000100: 8d28 10be e764 bfbd 5065 dd3c 3770 1abe
00000110: 570f 87bd 5bba c7bb a9db dcbd 417e da3d
00000120: d520 9dbd f6c4 24bd de2a 1d3e 0534 92bd
00000130: 3b31 033e d634 9f3e 6eee 0cbe ec0b 253e
00000140: 4535 0a3e 3379 92bd dc46 24be e2f8 c1bd
00000150: 0d3a d5bc 00cc 98bd db26 c7bc 7a3f c53d
00000160: d74d af3d 4258 56be b103 33bb 0004 df3c
00000170: 110b b13e 9966 983d 3eab 06be ac1f 813e
00000180: 90fd e2bd 2d3e 113e 777a 95be b34f c53d
00000190: c28c 1bbe cb35 253e 0032 70bd ea96 9ebd
000001a0: 2e2f a4bd 7fbc 4a3d 707a 153d ad4e 37bd
000001b0: a109 c03d 3a82 14be d236 7b3e f779 9cbd
000001c0: 8803 0abe 76e8 17bb dc10 203e dcca 1b3e
000001d0: 2613 3f3e 4b16 083e 6955 143e 5051 06be
000001e0: 4066 513d 41f2 f7bd 57ea b63e 4183 823d
000001f0: cae6 75bd 9fd4 84bc 3eea 833c c882 d1bd
00000200: 8106 d83d eee5 bf3d 7d6a 1f3e 91fb 5c3e
00000210: 12bd 2fbd 3832 c23d ef9b 2e3f 9061 e2bd
00000220: 2234 0ebe f110 e13d 1aae 72bd 2238 063e
00000230: dfe1 39bb 24ec 19be 6c94 083e 26dd 103d
00000240: 2d64 813d d50e 92bd 792b 823d 12b2 a63d
00000250: 3980 2c3e 6b8e fe3e d76f 5abd 2e5e c53d
00000260: 9656 ba3d c02c b93d 0ab9 bebc 13c0 c7bd
00000270: c924 9dbc db0e 1fbe 68c3 25be 95ab acbc
00000280: d523 93bd 86ba 93bd fc42 b6bd d925 173d
00000290: 1e76 0dbe cf61 20be 18c9 a8bd 1e31 073f
000002a0: a61a c7bd fb3d 3e3d e0e7 2bbd 69e7 b73d
000002b0: 60ec a4bd 17cb 6a3c 2948 033e f59f d23d
000002c0: 74a2 b5bc 4689 01bd 3417 053d 09d0 32be
000002d0: 796e b8bd 7d5d 6dbd dd20 5a3e ddba 153d
000002e0: 41a4 4e3d 169d e4bd e0ab 1b3e de3b f6bc
000002f0: 326b 043d 38fa 143e 4dcf 193e a818 bd3d
00000300: d497 413e 209c 8b3d d4d6 a33d dcc2 ea3c
00000310: 1ad0 4a3d 833f 9bbf 7bdd e2bc fe41 1d3e
00000320: d8f1 e8be caec 95bd 79cc 923c ee65 d53d
00000330: 18bc 31bd dd10 f4bd 1800 06bf 37c0 8c3d
00000340: b84e 133e cd0f c8be a4c4 4c3e 2c31 963d
00000350: bbb1 9bbe f60c b53c ad83 acbc 989d 793c
00000360: d319 3a3d 7404 6fbc 82cb 17bd 4979 e63d
00000370: 7083 5abd dadd e03d c306 a0bd 1945 eb3d
00000380: 2345 01bf 3692 0b3e 3c21 213e 2b32 d0be
00000390: aea0 113e 1293 efbd fd33 c5bd 7033 b13d
000003a0: 5433 e8bd a195 debe 9424 dd3d 5144 febd
000003b0: 5723 39bc 34ab 253e 1d9c 013e 7fa8 9fbe
000003c0: 336d 47bd d64f cebd fecb 433e 05e2 cebd
000003d0: 354c 8cbd 125d 3e3d e9db bc3d 763e 103e
000003e0: ff2a a1bd 7528 ac3e 9610 833e 4b65 8dbe
000003f0: 53b8 2f3e cfbe ac3d 6da7 903d b811 0c3e
0.06778779 -0.12392827 -0.1981176 -0.028663551 -0.02925513 -0.13709414 0.0018143477 0.108808
0.30228505 -0.02829865 -0.026483735 0.042951863 0.011259109 -0.09332123 0.44303897 0.12735224
-0.0060771876 0.29657528 -0.09484727 0.1861528 0.023079695 0.19726716 0.09887463 0.33840954
0.16540138 0.073146775 -0.027166352 -0.13263057 -0.12928146 0.024474144 0.1318807 0.11366513
0.15374513 0.06685595 0.06961736 0.11283469 0.038489554 0.10629234 0.03228583 -0.12885705
-0.17209998 0.12043495 -0.008417978 -0.124868825 -0.1181793 -0.09952324 -0.09013264 0.22114177
-0.1541136 0.059384167 0.08806996 -0.0854346 0.086991265 0.06289326 0.110532284 0.1227954
0.10174761 -0.015135857 0.19500959 0.37810728 -0.0012709643 0.14737254 0.23244552 -0.07815764
-0.14077969 -0.093454175 0.027025849 -0.15081869 -0.06594723 -0.0060952133 -0.10784084 0.10668612
-0.07672278 -0.0402269 0.15348384 -0.07138828 0.12811749 0.31094998 -0.13762829 0.16117829
0.13496883 -0.07152023 -0.16042656 -0.09471299 -0.026028657 -0.07460785 -0.02431052 0.09631248
0.08559769 -0.20932105 -0.0027315433 0.027223587 0.34578755 0.07441444 -0.13151261 0.25219476
-0.110835195 0.14183874 -0.29194996 0.09634342 -0.15190414 0.16133802 -0.058641434 -0.07743628
-0.08016811 0.04949617 0.03649372 -0.044752765 0.093768366 -0.14502802 0.24532631 -0.076404504
-0.1347791 -0.002317933 0.15631431 0.15214103 0.18659648 0.13289754 0.14485706 -0.13116956
0.051122904 -0.12106753 0.35725662 0.06372691 -0.06003455 -0.016214667 0.016102906 -0.10230023
0.105481155 0.093700275 0.15567966 0.2158034 -0.04290492 0.09482235 0.68206686 -0.11053765
-0.13887075 0.109895594 -0.059248067 0.1310735 -0.002836339 -0.15031487 0.13337868 0.035367154
0.06317935 -0.07131735 0.06355948 0.08139433 0.16845788 0.4971803 -0.053329315 0.09637104
0.09098546 0.090417385 -0.023281593 -0.09753432 -0.01918258 -0.1553301 -0.16187823 -0.02107791
-0.07184569 -0.07213311 -0.08899495 0.03690133 -0.1381459 -0.15662311 -0.082414806 0.5280932
-0.0972188 0.046445828 -0.04196918 0.08979685 -0.080528975 0.014330647 0.12820496 0.10284416
-0.02217219 -0.031625055 0.03249283 -0.17462172 -0.09005446 -0.057950485 0.21301599 0.03655516
0.050449613 -0.11162774 0.15202284 -0.030057844 0.032328792 0.14548576 0.15020485 0.092332184
0.18905574 0.06816888 0.079999596 0.02865737 0.049514867 -1.2128757 -0.0276935 0.15357205
-0.45497012 -0.073205546 0.017919766 0.10419832 -0.04339227 -0.11917279 -0.52343893 0.068725996
0.14385498 -0.39074555 0.19996887 0.073335975 -0.30409035 0.022100907 -0.021058882 0.015235327
0.045434784 -0.014588464 -0.037059315 0.11253602 -0.053348005 0.10979815 -0.0781379 0.11487789
-0.5049612 0.13629994 0.15735334 -0.40663275 0.1422145 -0.11697973 -0.096290566 0.08652389
-0.11337915 -0.43473533 0.10797992 -0.12415374 -0.01129993 0.1617859 0.12657209 -0.3118324
-0.048688125 -0.10073821 0.19120786 -0.101017036 -0.06850473 0.046475478 0.09221632 0.14086327
-0.07869529 0.33624616 0.25598592 -0.27616343 0.17160158 0.08434831 0.07063184 0.13678634

weight_hh_l0 f4 [256, 64]
00000000: 2f79 fabd 4a03 903d d663 2d3d a349 85bd
00000010: 8814 8c3d be3c bb3c d998 2e3d 42fd b4bd
00000020: ff22 d7bc fb59 2d3d 138c a8bd ba7c d9bd
00000030: 339d 4dbc 63e3 a1bc a816 93bd c2ed acbc
00000040: 1f94 013e de1e 5dbd b623 e13c c6d3 51bd
00000050: d1a5 e7bc 045e 143c a98b 1d3d 0a6f 2a3d
00000060: d975 d13d 1e64 543d ff3d 763c e1d1 92bc
00000070: b6bd ce3d 4dbf b33d d4c3 a2bd 6282 853d
00000080: 475a 1ebd 58da aa3d 41ef ab3d 233d 3abc
00000090: 3ffa d6bd 9b92 153c 1796 883d b1a5 153e
000000a0: 7a03 bebc 348c c1ba 21a9 e33c cea6 cc3c
000000b0: bf98 d23d fd75 30bd fdad 193e 2907 dabd
000000c0: 5360 bd3d cd56 f73c 3c81 45ba e6e3 2dbd
000000d0: 8a17 0fbe 0aa0 ddbd ed5b 55bb ba9d 673d
000000e0: 5c7e c03d 7546 293e 2fb6 fd3c 1bef 683d
000000f0: 36c1 8abd b9c2 b53c 33e7 2b3c 655d 193d
00000100: dadb a93d fff1 893e 807b 723e c492 09be
00000110: bd07 54be 750a b43e 04af debd a09f 0dbe
00000120: 5c2c fd3d 0ffb 253e 550a b6bd c30d bf3a
00000130: d9d8 23be 5850 d23e bf44 ac3d d17b f43d
00000140: 4fd9 4bbd 940e 0f3d 83b4 3cbd d55f a0be
00000150: 248e 333e 7c1f 833e 9a38 8a3d bcee 2bbe
00000160: 555c d23e f6ac 6a3e 6240 583e dbdd d03d
00000170: 1250 a8bd 16f8 353d c96d a33e e3d5 0cbe
00000180: 4283 3c3e 458b 1fbe ce97 fcbd f6f5 c23d
00000190: 5ec9 653d 6c89 1a3e 5ac2 cfbd 8bfc e7bb
000001a0: 85ca 5abd b2ca 7d3c 35c6 4dbe f60e 363e
000001b0: 1a13 c23c f07f 49bd b6fd a43d 8f56 6abd
000001c0: 4a70 b0bd bb34 31be f569 90be 0dfc 973d
000001d0: 655a 523d 4fea 97bd b56d adbd 220d 83be
000001e0: 41de 343e 50da 2cbc 7fe6 0b3e e67b b9bd
000001f0: 17b0 673e 473c 633d 22ed dd3d d62a 403e
00000200: 77c0 8a3d 48e3 ca3e b667 c23d 3079 0abe
00000210: fefc 65be 6d70 293e 9ebc f2bc eb7e 9fbd
00000220: b087 4fbd cf08 333c 7d56 e7bd fc10 823d
00000230: 7465 80be 497b 2f3d 3a64 e2bd 4bd9 d73b
00000240: 479f 89bc 1321 033d 65dd a93d 5aaa 8dbd
00000250: 413f cc3d 0a45 543e de28 d5bd 342e a3bd
00000260: 9f73 ebbc 5a3b d83d 3e5a 4f3d acc1 9c3d
00000270: d40d df3d c89d 15be c9b3 a2bc c0bf 4bbd
00000280: 34ff b7bd 787e cbbd 817e 04be 9c54 2c3d
00000290: dcbe 06bd 67af 783d 6d6c 41bd 9951 123d
000002a0: 9a41 05bd 331d f73b b1c9 07be c59c e83c
000002b0: 4cde 353e f5ed 58bd 53aa 57bc 2cee a13d
000002c0: aad4 303d d2a5 febd abe4 cdbd acf7 c8bd
000002d0: 367f 943c cdbc c2bd 36a3 24be 2a3a 1cbe
000002e0: 1ec7 d9bc 7fa8 fa3c 7159 cbbd bc08 80bd
000002f0: ede3 713d 6b46 373e 109b 49bc 30ff 69bd
00000300: e668 893b 8dcd 043d b73f 27bd 955e a03d
00000310: d5d8 9a3d c163 703d 0807 9f3d 62ae 1b3a
00000320: 23ec b63c 93b4 e93d 0764 653e f0b1 6ebd
00000330: e800 e43c 6d8e cfbc 393d 0bbd f929 3e3c
00000340: 5f67 263d e42b 3ebd 5fee c93d d512 0fbe
00000350: 852c 1fbe 0d05 3b3c 9ed2 2f3d 45a0 5abd
00000360: 5247 2dbe af92 55bd e5dc 0fbd 15db 1fbd
00000370: 29b7 d03d ef38 b9bc f7d4 2b3d 3629 12bd
00000380: 3a81 b33b 48bb 163e 7e47 0e3d 8e00 f2bc
00000390: ce0f 48bd e34e 0a3d dfcd 86bc c470 103d
000003a0: 17f4 543d dde8 d9bd ad6c c5bc 98e3 e53c
000003b0: ca8f 5dbd a0fd 62bd d254 9f3d 5fc5 0b3e
000003c0: 3b3f be3d 79e5 b53d dd9c 46bc 3976 91bd
000003d0: 126a 113d f6cd 3cbd 87ee f43c 3e4e 1c3e
000003e0: 1720 abbd 03a2 f637 ed09 bebc 9d7c bd3d
000003f0: 0d9c 333d 6da2 a83b a8da edbd 27a7 52be
-0.12230145 0.07031877 0.04233154 -0.06508186 0.068398535 0.022856113 0.042626236 -0.088373676
-0.026261805 0.04232214 -0.08229842 -0.10619493 -0.012549686 -0.019761747 -0.07182056 -0.021109466
0.1265416 -0.053984515 0.027482849 -0.051227354 -0.02827731 0.009055618 0.03846327 0.0416098
0.10227556 0.05185329 0.015029429 -0.017922344 0.10094778 0.08776722 -0.079475075 0.06519009
-0.038660314 0.08342427 0.083952434 -0.011367115 -0.104969494 0.009129192 0.06669252 0.14613988
-0.023195017 -0.0014766515 0.027790608 0.024981882 0.1028304 -0.043081272 0.15007778 -0.10645897
0.09246888 0.030192757 -0.0007534211 -0.04245367 -0.13973823 -0.10821541 -0.0032556013 0.056546904
0.09399101 0.16530783 0.030970661 0.056868654 -0.06775133 0.022187578 0.010492134 0.037442584
0.082938865 0.2694244 0.23679924 -0.13434893 -0.20706077 0.35164228 -0.10873225 -0.13830423
0.123619765 0.16209053 -0.088886894 0.0014576245 -0.1600069 0.41076922 0.0841155 0.119376786
-0.04976779 0.034926012 -0.046070587 -0.31323114 0.17534691 0.25609958 0.06749077 -0.16790289
0.4108607 0.22917542 0.2111831 0.101985656 -0.08218397 0.044426046 0.31919697 -0.13753466
0.18409446 -0.15580471 -0.12333642 0.095195696 0.05610024 0.15091485 -0.101444915 -0.007079666
-0.053415794 0.015490221 -0.20095141 0.17779145 0.023690749 -0.049194276 0.08056204 -0.057211455
-0.086151674 -0.17305271 -0.2820584 0.07421122 0.05135574 -0.07417738 -0.084681906 -0.25595957
0.17662908 -0.010550097 0.13662146 -0.09056835 0.22625767 0.055477407 0.10836245 0.1876634
0.06774991 0.39626527 0.094924375 -0.13522792 -0.2245979 0.16546793 -0.029630955 -0.077878796
-0.05066651 0.010927393 -0.11295793 0.06350896 -0.25077403 0.042842183 -0.11054273 0.0065871826
-0.016799582 0.032013964 0.08294181 -0.069172576 0.09973002 0.20729461 -0.104081854 -0.07967797
-0.028741656 0.105581954 0.05062317 0.076541275 0.108913094 -0.1461097 -0.019861119 -0.049743414
-0.08984223 -0.099362314 -0.12938882 0.042072877 -0.03289686 0.06071415 -0.047222544 0.03572235
-0.032533266 0.0075413226 -0.13260533 0.028395066 0.17760581 -0.05296131 -0.013163167 0.07906756
0.043171562 -0.124339715 -0.100533806 -0.09812865 0.018127065 -0.09508667 -0.16077885 -0.15256563
-0.026584204 0.030597923 -0.09929169 -0.06251666 0.059055258 0.17897956 -0.012305036 -0.05712813
0.004193413 0.03242259 -0.040832248 0.0783054 0.07560889 0.058688883 0.07765013 0.0005938766
0.022329396 0.11411395 0.22401439 -0.058275163 0.027832463 -0.025336469 -0.033993933 0.011606687
0.040625926 -0.046428576 0.09859919 -0.13972028 -0.15544327 0.011414778 0.04292547 -0.0533755
-0.16921738 -0.05214184 -0.03512277 -0.039027292 0.10191185 -0.022610156 0.041951146 -0.035683833
0.0054780515 0.1471988 0.03473615 -0.02954128 -0.048843198 0.03376664 -0.016455589 0.03526379
0.051990595 -0.10640118 -0.024099672 0.028062627 -0.054092206 -0.055417657 0.0777985 0.1364951
0.09289404 0.08881659 -0.01212236 -0.07102627 0.035501547 -0.046094857 0.029898895 0.15264222
-0.0835573 2.9400928e-05 -0.023198092 0.09252284 0.043849993 0.005146316 -0.11613971 -0.20571576

bias_ih_l0 f4 [256]
00000000: d857 9b3c 13a0 493d ad92 283d d208 80bc
00000010: 2fd1 a33c e2b5 9a3d 3041 0a3d e628 f13d
00000020: a9bc fe3c af83 9ebc d26c d9bc d73d e9bb
00000030: 68d2 1fbc 6862 04bd 4e17 8fbc 99ed b4bb
00000040: 1932 8bbc e8fd 44bc 915a aebb f226 ae3d
00000050: 0398 df3c 69e5 06bd c52e 45bc 267c a53c
00000060: 48b9 2a3d 6a1d 8e3c a7c4 643c c598 8cbd
00000070: 33b2 6ebc 57ee 4dbc 6c07 fb3c 9ada 883b
00000080: 2c6f fb3b 7bec 5abc fb6a 95bc 43c4 2c3d
00000090: 34d3 3c3a 40a3 a9bb cdad 773d c918 723b
000000a0: 1f2e cfba bdc3 05bc 274b d33b bcaf c13b
000000b0: 0fa1 bc3d c312 a2bc f258 073d 5264 eebb
000000c0: ae5a e3bc d802 993d b993 113d ec02 c9bc
000000d0: 6289 f0bc ce1c babc 3598 98bc 3f63 78ba
000000e0: 2053 e03c 86e1 4bbd 5bd4 003d 1d6a dbbc
000000f0: e2ec 763c ac12 afbc 214d c9bc 1762 483a
00000100: 1b80 ac3c 8da9 903d be6c 0c3d 0f05 4dbc
00000110: 51e7 0d3c c6c5 b43d 7339 373d 4aef c33d
00000120: c8a0 373d 9326 313c f19c d6bc 4cd9 203d
00000130: bc88 c63b 008d 85bd c3a7 0fbc e8a7 5c3c
00000140: 5954 c43c 35c6 8b3c de0f 313d cbef 6e3e
00000150: d2b0 533d f410 0cbc 7a80 a6bb bf3d 593d
00000160: 1edb c53d 7199 0c3d 025c 9ebc 118e 9cbb
00000170: 7c84 2e3d f4ee b13c 75e9 2a3d a51d 7b3a
00000180: 2ee4 8e3d dd97 c23c d1e9 48ba 69dd cb3d
00000190: b699 7abc 7da8 753c ed2f 0c3d 9210 353c
000001a0: b270 143b 1b6d e4bb 3091 f63c 58c6 163d
000001b0: 389a 0d3e 32c1 cebc f375 8c3c 8fb6 b5ba
000001c0: 8e0b 8ebc 36a1 bf3c 677d 463d c027 a93c
000001d0: 0579 8cbc 194f a0bc 7f41 37bc b675 a5bc
000001e0: 73cf 773c 1592 65bc d000 053b c361 9c3d
000001f0: 0b09 183d 309e 343c 4eee d9b9 f64f 4c3c
00000200: 2ca3 d93c b573 edbc 0dd2 1fbc eb7a 293c
00000210: d31e 4a3c 7631 fbbc 32b3 8f3c 6f27 debc
00000220: 6288 203a c038 20ba bd8f 923c 9bd1 e9bb
00000230: db11 773c db56 81bb 5dd0 993c d0a7 3fbc
00000240: 699f 3d3c cb61 3c3b fc2c 92bc b39b e83c
00000250: 8ff5 d33a 9b30 e2bc 2a86 75bc 2c9e 40bc
00000260: f066 0dbd 4c46 8bbc 4199 e9bb fab3 4bbc
00000270: de4a 5cba e6c5 b33c 59ab fb3a 9ae8 b23c
00000280: 513f 0cbd c0f1 833c 8ce1 aebb 863e 27bb
00000290: 8c66 90bc d279 403b 41d5 ba3c b5e0 7b3c
000002a0: 4525 79bc 2256 08bb a809 e83c 55a0 093b
000002b0: faf7 f5bb 1d83 5ebc 3e1f 7f3b 8150 343c
000002c0: f828 a43c 4ce0 69bb c58f 72bc 2693 b03c
000002d0: a422 b63c 9840 663c fec3 f23a cc1f bd3c
000002e0: 160c da3b 08f4 a9bc f62f 1a39 f40b a63c
000002f0: aa3f 893b df67 98bb f0e1 9ebb a26a 96bc
00000300: 020d 88bb 9869 c93d 7a14 513d ca53 92bc
00000310: f6e4 db3c 150f cb3d a157 183d 3303 123e
00000320: 682b 013d b592 93bc ecc7 b9bc 9a41 a33c
00000330: 7cc6 d6bb 158d b0bc c350 d5bb 4ec6 c9bb
00000340: 5251 fabb e826 a53a c506 b9bc 46e1 cb3d
00000350: b3f5 2f3d e84b f5bc e301 01bc 1eaa 723c
00000360: d872 343d 39a6 013d 447f 813c ab42 b2bd
00000370: 6e79 2bbc 5e4f 09bc 7973 043d 5251 22ba
00000380: fbfe 06bc aca6 98bb ef05 a2bb 0c1b 333d
00000390: 19ab 93bb 8644 90bb d53d 7b3d 2359 c839
000003a0: 9119 8c3d 0cd1 6bbb c216 aa3b 2d2d 333c
000003b0: 8cd4 643e 0ed5 dcbc 71b5 fd3c 1125 ccbb
000003c0: c471 efbc 5f2f 903d 63fe 513d 15da 883c
000003d0: 8f50 9fbc c4bd bcbc e53f e4bb 091a 173c
000003e0: c1ac b83c 6d65 38bd 58ba d83c 48c0 01bd
000003f0: 3811 f53c 81cb e9bb 544c 81bc 022b d03b
0.018962786 0.049224924 0.041155506 -0.015629206 0.019997207 0.07554223 0.033753574 0.11775379
0.03109582 -0.019349901 -0.026541147 -0.0071179676 -0.009754755 -0.03232041 -0.017467167 -0.005521488
-0.016991662 -0.012023427 -0.005320855 0.08503522 0.027294165 -0.032933626 -0.0120350765 0.0202008
0.041680604 0.01734801 0.013962901 -0.06865076 -0.014568853 -0.012569032 0.030643187 0.00417645
0.007673165 -0.013362045 -0.018239489 0.042179357 0.00072031026 -0.0051769316 0.060468484 0.0036941043
-0.0015806592 -0.008164343 0.006448168 0.0059108417 0.09210407 -0.019784337 0.03304381 -0.0072751427
-0.0277532 0.074712455 0.03554127 -0.024537526 -0.029362384 -0.022718813 -0.018627265 -0.0009475238
0.027383387 -0.049775623 0.031452518 -0.026783997 0.015071126 -0.021371208 -0.02457291 0.0007644011
0.02105718 0.07063589 0.034283392 -0.012513413 0.008661107 0.08826785 0.044732522 0.09567125
0.044831067 0.0108124195 -0.026197882 0.03926973 0.0060587805 -0.06521034 -0.008768025 0.013467766
0.023966001 0.017062286 0.043228023 0.23333661 0.0516823 -0.008548964 -0.0050812336 0.0530374
0.09660934 0.03432602 -0.019330982 -0.004777678 0.042606816 0.021720387 0.04172655 0.00095793075
0.069771156 0.023754055 -0.0007664236 0.0995434 -0.015295437 0.014993784 0.034225393 0.011051314
0.002265018 -0.006971014 0.030098528 0.03681025 0.13828361 -0.025238607 0.017146086 -0.0013863611
-0.017339494 0.023392301 0.048459437 0.020648837 -0.01714755 -0.019568967 -0.011185049 -0.02019773
0.015125143 -0.014011879 0.0020294674 0.07635834 0.037118 0.011024043 -0.00041567016 0.012470236
0.026567064 -0.028985837 -0.00975467 0.010344247 0.012336451 -0.030663233 0.017541502 -0.027118413
0.0006123838 -0.0006111972 0.017890805 -0.0071355826 0.015079941 -0.0039471216 0.018776113 -0.011697724
0.011573651 0.0028744813 -0.017843716 0.028394556 0.0016171205 -0.027611068 -0.0149856005 -0.011756461
-0.034521997 -0.017001294 -0.007128865 -0.0124330465 -0.000840349 0.021944951 0.0019200846 0.021839429
-0.03424007 0.016106486 -0.005336946 -0.0025519445 -0.017627023 0.0029369486 0.022806766 0.015373399
-0.01520664 -0.0020803292 0.028324917 0.0021000106 -0.0075063678 -0.0135810645 0.0038928534 0.011005522
0.020039067 -0.003568667 -0.014804785 0.02155454 0.022233315 0.014053486 0.0018521545 0.023086451
0.006654273 -0.020746246 0.00014704451 0.020269372 0.0041884976 -0.0046510543 -0.004848711 -0.018361393
-0.0041519413 0.098345935 0.05104492 -0.01786222 0.026842576 0.09914986 0.037192944 0.14259033
0.031535536 -0.018014291 -0.022678338 0.019928742 -0.006554423 -0.021551648 -0.0065098717 -0.006157673
-0.0076390887 0.0012600096 -0.022586236 0.09955077 0.042958926 -0.029943421 -0.007873985 0.014811067
0.044054836 0.031652663 0.015807755 -0.08704122 -0.010465963 -0.008380739 0.032336686 -0.0006191927
-0.008239503 -0.0046585407 -0.004944555 0.043726966 -0.0045064804 -0.0044027 0.061338264 0.00038213385
0.06840814 -0.0035982756 0.005190701 0.010936064 0.22346705 -0.026957061 0.030970307 -0.0062300046
-0.029229052 0.07040285 0.051267993 0.016705552 -0.019447593 -0.023039706 -0.0069656246 0.009222516
0.022543313 -0.045018602 0.026456043 -0.031677514 0.029915437 -0.0071348553 -0.015783466 0.006352783

bias_hh_l0 f4 [256]
00000000: d857 9b3c 13a0 493d ad92 283d d208 80bc
00000010: 2fd1 a33c e2b5 9a3d 3041 0a3d e628 f13d
00000020: a9bc fe3c af83 9ebc d26c d9bc d73d e9bb
00000030: 68d2 1fbc 6862 04bd 4e17 8fbc 99ed b4bb
00000040: 1932 8bbc e8fd 44bc 915a aebb f226 ae3d
00000050: 0398 df3c 69e5 06bd c52e 45bc 267c a53c
00000060: 48b9 2a3d 6a1d 8e3c a7c4 643c c598 8cbd
00000070: 33b2 6ebc 57ee 4dbc 6c07 fb3c 9ada 883b
00000080: 2c6f fb3b 7bec 5abc fb6a 95bc 43c4 2c3d
00000090: 34d3 3c3a 40a3 a9bb cdad 773d c918 723b
000000a0: 1f2e cfba bdc3 05bc 274b d33b bcaf c13b
000000b0: 0fa1 bc3d c312 a2bc f258 073d 5264 eebb
000000c0: ae5a e3bc d802 993d b993 113d ec02 c9bc
000000d0: 6289 f0bc ce1c babc 3598 98bc 3f63 78ba
000000e0: 2053 e03c 86e1 4bbd 5bd4 003d 1d6a dbbc
000000f0: e2ec 763c ac12 afbc 214d c9bc 1762 483a
00000100: 1b80 ac3c 8da9 903d be6c 0c3d 0f05 4dbc
00000110: 51e7 0d3c c6c5 b43d 7339 373d 4aef c33d
00000120: c8a0 373d 9326 313c f19c d6bc 4cd9 203d
00000130: bc88 c63b 008d 85bd c3a7 0fbc e8a7 5c3c
00000140: 5954 c43c 35c6 8b3c de0f 313d cbef 6e3e
00000150: d2b0 533d f410 0cbc 7a80 a6bb bf3d 593d
00000160: 1edb c53d 7199 0c3d 025c 9ebc 118e 9cbb
00000170: 7c84 2e3d f4ee b13c 75e9 2a3d a51d 7b3a
00000180: 2ee4 8e3d dd97 c23c d1e9 48ba 69dd cb3d
00000190: b699 7abc 7da8 753c ed2f 0c3d 9210 353c
000001a0: b270 143b 1b6d e4bb 3091 f63c 58c6 163d
000001b0: 389a 0d3e 32c1 cebc f375 8c3c 8fb6 b5ba
000001c0: 8e0b 8ebc 36a1 bf3c 677d 463d c027 a93c
000001d0: 0579 8cbc 194f a0bc 7f41 37bc b675 a5bc
000001e0: 73cf 773c 1592 65bc d000 053b c361 9c3d
000001f0: 0b09 183d 309e 343c 4eee d9b9 f64f 4c3c
00000200: 2ca3 d93c b573 edbc 0dd2 1fbc eb7a 293c
00000210: d31e 4a3c 7631 fbbc 32b3 8f3c 6f27 debc
00000220: 6288 203a c038 20ba bd8f 923c 9bd1 e9bb
00000230: db11 773c db56 81bb 5dd0 993c d0a7 3fbc
00000240: 699f 3d3c cb61 3c3b fc2c 92bc b39b e83c
00000250: 8ff5 d33a 9b30 e2bc 2a86 75bc 2c9e 40bc
00000260: f066 0dbd 4c46 8bbc 4199 e9bb fab3 4bbc
00000270: de4a 5cba e6c5 b33c 59ab fb3a 9ae8 b23c
00000280: 513f 0cbd c0f1 833c 8ce1 aebb 863e 27bb
00000290: 8c66 90bc d279 403b 41d5 ba3c b5e0 7b3c
000002a0: 4525 79bc 2256 08bb a809 e83c 55a0 093b
000002b0: faf7 f5bb 1d83 5ebc 3e1f 7f3b 8150 343c
000002c0: f828 a43c 4ce0 69bb c58f 72bc 2693 b03c
000002d0: a422 b63c 9840 663c fec3 f23a cc1f bd3c
000002e0: 160c da3b 08f4 a9bc f62f 1a39 f40b a63c
000002f0: aa3f 893b df67 98bb f0e1 9ebb a26a 96bc
00000300: 020d 88bb 9869 c93d 7a14 513d ca53 92bc
00000310: f6e4 db3c 150f cb3d a157 183d 3303 123e
00000320: 682b 013d b592 93bc ecc7 b9bc 9a41 a33c
00000330: 7cc6 d6bb 158d b0bc c350 d5bb 4ec6 c9bb
00000340: 5251 fabb e826 a53a c506 b9bc 46e1 cb3d
00000350: b3f5 2f3d e84b f5bc e301 01bc 1eaa 723c
00000360: d872 343d 39a6 013d 447f 813c ab42 b2bd
00000370: 6e79 2bbc 5e4f 09bc 7973 043d 5251 22ba
00000380: fbfe 06bc aca6 98bb ef05 a2bb 0c1b 333d
00000390: 19ab 93bb 8644 90bb d53d 7b3d 2359 c839
000003a0: 9119 8c3d 0cd1 6bbb c216 aa3b 2d2d 333c
000003b0: 8cd4 643e 0ed5 dcbc 71b5 fd3c 1125 ccbb
000003c0: c471 efbc 5f2f 903d 63fe 513d 15da 883c
000003d0: 8f50 9fbc c4bd bcbc e53f e4bb 091a 173c
000003e0: c1ac b83c 6d65 38bd 58ba d83c 48c0 01bd
000003f0: 3811 f53c 81cb e9bb 544c 81bc 022b d03b
0.018962786 0.049224924 0.041155506 -0.015629206 0.019997207 0.07554223 0.033753574 0.11775379
0.03109582 -0.019349901 -0.026541147 -0.0071179676 -0.009754755 -0.03232041 -0.017467167 -0.005521488
-0.016991662 -0.012023427 -0.005320855 0.08503522 0.027294165 -0.032933626 -0.0120350765 0.0202008
0.041680604 0.01734801 0.013962901 -0.06865076 -0.014568853 -0.012569032 0.030643187 0.00417645
0.007673165 -0.013362045 -0.018239489 0.042179357 0.00072031026 -0.0051769316 0.060468484 0.0036941043
-0.0015806592 -0.008164343 0.006448168 0.0059108417 0.09210407 -0.019784337 0.03304381 -0.0072751427
-0.0277532 0.074712455 0.03554127 -0.024537526 -0.029362384 -0.022718813 -0.018627265 -0.0009475238
0.027383387 -0.049775623 0.031452518 -0.026783997 0.015071126 -0.021371208 -0.02457291 0.0007644011
0.02105718 0.07063589 0.034283392 -0.012513413 0.008661107 0.08826785 0.044732522 0.09567125
0.044831067 0.0108124195 -0.026197882 0.03926973 0.0060587805 -0.06521034 -0.008768025 0.013467766
0.023966001 0.017062286 0.043228023 0.23333661 0.0516823 -0.008548964 -0.0050812336 0.0530374
0.09660934 0.03432602 -0.019330982 -0.004777678 0.042606816 0.021720387 0.04172655 0.00095793075
0.069771156 0.023754055 -0.0007664236 0.0995434 -0.015295437 0.014993784 0.034225393 0.011051314
0.002265018 -0.006971014 0.030098528 0.03681025 0.13828361 -0.025238607 0.017146086 -0.0013863611
-0.017339494 0.023392301 0.048459437 0.020648837 -0.01714755 -0.019568967 -0.011185049 -0.02019773
0.015125143 -0.014011879 0.0020294674 0.07635834 0.037118 0.011024043 -0.00041567016 0.012470236
0.026567064 -0.028985837 -0.00975467 0.010344247 0.012336451 -0.030663233 0.017541502 -0.027118413
0.0006123838 -0.0006111972 0.017890805 -0.0071355826 0.015079941 -0.0039471216 0.018776113 -0.011697724
0.011573651 0.0028744813 -0.017843716 0.028394556 0.0016171205 -0.027611068 -0.0149856005 -0.011756461
-0.034521997 -0.017001294 -0.007128865 -0.0124330465 -0.000840349 0.021944951 0.0019200846 0.021839429
-0.03424007 0.016106486 -0.005336946 -0.0025519445 -0.017627023 0.0029369486 0.022806766 0.015373399
-0.01520664 -0.0020803292 0.028324917 0.0021000106 -0.0075063678 -0.0135810645 0.0038928534 0.011005522
0.020039067 -0.003568667 -0.014804785 0.02155454 0.022233315 0.014053486 0.0018521545 0.023086451
0.006654273 -0.020746246 0.00014704451 0.020269372 0.0041884976 -0.0046510543 -0.004848711 -0.018361393
-0.0041519413 0.098345935 0.05104492 -0.01786222 0.026842576 0.09914986 0.037192944 0.14259033
0.031535536 -0.018014291 -0.022678338 0.019928742 -0.006554423 -0.021551648 -0.0065098717 -0.006157673
-0.0076390887 0.0012600096 -0.022586236 0.09955077 0.042958926 -0.029943421 -0.007873985 0.014811067
0.044054836 0.031652663 0.015807755 -0.08704122 -0.010465963 -0.008380739 0.032336686 -0.0006191927
-0.008239503 -0.0046585407 -0.004944555 0.043726966 -0.0045064804 -0.0044027 0.061338264 0.00038213385
0.06840814 -0.0035982756 0.005190701 0.010936064 0.22346705 -0.026957061 0.030970307 -0.0062300046
-0.029229052 0.07040285 0.051267993 0.016705552 -0.019447593 -0.023039706 -0.0069656246 0.009222516
0.022543313 -0.045018602 0.026456043 -0.031677514 0.029915437 -0.0071348553 -0.015783466 0.006352783

weight_ih_l1 f4 [256, 64]
00000000: 0132 833c 4287 1a3e 9be0 0f3e 09c1 0dbe
00000010: 6c41 22be 93e9 a63e e134 943d be69 64be
00000020: 86ce 7d3d 48e1 9e3c 156d 16be 438d acbd
00000030: 2d57 e7bc 6278 483e 2a72 f1bb 0a27 223e
00000040: e99e 95bd 22d0 85bd 6f79 16be cb5d 47be
00000050: 1bcb ba3d cb97 853e 4006 87bc 3d7d 8d3d
00000060: abb1 8f3e acd9 83bd 2566 773e 08bb 0a3e
00000070: 9151 8f3d 86c2 81bd d7be 183e b7d8 8c3d
00000080: 5d71 b53d 9c36 083c f2d0 063e c68e a3bd
00000090: 0f37 4c3e d91f ff3d 3830 77ba 887f 4fbe
000000a0: 80b3 48bd e0c0 18bd 0024 16bd 7b5b a5bd
000000b0: bbaf 363d 8acb 2a3d bba9 f3bd 29fe d3bd
000000c0: 18c7 b5bd 5a46 35bd ae65 a63d 3e81 363d
000000d0: 1530 3a3c 7d43 7fbd ca4e 543d 0109 a9bd
000000e0: 1e77 0e3e 8a24 cb3d b4cd f63d e50c 7cbe
000000f0: 39c6 053e e8bc c53d 8b78 1e3e 6e6e 3f3e
00000100: c1e0 25be 406c 3f39 c892 7d3d 9335 38be
00000110: df27 19be d935 7cbe 2a66 603d 0254 b4bd
00000120: ee32 36be 3683 183d d4b0 513d 5321 20bd
00000130: 197d a83d 4b48 d6bc a913 3bbe f5f8 873d
00000140: 6c28 13be 7e95 913d b340 35bd cfd5 4dbd
00000150: 093f 9a3d 3776 253e 6e51 ad3c a82e 373d
00000160: bf41 09be 0fa5 14be 2bbc 47bd 693b e63d
00000170: 88b3 6bbd 1ed1 3abd 887e 33be 20bf e93d
00000180: 43e2 083e 12e0 1c3c 5ce9 673e 98a0 52be
00000190: 1bd1 1d3d 69f0 5fbe 0c5d 2b3e f9b9 3ebe
000001a0: a4b8 db3d 0b42 6b3b 257f 56bd a7a1 d43d
000001b0: 5037 dd3d 4c7f 2cbe 3289 e1bd 2521 6ebd
000001c0: 0a8d b9bd ea11 fa3d c2f2 a03e b1bd 923d
000001d0: 8ea9 f0bb 4399 cb3d 0ffb ba3c 06fa 34bd
000001e0: 8267 573e d761 9c39 3593 923d c7f6 793d
000001f0: 755e 863d 3e78 f8bc 50ae bf3d 14dd 1bbd
00000200: 1152 8bbd 8d29 743b 2e47 d9bd e92e c0bc
00000210: c0bb e4bd 53d8 babd 7750 5e3c 38c0 dd3d
00000220: 5fc9 10be 0a0d 8dbd d9e8 5b3d a0d9 8ebc
00000230: 0b8c 193c 58f5 edbd 96b7 41bd 5320 823c
00000240: fa30 37bd 9de8 493e a216 0f3d c726 9c3d
00000250: 91ca 30be c4da d9bd 57c7 ab3c a1e5 a23b
00000260: 3d96 403c 38e1 83be 2547 a73b 2f4d dc3d
00000270: 4970 f63d 4ad0 6c3d 5ed5 e9bd 1925 87bd
00000280: 9e03 25bc 5222 91bc 5ac8 543d c70d 0abe
00000290: 4b45 893d 2f21 46be a694 37bd 2707 f1bc
000002a0: e7f6 9bbd fdf4 db3d 74c9 71bc fb2a 543d
000002b0: 0194 393d bdfc 9a3d dfb7 96be b8d5 1a3d
000002c0: d45d 793c 61ed e33c fead 243d 3eba 813d
000002d0: 7093 2cbd 76af debc 67d9 6abe 48c9 3dbd
000002e0: 1a91 333e 8927 0a3e 8dd9 20bd 544e 09be
000002f0: ed9b 98bd 69e4 cd3d 0d52 50bc 0189 b8bb
00000300: 039e 8f3d 3bd9 c6bd 7654 32be 47b8 33bd
00000310: 2b54 833e 4912 58be 73bb 1c3e ed6f ad3e
00000320: 5e5c 0f3e 4a20 a13d 419c 723e 978f 303d
00000330: 276e 0bbc 37af cabd d7ca 9c3c 6d8b 95bd
00000340: 4907 a0bc e320 e13d 01d0 ef3a 3166 1c3e
00000350: 419f f7bd a86a 9e3b 27ed 26bd 035a 653d
00000360: e4a7 98be 1622 fcbd e8b7 88be 89a8 c73d
00000370: 0a77 853d 5474 683d caa2 91bd 7f32 2f3e
00000380: 4d5d 3dbd ea01 1a3e 4674 ebbd 0629 eb3b
00000390: af4a 62be cf44 ab3c 094d 22be c5ce 2fbd
000003a0: 871f 5e3e ea5c 8abd 8ddb 71bd 3593 bc3d
000003b0: 4239 333e 49fe e43d d6c2 e7bc d211 453e
000003c0: 6cbd a0bd c0f1 6b3e 7c8b 34be 2ddc bebd
000003d0: 9864 2c3d cb86 823c 1a1a a93d f239 183e
000003e0: 2f5f f6bd aad1 06bd c949 a5bb f005 5e3d
000003f0: 003a 55be 005a debd 4633 773c fb3c 5ebe
0.016015055 0.1509066 0.14050524 -0.13843168 -0.15845269 0.32600078 0.07236648 -0.22305962
0.061964534 0.019394532 -0.14690049 -0.08425381 -0.02823981 0.19577172 -0.0073683457 0.15835205
-0.073057 -0.06533839 -0.1469476 -0.19469373 0.091207705 0.2609237 -0.016482472 0.06908653
0.28065237 -0.06438002 0.24160059 0.1354791 0.069979794 -0.063359305 0.1491655 0.068772726
0.08859513 0.008313801 0.13165644 -0.07986216 0.19942878 0.12457246 -0.00094294874 -0.20263493
-0.04899931 -0.037293315 -0.036655426 -0.08074089 0.044601183 0.041698016 -0.11897608 -0.103512116
-0.08875865 -0.044256546 0.081248626 0.04455685 0.011364003 -0.06232022 0.05183295 -0.082536705
0.13912627 0.09919079 0.120509535 -0.24614294 0.13063897 0.09655172 0.15475671 0.1869447
-0.16199018 0.00018255506 0.06190756 -0.17989187 -0.14956616 -0.24629916 0.05478493 -0.08805086
-0.17792866 0.037234508 0.051194027 -0.03909428 0.082269855 -0.026157519 -0.18269219 0.06639282
-0.14370888 0.071085915 -0.044251155 -0.050252732 0.07531554 0.16158377 0.021156993 0.04472223
-0.13403986 -0.1451609 -0.048763435 0.112418 -0.05754426 -0.045609586 -0.17528737 0.11413407
0.13367562 0.009574907 0.22647613 -0.20569074 0.038529497 -0.21869053 0.16734713 -0.1862563
0.10728577 0.003589752 -0.05236735 0.10382395 0.10801566 -0.16845435 -0.11012496 -0.058137078
-0.09060104 0.12210448 0.3143521 0.07165087 -0.0073444312 0.09941342 0.022824792 -0.044183753
0.21035579 0.00029827535 0.07156984 0.06102636 0.06560985 -0.030330773 0.09359419 -0.038052633
-0.06802762 0.0037256212 -0.106092796 -0.023459869 -0.11168623 -0.09123292 0.013568989 0.108276784
-0.14139317 -0.06887253 0.053688858 -0.017437756 0.009371768 -0.11619061 -0.04729422 0.015884554
-0.044724442 0.19717641 0.034933694 0.07624584 -0.17264773 -0.10637429 0.020969076 0.0049712216
0.01175457 -0.25757766 0.0051049166 0.10756909 0.120331354 0.057815827 -0.1141765 -0.06598873
-0.010071663 -0.01771656 0.051948883 -0.13481818 0.0670267 -0.19348596 -0.044819497 -0.029422356
-0.07615452 0.10740087 -0.014757503 0.051798802 0.045307163 0.07567737 -0.29437158 0.037801474
0.015220124 0.027823152 0.040204994 0.06334351 -0.042132795 -0.027183276 -0.22934495 -0.046334535
0.1753582 0.13491644 -0.039269973 -0.13408786 -0.074516155 0.100533314 -0.012714875 -0.0056315665
0.0701256 -0.09709402 -0.17415032 -0.043876912 0.25650153 -0.21100725 0.15305881 0.33874455
0.14000079 0.07867487 0.23692419 0.043105688 -0.008510149 -0.09896701 0.01913969 -0.07301984
-0.019534724 0.10992601 0.0018296243 0.15273358 -0.12090922 0.0048344918 -0.04075351 0.055994045
-0.2981559 -0.12311189 -0.2670281 0.097489424 0.065168455 0.056751564 -0.07111128 0.17109106
-0.046231557 0.15039793 -0.11496787 0.0071765212 -0.22098802 0.020906834 -0.15849699 -0.0429218
0.21691714 -0.06756003 -0.05904727 0.09207765 0.17502311 0.111813135 -0.028291147 0.19245079
-0.07848629 0.23041439 -0.17631334 -0.09319339 0.04208812 0.015933415 0.082569316 0.14865854
-0.120298736 -0.032914795 -0.0050441963 0.05420488 -0.20822906 -0.1085701 0.015087908 -0.2170295

weight_hh_l1 f4 [256, 64]
00000000: b41f 25bd b3ed 2d3d 7aef e2bd 3331 8b3d
00000010: 112c 80bc f526 9ebd 3f1c 9bbd ac05 623c
00000020: 716c bd3c 8be3 d73c fa35 29bc 809c 083e
00000030: 1a9f 4e3d 65c4 2b3d a7b1 33bd 67a4 1f3d
00000040: 45b3 8bbd a5de 27bd 448a b23d 45f6 a53d
00000050: 897f 13be e148 6dbc 4725 123e 9574 393e
00000060: 85b7 38bd 5cc7 973d 2b34 033e 136d 363c
00000070: 40cb 9fbd 5f67 bfbb df91 14be edfb 8cbc
00000080: 7cdb 133e af73 d3bd 8e09 cabd c9c9 703d
00000090: 1104 c53d 8046 a2bc 1904 1abe 23d7 e0bb
000000a0: ebfc 113e ae75 c13d 866e 18bc 8491 f63d
000000b0: 644c aebd b924 a13e 7643 0bbc d739 1e3c
000000c0: 73b3 68be e323 d03d 0bbd 3ebe f88a 6cbd
000000d0: d324 6cbc b837 253e 1756 45be e565 ce3d
000000e0: 77b3 2dbd 3162 4dbd 7a2d 943d 7a01 853d
000000f0: 6bf2 923c 0eaa 08be a2ef 1b3d 97bf 8fbd
00000100: 60e4 f43c ff0a 213e 9c00 1e3b 32a4 f5ba
00000110: 3b09 20bd b8da 52be 3421 483d eeed eabd
00000120: 189f c73d 1886 193e b08a 25bc c739 043e
00000130: 573c 2f3d e13e bd3c b530 6fbd 8fea 0bbe
00000140: ee9b 4abd 7b31 36be 8728 143d 0db0 373e
00000150: 0f8d f7bd 85bc bc3e ff3a 033e 82d0 a1bc
00000160: 80f1 c8bb 0bfd d33d fa4e ae3d 9d18 3fbc
00000170: 25e0 00be 5784 48bd 0ff9 2e3e 5125 0abd
00000180: 88bf 20be d193 14be 0ab6 0ebe 9109 9cbd
00000190: 903e a9bd 46b6 bebc 49b4 2bbe ec8c 4fbe
000001a0: 4e88 c0bc ddaa 353c 1ba8 1b3d 5765 69bd
000001b0: 86b2 cfbe ae5a 89bd 4e93 e7bd 299d 90bd
000001c0: 62e6 13bd d97a 26bd de53 13bc 5ec1 4d3d
000001d0: 44e7 353e d151 64bd 78ab bebc 08ea 2e3e
000001e0: e5a7 743d fe14 bf3d 99af 07be ce22 b3bd
000001f0: 1906 9339 ffaf 30be 35f8 353d d812 01be
00000200: b37b 64bd 7aaa 133e aaf5 0ebe ca68 03bd
00000210: 8c04 f6bd f365 953d 1d96 90bd 7fee 43be
00000220: 8f89 583d c99d 36bd 218c 983d ac10 60bd
00000230: d1a5 583d 76de 1abd 3e2f 4a3c 6f99 c0bd
00000240: 977b 213d 4266 ba3d 73dc f93c 7f52 8b3c
00000250: 5e02 04be 8d9b 81bd 1ca2 623e f6f3 a23d
00000260: ef04 aa3d 2355 913a 1588 89bc 9b55 02bd
00000270: 6102 5c3d f542 b33c 8301 27be 6034 c73d
00000280: 2412 683d 469b ce3d f4db 973d e4a6 36bc
00000290: 7ed8 02bd 9e07 fc3b e638 f63b b844 503d
000002a0: 49c0 2e3d 43ef 043d fb33 d03d a524 703d
000002b0: 04f5 bdbd b6cc 3c3e 27c9 023e 15f0 1d3d
000002c0: f2e4 b7ba 8d63 1e3d 6d0b 1a3d 436e a23c
000002d0: 4dab 453d 2b9b 693c 8cf1 483d 953c 933a
000002e0: 5430 62bd 1d29 f13d 9701 043e 70ef fd3c
000002f0: 407c 38bc 71de b1bd 9224 933d fe92 e83d
00000300: 3697 c8bd 54fa 4f3c ecaa 9c3c 01e8 cd3d
00000310: 846e c83d daeb f03d 6e83 aebc 562d ca3d
00000320: 3efa 0e3e ed01 be3d 32b4 08be 603b 643c
00000330: afd5 99bd 7c8e ddbc 937c 42bd 4182 6abd
00000340: 8097 90bd f070 76bd 563b b33d 1f54 b33d
00000350: 9773 743d 1a1a c23d 19e9 09be e510 803d
00000360: 384f 1fbe c559 913d 8ed2 d93d ce38 43bd
00000370: 3d2c a23c 4a2b 17be 3dc1 6dbd 9e0a 3d3d
00000380: ecea 4d3e e075 b6bc 9cea cc3d 88b8 fd3d
00000390: bb43 0ebe ee9b 69be 56d4 a6bc 18f7 373e
000003a0: be68 1f3d 9eb4 aebc 30e2 af3c 7310 b83d
000003b0: 80b4 bdbd 5929 823e c21a 4c3e 4ba6 89bd
000003c0: 868a 873c 9a1c c13c eba8 65bd 5c2b bbbb
000003d0: c285 9c3d 0bc7 d43d f9b7 34bd b95a 403d
000003e0: 7f8c c7bc 8915 623d 26fa 383d f083 023d
000003f0: fcc8 763d 2053 123d c6ee 083d 9919 d0bd
-0.040313438 0.042463016 -0.11080833 0.067964934 -0.015646012 -0.07722274 -0.07573747 0.013795298
0.023122998 0.026353618 -0.01032781 0.1334095 0.0504447 0.041935343 -0.043870594 0.038975146
-0.06821302 -0.040983815 0.08717778 0.08103613 -0.1440412 -0.014482708 0.14272033 0.18110879
-0.045096893 0.07411072 0.12812869 0.011134404 -0.07802439 -0.00584118 -0.1450877 -0.017209971
0.14439195 -0.10324799 -0.09865104 0.058786187 0.09619916 -0.019809008 -0.15040626 -0.006861584
0.14256637 0.09446274 -0.009303695 0.12039474 -0.08510664 0.3147333 -0.008499971 0.009657345
-0.22724704 0.10163095 -0.18626802 -0.05774972 -0.014413076 0.16134536 -0.19271122 0.100780286
-0.04240748 -0.05014247 0.072352365 0.06494422 0.01793786 -0.1334612 0.03807033 -0.07018965
0.029894054 0.15726851 0.002410925 -0.0018740951 -0.039071303 -0.20591247 0.04885979 -0.11471163
0.097471416 0.14992559 -0.010103866 0.12912665 0.042782154 0.023101272 -0.05839606 -0.13663696
-0.049465112 -0.17792313 0.036171462 0.17938252 -0.12087452 0.3686258 0.12815474 -0.019752745
-0.0061323047 0.103509985 0.08511157 -0.011663583 -0.12585504 -0.048954334 0.17087196 -0.033726994
-0.15698063 -0.14509512 -0.1393663 -0.07619012 -0.08263886 -0.023280274 -0.16767992 -0.20268601
-0.023502495 0.0110881 0.038002115 -0.05698141 -0.4056589 -0.06706749 -0.11307393 -0.07061226
-0.036108382 -0.0406445 -0.008992163 0.050233237 0.17764002 -0.05574209 -0.023275122 0.17081463
0.05973043 0.09330176 -0.13250579 -0.08746873 0.00028042568 -0.17254637 0.04442616 -0.12604845
-0.05578203 0.144205 -0.13960901 -0.032082357 -0.12012586 0.07294836 -0.07059882 -0.19133948
0.05286556 -0.04458407 0.074486025 -0.0547034 0.05289251 -0.03780981 0.012340365 -0.09404265
0.039424505 0.091015354 0.030500626 0.01700711 -0.12891528 -0.06328497 0.22132152 0.07956688
0.08301722 0.0011087995 -0.016788522 -0.03181992 0.053713206 0.021882514 -0.1630917 0.097267866
0.056657925 0.1008821 0.074149996 -0.011148188 -0.031944744 0.0076913377 0.007514107 0.050846785
0.042663846 0.03245474 0.101661645 0.058628697 -0.09275249 0.18437466 0.12772046 0.03855904
-0.0014030023 0.038669158 0.037608553 0.019827968 0.04825907 0.014258186 0.049058482 0.0011233265
-0.05522187 0.1177542 0.12891231 0.030997962 -0.011260092 -0.086850055 0.071847096 0.113561615
-0.09794466 0.01269396 0.01912447 0.10054017 0.09786704 0.11763735 -0.021302905 0.098719284
0.13962647 0.09277711 -0.13349989 0.013930172 -0.0751146 -0.02704548 -0.047482084 -0.057253126
-0.07060146 -0.0601663 0.08751552 0.08756279 0.059680548 0.09477635 -0.13467826 0.062532224
-0.15557563 0.070972 0.10635863 -0.047661595 0.019796485 -0.14762607 -0.058045615 0.046152703
0.20109147 -0.022273004 0.10005686 0.12388712 -0.13893025 -0.22813389 -0.020364922 0.17965353
0.03891825 -0.02132636 0.02147016 0.089875124 -0.09262943 0.2542217 0.19932082 -0.06721171
0.016545545 0.023573209 -0.056069296 -0.005711956 0.076427 0.10389527 -0.044120762 0.04696152
-0.024358986 0.05519632 0.045160435 0.031864107 0.060250267 0.035723805 0.033430837 -0.10161132

bias_ih_l1 f4 [256]
00000000: a60b bd3d fc0c 523d 46a6 1e3d 2dc1 293c
00000010: af39 143b 259a f23c b225 08bc 556f df3a
00000020: cea0 003d cf51 aa3c c428 793d b103 bcbc
00000030: 8e48 503d fa38 d23c 3a39 9f3c 8f3a a13d
00000040: 72e5 f83b 21d7 18bd a475 7c3d 4295 523d
00000050: d396 dd3c 907b 88bb 5e27 9cbc fe37 303c
00000060: 2ed3 9f3c 996c 563e 0a80 a03d f7bd 11bd
00000070: df46 123d c820 d03d a18c ee3c 53c2 a1bc
00000080: 4d49 353d e200 6abb 0b23 073e c259 ab3d
00000090: c9eb 6fbd 7ba5 913a 9f74 8e3d 1aa2 29bc
000000a0: 2420 d83c df8d bd3c a4f5 08bd 6064 c5bd
000000b0: bf6c 51bb 0ac1 89bc e378 e23c 00f2 783d
000000c0: d740 813d e54a d43c 0812 96bd 5de7 183d
000000d0: 1e9b 5c3d 1a1b 103d 3b5c 7b3d cf4d 823c
000000e0: 55c2 c7bc 75af 1d3c 2ba5 91ba 2723 d33b
000000f0: f018 9a3c 58af 7a3b 5807 863d 6d74 5cbd
00000100: a470 863d f0dd 7a3d 470f 0a3d 8c56 b83d
00000110: 3df4 023d 0261 633d a98c ac3c 3fdb 093d
00000120: d6e0 293d f8c6 973d 66c6 9a3d 167c 283d
00000130: 8d9f 9b3d 97cd c93d cd88 f23c 7bc8 d03d
00000140: 71d5 0e3d 643a a93d 2c4d d83d a87f 573d
00000150: 8845 623d d366 2c3d 58b4 f13c a351 5f3d
00000160: 6f1e 933c 3f23 233e 5621 e43d 2ab9 113d
00000170: abd1 d63d 9769 d43d 863f 2a3d 6655 253c
00000180: bff3 8e3d 7a6a 533d fea9 6f3d 4703 2e3d
00000190: 9cce d53c 82c7 a83c e18d 8c3d f8ea ab3d
000001a0: a653 593d ae04 1e3d da69 333d 3bc4 053d
000001b0: 16ca ca3c 1a56 143e 11a8 933d 33ac 8e3d
000001c0: 96e6 023e da90 6a3d d446 b73d 7351 703d
000001d0: 91e9 6d3d e053 843d 864a bb3d dd32 d83c
000001e0: 9d22 333d 0a16 3a3d 2abd 973d d10b 933c
000001f0: d4a6 3b3d fc72 0b3d 368b 5c3d 701b a03d
00000200: b9ae a5bd d096 e63c b206 49bd a446 703d
00000210: 220a 05bd 8574 223d a232 dfbc 0ca3 903c
00000220: d1bd 7e3d c1e2 00bc 38c3 95bd 8cd5 ea3c
00000230: 6c49 0dbd 19c5 ddbb 1758 d1bc a5a9 d3bc
00000240: 8e8e 1abd 4328 98bd e708 893d f872 2a3d
00000250: f752 26bd 2678 f63c 9fb2 ecbc c2de 273d
00000260: c427 76bd 692f 613d 9e35 683d ede6 0abd
00000270: 6deb b1bc 2c55 1a3a f0fe 58bd 45a8 bf3c
00000280: 5157 1e3d 7bb8 edbc 7405 8d3c 6db0 38bc
00000290: 8fd2 6a3c 6d88 22bd b0c6 07bd a9b9 223c
000002a0: dbd6 243d 9490 403d 2b37 2a3c bc17 bdbc
000002b0: 9ba7 05bd 8570 80ba 0525 7a3d 7488 11bd
000002c0: ea35 5fbd b14c f63c c026 a83b 58fb 4ebd
000002d0: 086e e73c 5eb0 ca3c 22ed 96bd 8098 493d
000002e0: 36a6 ffbc c716 2abb 487e 2a3d ad90 283d
000002f0: 1df1 193d 08ef 12bd b808 033d ecb3 893c
00000300: ab1b 883d a9e3 033d 4373 923c 1ff3 b73d
00000310: 0537 5f3c 0462 8a3d 5127 703c 018f fa3b
00000320: f8f8 923d b8ac 4f3c 886e 1b3d e231 903a
00000330: 25bf 1b3d aa2b 203e 0e82 833d 9f6a 373d
00000340: 5394 193b d8bf e53d a0d9 983d 3b3d 123d
00000350: ec8c 303d 960a 6c3d 5928 9bbb 1b77 8d3c
00000360: d6dd b03b dd9d a23d ef49 7c3d 3536 b2bc
00000370: aa89 933d 69b8 e03d 8408 303d 32f5 44bc
00000380: fb54 913c 868b 3e3d 1629 2c3e e36c 073e
00000390: 7a25 01bd f14c 29bc 4017 c73c ffd7 9a3d
000003a0: 86a8 053d 4cac d53b eea6 283d dd66 b23d
000003b0: 8f9f 273c 1e6a 6f3e 5073 523c 1573 583c
000003c0: 8b62 093e da57 383d a1bf 913d e865 f03a
000003d0: c4ee c63d 5f02 693d 6e16 c83d fdb9 693c
000003e0: de4e b2bc 3aaa 5ebc a260 833d 6dac a1bb
000003f0: e7fb 293c c7f3 163d a1e9 893c 55e4 a03d
0.092307374 0.051281914 0.03873279 0.010360998 0.002261739 0.029614517 -0.0083097685 0.0017046729
0.031403355 0.020790963 0.060829893 -0.022950979 0.050850444 0.025661934 0.019436467 0.07872497
0.0075957114 -0.037314538 0.06163563 0.051411875 0.027049458 -0.0041651204 -0.01906174 0.010755537
0.019509878 0.20939864 0.078369215 -0.035581555 0.03571212 0.101625025 0.029119791 -0.019745981
0.04425936 -0.0035706093 0.13196962 0.08366729 -0.05857447 0.0011111939 0.069558375 -0.010353589
0.026382513 0.023138938 -0.033437386 -0.09638286 -0.0031955687 -0.016815681 0.027645534 0.060777664
0.06311195 0.025914619 -0.07327658 0.03733002 0.05385887 0.035182096 0.061367255 0.015906243
-0.024384657 0.009624352 -0.0011111846 0.0064433995 0.01881072 0.0038251486 0.065443695 -0.05382197
0.06564453 0.061246812 0.033705976 0.090008825 0.031971205 0.055512436 0.021063166 0.033656355
0.041474186 0.07410997 0.07557373 0.041133963 0.07598791 0.09853666 0.029606247 0.101944886
0.034871522 0.0826309 0.10561594 0.052611977 0.05524209 0.04209025 0.02950494 0.054521214
0.017958848 0.15931414 0.11139171 0.035576977 0.1048921 0.10371702 0.041564487 0.010091161
0.06980085 0.051615216 0.058511727 0.042483594 0.026099496 0.020602945 0.06862999 0.08394426
0.05305829 0.03857868 0.04380212 0.032657843 0.024754565 0.1448597 0.072097905 0.06966438
0.12783274 0.057267047 0.08949056 0.058671426 0.058084074 0.064613104 0.091450736 0.026391441
0.04373418 0.045431174 0.07409127 0.01794997 0.045813397 0.034045205 0.0538437 0.07817733
-0.08089966 0.028148085 -0.04907865 0.05866112 -0.032480367 0.039661903 -0.027245823 0.017655872
0.06219274 -0.007866562 -0.07312626 0.02866628 -0.03449385 -0.0067678806 -0.0255547 -0.025837729
-0.037733607 -0.07429554 0.06691151 0.04161355 -0.040606465 0.030086588 -0.028893767 0.040983923
-0.060096517 0.054976854 0.05669176 -0.033911634 -0.021718705 0.00058873254 -0.052977502 0.023395667
0.03865749 -0.029018631 0.017214514 -0.011272532 0.014332428 -0.039680887 -0.033148468 0.00993196
0.040243965 0.04701288 0.01038913 -0.023082606 -0.032630544 -0.0009799158 0.06107046 -0.035530522
-0.054494776 0.030065866 0.0051315725 -0.05053267 0.02825071 0.024742302 -0.07369448 0.0492177
-0.031207185 -0.0025953518 0.041624337 0.0411536 0.03758346 -0.03587249 0.031990737 0.016809426
0.06645902 0.032199536 0.017877227 0.089819185 0.0136239575 0.06756976 0.014657811 0.007646442
0.07176393 0.012675457 0.037947208 0.0011001194 0.038024087 0.15641657 0.0642129 0.044779416
0.0023434355 0.11218232 0.07463384 0.035702925 0.043103144 0.057627283 -0.0047350344 0.017268708
0.0053975387 0.07940266 0.061593946 -0.021754364 0.07203992 0.109726734 0.04297687 -0.01202135
0.017740717 0.04651978 0.16812548 0.1322513 -0.03152988 -0.010333286 0.024303079 0.07560729
0.03263142 0.0065207835 0.04117482 0.08711026 0.010230913 0.23380324 0.012844875 0.013211031
0.13416497 0.045005657 0.071166284 0.0018340917 0.0971351 0.056887027 0.09769903 0.0142655345
-0.021766122 -0.01359039 0.064149156 -0.004933885 0.010375 0.036853578 0.016835036 0.07856051
