transfer_learning/models/lstm_TL_u2.pth (torch, 413736 bytes, 18 tensors)

weight_ih_l0 f4 [256, 3]
-3.5658303e-11 4.0301533e-05 4.6402412e-05 0.012546159 0.08759434 0.032270048 5.449555e-06 0.03775906
0.010611303 -1.7276056e-06 0.040250376 0.011747662 0.0002257729 0.042512264 0.00045568953 0.0037186975
0.050186835 0.047702495 6.7124292e-06 0.038531616 0.011074393 0.00011750565 0.039503593 0.011499322
-1.7132858e-10 0.0005047703 0.00016107108 2.4312276e-06 0.039987974 0.012660499 -6.684324e-09 0.00086053484
0.00032795902 -1.06469194e-07 0.020503515 0.0059261937 0.0029223647 0.107126735 0.027288113 4.3493137e-06
0.03988252 0.012280202 -1.0189862e-06 0.040308136 0.011575257 -5.3421553e-07 0.023904715 0.021176001
8.520965e-09 0.0022562991 0.00041504554 3.346774e-08 0.012700903 0.003843579 0.018477283 0.09111197
0.044457655 1.1069627e-08 0.0009706938 0.0005178363 0.019415028 0.16539364 0.05313622 -1.014769e-06
0.040193044 0.011421316 0.0051687816 0.054105535 0.014373693 4.104648e-07 0.024520636 0.0073264088
4.3683535e-06 0.03842821 0.011596813 -1.3768594e-06 0.04028118 0.012206206 1.7304043e-10 0.002384489
0.000649615 3.9789098e-05 0.04292816 0.00898032 -3.5218286e-09 0.0023551148 0.0011582304 0.012691036
0.0945613 0.049252775 -4.5909317e-07 0.040359322 0.011916135 1.5290303e-05 0.038500197 0.011699599
4.8688685e-06 0.039660085 0.011601791 -1.0185469e-06 0.04046308 0.012082225 -5.5562134e-07 0.040307723
0.01229439 0.0052404003 0.11358354 0.10226482 1.7386275e-06 0.039921306 0.012357465 6.4253168e-06
0.039722033 0.011762807 1.5872897e-06 0.038698185 0.011258823 8.465488e-07 0.03945587 0.011821526
-7.1448113e-07 0.040369954 0.011319872 -4.77267e-07 0.02572695 0.007481558 1.0437676e-05 0.038947333
0.011320759 -1.7035837e-06 0.04033077 0.011620994 1.2881429e-06 0.039791282 0.012108532 -1.0683443e-06
0.039114796 0.010884748 3.014008e-05 0.040635113 0.014149443 -1.7249728e-07 0.03972698 0.0120223425
4.5281823e-08 0.0142864315 0.0046706153 -7.754786e-07 0.040026765 0.01162159 3.797557e-06 0.039915122
0.0122164795 -1.7490086e-06 0.0405589 0.01143729 -2.6691533e-08 0.009801361 0.0004983437 0.004372093
0.10165159 -0.024667146 0.00021260192 0.06281553 -0.0027692218 0.0050528613 0.12130951 0.0077774245
2.3777774e-07 0.011571237 0.0057313303 2.1566439e-06 0.03985118 0.011453564 1.1996765e-05 0.037113886
0.011397338 1.3688589e-05 0.040220626 0.0127926115 -1.722427e-06 0.04026914 0.011477581 8.542956e-09
0.004935843 -0.0006440093 8.332997e-10 0.00036974374 -9.226879e-05 5.387422e-07 0.038797267 0.01180876
-1.740694e-10 3.6023695e-05 4.2914588e-05 -0.0026752844 0.04018653 -0.006994726 0.00020233316 0.043727882
0.011386265 0.0001225722 0.047008604 0.013034319 -1.8891232e-07 0.043251734 0.0012235256 1.0248721e-07
0.014214692 -0.015941963 0.0002886727 0.04519122 0.012165981 0.0005578781 0.04589993 0.009591336
1.6349007e-10 0.00045662958 0.00014190513 0.00015257411 0.04651198 0.011202033 6.3384844e-09 0.000665639
0.00028917383 -1.6850586e-07 0.020896807 0.005314565 -0.010017019 0.058258727 -0.030061884 0.00020407059
0.046621308 0.011477953 0.00025059175 0.047464415 0.013705828 2.5858604e-08 0.01287362 -0.0017809563
-5.108929e-09 0.00087468524 0.00013617439 1.9994253e-08 0.012448381 0.0033717926 -6.2865716e-08 0.054515205
0.012818504 3.2327234e-09 0.0005041326 0.00022722439 0.009638937 0.14831644 0.046008047 0.0001630693
00000000: aed3 1cae 7109 2938 36a0 4238 688e 4d3c
00000010: a964 b33d 992d 043d 52db b636 3ea9 1a3d
00000020: 08db 2d3c 14e0 e7b5 94dd 243d 4479 403c
00000030: 74bd 6c39 5721 2e3d 9de9 ee39 64b5 733b
00000040: b690 4d3d b163 433d 543b e136 54d3 1d3d
00000050: 5f71 353c 5e6d f638 85ce 213d a767 3c3c
00000060: b560 3caf 9052 043a 30e5 2839 2c28 2336
00000070: 6eca 233d fb6d 4f3c f0ab e5b1 8495 613a
00000080: eaf1 ab39 0fa4 e4b3 fdf6 a73c 8430 c23b
00000090: 2585 3f3b 4365 db3d 528b df3c 52f0 9136
000000a0: da5b 233d e632 493c 19c4 88b5 251a 253d
000000b0: 26a6 3d3c 0367 0fb5 d2d3 c33c 4b79 ad3c
000000c0: 9a63 1232 6bde 133b 789a d939 2bbe 0f33
000000d0: 7317 503c 8ee4 7b3b ac5d 973c ea98 ba3d
000000e0: 3b19 363d bc2c 3e32 2976 7e3a 68bf 073a
000000f0: 440c 9f3c f35c 293e 5da5 593d 3333 88b5
00000100: 76a1 243d 7920 3b3c e25e a93b c49d 5d3d
00000110: a37f 6b3c da5d dc34 80df c83c 5f12 f03b
00000120: df93 9236 e666 1d3d 8f00 3e3c 87cc b8b5
00000130: e1fd 243d 8afc 473c 8d42 3e2f 1645 1c3b
00000140: ed4a 2a3a 38e3 2638 70d5 2f3d 3122 133c
00000150: aa04 72b1 4558 1a3b c3cf 973a 10ee 4f3c
00000160: 5ba9 c13d 47bd 493d 4979 f6b4 d14f 253d
00000170: e53b 433c ad43 8037 62b2 1d3d adaf 3f3c
00000180: 435f a336 9d72 223d 7015 3e3c 01b5 88b5
00000190: 9dbc 253d 86f4 453c 0226 15b5 b619 253d
000001a0: 696e 493c aab7 ab3b 7d9e e83d 3870 d13d
000001b0: c95a e935 8684 233d f776 4a3c 0d99 d736
000001c0: 92b3 223d cab8 403c dc0a d535 fd81 1e3d
000001d0: ed76 383c 643e 6335 7a9c 213d 13af 413c
000001e0: c5ca 3fb5 f75a 253d fc76 393c 8a1d 00b5
000001f0: 53c1 d23c db27 f53b 7a1d 2f37 3d87 1f3d
00000200: b47a 393c b1a6 e4b5 e131 253d fb65 3e3c
00000210: 41e4 ac35 2ffc 223d dd62 463c 0864 8fb5
00000220: d636 203d f155 323c 54d5 fc37 0171 263d
00000230: 11d3 673c b137 39b4 c2b8 223d 5cf9 443c
00000240: e47b 4233 a311 6a3c f60b 993b 7c2a 50b5
00000250: 1bf3 233d 7b68 3e3c 88d9 7e36 0a7e 233d
00000260: a127 483c 7abf eab5 1721 263d 7963 3b3c
00000270: 4d47 e5b2 e395 203c 48a3 023a c643 8f3b
00000280: b52e d03d c112 cabc e5ed 5e39 6ea5 803d
00000290: d57b 35bb 7992 a53b 1f71 f83d c4d9 fe3b
000002a0: d94f 7f34 4995 3d3c e2cd bb3b dcba 1036
000002b0: fe3a 233d bba7 3b3c b745 4937 bb04 183d
000002c0: e6bb 3a3c 0ba8 6537 62be 243d 1a98 513c
000002d0: 242e e7b5 41f1 243d 770c 3c3c 51c4 1232
000002e0: dabc a13b bcd2 28ba 410e 6530 2ada c139
000002f0: 6e80 c1b8 159e 1035 e2e9 1e3d 8879 413c
00000300: 2e64 3faf 2618 1738 30ff 3338 d353 2fbb
00000310: a29a 243d 0434 e5bb 6529 5439 021c 333d
00000320: 758d 3a3c b986 0039 188c 403d e58d 553c
00000330: d3d7 4ab4 bb28 313d b55e a03a f116 dc33
00000340: bde4 683c b898 82bc fe58 9739 6e1a 393d
00000350: d353 473c 913e 123a 9101 3c3d fb24 1d3c
00000360: 5dc2 332f c967 ef39 5ecc 1439 4dfc 1f39
00000370: 5983 3e3d bb88 373c e6c9 d931 477e 2e3a
00000380: 419c 9739 8aee 34b4 c82f ab3c cd25 ae3b
00000390: 6c1e 24bc b4a0 6e3d 5744 f6bc c8fb 5539
000003a0: fcf5 3e3d 060e 3c3c db61 8339 0c6a 423d
000003b0: 698e 603c ac1f de32 e0eb 523c fa6e e9ba
000003c0: 9d8a afb1 224b 653a 09ca 0e39 d4bf ab32
000003d0: 4bf4 4b3c 4bf9 5c3b cb00 87b3 564b 5f3d
000003e0: b404 523c ac26 5e31 c427 043a 1543 6e39
000003f0: a2ec 1d3c 44e0 173e ef72 3c3d 95fd 2a39

weight_hh_l0 f4 [256, 64]
1.1652243e-06 -2.235988e-05 3.0505287e-05 -3.0789004e-05 1.7794871e-05 -7.0432784e-06 3.060719e-05 -3.066944e-05
3.529841e-06 -3.070167e-05 -6.527016e-06 2.747738e-05 1.5719588e-05 3.070536e-05 -3.0796098e-05 2.0119548e-06
6.015497e-07 -2.4001312e-05 1.9394605e-05 1.1783227e-06 2.219395e-05 3.0780022e-05 1.8999861e-05 -2.8591134e-05
3.0534113e-05 -3.0754643e-05 9.898495e-06 1.3920383e-07 9.753619e-06 -1.5666474e-05 -3.0756753e-05 3.0519986e-05
3.07254e-05 3.079097e-05 -3.075103e-05 -7.4335946e-07 3.0705436e-05 -3.0703904e-05 -3.0604107e-05 3.0679254e-05
3.0785402e-05 2.8755925e-05 -3.06351e-05 -3.0784573e-05 -3.06949e-05 -3.06588e-05 3.0692398e-05 3.070189e-05
2.4927947e-05 -3.0735027e-05 -3.0722254e-05 3.081468e-05 1.9679901e-05 1.029608e-05 3.0863778e-06 -3.8598823e-06
-5.5527157e-06 -3.0753912e-05 3.0356166e-05 -3.0730378e-05 -3.078843e-05 4.39616e-08 3.7845332e-06 3.0599764e-05
0.00078463095 -0.008624701 0.038654976 -0.040727045 0.010546969 0.0020377329 0.039719168 -0.039927658
0.0019613227 -0.040147778 -0.004115163 0.021900166 0.010345794 0.04040058 -0.041405674 -0.002456108
0.0011846726 -0.014812166 0.00862453 0.0009617172 0.028118886 0.04080275 0.009410218 -0.026197955
0.03902171 -0.04077772 0.005373822 -0.0015625964 0.0054667173 -0.0035696167 -0.040601745 0.039075688
0.04048519 0.040690377 -0.040529743 -0.012322093 0.040317714 -0.04071145 -0.0394383 0.039994422
0.04080774 0.027243618 -0.03976354 -0.04072856 -0.040127985 -0.04013661 0.04040432 0.040170956
0.016372677 -0.040290132 -0.04077189 0.04097761 0.010342566 0.004919708 0.0018753299 0.0009802175
-0.0009274551 -0.040525462 0.037915483 -0.04045079 -0.04082948 -0.0016491985 0.0024726463 0.039467074
0.0003505433 -0.0030050646 0.017511401 -0.018336853 0.004188818 -0.0004681907 0.017898764 -0.017967738
0.0010512436 -0.018123949 -0.0020768575 0.01136235 0.004753958 0.018200386 -0.01851968 -0.00013876015
0.00034507274 -0.00857345 0.0039668367 0.00046303176 0.010446378 0.018339174 0.0038504375 -0.012900305
0.01765639 -0.01835583 0.0030330867 -0.0015384678 0.0030149154 -7.798065e-06 -0.01828773 0.017678145
0.01820476 0.018329853 -0.018269198 -0.004140711 0.01818661 -0.018268734 -0.017810464 0.0180496
0.018352784 0.013307673 -0.017938925 -0.01833571 -0.018103596 -0.018045563 0.01823539 0.018122643
0.009218023 -0.01817364 -0.018306915 0.018418655 0.0064558988 -0.00038491088 0.00075298554 0.0003884296
-0.0006805995 -0.018235773 0.017228695 -0.018232718 -0.018363563 -0.0005710472 0.0011793344 0.017837554
0.00036190826 -0.0029235121 0.017991215 -0.018876826 0.004178588 -0.00051159336 0.018412452 -0.01849073
0.0010709978 -0.018647294 -0.00212588 0.011530059 0.0048400154 0.018732408 -0.019085256 -0.00014089113
0.0003731945 -0.008702497 0.0039607165 0.00047697386 0.0105597535 0.018882206 0.0038593153 -0.013117701
0.018147945 -0.018900404 0.0030890426 -0.001621444 0.003070546 0.00013947151 -0.018824913 0.018173559
0.018740822 0.01886762 -0.018803386 -0.004254616 0.01871614 -0.018813105 -0.01831377 0.01856914
0.018895762 0.013543184 -0.018451536 -0.018876059 -0.018626356 -0.018570537 0.018773856 0.018645998
0.009352091 -0.018701445 -0.018852916 0.018963223 0.006544939 -0.0006165763 0.0007993058 0.0004251202
-0.0006573651 -0.018772116 0.017689886 -0.018767236 -0.01890851 -0.00060462643 0.0012076105 0.018343339
00000000: cd64 9c35 7a91 bbb7 9be5 ff37 7123 01b8
00000010: 3246 9537 4d55 ecb6 3860 0038 0fa3 00b8
00000020: 35e2 6c36 abc5 00b8 a402 dbb6 397f e637
00000030: 8fdd 8337 a1c9 0038 0f2b 01b8 1f05 0736
00000040: 2e7a 2135 6d56 c9b7 99b1 a237 dc26 9e35
00000050: 252d ba37 cc19 0138 e461 9f37 fed6 efb7
00000060: c111 0038 8cfe 00b8 b611 2637 0f78 1534
00000070: 7aa3 2337 7f6b 83b7 d000 01b8 9602 0038
00000080: 26df 0038 8d25 0138 abfa 00b8 468b 47b5
00000090: b6c9 0038 11c8 00b8 e95c 00b8 99ad 0038
000000a0: 931f 0138 e138 f137 307e 00b8 af1e 01b8
000000b0: 66be 00b8 a397 00b8 b6bb 0038 e7c5 0038
000000c0: 5c1c d137 7ce9 00b8 c5db 00b8 033f 0138
000000d0: 4416 a537 54bd 2c37 911f 4f36 2384 81b6
000000e0: 7751 bab6 c3fd 00b8 5fa5 fe37 7ee4 00b8
000000f0: d322 01b8 4ad0 3c33 c9f9 7d36 3f58 0038
00000100: b1af 4d3a 9e4e 0dbc ae54 1e3d 67d1 26bd
00000110: 32cd 2c3c 7c8b 053b 91b0 223d 2f8b 23bd
00000120: 8989 003b ff71 24bd 7dd8 86bb fa67 b33c
00000130: 6881 293c 147b 253d ff98 29bd a8f6 20bb
00000140: 0447 9b3a baae 72bc e74d 0d3c c01b 7c3a
00000150: 9459 e63c c920 273d 512d 1a3c 189d d6bc
00000160: 3bd5 1f3d 8a06 27bd e316 b03b 09d0 ccba
00000170: 2622 b33b 3bf0 69bb 044e 26bd d40d 203d
00000180: ccd3 253d f4aa 263d 8402 26bd 9be2 49bc
00000190: 3024 253d 0dc1 26bd 0e8a 21bd 31d1 233d
000001a0: 0426 273d 022e df3c 18df 22bd fed2 26bd
000001b0: 3e5d 24bd 4966 24bd 007f 253d 4d8a 243d
000001c0: fe1f 863c 4407 25bd 6d00 27bd 23d8 273d
000001d0: de73 293c 8035 a13b a1cd f53a a47a 803a
000001e0: 7520 73ba 07fe 25bd 444d 1b3d baaf 25bd
000001f0: d03c 27bd eb29 d8ba 1f0c 223b 3aa8 213d
00000200: 20c9 b739 9ef0 44bb 1274 8f3c 2b37 96bc
00000210: 5a42 893b 7e77 f5b9 6ea0 923c 1431 93bc
00000220: e2c9 893a ad78 94bc e31b 08bb 2629 3a3c
00000230: 17c7 9b3b fa18 953c 95b6 97bc 2580 11b9
00000240: e1ea b439 a877 0cbc 3dfc 813b 12c3 f239
00000250: 4927 2b3c 093c 963c 9f57 7c3b cd5b 53bc
00000260: 22a4 903c f75e 96bc c0c6 463b 6aa6 c9ba
00000270: e395 453b 6fd4 02b7 26d0 95bc c2d1 903c
00000280: 2622 953c 7d28 963c 49a9 95bc cdae 87bb
00000290: 16fc 943c 50a8 95bc 40e7 91bc c1dc 933c
000002a0: 9458 963c 6d08 5a3c a7f4 92bc c534 96bc
000002b0: fe4d 94bc 4ad4 93bc 6262 953c f075 943c
000002c0: 3107 173c e3e0 94bc 62f8 95bc b8e2 963c
000002d0: 018c d33b ddcd c9b9 0164 453a 23a6 cb39
000002e0: 426a 32ba 3063 95bc 3123 8d3c c85c 95bc
000002f0: 2f6f 96bc 54b2 15ba e593 9a3a 1020 923c
00000300: 81be bd39 6598 3fbb 5062 933c 93a3 9abc
00000310: 89ec 883b 731c 06ba b6d5 963c df79 97bc
00000320: b960 8c3a 36c2 98bc 5952 0bbb 93e8 3c3c
00000330: fe98 9e3b b574 993c af58 9cbc 2dbc 13b9
00000340: 51a9 c339 eb94 0ebc e6c8 813b 5912 fa39
00000350: d102 2d3c dbae 9a3c 91ec 7c3b a0eb 56bc
00000360: 00ab 943c 05d5 9abc 8971 4a3b a286 d4ba
00000370: 373b 493b 193f 1239 b436 9abc b7e0 943c
00000380: 5a86 993c 4490 9a3c 8f09 9abc 4e6a 8bbb
00000390: 9752 993c f11d 9abc c206 96bc 4f1e 983c
000003a0: 49cb 9a3c 3be4 5d3c ad27 97bc f7a1 9abc
000003b0: 4d96 98bc 3d21 98bc a1cb 993c 7ebf 983c
000003c0: 8339 193c c633 99bc 6e71 9abc c358 9b3c
000003d0: ed76 d63b bca1 21ba 8188 513a abe2 de39
000003e0: 0653 2cba fbc7 99bc 61ea 903c bfbd 99bc
000003f0: 05e6 9abc cb7f 1eba af48 9e3a c544 963c

bias_ih_l0 f4 [256]
4.1421044e-05 0.09537028 0.042091824 0.045016978 0.044571713 0.057523724 0.043076623 0.04304454
0.0005508501 0.044409983 0.0009733556 0.022210259 0.11738694 0.04444964 0.045285843 0.028325347
0.0025210327 0.013699584 0.10178623 0.0010658157 0.18937851 0.04502688 0.05764242 0.026926003
0.042779267 0.04505899 0.0026105058 0.04898315 0.002601014 0.10435622 0.04498595 0.04278685
0.0443045 0.04514159 0.04490938 0.12924932 0.0443805 0.044389863 0.043202538 0.044050604
0.0451307 0.02835767 0.04337114 0.04516135 0.044344198 0.04393454 0.044996914 0.044215422
0.015381128 0.044632096 0.044632737 0.04547605 0.010496109 0.11007431 0.0697664 0.1365011
0.012687957 0.044456173 0.041131616 0.044698324 0.04505804 0.005478257 0.0004280851 0.0433347
3.6530564e-05 0.03921211 0.048838288 0.052694447 0.04461499 0.015913008 0.050616097 0.050375268
0.00049955386 0.05191074 0.0007524958 0.02257986 0.06278038 0.05218725 0.053389784 0.015885683
0.00093703443 0.013413759 0.059400134 0.00055137597 0.15985279 0.052607354 0.024357956 0.028249323
0.049478166 0.052913252 0.0022528106 0.026438946 0.0022750546 0.03851143 0.05247508 0.049518954
0.051874906 0.052636653 0.05245962 0.041236836 0.052220337 0.052255705 0.050136797 0.051460747
0.052606 0.030220555 0.050766423 0.052752387 0.051704083 0.051154777 0.052676857 0.05175245
0.015081169 0.05196965 0.05257909 0.053074803 0.0098242145 0.083298296 0.03233561 0.07010869
0.0058614663 0.052092742 0.047458798 0.0522715 0.05269074 -0.0006802954 0.0003144233 0.050365355
0.0012809428 0.005628241 0.100988545 -0.108984664 -0.017016832 0.050701782 0.10298081 -0.098080546
0.0026280812 -0.10393755 -0.0117938 0.057590432 -0.0077598956 0.10488467 -0.110907555 -0.038655948
0.009324553 -0.04999046 0.01566999 -0.00052630564 0.13874228 0.11011931 -0.0029463228 -0.07347325
0.102132045 -0.10640027 0.015074957 0.00820848 0.010325191 -0.005059141 -0.107520655 0.101525016
0.10742053 0.10802839 -0.1067072 -0.056990944 0.10400293 -0.107124336 -0.10436854 0.1053168
0.10957106 0.072615236 -0.10326682 -0.109517604 -0.10543648 -0.10781903 0.10187521 0.104811564
0.048963938 -0.10704752 -0.10713832 0.1102706 0.020320434 -0.0048429556 0.014447591 -0.033110023
0.01358256 -0.106450886 0.09669212 -0.10503315 -0.10894989 -0.00840269 0.006982325 0.10370776
4.2924894e-05 0.09432767 0.060348805 0.06633037 0.04211175 0.05623914 0.06293055 0.062707946
0.0004239039 0.06451318 0.0010905105 0.025657864 0.12347565 0.06520502 0.067695215 0.02606621
0.0023371715 0.014814626 0.10709341 0.0006544457 0.18408312 0.0663591 0.05616323 0.032658886
0.0614013 0.06651268 0.0024259496 0.04602562 0.0024313494 0.10907292 0.065999575 0.061506916
0.06535574 0.06626216 0.065856926 0.13672103 0.06509594 0.065759435 0.062560834 0.06421065
0.06650979 0.035061903 0.063275926 0.066376604 0.064602666 0.06432357 0.06527726 0.0646609
0.016296476 0.065045506 0.06599243 0.06705528 0.009800221 0.10700501 0.067742966 0.14100933
0.012303126 0.065439254 0.05818654 0.06536963 0.0666856 0.0064617447 0.00042974664 0.062687315
00000000: 82bb 2d38 7e51 c33d 7a68 2c3d b963 383d
00000010: d490 363d ff9d 6b3d 1d71 303d 794f 303d
00000020: ed66 103a 3ee7 353d ca28 7f3a 4af2 b53c
00000030: 9068 f03d d310 363d a67d 393d 8f0a e83c
00000040: e937 253b 3874 603c 4d75 d03d d7b2 8b3a
00000050: 71ec 413e 1b6e 383d 751a 6c3d ec93 dc3c
00000060: 5039 2f3d c78f 383d 0515 2b3b 8ea2 483d
00000070: c675 2a3b b7b8 d53d 3043 383d 4441 2f3d
00000080: a378 353d 63e6 383d e6f2 373d ef59 043e
00000090: 54c8 353d 25d2 353d 25f5 303d 686e 343d
000000a0: f8da 383d 584e e83c f0a5 313d 1cfb 383d
000000b0: 43a2 353d b4f4 333d af4e 383d 3b1b 353d
000000c0: 2001 7c3c 25d0 363d d1d0 363d 1845 3a3d
000000d0: dff7 2b3c a46e e13d b0e1 8e3d f2c6 0b3e
000000e0: 26e1 4f3c ad17 363d a079 283d 9715 373d
000000f0: c88e 383d f382 b33b 9c70 e039 ba7f 313d
00000100: 6538 1938 e19c 203d a80a 483d 22d6 573d
00000110: 35be 363d ff5b 823c d352 4f3d 4c56 4e3d
00000120: 7ef4 023a 5ba0 543d 2343 453a 66f9 b83c
00000130: 0093 803d 4cc2 553d 3faf 5a3d b122 823c
00000140: 51a3 753a 62c5 5b3c 8e4d 733d 378a 103a
00000150: 73b0 233e cf7a 573d 568a c73c 206b e73c
00000160: 9ea9 4a3d 91bb 583d e4a3 133b 7d96 d83c
00000170: 1519 153b 29be 1d3d 1cf0 563d 63d4 4a3d
00000180: c87a 543d 8899 573d e6df 563d f5e7 283d
00000190: fee4 553d 140a 563d 3e5c 4d3d 81c8 523d
000001a0: 6479 573d 1991 f73c 74f0 4f3d e312 583d
000001b0: a9c7 533d ac87 513d b0c3 573d 61fa 533d
000001c0: 0217 773c 21de 543d 2c5d 573d f764 593d
000001d0: bef5 203c 4c98 aa3d 5872 043d 2595 8f3d
000001e0: 8b11 c03b 335f 553d 2864 423d a41a 563d
000001f0: 3fd2 573d da55 32ba 2ed9 a439 e74b 4e3d
00000200: 4fe5 a73a 1c6d b83b 15d3 ce3d 5a33 dfbd
00000210: e266 8bbc acac 4f3d 9ae7 d23d 74de c8bd
00000220: e33b 2c3b 36dd d4bd c83a 41bc f2e3 6b3d
00000230: b946 febb c6cd d63d 8023 e3bd b355 1ebd
00000240: 03c6 183c ccc2 4cbd 5a5e 803c c6f7 09ba
00000250: 7512 0e3e 3c86 e13d 1817 41bb 2579 96bd
00000260: 9b2a d13d 62e8 d9bd f4fc 763c dc7c 063c
00000270: fd2a 293c 27c7 a5bb ca33 dcbd 59ec cf3d
00000280: 4bff db3d fd3d dd3d 4e89 dabd 566f 69bd
00000290: 7dff d43d 0164 dbbd 2cbf d5bd 56b0 d73d
000002a0: cb66 e03d 4cb7 943d 8e7d d3bd c44a e0bd
000002b0: 15ef d7bd 39d0 dcbd f3a3 d03d 72a7 d63d
000002c0: 698e 483d bb3b dbbd 566b dbbd 8dd5 e13d
000002d0: 0a77 a63c a8b1 9ebb 97b5 6c3c 609e 07bd
000002e0: 6389 5e3c ec02 dabd 8506 c63d 9f1b d7bd
000002f0: 1f21 dfbd 70ab 09bc fdcb e43b bc64 d43d
00000300: 410a 3438 de2e c13d 4f30 773d 38d8 873d
00000310: 5f7d 2c3d 035b 663d bbe1 803d 066d 803d
00000320: 6b3f de39 7c1f 843d 76ef 8e3a 7130 d23c
00000330: cde0 fc3d 368a 853d caa3 8a3d ce88 d53c
00000340: 3b2b 193b 0cb9 723c ca53 db3d 1c8f 2b3a
00000350: 4980 3c3e 48e7 873d 6a0b 663d 53c5 053d
00000360: ee7f 7b3d cd37 883d aefc 1e3b 5c85 3c3d
00000370: 4657 1f3b a061 df3d c92a 873d adee 7b3d
00000380: 3bd9 853d 75b4 873d ffdf 863d 9900 0c3e
00000390: 0551 853d e2ac 863d e51f 803d e080 833d
000003a0: 4936 883d 129d 0f3d cf96 813d 75f0 873d
000003b0: 674e 843d 13bc 833d 16b0 853d ef6c 843d
000003c0: 3080 853c 9436 853d 0a27 873d 4754 893d
000003d0: 1b91 203c 7125 db3d d3bc 8a3d c064 103e
000003e0: 0d93 493c 0405 863d 0255 6e3d 83e0 853d
000003f0: 7692 883d 0bbd d33b 9e4f e139 3562 803d

bias_hh_l0 f4 [256]
4.1421044e-05 0.09537015 0.042091824 0.045016978 0.04457173 0.05752367 0.043076623 0.04304454
0.0005508501 0.044409983 0.0009733556 0.022210259 0.1173858 0.04444964 0.045286175 0.028325247
0.0025210325 0.013699584 0.10178622 0.0010658157 0.1893778 0.045026883 0.057642438 0.026926003
0.042779267 0.04505899 0.0026105058 0.04898315 0.002601014 0.104356214 0.04498595 0.04278685
0.04430451 0.04514158 0.04490938 0.12927894 0.044380505 0.04438987 0.043202538 0.044050604
0.045130685 0.02835767 0.04337114 0.04516136 0.044344198 0.04393454 0.044996914 0.044215422
0.015381128 0.044632096 0.044632737 0.04547606 0.010496109 0.11007431 0.0697664 0.13650282
0.012687957 0.044456173 0.041131616 0.04469833 0.045058127 0.005478257 0.0004280851 0.043334704
3.653056e-05 0.04455025 0.048838288 0.052694436 0.044724386 0.016085006 0.05061609 0.050375286
0.00049955386 0.05191074 0.0007524958 0.02257986 0.062496368 0.052187253 0.053390007 0.015653253
0.00093703275 0.013413759 0.05965896 0.00055137597 0.15981542 0.052607358 0.025044452 0.028249323
0.049478166 0.052913237 0.0022528106 0.026507355 0.0022750546 0.042311948 0.05247508 0.049518954
0.051874947 0.052636653 0.05245962 0.043163918 0.052220367 0.052255705 0.050136797 0.051460747
0.05260599 0.030220555 0.050766423 0.052752364 0.051704083 0.051154777 0.052676857 0.05175245
0.015081169 0.05196965 0.052579038 0.053074803 0.0098242145 0.0834314 0.032522485 0.07747087
0.0059185484 0.052092772 0.047458798 0.052271526 0.052690692 -0.000680285 0.0003144233 0.050365355
0.0012809442 0.026245302 0.10110142 -0.10850467 0.04163398 -0.007996613 0.1045525 -0.09782855
0.0026281571 -0.104006514 -0.011313677 0.05761239 -0.037210543 0.10511634 -0.111573815 -0.03514852
0.02896561 -0.04999046 0.02028194 -0.0014569089 0.13447484 0.10869011 0.010092702 -0.07347325
0.10214806 -0.107960455 0.015076633 0.005221241 0.010324606 0.012000425 -0.1074177 0.10141782
0.10689089 0.1080257 -0.10666288 -0.058968022 0.10327853 -0.106084645 -0.10427537 0.10514991
0.10963054 0.07262219 -0.10359627 -0.1087907 -0.105497204 -0.1082653 0.10187641 0.10471355
0.04896394 -0.10695671 -0.106379695 0.1108786 0.022110682 -0.013606874 0.035357982 -0.045097895
0.008061185 -0.10707067 0.0966779 -0.104744464 -0.109424114 -0.019462375 0.006922693 0.10403265
4.2924894e-05 0.094327696 0.060348805 0.06633109 0.04211175 0.05623914 0.06293053 0.062707946
0.0004239039 0.06451318 0.0010905105 0.025657862 0.123476416 0.06520503 0.06770827 0.0260662
0.0023371715 0.014814626 0.10709341 0.0006544457 0.18408069 0.06635983 0.05616323 0.032658886
0.0614013 0.066513 0.0024259496 0.04602562 0.0024313494 0.109073035 0.06599972 0.061506916
0.065355025 0.06626184 0.065856926 0.13671662 0.06509589 0.06575954 0.062560834 0.06421065
0.06650812 0.035061903 0.063275926 0.066376686 0.064602666 0.06432394 0.06527726 0.06466095
0.016296476 0.06504546 0.0659919 0.06705595 0.009800221 0.10700501 0.067742966 0.14100875
0.012303126 0.06543987 0.05818654 0.06536962 0.06668683 0.0064617447 0.00042974664 0.062687315
00000000: 82bb 2d38 6d51 c33d 7a68 2c3d b963 383d
00000010: d990 363d f19d 6b3d 1d71 303d 794f 303d
00000020: ed66 103a 3ee7 353d ca28 7f3a 4af2 b53c
00000030: f767 f03d d310 363d ff7d 393d 590a e83c
00000040: e837 253b 3874 603c 4b75 d03d d7b2 8b3a
00000050: 41ec 413e 1c6e 383d 7a1a 6c3d ec93 dc3c
00000060: 5039 2f3d c78f 383d 0515 2b3b 8ea2 483d
00000070: c675 2a3b b6b8 d53d 3043 383d 4441 2f3d
00000080: a578 353d 61e6 383d e6f2 373d b361 043e
00000090: 55c8 353d 27d2 353d 25f5 303d 686e 343d
000000a0: f4da 383d 584e e83c f0a5 313d 1efb 383d
000000b0: 43a2 353d b4f4 333d af4e 383d 3b1b 353d
000000c0: 2001 7c3c 25d0 363d d1d0 363d 1b45 3a3d
000000d0: dff7 2b3c a46e e13d b0e1 8e3d 65c7 0b3e
000000e0: 26e1 4f3c ad17 363d a079 283d 9915 373d
000000f0: df8e 383d f382 b33b 9c70 e039 bb7f 313d
00000100: 6438 1938 537a 363d a80a 483d 1fd6 573d
00000110: eb30 373d b4c4 833c d152 4f3d 5156 4e3d
00000120: 7ef4 023a 5ba0 543d 2343 453a 66f9 b83c
00000130: 31fc 7f3d 4dc2 553d 7baf 5a3d 403b 803c
00000140: 34a3 753a 62c5 5b3c f45c 743d 378a 103a
00000150: a7a6 233e d07a 573d 062a cd3c 206b e73c
00000160: 9ea9 4a3d 8dbb 583d e4a3 133b f425 d93c
00000170: 1519 153b 4b4f 2d3d 1cf0 563d 63d4 4a3d
00000180: d37a 543d 8899 573d e6df 563d a6cc 303d
00000190: 06e5 553d 140a 563d 3e5c 4d3d 81c8 523d
000001a0: 6179 573d 1991 f73c 74f0 4f3d dd12 583d
000001b0: a9c7 533d ac87 513d b0c3 573d 61fa 533d
000001c0: 0217 773c 21de 543d 1e5d 573d f764 593d
000001d0: bef5 203c 15de aa3d 4c36 053d 0ca9 9e3d
000001e0: 62f0 c13b 3b5f 553d 2864 423d ab1a 563d
000001f0: 32d2 573d 2755 32ba 2ed9 a439 e74b 4e3d
00000200: 5be5 a73a 6300 d73c 430e cf3d b237 debd
00000210: 6488 2a3d 3a04 03bc 9f1f d63d 565a c8bd
00000220: 293d 2c3b 5e01 d5bd 005d 39bc f8fa 6b3d
00000230: 156a 18bd 3c47 d73d d080 e4bd e5f7 0fbd
00000240: 4949 ed3c ccc2 4cbd 5026 a63c c0f5 beba
00000250: c6b3 093e ec98 de3d dc5b 253c 2579 96bd
00000260: 0133 d13d 5f1a ddbd fb03 773c f216 ab3b
00000270: 8928 293c 6e9d 443c d0fd dbbd 25b4 cf3d
00000280: 9ce9 da3d 943c dd3d 1172 dabd 7488 71bd
00000290: b283 d33d e842 d9bd 538e d5bd d658 d73d
000002a0: fa85 e03d f1ba 943d 482a d4bd a9cd debd
000002b0: eb0e d8bd 33ba ddbd 94a4 d03d 0f74 d63d
000002c0: 6a8e 483d 1f0c dbbd 99dd d9bd 5214 e33d
000002d0: 7621 b53c 5eef 5ebc 88d3 103d 92b8 38bd
000002e0: 0f13 043c de47 dbbd 10ff c53d 4484 d6bd
000002f0: c019 e0bd 8f6f 9fbc c2d7 e23b 120f d53d
00000300: 410a 3438 e12e c13d 4f30 773d 98d8 873d
00000310: 5f7d 2c3d 035b 663d b9e1 803d 066d 803d
00000320: 6b3f de39 7c1f 843d 76ef 8e3a 7030 d23c
00000330: 34e1 fc3d 378a 853d a2aa 8a3d c988 d53c
00000340: 3b2b 193b 0cb9 723c ca53 db3d 1c8f 2b3a
00000350: a67f 3c3e aae7 873d 6a0b 663d 53c5 053d
00000360: ee7f 7b3d f837 883d aefc 1e3b 5c85 3c3d
00000370: 4657 1f3b af61 df3d dc2a 873d adee 7b3d
00000380: dbd8 853d 4ab4 873d ffdf 863d 71ff 0b3e
00000390: fe50 853d f0ac 863d e51f 803d e080 833d
000003a0: 6935 883d 129d 0f3d cf96 813d 80f0 873d
000003b0: 674e 843d 45bc 833d 16b0 853d f66c 843d
000003c0: 3080 853c 8e36 853d c326 873d a154 893d
000003d0: 1b91 203c 7125 db3d d3bc 8a3d 9964 103e
000003e0: 0d93 493c 5705 863d 0255 6e3d 82e0 853d
000003f0: 1b93 883d 0bbd d33b 9e4f e139 3562 803d

weight_ih_l1 f4 [256, 64]
2.1761527e-06 2.1359774e-05 7.441302e-05 -7.680202e-05 7.0968003e-06 1.3037833e-05 7.567996e-05 -7.581687e-05
7.172853e-06 -7.610731e-05 -1.0932997e-05 5.268408e-05 3.214701e-05 7.642166e-05 -7.730053e-05 -3.969249e-07
-8.383076e-07 -4.107554e-05 -3.737917e-05 6.291298e-06 -1.1355407e-05 7.675337e-05 -1.9599347e-06 -5.822849e-05
7.464106e-05 -7.687358e-05 1.7203121e-05 -3.5438614e-05 1.6884907e-05 5.3068947e-05 -7.6573066e-05 7.469145e-05
7.6421966e-05 7.6722325e-05 -7.652636e-05 -4.431304e-05 7.642739e-05 -7.6623364e-05 -7.51963e-05 7.5955504e-05
7.677501e-05 6.005954e-05 -7.576737e-05 -7.673116e-05 -7.6031014e-05 -7.584098e-05 7.638033e-05 7.616293e-05
4.3930522e-05 -7.6224205e-05 -7.673772e-05 7.6974015e-05 3.5503483e-05 -1.0390132e-05 -2.3698603e-05 4.3147298e-05
7.4834747e-06 -7.656532e-05 7.3392104e-05 -7.6474855e-05 -7.684117e-05 -9.529404e-06 6.5755053e-06 7.522988e-05
3.1917862e-06 -3.655707e-05 4.7309077e-05 -4.8406007e-05 2.4006735e-05 -2.2826656e-05 4.783172e-05 -4.807119e-05
9.593531e-06 -4.8117883e-05 -1.3563889e-05 3.786285e-05 3.972645e-05 4.8215963e-05 -4.8576378e-05 1.5438976e-05
-2.8379127e-06 -3.3190976e-05 2.1007982e-05 5.149121e-06 1.8274055e-05 4.8377744e-05 3.0566433e-05 -4.0244115e-05
4.744129e-05 -4.840425e-05 2.1033418e-05 -1.6275959e-05 1.9586629e-05 -2.3987623e-05 -4.8310903e-05 4.7448924e-05
4.8219143e-05 4.8389902e-05 -4.829327e-05 1.8921688e-05 4.8218135e-05 -4.828546e-05 -4.7681588e-05 4.801357e-05
4.838657e-05 4.0945033e-05 -4.790596e-05 -4.837277e-05 -4.8066344e-05 -4.7932735e-05 4.8233705e-05 4.8127888e-05
3.4004803e-05 -4.8163198e-05 -4.834353e-05 4.8472026e-05 3.068485e-05 2.3146606e-05 -1.1290465e-05 1.9668052e-05
-1.1804682e-05 -4.8302987e-05 4.686687e-05 -4.826734e-05 -4.8424965e-05 5.760314e-07 8.52113e-06 4.769767e-05
3.5059006e-06 -4.2001175e-06 0.00010451574 -0.00010721371 2.1502297e-05 4.427285e-06 0.00010585286 -0.00010617382
1.1675448e-05 -0.00010644943 -1.8325643e-05 7.954564e-05 4.3522137e-05 0.000106749714 -0.00010768047 1.0667528e-06
4.3782893e-07 -6.416918e-05 4.0663003e-06 7.4793e-06 4.066414e-05 0.000107157095 1.3796031e-05 -8.628509e-05
0.00010481005 -0.00010723473 2.7770993e-05 -3.2357366e-05 2.7652351e-05 1.42257195e-05 -0.00010695665 0.000104847975
0.00010675718 0.00010715565 -0.000106914595 -2.3942472e-05 0.00010674324 -0.00010694696 -0.00010541245 0.00010623976
0.00010718344 8.8385976e-05 -0.00010598905 -0.00010714266 -0.00010635362 -0.00010609616 0.00010672543 0.00010649986
6.811603e-05 -0.00010659255 -0.000107081316 0.000107422595 5.4388078e-05 -4.091509e-06 -1.3963461e-05 3.286212e-05
2.0888083e-06 -0.000106931104 0.00010340317 -0.000106831256 -0.000107256674 -1.0310272e-05 1.1157752e-05 0.00010545892
9.5355914e-05 0.0007286328 0.003385124 -0.0035028642 0.00034066843 0.0003853279 0.0034460223 -0.0034497578
0.00030926763 -0.0034699987 -0.00046689704 0.0023440595 0.0009236134 0.0034842829 -0.0035273798 -0.00012314969
8.5666885e-05 -0.0017901917 -0.000560042 0.00020183112 0.0010249878 0.0035010925 -3.0751264e-05 -0.0026137081
0.0033989106 -0.0035064956 0.00069960137 -0.0008858516 0.00069427805 0.0014180625 -0.003492448 0.0034015707
0.0034844542 0.0034993556 -0.003490475 -0.0015710513 0.0034840996 -0.0034942257 -0.003425141 0.0034614142
0.0035020008 0.0026984774 -0.0034500354 -0.0035000425 -0.0034661961 -0.0034574608 0.003485558 0.0034719796
0.0019287069 -0.0034753617 -0.0034997652 0.0035116596 0.0014755476 -0.0006269062 -0.00019273831 0.0008598511
0.00013019834 -0.0034901414 0.0033371714 -0.003487166 -0.0035054125 -0.00032963557 0.0003023703 0.0034275905
00000000: 050a 1236 c42d b337 300e 9c38 c510 a1b8
00000010: 0d21 ee36 11bd 5a37 5fb6 9e38 dfff 9eb8
00000020: 57ae f036 cd9b 9fb8 dd6c 37b7 1af9 5c38
00000030: 97d5 0638 9144 a038 681c a2b8 f118 d5b4
00000040: 0f08 61b5 8648 2cb8 94c7 1cb8 d719 d336
00000050: 1a83 3eb7 a7f6 a038 6c87 03b6 5d3a 74b8
00000060: 9d88 9c38 3037 a1b8 6c4f 9037 eca3 14b8
00000070: 10a4 8d37 5996 5e38 da95 a0b8 aba3 9c38
00000080: bb44 a038 fce5 a038 c77c a0b8 c4dc 39b8
00000090: a447 a038 dbb0 a0b8 b5b2 9db8 4d4a 9f38
000000a0: 4502 a138 71e8 7b38 4ce5 9eb8 baea a0b8
000000b0: d772 9fb8 d10c 9fb8 612e a038 a9b9 9f38
000000c0: 0a42 3838 8fda 9fb8 40ee a0b8 1c6d a138
000000d0: 93e9 1438 4751 2eb7 5dcc c6b7 0ff9 3438
000000e0: 8f1a fb36 b191 a0b8 16ea 9938 2061 a0b8
000000f0: ca25 a1b8 7be0 1fb7 29a3 dc36 bcc4 9d38
00000100: 7832 5636 db54 19b8 bc6d 4638 8e07 4bb8
00000110: 1262 c937 df7b bfb7 eb9e 4838 0ca0 49b8
00000120: e7f3 2037 2fd2 49b8 7690 63b7 edce 1e38
00000130: f39f 2638 7f3b 4a38 7dbe 4bb8 f382 8137
00000140: f872 3eb6 8a36 0bb8 4c3a b037 9dc6 ac36
00000150: 3c4b 9937 35e9 4a38 7534 0038 cacb 28b8
00000160: b2fb 4638 ab05 4bb8 ec70 b037 5b88 88b7
00000170: f74d a437 0739 c9b7 70a1 4ab8 e503 4738
00000180: e93e 4a38 43f6 4a38 818e 4ab8 04ba 9e37
00000190: d43d 4a38 1e86 4ab8 b7fd 47b8 2e62 4938
000001a0: aff2 4a38 65bc 2b38 a2ee 48b8 dee3 4ab8
000001b0: d89a 49b8 620b 49b8 8c4e 4a38 eddc 4938
000001c0: 61a0 0e38 d702 4ab8 78c4 4ab8 714e 4b38
000001d0: 9bb3 0038 f52a c237 2e6c 3db7 d2fc a437
000001e0: b90c 46b7 f098 4ab8 eb92 4438 a972 4ab8
000001f0: e91b 4bb8 94a0 1a35 faf5 0e37 fc0e 4838
00000200: ea46 6b36 bcee 8cb6 762f db38 ecd7 e0b8
00000210: d55f b437 178e 9436 52fd dd38 a3a9 deb8
00000220: abe1 4337 9a3d dfb8 05ba 99b7 bed1 a638
00000230: 8a8b 3638 d1de df38 83d2 e1b8 592d 8f35
00000240: c00e eb34 9192 86b8 4171 8836 b3f6 fa36
00000250: ca8e 2a38 87b9 e038 8175 6737 f4f3 b4b8
00000260: 78cd db38 35e3 e0b8 c1f5 e837 75b7 07b8
00000270: f9f6 e737 00ab 6e37 ea4d e0b8 d4e1 db38
00000280: d3e2 df38 c0b8 e038 5637 e0b8 11d8 c8b7
00000290: 57db df38 b648 e0b8 e110 ddb8 09cd de38
000002a0: acc7 e038 dc5b b938 7046 deb8 c7b1 e0b8
000002b0: 2a0a dfb8 f17f deb8 c7d1 df38 ad58 df38
000002c0: 84d9 8e38 718a dfb8 d890 e0b8 1148 e138
000002d0: c11e 6438 cb49 89b6 9c44 6ab7 6fd5 0938
000002e0: 742d 0c36 3340 e0b8 27da d838 980a e0b8
000002f0: fdee e0b8 48fa 2cb7 2e32 3b37 d429 dd38
00000300: d1f9 c738 b801 3f3a f5d8 5d3b 4f90 65bb
00000310: be9b b239 d605 ca39 a9d6 613b 5515 62bb
00000320: 3325 a239 eb68 63bb dcc9 f4b9 cb9e 193b
00000330: a51e 723a 9158 643b 9d2b 67bb be21 01b9
00000340: 0fa8 b338 dea4 eaba c8cf 12ba a1a2 5339
00000350: e258 863a 9672 653b ebfa 00b8 bf4a 2bbb
00000360: 42c0 5e3b 3ccd 65bb 7465 373a 7f38 68ba
00000370: 3600 363a 48de b93a 8ee1 64bb e3ec 5e3b
00000380: 715b 643b 7255 653b 74c0 64bb bceb cdba
00000390: 7e55 643b 61ff 64bb 5578 60bb e5d8 623b
000003a0: d381 653b f0d8 303b fd19 62bb f860 65bb
000003b0: 1f29 63bb 9196 62bb f66d 643b 278a 633b
000003c0: aacc fc3a e5c2 63bb 515c 65bb df23 663b
000003d0: 2967 c13a f756 24ba cc19 4ab9 a167 613a
000003e0: da85 0839 dbba 64bb 72b4 5a3b f088 64bb
000003f0: 10bb 65bb f0d2 acb9 7487 9e39 6da1 603b

weight_hh_l1 f4 [256, 64]
-4.2589013e-06 3.2937735e-06 -4.619323e-06 -2.578821e-05 2.8918105e-06 2.1300399e-05 4.6764097e-05 3.533018e-05
-1.8036061e-06 2.7478964e-07 3.1041518e-06 -3.683147e-06 -2.4223306e-07 -8.549603e-06 -5.407036e-06 -5.8591606e-05
3.0899414e-06 2.9537928e-06 -3.358058e-06 -2.5103525e-05 -8.1159953e-07 1.0055113e-06 5.099537e-06 2.6350368e-05
-2.8048526e-06 5.1743195e-06 8.631867e-06 2.4528883e-06 4.057223e-06 3.6965437e-05 4.194148e-06 -5.212444e-06
2.65999e-05 2.9365165e-07 2.425098e-06 -8.8231747e-07 -3.7273257e-05 3.57057e-06 4.9769983e-07 -2.0934103e-05
-3.2614986e-05 -1.0968057e-05 1.9398406e-06 -3.786617e-06 -5.16801e-06 6.0312705e-06 -2.8895772e-06 3.6810758e-05
-4.036439e-05 -5.575417e-08 -1.5236578e-06 5.0322337e-09 -2.9611938e-05 3.2873677e-06 1.2098992e-05 -6.4808564e-06
-2.111302e-06 1.9202778e-06 -5.440096e-06 -1.7231266e-06 -9.195289e-06 -2.8775601e-05 -3.7200156e-05 -2.4291123e-05
-5.7721454e-06 4.66685e-06 -6.453272e-06 -2.1890346e-05 4.195364e-06 2.0010499e-05 3.189661e-05 2.6239037e-05
-2.4007381e-06 4.703993e-07 4.190259e-06 -5.1286156e-06 -9.462674e-08 -1.1252097e-05 -8.00573e-06 -3.5523073e-05
4.4903427e-06 4.300142e-06 -4.5013103e-06 -2.1610314e-05 -1.4454183e-06 1.2777032e-06 6.856373e-06 2.2082946e-05
9.282439e-06 6.8899535e-06 1.3948606e-05 3.196376e-06 5.717524e-06 2.705232e-05 5.9397494e-06 -6.959159e-06
2.2275124e-05 2.199713e-07 3.5603257e-06 -1.0097083e-06 -2.7219743e-05 4.9283935e-06 4.825404e-07 -1.9966037e-05
-2.486431e-05 2.7844964e-05 2.8543752e-06 -4.9995174e-06 -7.168876e-06 -2.0401247e-05 -3.7114603e-06 2.6980235e-05
-2.870733e-05 2.6167032e-07 -2.152878e-06 -1.3836166e-07 -2.3463002e-05 -1.3874557e-05 -3.3382436e-05 -8.355014e-06
-3.1318289e-06 2.58237e-06 -7.45365e-06 -2.4505644e-06 -1.1545012e-05 -2.3505218e-05 -2.7178765e-05 -2.1292266e-05
-6.9709035e-06 5.414911e-06 -7.362675e-06 -4.2024763e-05 4.727031e-06 3.5240784e-05 7.057236e-05 5.560928e-05
-2.9042924e-06 4.5705096e-07 4.987646e-06 -5.9987165e-06 -3.5404912e-07 -1.3988385e-05 -7.5253333e-06 -8.374312e-05
5.0466438e-06 4.818157e-06 -5.5232385e-06 -4.1005875e-05 -1.3588626e-06 1.6059722e-06 8.388857e-06 4.286004e-05
1.1525464e-05 8.556093e-06 1.5876492e-05 3.9957945e-06 6.674146e-06 5.7848505e-05 6.899696e-06 -8.601802e-06
4.321547e-05 4.415192e-07 3.9513307e-06 -1.3860364e-06 -5.8273716e-05 5.8247097e-06 7.520812e-07 -3.4640165e-05
-5.1840052e-05 -3.83501e-06 3.1999384e-06 -6.2471067e-06 -8.422552e-06 -1.3734949e-06 -4.7589774e-06 5.7636164e-05
-6.237163e-05 -6.4871635e-08 -2.4458113e-06 3.273784e-08 -4.7586425e-05 -3.0377243e-05 -6.6589956e-07 -1.0781772e-05
-3.4408042e-06 3.062985e-06 -8.953633e-06 -2.7949486e-06 -1.5429849e-05 -4.6306934e-05 -5.8156616e-05 -3.9789542e-05
-0.00019197723 0.0001510754 -0.00020702432 -0.0011510196 0.00013278016 0.0009352961 0.0021542145 0.001612312
-8.260079e-05 1.070535e-05 0.00014006998 -0.0001685857 -1.635411e-05 -0.00036033103 -0.00015007908 -0.0026930848
0.00014142763 0.0001350027 -0.0001553453 -0.0011180047 -3.5975554e-05 4.8478396e-05 0.00022455715 0.0011783703
4.3745014e-05 0.00022728511 0.0004030583 0.00011584713 0.00018213154 0.0016910498 0.00018705208 -0.00022747308
0.0011902375 1.8845183e-05 0.00010980959 -4.6475063e-05 -0.0017060575 0.0001619652 2.9479685e-05 -0.0009167917
-0.0014808939 -0.00021852394 9.002999e-05 -0.00016920427 -0.00022695528 6.1374245e-05 -0.000134337 0.0016841065
-0.0018536989 -4.8608517e-06 -6.670511e-05 -1.687705e-08 -0.001336082 -0.00043394577 0.00028034046 -0.0002780566
-9.441904e-05 8.6269494e-05 -0.00023343357 -8.0845435e-05 -0.00039261318 -0.0012895961 -0.0017024768 -0.0010785314
00000000: afe7 8eb6 990a 5d36 afff 9ab6 c253 d8b7
00000010: ed10 4236 42ae b237 9124 4438 7e2f 1438
00000020: 6f13 f2b5 cd86 9334 ec50 5036 fc2b 77b6
00000030: 420c 82b4 4470 0fb7 166e b5b6 42c0 75b8
00000040: ca5c 4f36 c639 4636 ff5a 61b6 6995 d2b7
00000050: b2dc 59b5 1bf5 8635 b01c ab36 fc0a dd37
00000060: 003b 3cb6 119f ad36 96d1 1037 4d9c 2436
00000070: 4823 8836 560b 1b38 75bb 8c36 8ee6 aeb6
00000080: da22 df37 2da7 9d34 debe 2236 65d8 6cb5
00000090: db55 1cb8 ed9d 6f36 ac99 0535 a59b afb7
000000a0: 13cc 08b8 7203 38b7 352e 0236 961d 7eb6
000000b0: de68 adb6 3860 ca36 8fea 41b6 4065 1a38
000000c0: ef4c 29b8 5c76 6fb3 7c80 ccb5 ffe7 ac31
000000d0: 2767 f8b7 8c9c 5c36 c6fc 4a37 2276 d9b6
000000e0: e4af 0db6 1fde 0036 128a b6b6 2e46 e7b5
000000f0: 7745 1ab7 2263 f1b7 5d07 1cb8 cac4 cbb7
00000100: 5aae c1b6 f097 9c36 2f89 d8b6 29a1 b7b7
00000110: e7c5 8c36 38dc a737 b9c8 0538 e71b dc37
00000120: 5e1c 21b6 308b fc34 0d9a 8c36 7916 acb6
00000130: 9a35 cbb3 63c7 3cb7 5950 06b7 9cfe 14b8
00000140: c0ab 9636 f049 9036 f609 97b6 cc47 b5b7
00000150: 3200 c2b5 8c7d ab35 cc0f e636 c43e b937
00000160: c6bb 1b37 4030 e736 ce04 6a37 5281 5636
00000170: 28d9 bf36 6aee e237 0f4e c736 b882 e9b6
00000180: 77db ba37 4031 6c34 eeed 6e36 5085 87b5
00000190: f455 e4b7 945e a536 ec87 0135 bd7c a7b7
000001a0: b393 d0b7 9b94 e937 cb8d 3f36 87c1 a7b6
000001b0: 2d8c f0b6 5823 abb7 6712 79b6 9d53 e237
000001c0: 86d0 f0b7 b27b 8c34 2a7a 10b6 9090 14b4
000001d0: 6ad2 c4b7 c5c6 68b7 1e04 0cb8 832c 0cb7
000001e0: 692c 52b6 c74c 2d36 5e1a fab6 6074 24b6
000001f0: 73b1 41b7 122d c5b7 f4fd e3b7 cb9c b2b7
00000200: 9be7 e9b6 bbb1 b536 e60c f7b6 bf43 30b8
00000210: e39c 9e36 81cf 1338 3f00 9438 023e 6938
00000220: 5de7 42b6 9b60 f534 8e5b a736 9548 c9b6
00000230: 2414 beb4 a8af 6ab7 1f82 fcb6 3f9f afb8
00000240: 5756 a936 a7ab a136 4254 b9b6 b9fd 2bb8
00000250: 2a62 b6b5 c98c d735 debd 0c37 9ec4 3338
00000260: 7e5d 4137 248c 0f37 822e 8537 9d13 8636
00000270: 7af2 df36 5ca2 7238 f083 e736 7550 10b7
00000280: 4242 3538 f009 ed34 ac95 8436 d907 bab5
00000290: ed6a 74b8 e071 c336 a0e2 4935 984a 11b8
000002a0: d56e 59b8 7cae 80b6 86be 5636 3d9e d1b6
000002b0: 964e 0db7 ed58 b8b5 4eaf 9fb6 5cbe 7138
000002c0: 84cd 82b8 8f4f 8bb3 b822 24b6 a39b 0c33
000002d0: 8997 47b8 a2d2 feb7 45c0 32b5 5ce3 34b7
000002e0: 91e8 66b6 ae8d 4d36 9037 16b7 da90 3bb6
000002f0: 596f 81b7 b139 42b8 31ed 73b8 b2e3 26b8
00000300: 7f4d 49b9 fe69 1e39 ab14 59b9 cfdd 96ba
00000310: e73a 0b39 a92e 753a b92d 0d3b 3754 d33a
00000320: f639 adb8 219b 3337 c0df 1239 61c6 30b9
00000330: 2f30 89b7 d0ea bcb9 8c5e 1db9 777e 30bb
00000340: 314c 1439 838f 0d39 30e4 22b9 038a 92ba
00000350: 75e4 16b8 4855 4b38 1a77 6b39 8c73 9a3a
00000360: da7a 3738 6253 6e39 9251 d339 f4f2 f238
00000370: 90fa 3e39 37a6 dd3a 6923 4439 d785 6eb9
00000380: be01 9c3a b915 9e37 9349 e638 38ee 42b8
00000390: ca9d dfba 34d5 2939 244b f737 d954 70ba
000003a0: 8e1a c2ba 9323 65b9 7cce bc38 6d6c 31b9
000003b0: d8fa 6db9 0cb6 8038 d0dc 0cb9 3dbd dc3a
000003c0: d0f7 f2ba 661a a3b6 09e4 8bb8 07f9 90b2
000003d0: 791f afba 3783 e3b9 a9fa 9239 20c8 91b9
000003e0: d602 c6b8 95eb b438 d9c5 74b9 908b a9b8
000003f0: a6d7 cdb9 aa07 a9ba a425 dfba 825d 8dba

bias_ih_l1 f4 [256]
0.00011827022 6.990225e-05 0.00015771766 0.0056057223 6.1181556e-05 0.0036609715 0.020904519 0.011289985
3.6157366e-05 2.7415797e-06 4.7205904e-05 9.038709e-05 3.38274e-05 0.00045476845 0.0052540954 0.06888582
6.899317e-05 6.459754e-05 9.5556155e-05 0.005282182 1.6294036e-05 9.198676e-09 0.00014727368 0.0058961096
0.07866439 0.00016037707 0.0018326867 7.0952585e-05 0.000104907755 0.0125527 0.00010415953 0.00017853231
0.005993767 3.621221e-06 4.7366513e-05 -1.9987137e-06 0.012799762 8.368093e-05 2.635884e-06 0.003498875
0.009472664 0.071109354 2.4364797e-05 6.7195e-05 0.00016935877 0.06364194 9.053593e-05 0.012408436
0.015408041 1.5923577e-05 2.3818093e-05 2.3621833e-06 0.0076489695 0.1074623 0.10002133 0.00022654749
3.9362305e-05 1.0324042e-05 0.00017523444 2.1058904e-05 0.0004984071 0.007176306 0.012689526 0.004907441
0.00011081884 6.376973e-05 0.00014965468 0.005786535 5.5198154e-05 0.0036456878 0.029795436 0.012802837
3.0293824e-05 2.7076937e-06 4.3129152e-05 8.3340885e-05 7.2039047e-06 0.00042680334 0.0023682667 0.103258766
6.0908842e-05 5.715336e-05 8.152491e-05 0.0054187095 8.316867e-06 -1.7130658e-06 0.00013138962 0.0061132363
0.059384767 0.00014540757 0.0013839378 5.5731933e-05 9.539054e-05 0.014591245 9.0311216e-05 0.00016709197
0.006236537 3.2362861e-06 4.250289e-05 -4.584495e-06 0.014972221 7.4632146e-05 1.8114596e-06 0.003482509
0.010424937 0.13600518 2.3210365e-05 5.920272e-05 0.00013847601 0.034438286 6.9410096e-05 0.014354315
0.01925596 7.2855732e-06 2.2668846e-05 -1.0525407e-06 0.00817596 0.08386053 0.058623113 0.00019390741
3.5355937e-05 7.038006e-06 0.00015017229 1.6945924e-05 0.00045531514 0.0074892538 0.014747737 0.0050001536
-0.0032071823 0.002530845 -0.0031806496 -0.025157314 0.0022636598 0.019622853 0.049125023 0.037133064
-0.0014880106 0.00025862138 0.0022090673 -0.0026065698 -0.0009768393 -0.0063362727 0.0007452042 -0.020840859
0.0024057946 0.0022900403 -0.0035869218 -0.024252338 -0.00083848083 0.0006216786 0.0049166605 0.025881968
-0.01315754 0.0049256375 -0.00398762 0.002043285 0.003060472 0.039120078 0.0025419167 -0.0040456406
0.02611399 0.00017199384 0.0019092239 -0.0004949401 -0.039510548 0.0028267445 0.00027934133 -0.019101547
-0.03385961 0.0047582034 0.0014010087 -0.0042373305 -0.0042772647 -0.004808791 -0.0021646316 0.038926177
-0.043093175 0.00011155018 -0.0011349807 -0.00024782194 -0.03005366 0.014473568 0.0015987939 -0.007532917
-0.0016773319 0.0012731839 -0.0040216804 -0.0018316843 -0.016421016 -0.027703779 -0.039351158 -0.023232622
5.150435e-05 5.016141e-05 6.5299435e-05 0.002534811 3.9402374e-05 0.0015943303 0.011057566 0.005704485
1.684076e-05 1.4277505e-06 2.8905355e-05 5.9174105e-05 -2.9351543e-07 0.00021899515 0.0011698361 0.04921795
4.5976612e-05 4.2668056e-05 5.5639328e-05 0.0024057198 8.522547e-06 2.1007297e-06 0.00010684485 0.0026948857
0.07436644 0.00011183117 0.00027398596 2.395773e-05 6.9911155e-05 0.0062704217 9.0635716e-05 8.234136e-05
0.0027573297 -1.7736544e-06 3.082216e-05 -2.2960037e-06 0.006424091 7.092568e-05 -5.2686337e-06 0.0015147419
0.0046661734 0.07275328 1.5771886e-05 1.1995905e-05 0.000101660895 0.062125303 1.9158788e-05 0.0062335664
0.007891078 -2.2003371e-06 1.6209102e-05 2.0921966e-06 0.003640401 0.10219545 0.10122748 0.00016440627
2.5382287e-05 1.0458009e-05 0.00014741285 2.0228747e-05 0.00032391248 0.0031436274 0.0064394735 0.002183577
00000000: d707 f838 7c98 9238 0361 2539 35b0 b73b
00000010: 994e 8038 e9ec 6f3b f43f ab3c a1f9 383c
00000020: ada7 1738 fbfb 3736 f4fe 4538 338e bd38
00000030: e5e1 0d38 fd6d ee39 8c2a ac3b 0214 8d3d
00000040: 6db0 9038 8a78 8738 5265 c838 2716 ad3b
00000050: 2daf 8837 3408 1e32 7a6d 1a39 2734 c13b
00000060: cc1a a13d e42a 2839 c336 f03a 61cc 9438
00000070: ec01 dc38 d7a9 4d3c 3970 da38 6734 3b39
00000080: 5d67 c43b 1a04 7336 68ab 4638 a421 06b6
00000090: 18b6 513c db7d af38 24e4 3036 624d 653b
000000a0: 3c33 1b3c c8a1 913d 0163 cc37 0aeb 8c38
000000b0: e695 3139 b556 823d 1bde bd38 c14c 4b3c
000000c0: 0272 7c3c 9f93 8537 f7cc c737 0086 1e36
000000d0: 35a4 fa3b 3215 dc3d fcd7 cc3d 618d 6d39
000000e0: f418 2538 6c35 2d37 23bf 3739 a7a7 b037
000000f0: 89a7 023a 3827 eb3b bbe7 4f3c 99ce a03b
00000100: 6967 e838 1dbc 8538 9fec 1c39 f99c bd3b
00000110: 9184 6738 7eec 6e3b 8f15 f43c fec2 513c
00000120: 7e1f fe37 d3b5 3536 93e5 3438 4cc7 ae38
00000130: 12b9 f136 93c4 df39 ec34 1b3b 5579 d33d
00000140: 5f78 7f38 f4b7 6f38 5af8 aa38 6e8f b13b
00000150: ac88 0b37 7eec e5b5 a2c5 0939 8b51 c83b
00000160: 713d 733d 8c78 1839 3f65 b53a b5c1 6938
00000170: 680c c838 1e10 6f3c 7765 bd38 6935 2f39
00000180: dd5b cc3b f92e 5936 2145 3238 83d4 99b6
00000190: 0c4e 753c d483 9c38 4721 f335 ce3a 643b
000001a0: 5bcd 2a3c f144 0b3e e1b3 c237 7050 7838
000001b0: df33 1139 290f 0d3d 4390 9138 5c2e 6b3c
000001c0: adbe 9d3c 9976 f436 fa28 be37 0645 8db5
000001d0: 76f4 053c 12bf ab3d ca1e 703d a053 4b39
000001e0: 264b 1438 0328 ec36 9177 1d39 1827 8e37
000001f0: 5db7 ee39 6a68 f53b 7ea0 713c 54d8 a33b
00000200: 972f 52bb 89dc 253b 7272 50bb b616 cebc
00000210: e959 143b 1bc0 a03c 5237 493d d718 183d
00000220: 5a09 c3ba 9397 8739 00c6 103b fcd2 2abb
00000230: 4a09 80ba 82a0 cfbb cf59 433a 73ba aabc
00000240: 89aa 1d3b 8014 163b 9012 6bbb d7ac c6bc
00000250: 7fcd 5bba 25f8 223a f01b a13b 6c06 d43c
00000260: b992 57bc 3e67 a13b 95aa 82bb a2e8 053b
00000270: 3392 483b 603c 203d 4996 263b 4b91 84bb
00000280: 02ed d53c 3f59 3439 ec3e fa3a debe 01ba
00000290: d0d5 21bd e740 393b 8f74 9239 d97a 9cbc
000002a0: 60b0 0abd b4ea 9b3b 0da2 b73a 4ed9 8abb
000002b0: 4c28 8cbb 1093 9dbb 7edc 0dbb 0e71 1f3d
000002c0: 7882 30bd 0cf0 e938 a2c3 94ba 19ee 81b9
000002d0: 1833 f6bc 8b22 6d3c 9f8e d13a b0d6 f6bb
000002e0: ebd9 dbba f6e0 a63a 4dc8 83bb 2015 f0ba
000002f0: 5e85 86bc 09f3 e2bc ae2e 21bd 5752 bebc
00000300: 6006 5838 6764 5238 5ef1 8838 121f 263b
00000310: fa43 2538 d9f8 d03a cb2a 353c b0ec ba3b
00000320: 4245 8d37 22a1 bf35 c779 f237 b631 7838
00000330: 7494 9db4 10a2 6539 3055 993a c398 493d
00000340: 03d7 4038 7af6 3238 465e 6938 48a9 1d3b
00000350: 10fc 0e37 43fa 0c36 e411 e038 ae9c 303b
00000360: 6f4d 983d e786 ea38 c6a5 8f39 d5f8 c837
00000370: 449d 9238 1c78 cd3b ae13 be38 aeae ac38
00000380: 51b4 343b 4d0e eeb5 0b47 0138 0b15 1ab6
00000390: 2e81 d23b efbd 9438 38c9 b0b6 4e8a c63a
000003a0: b3e6 983b acff 943d de4d 8437 0542 4937
000003b0: c732 d538 1a77 7e3d 2fb7 a037 f242 cc3b
000003c0: 9449 013c 81a9 13b6 c8f8 8737 aa67 0c36
000003d0: cb93 6e3b d94b d13d 5a50 cf3d 7964 2c39
000003e0: 0cec d437 ce74 2f37 d692 1a39 e7b0 a937
000003f0: ccd2 a939 5105 4e3b 3802 d33b 581a 0f3b
