transfer_learning/models/lstm_TL_u1.pth (torch, 413736 bytes, 18 tensors)

weight_ih_l0 f4 [256, 3]
00000000: 4fb2 94a7 9e9a 603c 4282 c53b 36bb 0ea6
00000010: eda4 5f3c 6a62 c33b 5b3f 099d 74ad 5d3c
00000020: d858 c03b 1a85 5d9e dd59 5e3c d87f c13b
00000030: d31a b7a7 d634 613c f7f7 c73b 7640 ce88
00000040: 630c 5a3c f388 ba3b 7b91 82a6 4693 603c
00000050: 1af1 c53b a43b 3a9d 50f0 5d3c 4cd1 c03b
00000060: e52f be99 cc4c 5d3c 41ba bf3b bb29 7020
00000070: b4c2 5f3c dbbd c33b 920f bfa9 f5e3 613c
00000080: ea5e c93b 6680 c8a4 2d6d 5f3c ef37 c33b
00000090: 850d ada7 60a1 603c b50c c63b 37cc 54a4
000000a0: 48a3 5f3c 1d7d c33b 4685 4aa6 761a 603c
000000b0: 5b86 c43b 2a91 38a6 5215 603c 5268 c43b
000000c0: 74c2 63a7 45bb 603c e108 c63b a2f8 d2a8
000000d0: 410e 623c 37a5 ca3b 2ca1 6d9a 8818 5d3c
000000e0: cf67 bf3b 7a93 21a8 ca62 603c ef30 c53b
000000f0: f87a 9da3 9914 5f3c eac6 c23b 05eb 5ba7
00000100: bb5a 603c 442a c53b 0ad3 a2a8 101f 623c
00000110: fe25 cb3b 4437 bba4 3e54 5f3c 511c c33b
00000120: 4136 11a5 3f6f 603c 73a2 c53b 3731 3ea4
00000130: d4f9 5d3c d9fd c03b a7db 50a8 07a3 613c
00000140: 9021 c93b f85e eea5 f2f6 5f3c a31e c43b
00000150: 6142 80a2 01b5 5d3c e887 c03b f89f d1a5
00000160: 4ad5 5f3c 4c17 c43b e0be 72a4 ddad 5f3c
00000170: 928c c33b 0b10 88a8 50d2 613c 7dd6 c93b
00000180: bdbc 74aa cbd6 623c e4a8 cc3b 0d61 69a7
00000190: 0c5e 603c f935 c53b b723 1aa7 9744 603c
000001a0: c1fe c43b edaa 27a7 922d 603c f550 c43b
000001b0: 7621 2fa5 ca33 5f3c 6efa c23b 4af2 cdaa
000001c0: e714 643c 5e89 cf3b a391 66a6 7dc4 5f3c
000001d0: 429f c33b 2e6d 69a4 56f0 5f3c 4b1e c43b
000001e0: b960 aba8 3d0a 623c 17eb ca3b 195a 15a3
000001f0: 243a 5f3c 38fc c23b 60d5 10a3 cd9a 5e3c
00000200: ed0b c23b 084e 4aa1 e942 5f3c d601 c33b
00000210: 9ccf 29a7 7e9f 603c 5719 c63b a80f 55a5
00000220: eeb0 5f3c 228e c33b 511f 26a8 8fac 603c
00000230: 0311 c63b 20f6 5aa6 fb9f 5f3c d860 c33b
00000240: 44ab 22a7 3f27 603c 8696 c43b 081d b1a0
00000250: 3499 5d3c cd52 c03b f495 85a8 41af 613c
00000260: 4207 c93b 0854 8d9e fc72 5e3c cfb9 c13b
00000270: 7861 5da7 1f18 613c 1898 c73b 991b 53a7
00000280: ff4d 603c eafa c43b d33e d4a5 5be7 5f3c
00000290: dce3 c33b 188d 0ba3 a4db 5e3c d151 c23b
000002a0: 45dd d297 88f4 5c3c f141 bf3b ad04 85a5
000002b0: 0db7 5f3c 879b c33b 2518 6e99 8e3b 5d3c
000002c0: efa3 bf3b b978 73a7 f183 613c 2852 c93b
000002d0: e60b 8fa1 ca2e 5e3c 8056 c13b ffcc 24a2
000002e0: 0c8c 5f3c 0a6b c33b 4fdf eba4 a896 603c
000002f0: 5617 c63b 508e 4b9c 242f 5d3c 9582 bf3b
00000300: c4a6 79a7 6248 683c 2f25 b83b 0f6e e6a6
00000310: fc4f 673c f808 b63b 9a98 969e 214e 653c
00000320: a1e1 b23b da25 8f9f ccfd 653c 0010 b43b
00000330: 26e3 94a8 ebdd 683c f587 ba3b 520c 348a
00000340: 8a94 613c 6ef5 ac3b 0abd 89a6 4542 683c
00000350: ea81 b83b 28af 869c 4092 653c d95b b33b
00000360: faaa dd99 8fe9 643c d144 b23b 8a40 3520
00000370: c072 673c 4055 b63b 325d baa8 d484 693c
00000380: 5d0b bc3b e366 cea4 3615 673c acdb b53b
00000390: 55ed c4a6 ad4f 683c e39f b83b d0ba 4fa4
000003a0: 2550 673c b31b b63b 2771 49a6 f7cb 673c
000003b0: 391a b73b 1c5a 1ba6 bdc5 673c f300 b73b
000003c0: fe54 55a7 0969 683c 4ea5 b83b be41 b0a8
000003d0: 70ab 693c 6e42 bd3b bc3e 389b 73b3 643c
000003e0: cff1 b13b 48a4 e0a7 2812 683c c8c9 b73b
000003f0: 19ec 95a3 70b8 663c 9268 b53b 7d62 01a7
-4.1271574e-15 0.013708739 0.006027491 -4.9519865e-16 0.013650161 0.0059626596 -1.8164553e-21 0.013530124
0.005869966 -1.1727167e-20 0.01357123 0.0059051327 -5.0821786e-15 0.013745507 0.0061025578 -1.2413329e-33
0.013308617 0.005692595 -9.059995e-16 0.013706988 0.0060407044 -2.4647729e-21 0.0135460645 0.005884325
-1.9664884e-23 0.013507079 0.0058510606 2.0342598e-19 0.013657261 0.0059735603 -8.484805e-14 0.013787259
0.006145348 -8.695369e-17 0.013636869 0.0059575955 -4.8031804e-15 0.01371035 0.0060439953 -4.614315e-17
0.013649769 0.0059658424 -7.026345e-16 0.013678184 0.0059974617 -6.403456e-16 0.013676958 0.0059938813
-3.1607992e-15 0.013716524 0.006043539 -2.342251e-14 0.013797344 0.006184246 -4.9140645e-23 0.013494618
0.0058412324 -8.969274e-15 0.013695428 0.006017796 -1.7074053e-17 0.013615751 0.0059441226 -3.051976e-15
0.013693507 0.0060170013 -1.8077137e-14 0.013801351 0.0061995974 -8.1191946e-17 0.013630925 0.0059543033
-1.2595127e-16 0.013698398 0.0060313283 -4.124137e-17 0.013548333 0.005889636 -1.1593949e-14 0.013771779
0.006138034 -4.1350772e-16 0.013669716 0.0059850975 -3.476475e-18 0.013531924 0.0058755763 -3.636412e-16
0.013661692 0.0059842225 -5.2637063e-17 0.013652292 0.005967685 -1.510599e-14 0.013783053 0.006159602
-2.1737035e-13 0.013845156 0.0062457193 -3.2387857e-15 0.0136942975 0.006018397 -2.1391154e-15 0.013688228
0.0060118143 -2.3268565e-15 0.01368274 0.005991096 -1.5190167e-16 0.013623187 0.0059502637 -3.6583437e-13
0.013920999 0.006333514 -7.9994654e-16 0.013657686 0.0059699127 -5.06163e-17 0.01366814 0.0059850565
-1.902676e-14 0.013796386 0.0061925757 -8.096385e-18 0.013624702 0.005950477 -7.8514396e-18 0.013586712
0.005921832 -6.8543536e-19 0.0136267925 0.0059511466 -2.3566007e-15 0.013709901 0.006045501 -1.848011e-16
0.013653023 0.0059678713 -9.221642e-15 0.013713016 0.0060445084 -7.5967505e-16 0.013648982 0.0059624724
-2.257486e-15 0.013681232 0.005999389 -3.0004178e-19 0.013525296 0.0058692456 -1.4830998e-14 0.013774694
0.0061348984 -1.496371e-20 0.013577219 0.0059120427 -3.072275e-15 0.013738661 0.006091129 -2.9297093e-15
0.013690471 0.0060113566 -3.681871e-16 0.013665999 0.0059780907 -7.565083e-18 0.013602171 0.0059301634
-1.3626788e-24 0.013486035 0.0058367183 -2.307499e-16 0.013654483 0.005969468 -1.23091876e-23 0.0135029685
0.0058484 -3.3788468e-15 0.013764367 0.006143827 -9.693206e-19 0.01356096 0.005900204 -2.2334669e-18
0.01364423 0.005963688 -1.02293304e-16 0.013707794 0.0060452623 -6.7351e-22 0.013500009 0.005844424
-3.4646095e-15 0.014177414 0.005619667 -1.5989287e-15 0.014118191 0.0055552684 -1.5944982e-20 0.013995678
0.005459026 -6.0625476e-20 0.014037561 0.0054950714 -1.652981e-14 0.014213066 0.005692477 -8.669002e-33
0.013768325 0.005278281 -9.557524e-16 0.014175956 0.0056307213 -8.912653e-22 0.0140119195 0.0054735956
-2.2919921e-23 0.0139717 0.0054403325 1.535265e-19 0.01412648 0.005564362 -2.0690565e-14 0.01425286
0.0057386593 -8.9512556e-17 0.014104178 0.0055498686 -1.3664561e-15 0.014179152 0.0056342944 -4.5044206e-17
0.014118229 0.005557501 -6.9889234e-16 0.01414775 0.005587843 -5.389855e-16 0.014146266 0.00558483
-2.9605762e-15 0.014185199 0.00563494 -1.9568436e-14 0.014262065 0.0057757413 -1.5240394e-22 0.0139588
0.005430437 -6.2350603e-15 0.014164485 0.005608771 -1.6254604e-17 0.014082059 0.0055361474 -1.7955737e-15

weight_hh_l0 f4 [256, 64]
00000000: 0657 0f3a e80b 0fba d944 0e3a 7489 0e3a
00000010: b98a 0f3a 61e1 0cba 3a56 0fba 155e 0eba
00000020: f423 0eba 4e16 0f3a e6c2 0f3a 47fa 0eba
00000030: 605a 0f3a 4e0c 0fba 3230 0fba 832d 0fba
00000040: 2963 0f3a e0d6 0f3a 5510 0eba 2f45 0f3a
00000050: e9d7 0eba b442 0f3a a3dd 0f3a 3ff1 0eba
00000060: 904c 0fba 6c63 0eba f7af 0fba 8924 0f3a
00000070: a647 0eba 621c 0fba 6f0f 0fba 9ebe 0f3a
00000080: 9e1a 10ba ee43 0f3a b83c 0f3a e732 0fba
00000090: 5ce3 0eba e696 103a 1818 0f3a 6b23 0fba
000000a0: a5d6 0fba 32e7 0eba 88a5 0eba 1ee9 0e3a
000000b0: c95a 0fba 2212 0f3a a55c 0fba 440a 0f3a
000000c0: bd32 0fba 7a3c 0eba 48b4 0f3a 7b93 0eba
000000d0: 2081 0f3a 8c3e 0fba 201f 0f3a dfba 0e3a
000000e0: 9302 0e3a 6a12 0f3a ec1d 0e3a 70a9 0f3a
000000f0: c578 0eba 5304 0fba 9f59 0fba bb17 0e3a
00000100: 78ce 0e3a 5483 0eba f8bb 0d3a a400 0e3a
00000110: 1402 0f3a 6558 0cba 8ecd 0eba 37d5 0dba
00000120: 149b 0dba a38d 0e3a 7c3a 0f3a ad71 0eba
00000130: bbd1 0e3a b183 0eba 87a7 0eba dda4 0eba
00000140: 93da 0e3a 5e4e 0f3a 7587 0dba 8ebc 0e3a
00000150: 454f 0eba 0aba 0e3a 1b55 0f3a a468 0eba
00000160: dac3 0eba 9fda 0dba 6c27 0fba e19b 0e3a
00000170: d2be 0dba a493 0eba d186 0eba 1436 0f3a
00000180: 6592 0fba 47bb 0e3a 08b4 0e3a 59aa 0eba
00000190: a55a 0eba 610f 103a 888f 0e3a be9a 0eba
000001a0: 154e 0fba 945e 0eba d01c 0eba 7860 0e3a
000001b0: 1bd2 0eba 8b89 0e3a 06d4 0eba b981 0e3a
000001c0: 16aa 0eba 9eb3 0dba cc2b 0f3a b50a 0eba
000001d0: 7df8 0e3a e5b5 0eba 8296 0e3a 1732 0e3a
000001e0: ae79 0d3a c589 0e3a 0e95 0d3a c020 0f3a
000001f0: feef 0dba ac7b 0eba ecd0 0eba d58e 0d3a
00000200: fd77 0d3a 372d 0dba ba66 0c3a 0fab 0c3a
00000210: 51ab 0d3a 4205 0bba 0477 0dba da7f 0cba
00000220: 0646 0cba 6937 0d3a 9ce3 0d3a a31b 0dba
00000230: 2c7b 0d3a 8b2d 0dba 2751 0dba 874e 0dba
00000240: 0784 0d3a 53f7 0d3a 8132 0cba 1b66 0d3a
00000250: 65f9 0cba 9d63 0d3a 02fe 0d3a a412 0dba
00000260: 546d 0dba 4385 0cba 87d0 0dba 9545 0d3a
00000270: 9969 0cba 583d 0dba a330 0dba 23df 0d3a
00000280: 3b3b 0eba d964 0d3a a15d 0d3a 0d54 0dba
00000290: a404 0dba 1ab8 0e3a 5e39 0d3a 7144 0dba
000002a0: 00f7 0dba a408 0dba 29c7 0cba 7a0a 0d3a
000002b0: 897b 0dba 6333 0d3a 7b7d 0dba a02b 0d3a
000002c0: bd53 0dba 6e5e 0cba f1d4 0d3a 17b5 0cba
000002d0: c2a1 0d3a 7f5f 0dba 4640 0d3a 42dc 0c3a
000002e0: d124 0c3a 9533 0d3a 0840 0c3a d0c9 0d3a
000002f0: 859a 0cba 8b25 0dba 577a 0dba d539 0c3a
00000300: 33e8 0d3a 569d 0dba a8d6 0c3a 141b 0d3a
00000310: 9f1b 0e3a a474 0bba 44e7 0dba cfef 0cba
00000320: e8b5 0cba 92a7 0d3a e953 0e3a bd8b 0dba
00000330: 6feb 0d3a ad9d 0dba 5bc1 0dba b7be 0dba
00000340: 40f4 0d3a af67 0e3a 5ea2 0cba 54d6 0d3a
00000350: 7869 0dba d6d3 0d3a 626e 0e3a be82 0dba
00000360: 93dd 0dba 3af5 0cba dc40 0eba c3b5 0d3a
00000370: 81d9 0cba 88ad 0dba c9a0 0dba 784f 0e3a
00000380: 94ab 0eba 10d5 0d3a d7cd 0d3a 37c4 0dba
00000390: c174 0dba 5e28 0f3a 81a9 0d3a a0b4 0dba
000003a0: 6167 0eba b778 0dba 2b37 0dba 947a 0d3a
000003b0: cbeb 0dba 87a3 0d3a baed 0dba be9b 0d3a
000003c0: efc3 0dba 57ce 0cba 3f45 0e3a 1c25 0dba
000003d0: 0d12 0e3a b5cf 0dba 70b0 0d3a 544c 0d3a
000003e0: a794 0c3a bca3 0d3a e8af 0c3a 2b3a 0e3a
000003f0: 800a 0dba ae95 0dba 9aea 0dba b4a9 0c3a
0.00054679846 -0.0005456791 0.0005427129 0.0005437352 0.00054756884 -0.000537416 -0.0005467866 -0.00054308894
-0.00054222276 0.0005458341 0.0005484059 -0.00054541643 0.0005468484 -0.00054568506 -0.0005462199 -0.0005461799
0.0005469793 0.0005487036 -0.0005419304 0.0005465326 -0.0005449043 0.00054649566 0.00054880435 -0.00054528186
-0.0005466426 -0.0005431685 -0.0005481238 0.0005460461 -0.00054275466 -0.00054592465 -0.0005457317 0.0005483421
-0.00054971303 0.00054651394 0.0005464065 -0.0005462602 -0.00054507493 0.00055156497 0.00054586073 -0.0005460295
-0.00054870016 -0.0005451321 -0.0005441536 0.0005451607 -0.0005468545 0.0005457719 -0.0005468822 0.0005456547
-0.00054625777 -0.0005425882 0.0005481881 -0.00054388464 0.0005474258 -0.00054643373 0.0005459655 0.0005444716
0.00054172537 0.0005457761 0.0005421329 0.0005480265 -0.0005434866 -0.00054556614 -0.00054683717 0.0005420406
0.00054476364 -0.00054364395 0.00054067327 0.00054169656 0.0005455327 -0.0005353748 -0.00054475 -0.00054104946
-0.00054018316 0.00054379756 0.0005463732 -0.0005433809 0.00054481224 -0.00054364937 -0.00054418336 -0.00054414367
0.000544944 0.0005466695 -0.0005398908 0.0005444967 -0.0005428682 0.0005444592 0.0005467699 -0.0005432463
-0.0005446054 -0.00054113 -0.00054608914 0.0005440098 -0.00054071576 -0.000543887 -0.00054369593 0.00054630754
-0.00054768316 0.00054447766 0.0005443697 -0.0005442254 -0.0005430377 0.00054954557 0.0005438258 -0.00054399285
-0.0005466652 -0.00054309634 -0.00054211635 0.0005431245 -0.0005448178 0.00054373656 -0.0005448464 0.00054362003
-0.0005442215 -0.0005405488 0.00054615433 -0.00054184656 0.0005453898 -0.00054439745 0.00054392975 0.0005424334
0.0005396855 0.00054373994 0.0005400934 0.0005459897 -0.0005414485 -0.00054352987 -0.0005448002 0.0005400007
0.0005396603 -0.00053854607 0.00053558836 0.0005366066 0.0005404251 -0.00053032127 -0.0005396458 -0.00053596275
-0.00053510105 0.000538698 0.00054126396 -0.00053828413 0.0005397077 -0.00053855096 -0.0005390816 -0.00053904246
0.0005398397 0.00054155773 -0.0005348102 0.0005393938 -0.0005377739 0.00053935667 0.0005416573 -0.0005381501
-0.00053950143 -0.0005360434 -0.0005409796 0.00053890917 -0.00053563114 -0.0005387864 -0.00053859706 0.0005411973
-0.0005425696 0.00053937506 0.0005392675 -0.00053912477 -0.00053794147 0.00054443034 0.00053872715 -0.00053889217
-0.0005415529 -0.00053800107 -0.00053702533 0.0005380284 -0.00053971313 0.00053863804 -0.0005397421 0.0005385224
-0.0005391201 -0.00053546473 0.0005410454 -0.00053675607 0.0005402827 -0.0005392953 0.00053883006 0.0005373397
0.0005346062 0.00053864095 0.00053501176 0.00054087956 -0.00053636014 -0.00053843175 -0.0005396953 0.0005349194
0.00054133235 -0.0005402168 0.00053725624 0.0005382758 0.0005420986 -0.000531981 -0.00054131844 -0.00053763104
-0.00053676823 0.0005403693 0.00054293737 -0.0005399546 0.00054138055 -0.00054022187 -0.00054075354 -0.0005407142
0.0005415119 0.000543232 -0.0005364771 0.00054106605 -0.0005394439 0.0005410289 0.00054333184 -0.0005398205
-0.000541174 -0.0005377118 -0.0005426535 0.0005405808 -0.0005372987 -0.00054045813 -0.0005402682 0.0005428712
-0.0005442437 0.0005410472 0.00054093957 -0.00054079614 -0.0005396121 0.0005461032 0.0005403981 -0.00054056384
-0.0005432275 -0.0005396711 -0.0005386944 0.00053969887 -0.0005413859 0.00054030906 -0.0005414147 0.00054019305
-0.00054079195 -0.0005371323 0.00054271886 -0.0005384253 0.000541956 -0.0005409674 0.00054050144 0.0005390097
0.0005362727 0.00054031215 0.0005366788 0.0005425538 -0.0005380288 -0.0005401027 -0.00054136815 0.0005365864

bias_ih_l0 f4 [256]
00000000: 20f9 693c b908 693c d30c 673c ecb9 673c
00000010: 4f88 6a3c a967 633c fdee 693c 8d4f 673c
00000020: 4fac 663c db25 693c 9f33 6b3c b7cf 683c
00000030: c6fc 693c b506 693c 917b 693c c976 693c
00000040: ae17 6a3c 5757 6b3c c177 663c 98c1 693c
00000050: 7b75 683c 75b9 693c 1a65 6b3c 45b6 683c
00000060: 2acc 693c 1058 673c 7bf2 6a3c 4b59 693c
00000070: 0013 673c 1d37 693c 5111 693c 4d1e 6b3c
00000080: 5e18 6c3c a1bc 693c e5a3 693c f28f 693c
00000090: 6f95 683c 524e 6d3c 3c28 693c ac52 693c
000000a0: 3351 6b3c aa9b 683c 2bfa 673c cca4 683c
000000b0: b0fa 693c 7314 693c 0608 6a3c 7103 693c
000000c0: 1288 693c 53f7 663c 0d00 6b3c 8ad2 673c
000000d0: 2f6d 6a3c 7dad 693c 734a 693c 893c 683c
000000e0: e152 663c 881a 693c d59a 663c 80d1 6a3c
000000f0: 6f8d 673c dfee 683c f1f1 693c a08e 663c
00000100: f96b 713c eb78 703c 1073 6e3c 4123 6f3c
00000110: 6bf6 713c 03b6 6a3c 2f63 713c fcb6 6e3c
00000120: 9e0e 6e3c 319b 703c 1f99 723c d63c 703c
00000130: 4670 713c c078 703c 5bf2 703c 75ec 703c
00000140: 888a 713c 2ab9 723c 40d8 6d3c 2436 713c
00000150: 70de 6f3c 492e 713c c8c3 723c 0b22 703c
00000160: 8442 713c a4ba 6e3c 5b5b 723c e7ce 703c
00000170: 1175 6e3c f9ae 703c 1784 703c 6d83 723c
00000180: ac68 733c 6931 713c a119 713c 5b03 713c
00000190: 3005 703c ec7c 743c 1599 703c 5bc9 703c
000001a0: f3b1 723c 3906 703c 0460 6f3c 5a12 703c
000001b0: 246f 713c 5785 703c 837a 713c da71 703c
000001c0: 92fd 703c f959 6e3c a668 723c b13a 6f3c
000001d0: 91dc 713c 6d22 713c b8be 703c f6aa 6f3c
000001e0: 20b1 6d3c 698e 703c 1afc 6d3c 523c 723c
000001f0: 00f2 6e3c b560 703c 5267 713c d9f0 6d3c
00000200: bea6 db3c a27b dbbc 0c72 d93c a71a da3c
00000210: 3594 db3c cc82 d6bc 5e52 dbbc b1a6 d9bc
00000220: 9554 d9bc 4337 db3c ff6a dc3c bc62 dbbc
00000230: 8962 db3c 3656 dbbc 9635 dbbc d346 dbbc
00000240: cb9c db3c e551 dc3c 6c32 d9bc 0b5f db3c
00000250: b120 dbbc 9a52 db3c e953 dc3c ae54 dbbc
00000260: 8131 dbbc 67f5 d9bc 7ffb dbbc 6b43 db3c
00000270: 75a5 d9bc 3201 dbbc 4553 dbbc 0313 dc3c
00000280: ef84 ddbc 7d53 db3c 5240 db3c 798c dbbc
00000290: 59e1 dabc 3c5f e03c 7c93 db3c 3130 dbbc
000002a0: c032 dcbc e740 dbbc 219e dabc aa1b db3c
000002b0: da50 dbbc f27d db3c e478 dbbc 8b8c db3c
000002c0: fe49 dbbc 537c d9bc e42a dc3c 2444 dabc
000002d0: 4e86 db3c 7e55 dbbc a85a db3c a46a da3c
000002e0: 341d d93c 784a db3c 3f50 d93c b5a2 db3c
000002f0: ab1c dabc 5638 dbbc a841 dbbc 8f31 d93c
00000300: bd8c 383c 44c4 373c fa13 363c ceab 363c
00000310: 0b3a 393c ae11 333c 0e91 383c 3f4d 363c
00000320: 97cd 353c bed4 373c 8be3 393c aba3 373c
00000330: 1e9e 383c b0c2 373c b41a 383c f415 383c
00000340: 05b1 383c 922c 3a3c 2ea4 353c 8c5c 383c
00000350: 9960 373c 2e56 383c ed4a 3a3c 9092 373c
00000360: a16f 383c 2d67 363c ccac 393c 55fc 373c
00000370: 3228 363c 48e3 373c efc8 373c 50e4 393c
00000380: 4a0d 3b3c d159 383c ec42 383c d025 383c
00000390: 1e6b 373c 6188 3c3c 06e0 373c 93f6 373c
000003a0: a732 3a3c fd7e 373c a9f6 363c 747c 373c
000003b0: fe9c 383c 04d2 373c 9da6 383c 35c5 373c
000003c0: c125 383c 4d0c 363c 6fb4 393c 73c7 363c
000003d0: 091b 393c 0249 383c 49ef 373c f012 373c
000003e0: 638b 353c 62cd 373c 2ec2 353c 789b 393c
000003f0: 7393 363c fab0 373c 2497 383c 49b1 353c
0.014280587 0.014223271 0.014102179 0.014143448 0.014314725 0.013879695 0.014278171 0.0141180875
0.0140791675 0.014230217 0.014355569 0.014209679 0.014281457 0.0142227905 0.014250652 0.014249512
0.014287872 0.014364085 0.0140666375 0.014267348 0.014188166 0.014265408 0.014367366 0.014203613
0.014269868 0.014120117 0.014340038 0.0142424805 0.014103651 0.014234331 0.01422532 0.014350486
0.014410106 0.014266164 0.014260267 0.014255511 0.014195784 0.014484005 0.014230784 0.014240902
0.014362621 0.014197269 0.014158766 0.014199447 0.01428096 0.014226067 0.0142841395 0.014222012
0.014253633 0.014097053 0.014343274 0.0141493175 0.014308258 0.014262554 0.0142389415 0.014174589
0.014057846 0.014227517 0.014075001 0.014332175 0.0141328415 0.014217108 0.014278875 0.01407209
0.014735215 0.014677267 0.0145538 0.0145958075 0.014768223 0.014325622 0.01473312 0.014569994
0.014529852 0.014685438 0.014807015 0.014662942 0.014736241 0.014677227 0.01470622 0.014704813
0.014742501 0.014814654 0.01451689 0.014722381 0.014640436 0.014720508 0.014817186 0.014656554
0.014725331 0.014570866 0.014792289 0.014697767 0.014554278 0.014690154 0.01467993 0.014801842
0.014856499 0.014721253 0.014715583 0.014710273 0.014649674 0.014922362 0.014684935 0.014696444
0.014812934 0.014649921 0.014610294 0.014652813 0.014735971 0.014680228 0.014738682 0.014675582
0.014708893 0.014547818 0.014795458 0.014601395 0.01476206 0.01471768 0.014693908 0.014628163
0.014507562 0.014682391 0.014525438 0.014784889 0.0145840645 0.014671494 0.014734106 0.014522755
0.026812907 -0.026792351 0.02654364 0.026624037 0.026804069 -0.026185416 -0.026772674 -0.026568742
-0.02652959 0.02675975 0.026906488 -0.026780479 0.026780384 -0.026774507 -0.02675895 -0.02676717
0.026808163 0.02689452 -0.0265133 0.026778718 -0.026748987 0.026772786 0.02689548 -0.026773777
-0.026757004 -0.026606275 -0.026853321 0.026765546 -0.026568154 -0.026733968 -0.026773104 0.026864534
-0.027040927 0.026773209 0.026764069 -0.026800381 -0.026718782 0.027389161 0.026803724 -0.026756378
-0.026879668 -0.026764346 -0.02668673 0.02674659 -0.026771951 0.026793454 -0.026791044 0.026800415
-0.02676868 -0.02654854 0.02687592 -0.02664382 0.02679744 -0.026774164 0.026776627 0.026662178
0.026503183 0.026768908 0.026527522 0.026810983 -0.026624998 -0.026760262 -0.026764706 0.02651289
0.011264023 0.011216227 0.011113161 0.01114936 0.011305342 0.010929508 0.0112650525 0.011126815
0.01109638 0.011220155 0.011345754 0.011208455 0.011268167 0.011215851 0.011236835 0.011235703
0.0112726735 0.011363165 0.011086507 0.011252534 0.011192464 0.011251016 0.011370403 0.011204377
0.011257083 0.011132997 0.011332702 0.011229594 0.011117982 0.011223622 0.01121734 0.011345938
0.011416743 0.011251883 0.011246424 0.011239484 0.011194972 0.011507125 0.011222845 0.0112282215
0.0113646155 0.01119971 0.011167207 0.0111991055 0.011267899 0.011219505 0.011270192 0.011216451
0.01123947 0.011111331 0.011334523 0.011155951 0.01129795 0.011247875 0.011226484 0.011173949
0.011080596 0.011218401 0.011093659 0.011328571 0.011143553 0.011211628 0.0112665035 0.011089631

bias_hh_l0 f4 [256]
00000000: 20f9 693c b908 693c d30c 673c ecb9 673c
00000010: 4f88 6a3c a967 633c fdee 693c 8d4f 673c
00000020: 4fac 663c db25 693c 9f33 6b3c b7cf 683c
00000030: c6fc 693c b506 693c 917b 693c c976 693c
00000040: ae17 6a3c 5757 6b3c c177 663c 98c1 693c
00000050: 7b75 683c 75b9 693c 1a65 6b3c 45b6 683c
00000060: 2acc 693c 1058 673c 7bf2 6a3c 4b59 693c
00000070: 0013 673c 1d37 693c 5111 693c 4d1e 6b3c
00000080: 5e18 6c3c a1bc 693c e5a3 693c f28f 693c
00000090: 6f95 683c 524e 6d3c 3c28 693c ac52 693c
000000a0: 3351 6b3c aa9b 683c 2bfa 673c cca4 683c
000000b0: b0fa 693c 7314 693c 0608 6a3c 7103 693c
000000c0: 1288 693c 53f7 663c 0d00 6b3c 8ad2 673c
000000d0: 2f6d 6a3c 7dad 693c 734a 693c 893c 683c
000000e0: e152 663c 881a 693c d59a 663c 80d1 6a3c
000000f0: 6f8d 673c dfee 683c f1f1 693c a08e 663c
00000100: f96b 713c eb78 703c 1073 6e3c 4123 6f3c
00000110: 6bf6 713c 03b6 6a3c 2f63 713c fcb6 6e3c
00000120: 9e0e 6e3c 319b 703c 1f99 723c d63c 703c
00000130: 4670 713c c078 703c 5bf2 703c 75ec 703c
00000140: 888a 713c 2ab9 723c 40d8 6d3c 2436 713c
00000150: 70de 6f3c 492e 713c c8c3 723c 0b22 703c
00000160: 8442 713c a4ba 6e3c 5b5b 723c e7ce 703c
00000170: 1175 6e3c f9ae 703c 1784 703c 6d83 723c
00000180: ac68 733c 6931 713c a119 713c 5b03 713c
00000190: 3005 703c ec7c 743c 1599 703c 5bc9 703c
000001a0: f3b1 723c 3906 703c 0460 6f3c 5a12 703c
000001b0: 246f 713c 5785 703c 837a 713c da71 703c
000001c0: 92fd 703c f959 6e3c a668 723c b13a 6f3c
000001d0: 92dc 713c 6c22 713c b8be 703c f6aa 6f3c
000001e0: 20b1 6d3c 698e 703c 1afc 6d3c 523c 723c
000001f0: 00f2 6e3c b560 703c 5267 713c d9f0 6d3c
00000200: b2a6 db3c a47b dbbc 0c72 d93c a71a da3c
00000210: 1e94 db3c cc82 d6bc 5752 dbbc b1a6 d9bc
00000220: 9554 d9bc 4337 db3c f56a dc3c bd62 dbbc
00000230: 8962 db3c 3756 dbbc 9635 dbbc d346 dbbc
00000240: cb9c db3c 5052 dc3c 6c32 d9bc 045f db3c
00000250: c820 dbbc 9652 db3c 0b54 dc3c ae54 dbbc
00000260: 8531 dbbc 68f5 d9bc 9dfb dbbc 5e43 db3c
00000270: 76a5 d9bc 2f01 dbbc 4953 dbbc 0613 dc3c
00000280: 7e84 ddbc 7e53 db3c 5340 db3c 798c dbbc
00000290: 61e1 dabc 145f e03c 7193 db3c 3530 dbbc
000002a0: f932 dcbc e340 dbbc 219e dabc aa1b db3c
000002b0: e850 dbbc f57d db3c e478 dbbc 8c8c db3c
000002c0: 034a dbbc 537c d9bc 022b dc3c 2544 dabc
000002d0: 4986 db3c 8555 dbbc a15a db3c a66a da3c
000002e0: 341d d93c 794a db3c 3f50 d93c b1a2 db3c
000002f0: ac1c dabc 5738 dbbc a741 dbbc 8f31 d93c
00000300: bd8c 383c 44c4 373c fa13 363c ceab 363c
00000310: 0b3a 393c ae11 333c 0e91 383c 3f4d 363c
00000320: 97cd 353c bed4 373c 8be3 393c aba3 373c
00000330: 1e9e 383c b0c2 373c b41a 383c f415 383c
00000340: 05b1 383c 922c 3a3c 2ea4 353c 8c5c 383c
00000350: 9960 373c 2e56 383c ed4a 3a3c 9092 373c
00000360: a16f 383c 2d67 363c ccac 393c 55fc 373c
00000370: 3228 363c 48e3 373c efc8 373c 50e4 393c
00000380: 4a0d 3b3c d159 383c ec42 383c d025 383c
00000390: 1e6b 373c 6188 3c3c 06e0 373c 93f6 373c
000003a0: a732 3a3c fd7e 373c a9f6 363c 747c 373c
000003b0: fe9c 383c 04d2 373c 9da6 383c 35c5 373c
000003c0: c125 383c 4d0c 363c 6fb4 393c 73c7 363c
000003d0: 091b 393c 0249 383c 49ef 373c f012 373c
000003e0: 638b 353c 62cd 373c 2ec2 353c 789b 393c
000003f0: 7393 363c fab0 373c 2497 383c 49b1 353c
0.014280587 0.014223271 0.014102179 0.014143448 0.014314725 0.013879695 0.014278171 0.0141180875
0.0140791675 0.014230217 0.014355569 0.014209679 0.014281457 0.0142227905 0.014250652 0.014249512
0.014287872 0.014364085 0.0140666375 0.014267348 0.014188166 0.014265408 0.014367366 0.014203613
0.014269868 0.014120117 0.014340038 0.0142424805 0.014103651 0.014234331 0.01422532 0.014350486
0.014410106 0.014266164 0.014260267 0.014255511 0.014195784 0.014484005 0.014230784 0.014240902
0.014362621 0.014197269 0.014158766 0.014199447 0.01428096 0.014226067 0.0142841395 0.014222012
0.014253633 0.014097053 0.014343274 0.0141493175 0.014308258 0.014262554 0.0142389415 0.014174589
0.014057846 0.014227517 0.014075001 0.014332175 0.0141328415 0.014217108 0.014278875 0.01407209
0.014735215 0.014677267 0.0145538 0.0145958075 0.014768223 0.014325622 0.01473312 0.014569994
0.014529852 0.014685438 0.014807015 0.014662942 0.014736241 0.014677227 0.01470622 0.014704813
0.014742501 0.014814654 0.01451689 0.014722381 0.014640436 0.014720508 0.014817186 0.014656554
0.014725331 0.014570866 0.014792289 0.014697767 0.014554278 0.014690154 0.01467993 0.014801842
0.014856499 0.014721253 0.014715583 0.014710273 0.014649674 0.014922362 0.014684935 0.014696444
0.014812934 0.014649921 0.014610294 0.014652813 0.014735971 0.014680228 0.014738682 0.014675582
0.014708893 0.014547818 0.014795458 0.014601395 0.014762061 0.0147176795 0.014693908 0.014628163
0.014507562 0.014682391 0.014525438 0.014784889 0.0145840645 0.014671494 0.014734106 0.014522755
0.026812885 -0.026792355 0.02654364 0.026624037 0.026804026 -0.026185416 -0.026772661 -0.026568742
-0.02652959 0.02675975 0.02690647 -0.02678048 0.026780384 -0.026774509 -0.02675895 -0.02676717
0.026808163 0.026894718 -0.0265133 0.026778705 -0.02674903 0.026772778 0.026895544 -0.026773777
-0.026757011 -0.026606277 -0.026853377 0.026765522 -0.026568156 -0.026733963 -0.026773112 0.02686454
-0.027040716 0.02677321 0.02676407 -0.026800381 -0.026718797 0.027389087 0.026803704 -0.026756385
-0.026879774 -0.026764339 -0.02668673 0.02674659 -0.026771978 0.02679346 -0.026791044 0.026800416
-0.02676869 -0.02654854 0.026875976 -0.026643822 0.02679743 -0.026774177 0.026776614 0.026662182
0.026503183 0.02676891 0.026527522 0.026810976 -0.026625 -0.026760263 -0.026764704 0.02651289
0.011264023 0.011216227 0.011113161 0.01114936 0.011305342 0.010929508 0.0112650525 0.011126815
0.01109638 0.011220155 0.011345754 0.011208455 0.011268167 0.011215851 0.011236835 0.011235703
0.0112726735 0.011363165 0.011086507 0.011252534 0.011192464 0.011251016 0.011370403 0.011204377
0.011257083 0.011132997 0.011332702 0.011229594 0.011117982 0.011223622 0.01121734 0.011345938
0.011416743 0.011251883 0.011246424 0.011239484 0.011194972 0.011507125 0.011222845 0.0112282215
0.0113646155 0.01119971 0.011167207 0.0111991055 0.011267899 0.011219505 0.011270192 0.011216451
0.01123947 0.011111331 0.011334523 0.011155951 0.01129795 0.011247875 0.011226484 0.011173949
0.011080596 0.011218401 0.011093659 0.011328571 0.011143553 0.011211628 0.0112665035 0.011089631

weight_ih_l1 f4 [256, 64]
00000000: 06d9 843a 9c76 84ba 790b 833a c683 833a
00000010: a100 853a 15b4 80ba dcb7 84ba 5c35 83ba
00000020: 90de 82ba ef69 843a 5b83 853a e958 84ba
00000030: 09c2 843a 3469 84ba 5187 84ba 918b 84ba
00000040: a1df 843a 4483 853a a9bf 82ba 51ad 843a
00000050: 9820 84ba 33a6 843a a086 853a 974a 84ba
00000060: f8a0 84ba 5251 83ba af46 85ba 3a80 843a
00000070: 171d 83ba 8d5d 84ba 156c 84ba 455c 853a
00000080: 5428 86ba 90a7 843a 9d98 843a 6cac 84ba
00000090: aa17 84ba 0f7d 873a de89 843a 6177 84ba
000000a0: 5175 85ba dc39 84ba 55c6 83ba f330 843a
000000b0: 48bb 84ba 6a7b 843a a1cd 84ba 337a 843a
000000c0: 8992 84ba 7305 83ba f55b 853a ee99 83ba
000000d0: 2af3 843a 43a3 84ba 0183 843a 02cf 833a
000000e0: 22aa 823a 6f6c 843a 89d6 823a 081c 853a
000000f0: 8172 83ba 2a56 84ba 0ab3 84ba f3c7 823a
00000100: 82a1 923a 004d 92ba 1b1a 913a eb7f 913a
00000110: f8c2 923a 1d1a 8fba 1585 92ba ac3d 91ba
00000120: 9ef3 90ba 3642 923a 1a32 933a 8933 92ba
00000130: ca8d 923a 7d41 92ba 9c5b 92ba 535f 92ba
00000140: f2a6 923a 4e31 933a 4ed9 90ba 417c 923a
00000150: 0304 92ba 2e76 923a 0534 933a 6427 92ba
00000160: 5f71 92ba 4955 91ba 55fe 92ba 8a55 923a
00000170: 1329 91ba af37 92ba ff43 92ba bf10 933a
00000180: 0dbd 93ba 5077 923a 776a 923a 977b 92ba
00000190: 61fc 91ba 05db 943a 355d 923a e74d 92ba
000001a0: 5e25 93ba 4419 92ba 03b8 91ba d211 923a
000001b0: f187 92ba d650 923a cd97 92ba 0850 923a
000001c0: 5765 92ba 0b15 91ba 5710 933a a492 91ba
000001d0: 8eb7 923a ad73 92ba ed57 923a 99bf 913a
000001e0: f9c6 903a 4f44 923a beec 903a b1d9 923a
000001f0: 4d71 91ba 4931 92ba bb80 92ba 78e0 903a
00000200: f7c8 063a e5c2 06ba 7eb1 063a 30b7 063a
00000210: 31c5 063a 7485 06ba 51c1 06ba b9b3 06ba
00000220: 1eaf 06ba 51bd 063a 1cd4 063a 4fc0 06ba
00000230: b1c2 063a 55bf 06ba f1be 06ba ffc0 06ba
00000240: c8c6 063a eecd 063a 92ad 06ba 94c3 063a
00000250: eebe 06ba 8bc2 063a d6cd 063a c8bf 06ba
00000260: 80bd 06ba c1b7 06ba f8ca 06ba 2fc0 063a
00000270: bab4 06ba 1ab9 06ba 5fbf 06ba 32cd 063a
00000280: 2fe2 06ba 6dc2 063a 5fc0 063a 26c8 06ba
00000290: 94b9 06ba af06 073a 2ac3 063a 01be 06ba
000002a0: b7cb 06ba 4cbf 06ba 21bc 06ba 64bd 063a
000002b0: b9c0 06ba 34c1 063a 4bc5 06ba 12c4 063a
000002c0: 98c1 06ba d7b2 06ba 97cd 063a f1b8 06ba
000002d0: 88c4 063a e3c2 06ba 38c2 063a 14b9 063a
000002e0: 99ac 063a cfbe 063a ccae 063a 64c2 063a
000002f0: 61b8 06ba 5dbd 06ba 4abe 06ba d8ad 063a
00000300: 8b34 b83a 0413 b8ba edaa b73a 17cb b73a
00000310: bb34 b83a ca07 b7ba 7a1c b8ba 6db6 b7ba
00000320: 0a9f b7ba e003 b83a 8173 b83a 6607 b8ba
00000330: bb21 b83a 5e08 b8ba 3d0d b8ba b012 b8ba
00000340: 2431 b83a ee65 b83a 2597 b7ba 501f b83a
00000350: 36f9 b7ba 841b b83a 6966 b83a 6203 b8ba
00000360: 4e0f b8ba 1ac4 b7ba 3c51 b8ba a00e b83a
00000370: 03b5 b7ba edf7 b7ba 0309 b8ba fe5a b83a
00000380: 0abb b8ba 921b b83a ec13 b83a 5829 b8ba
00000390: 69eb b7ba 9469 b93a 9f17 b83a 0008 b8ba
000003a0: ab5d b8ba fafe b7ba fee1 b7ba e1f8 b73a
000003b0: e61b b8ba 5110 b83a e629 b8ba 6716 b83a
000003c0: 6615 b8ba 1dad b7ba 1a5c b83a ded2 b7ba
000003d0: 4730 b83a b11b b8ba c613 b83a 77dc b73a
000003e0: 0192 b73a c007 b83a 329d b73a a134 b83a
000003f0: f4ca b7ba 2500 b8ba d914 b8ba e598 b73a
0.0010135479 -0.0010106149 0.0009997926 0.0010033778 0.0010147282 -0.0009819294 -0.0010125595 -0.0010010409
-0.0009984542 0.0010102371 0.0010186242 -0.0010097298 0.0010128628 -0.0010102154 -0.0010111128 -0.0010112395
0.0010137447 0.0010186215 -0.0009975332 0.0010122453 -0.0010080514 0.0010120332 0.0010187216 -0.001009303
-0.0010118773 -0.0010018742 -0.001016816 0.0010109015 -0.0010003176 -0.0010098681 -0.0010103012 0.0010174593
-0.0010235407 0.0010120738 0.0010116283 -0.0010122187 -0.0010077853 0.0010336953 0.0010111888 -0.0010106378
-0.0010182058 -0.0010088044 -0.0010053614 0.0010085389 -0.0010126615 0.0010107581 -0.0010132083 0.0010107219
-0.0010114472 -0.0009996131 0.00101745 -0.0010040381 0.0010143269 -0.0010119457 0.0010109843 0.00100562
0.0009968916 0.0010103117 0.0009982149 0.0010155449 -0.0010028632 -0.001009648 -0.0010124159 0.0009977802
0.0011187049 -0.0011161864 0.0011070402 0.0011100745 0.0011197021 -0.0010917817 -0.0011178578 -0.0011081002
-0.0011058932 0.0011158648 0.0011230141 -0.0011154275 0.0011181172 -0.0011158433 -0.0011166218 -0.0011167325
0.001118867 0.0011229904 -0.001105109 0.0011175947 -0.0011140112 0.0011174136 0.0011230713 -0.0011150655
-0.0011172703 -0.0011088039 -0.0011214713 0.0011164409 -0.0011074863 -0.0011155511 -0.001115918 0.0011220201
-0.0011271551 0.0011174474 0.0011170645 -0.0011175749 -0.0011137837 0.0011356777 0.0011166694 -0.0011162133
-0.0011226346 -0.0011146446 -0.0011117462 0.0011144227 -0.001117943 0.0011163007 -0.0011184156 0.0011162767
-0.0011169118 -0.0011068893 0.001122008 -0.0011106324 0.001119362 -0.001117339 0.001116512 0.0011119723
0.0011045627 0.0011159274 0.0011056883 0.0011203793 -0.0011096388 -0.0011153604 -0.0011177281 0.0011053225
0.00051416404 -0.0005140736 0.0005138143 0.00051389914 0.0005141078 -0.00051315804 -0.0005140501 -0.0005138475
-0.0005137789 0.00051399047 0.0005143301 -0.00051403505 0.00051407056 -0.0005140205 -0.0005140147 -0.0005140453
0.0005141315 0.000514238 -0.00051375583 0.0005140838 -0.0005140145 0.00051406835 0.0005142366 -0.0005140272
-0.0005139932 -0.0005139076 -0.0005141939 0.0005140332 -0.00051386247 -0.00051392766 -0.0005140211 0.0005142271
-0.00051453983 0.0005140666 0.000514036 -0.0005141519 -0.00051393476 0.0005150837 0.0005140776 -0.0005140007
-0.000514205 -0.00051402 -0.0005139728 0.0005139916 -0.0005140412 0.0005140484 -0.0005141093 0.0005140911
-0.0005140542 -0.00051383435 0.00051423296 -0.0005139253 0.000514098 -0.0005140735 0.0005140635 0.0005139273
0.00051374134 0.0005140127 0.0005137741 0.0005140661 -0.0005139169 -0.00051399117 -0.00051400496 0.0005137599
0.0014053745 -0.0014043753 0.0014012732 0.0014022317 0.0014053801 -0.0013964113 -0.0014046573 -0.0014016159
-0.0014009189 0.0014039241 0.0014072509 -0.0014040291 0.0014048138 -0.001404058 -0.0014042031 -0.0014043655
0.0014052731 0.0014068463 -0.0014006837 0.0014047418 -0.0014036063 0.0014046286 0.0014068607 -0.0014039094
-0.0014042647 -0.0014020235 -0.0014062296 0.0014042445 -0.0014015738 -0.001403568 -0.0014040772 0.0014065204
-0.0014093828 0.0014046303 0.0014044023 -0.0014050407 -0.001403195 0.0014145845 0.0014045126 -0.001404047
-0.0014066001 -0.0014037781 -0.0014029143 0.0014035964 -0.00140464 0.0014042949 -0.0014050573 0.0014044762
-0.0014044463 -0.0014013384 0.0014065534 -0.0014024635 0.0014052474 -0.0014046339 0.0014043979 0.0014027496
0.0014005305 0.0014040396 0.001400864 0.001405377 -0.0014022277 -0.0014038129 -0.0014044299 0.0014007358

weight_hh_l1 f4 [256, 64]
00000000: 1e7b d63a 55a6 d63a fb8e 913a c1b7 03bb
00000010: 80e7 12ba 4932 d7ba c02b f439 4a87 bcba
00000020: fd53 b0ba 4691 d4ba df55 ceba 9ac1 3d3a
00000030: 05e8 d03a 2a16 78ba 465a b0ba db68 ad39
00000040: bb2b cb39 590c 923a c484 373a 23db 833a
00000050: c512 ceba cd0a d6ba d4f6 f839 fc60 d23a
00000060: 7ab9 d23a 4a2e 3a3a 4b75 a63a 9439 d3ba
00000070: c37b c1ba 501c 3d39 53bf d6ba 4a53 d53a
00000080: ae43 a73a eafa caba 2411 57ba 2f07 cc3a
00000090: 8094 013b ce4f 013b f59e c7ba 1082 dcba
000000a0: 6fc9 6f3a f672 ce3a 9c68 d3ba 5704 81ba
000000b0: ddbe 4eba 9745 e4ba 81f9 f6ba dd45 ae3a
000000c0: 9c6a 433a 5501 9239 c4d7 ff39 61e8 c2ba
000000d0: cdba fb3a fc2c d8ba 6b3a 1bba 02f1 3e3a
000000e0: 969b c03a 058a 80b9 b9e9 d3ba 38d5 cf3a
000000f0: 2f28 d53a 0afb d13a 6280 e4ba b1ed d2b9
00000100: fc53 cc3a 1c44 cd3a c133 883a f02a 01bb
00000110: 021e 1aba 1efb ccba 8acd 053a bfbf b4ba
00000120: 6983 a9ba 0395 caba a8cf c5ba 03bd 313a
00000130: 3215 c83a 4e1e 62ba ac15 abba 7c30 d539
00000140: 1e2c ee39 4b82 883a d793 2c3a 43e9 743a
00000150: 5a10 c7ba de08 ccba 3c42 093a 9656 cb3a
00000160: 7f1b ca3a 0b75 333a 2049 a03a 396f c9ba
00000170: 3992 b9ba 988f 8139 e3f4 ccba e18f d33a
00000180: 4465 9f3a 7407 c7ba efe8 44ba 5da9 c33a
00000190: 5e26 013b b8be 003b 19af c0ba d890 daba
000001a0: 489d 5c3a ac4f cb3a d9c1 c9ba 26fa 6cba
000001b0: cc3e 40ba fc22 deba 7f57 f3ba 432f a73a
000001c0: 085e 343a 0491 bc39 1094 0b3a 8859 bdba
000001d0: 949b f63a a4e6 ceba 0f46 1cba d69e 343a
000001e0: 5caf b73a 772f abb9 e51c caba aaa9 c83a
000001f0: 917d cb3a 3609 c93a bb37 e1ba 745f f2b9
00000200: c4e7 f938 35b0 9d38 a7a9 b838 4f06 52b8
00000210: 9725 c0b9 566d a5b8 0003 bc39 3329 42b8
00000220: 1874 01b8 243d e8b8 54ee 74b8 8607 9739
00000230: ee42 8638 2623 eab8 45e6 89b9 6f04 b039
00000240: e1e2 b839 9f7e 0839 79c6 9b39 6d4e 1339
00000250: d07f 0db8 b1c4 14b9 d3a3 c139 5535 0e38
00000260: 1c86 5f38 66e5 9f39 9b97 af37 0b1c cab8
00000270: 22da 49b8 1af8 8839 2bca 24b9 a75b e236
00000280: 6adf 4538 ce45 2ab7 2555 62b9 7a70 6938
00000290: de7f 1438 2f84 1538 259c 09b8 c0c7 27b7
000002a0: f5b3 2b39 7fcc 0637 0bab beb8 5217 b3b8
000002b0: dced 82b9 fc11 03b8 c28e 03b8 12ee 1038
000002c0: d0b3 8d39 1082 a539 225b c239 ea64 9fb7
000002d0: bcd8 2838 5af3 40b9 b8da b5b9 9dad 9839
000002e0: 5769 9b38 3076 9cb9 d2ff cab8 5bac 1438
000002f0: 9d2d 9438 0b05 8c38 2990 95b7 ce5e b8b9
00000300: 77e3 1e3b 19a3 293b 2257 e93a 25cb 65bb
00000310: f719 2cba 1cb6 28bb 2772 063a 106b 1dbb
00000320: 9f15 1abb 5321 1fbb ae64 27bb 8c71 673a
00000330: ffeb 283b 4561 d5ba 29d4 e5ba c1a2 d239
00000340: b79c f239 2d75 d83a 359e 5d3a 27d8 c23a
00000350: 6654 2fbb c717 1abb b5d3 143a 8b9c 323b
00000360: 3b3d 2c3b b20e 5c3a 25d6 1b3b 0bd0 21bb
00000370: a485 20bb b11c d139 1721 18bb 113b 4a3b
00000380: 3018 0e3b 1801 3abb 9a59 92ba b01d 273b
00000390: 3328 6e3b 37ca 6c3b 833b 2abb 56c6 4dbb
000003a0: 8494 ae3a 98c9 3f3b 61f2 22bb 4b79 eeba
000003b0: 4901 84ba d227 46bb 5bd9 5cbb 0b3d 173b
000003c0: 1b2e 783a 553f c839 6866 1a3a f6bf 2cbb
000003d0: e70f 5c3b 3336 15bb 5ca5 2cba 8b52 663a
000003e0: 289d 183b fc17 c5b9 87af 21bb f3d0 2f3b
000003f0: 6e39 293b 1d65 283b 2748 4fbb 06fe ebb9
0.0016363596 0.0016376475 0.0011105234 -0.002009854 -0.0005603954 -0.0016418184 0.00046571903 -0.0014383581
-0.0013452765 -0.0016217611 -0.0015742144 0.0007238627 0.0015938288 -0.0009463752 -0.0013454638 0.00033075255
0.0003875176 0.0011142596 0.00070006796 0.0010059815 -0.0015722146 -0.0016330123 0.00047486147 0.0016050632
0.0016077005 0.00071022345 0.0012699751 -0.0016115182 -0.0014761615 0.00018034992 -0.0016383923 0.0016275432
0.0012761259 -0.0015486155 -0.0008204153 0.0015566106 0.001977235 0.0019731405 -0.0015229868 -0.001682343
0.00091471424 0.0015750814 -0.0016129198 -0.0009843212 -0.0007886717 -0.0017415759 -0.0018842669 0.0013295967
0.00074545457 0.00027848282 0.00048798148 -0.001487028 0.0019205451 -0.0016492899 -0.0005921486 0.0007283838
0.0014694806 -0.00024516895 -0.0016167677 0.0015856391 0.0016262586 0.001602025 -0.0017433281 -0.00040231415
0.0015588994 0.0015660557 0.00103914 -0.001970943 -0.00058791053 -0.0015638804 0.0005104175 -0.0013790055
-0.001293284 -0.0015455786 -0.0015091794 0.0006780179 0.0015265106 -0.00086257316 -0.0013052723 0.0004066265
0.00045427767 0.0010414807 0.0006583309 0.000934262 -0.0015187368 -0.0015566607 0.0005236005 0.0015513476
0.0015419571 0.0006845749 0.0012228824 -0.001536823 -0.0014157958 0.00024711783 -0.0015636947 0.0016140902
0.0012160917 -0.0015184716 -0.00075115165 0.0014927794 0.0019706707 0.0019644927 -0.0014700621 -0.0016675247
0.0008415771 0.0015511415 -0.0015392854 -0.00090399606 -0.0007333576 -0.0016947682 -0.0018565505 0.0012755174
0.0006880467 0.000359662 0.0005324492 -0.0014446238 0.0018814676 -0.0015785289 -0.0005961367 0.00068901235
0.0014014053 -0.00032651026 -0.0015419988 0.0015309353 0.0015525093 0.0015337828 -0.0017182747 -0.00046228955
0.00011916415 7.5191645e-05 8.805404e-05 -5.0073777e-05 -0.000366491 -7.8881785e-05 0.0003586039 -4.6291574e-05
-3.0864117e-05 -0.000110740104 -5.8396094e-05 0.0002880657 6.4020845e-05 -0.000111645364 -0.0002630224 0.0003357264
0.00035264253 0.00013017141 0.00029711777 0.00014048228 -3.3736054e-05 -0.00014187653 0.00036933887 3.3905108e-05
5.3292242e-05 0.00030497758 2.0932222e-05 -9.637334e-05 -4.8125286e-05 0.00026124791 -0.00015715572 6.7459946e-06
4.717653e-05 -1.0149042e-05 -0.00021584758 5.565628e-05 3.5405035e-05 3.5647474e-05 -3.2808766e-05 -1.0000484e-05
0.0001637487 8.034635e-06 -9.091765e-05 -8.539729e-05 -0.0002497275 -3.1249583e-05 -3.1365787e-05 3.4553996e-05
0.00027027586 0.00031568157 0.00037070463 -1.9001269e-05 4.025617e-05 -0.00018401202 -0.00034685968 0.0002912105
7.410597e-05 -0.00029842695 -9.679761e-05 3.544647e-05 7.065686e-05 6.6766595e-05 -1.7829314e-05 -0.0003516585
0.0024244466 0.0025884567 0.0017802457 -0.003506371 -0.00065651484 -0.0025743311 0.00051287044 -0.0024020113
-0.0023511422 -0.0024281337 -0.0025542188 0.00088288705 0.002577543 -0.0016279599 -0.0017534542 0.00040175582
0.000462746 0.0016514413 0.00084540556 0.0014865444 -0.0026753186 -0.0023512708 0.0005677299 0.0027253951
0.0026281613 0.0008394524 0.0023778763 -0.0024690654 -0.0024493719 0.00039884963 -0.0023213082 0.003085796
0.0021681897 -0.0028382 -0.0011165619 0.0025499873 0.0036339879 0.0036131272 -0.0025975413 -0.0031398735
0.0013319408 0.0029264446 -0.0024863707 -0.0018194107 -0.0010071184 -0.0030236137 -0.003369889 0.0023077156
0.00094673195 0.0003819416 0.00058898935 -0.0026359535 0.0033578814 -0.00227679 -0.000658592 0.00087861036
0.0023287032 -0.00037592638 -0.0024671273 0.0026827424 0.0025821584 0.0025695034 -0.00316287 -0.00045011955

bias_ih_l1 f4 [256]
00000000: a5fd 8c3c 7f35 883c 6bb1 c93b 7132 993c
00000010: 4c8e 133a c5d4 833c 0669 0bbb 6fb1 483c
00000020: b999 2a3c e5d6 893c b92a 763c ac0b ebba
00000030: 9574 803c b98d 333a 154f 393c 1529 12bb
00000040: d8a9 1cbb b30f e73b 3f97 daba 5b96 9f3b
00000050: 29ca 6e3c 6d53 8e3c a35c d2ba 4300 763c
00000060: 41f0 7b3c fa15 4a3a 7575 e63b cf0c 873c
00000070: c832 543c 36fe 73ba b34a 903c 9908 5f3c
00000080: d492 1a3c 9470 523c 631f 94b8 721c 703c
00000090: e340 973c 53fc 963c e2e0 5e3c db3d 6e3c
000000a0: c3bb 323b 5e48 553c cd92 863c 5ac0 153b
000000b0: c97f fb39 cc91 833c f822 8f3c c048 273c
000000c0: c03f a2ba 6866 28bb aef0 52ba b56a 4e3c
000000d0: 09b9 923c 4544 943c 7fb6 06bb 3d85 66ba
000000e0: bd18 583c 1303 29bb d1bc 873c f7e4 733c
000000f0: 2d15 823c dcc3 813c 1010 813c 1dc4 07bb
00000100: adee 933c f50e 8e3c 626a d03b 00cc 9d3c
00000110: d7dd 193a 2023 893c 2b71 01bb ec73 4f3c
00000120: 1d90 303c 5a8a 903c 45a7 7f3c e329 e0ba
00000130: 9ea4 853c de6d 8c3a 2db3 433c 7c82 07bb
00000140: 68b9 15bb 483b ee3b 8250 c3ba 4297 a43b
00000150: 8563 773c 7e9d 953c 306a d1ba 270f 7f3c
00000160: 9edf 823c 278e 513a f58d f23b aa4f 8d3c
00000170: a885 5b3c 2703 74ba 6cc2 973c 2c16 6a3c
00000180: a6ce 1f3c 276e 5b3c f894 97b8 f933 793c
00000190: e896 9c3c ea29 9c3c cc7e 663c 4800 793c
000001a0: 6d46 383b a3f8 5e3c 60bb 8c3c 2f46 403b
000001b0: ecab fd39 1a31 883c 2ae2 933c 420f 2d3c
000001c0: 7f9e 83ba 5b27 22bb cfbd 52ba fac7 553c
000001d0: 725e 973c 3cdd 9b3c 0c6c fdba df8d 66ba
000001e0: 8834 603c 1f06 25bb a80e 8e3c 18f5 7c3c
000001f0: 5a43 873c f021 873c f6f0 853c 0a73 f8ba
00000200: d01a 253d a8d3 503d e78d 8a3d 3dae abbd
00000210: e254 f7bc 2ecd 62bd 82b2 8d3d 4a02 84bd
00000220: 301e 96bd 65ab 2bbd b5be 69bd 8bab 903d
00000230: a41f 5f3d 9e0d c3bd b491 f5bc 63e3 883d
00000240: e086 7f3d 8a97 5c3d 2371 9d3d 6079 6f3d
00000250: e1e9 89bd b718 12bd 157c 4c3d 1b6a 8c3d
00000260: e74f 7a3d 7729 383d afd6 bf3d 5b4d 39bd
00000270: 630e 81bd a2ea f53c b6d4 05bd e709 cc3d
00000280: eed0 8c3d 5854 b4bd dac0 86bd fc9f 6e3d
00000290: cbd2 c83d 6981 c63d 64a5 8bbd b8c6 c5bd
000002a0: 2ae9 7e3d eda6 bd3d a747 3dbd c9b1 d4bd
000002b0: aa77 6abd f62a 9ebd c08e b3bd 1c80 933d
000002c0: c842 a53d 72cd 773d 31f5 293d 646a 9dbd
000002d0: 75eb a93d e738 e6bc 5766 8ebd 2562 733d
000002e0: beed 5e3d 6f21 67bd 1b6d 38bd d668 883d
000002f0: d073 673d 9532 5b3d f0f3 b5bd 9694 8ebd
00000300: 6d1c fd3b 2e8b 0b3c 137b c43b 72bf 443c
00000310: 878e 283a f37f 0c3c 40e0 a23a f622 073c
00000320: a0b4 0a3c e6dd fe3b bf5c 0c3c 5ffb 4b3b
00000330: 1657 0b3c 071f e93b e909 9c3b 4f77 2e3a
00000340: 7c82 483a e22e aa3b f247 4d3b 4e11 973b
00000350: c884 173c 59ec f13b f759 573a 5a50 1b3c
00000360: 9e4c 123c 5b13 f73a 18c6 1f3c e54f 023c
00000370: 31e2 083c 98a5 6839 7b43 ed3b f53d 413c
00000380: dc7f fa3b c377 2e3c dd96 823b 6abc 0b3c
00000390: f5a1 523c b846 513c bf9a 133c 51c0 403c
000003a0: 73fb 953b b899 353c 852e 043c 57fd 043c
000003b0: dfd1 4d3b 5cda 2e3c ac13 433c 6861 073c
000003c0: ff35 773b 9d58 df39 284e 3a3a e3cd 1b3c
000003d0: e99a 3f3c ffe5 e63b b5c4 fd3a 967f 2f3b
000003e0: ac22 fc3b 6c60 ac39 6bb5 023c 7553 173c
000003f0: 109c 0d3c d914 0b3c ef36 3c3c e57f 7c3a
0.01721079 0.016627071 0.006155183 0.01870081 0.0005628809 0.016092667 -0.0021272316 0.012249335
0.010412627 0.016826103 0.015024834 -0.0017932556 0.01568059 0.00068494264 0.0113103585 -0.0022302319
-0.0023904946 0.007051432 -0.0016677155 0.0048702187 0.014574566 0.017373765 -0.0016049336 0.015014711
0.015377105 0.0007708963 0.007033045 0.0164856 0.01295156 -0.0009307595 0.017613744 0.01361289
0.009434421 0.0128442235 -7.063036e-05 0.014655219 0.018463558 0.018430864 0.013603421 0.014541115
0.002727256 0.013017742 0.016427422 0.0022850246 0.00047969658 0.016060732 0.01747273 0.010210216
-0.0012378618 -0.0025695805 -0.00080467283 0.012598683 0.017910497 0.01809896 -0.0020555553 -0.0008793658
0.013189492 -0.0025789186 0.016569527 0.014886132 0.015879238 0.015840463 0.01575473 -0.0020716258
0.018058145 0.017341116 0.006360338 0.019262314 0.00058695435 0.016740382 -0.0019751291 0.012661915
0.010776547 0.017644096 0.015603845 -0.0017102327 0.016313847 0.0010713895 0.011944574 -0.002067714
-0.0022846106 0.0072702505 -0.0014901313 0.005022914 0.015099411 0.018263575 -0.0015977081 0.015567577
0.01597577 0.00079938996 0.0074021765 0.0172499 0.013398565 -0.0009308331 0.018525325 0.014287513
0.009753859 0.013392962 -7.227989e-05 0.015210145 0.019114926 0.019062955 0.014068317 0.015197821
0.002811815 0.013609084 0.017179191 0.0029338708 0.00048384012 0.016624976 0.01805218 0.01056272
-0.0010041742 -0.0024742696 -0.0008039148 0.013048166 0.018477652 0.019026391 -0.0019334569 -0.0008794944
0.013684399 -0.002518065 0.017340973 0.015439294 0.016511608 0.016495675 0.01635025 -0.0018955183
0.040308774 0.0509831 0.06765347 -0.08382843 -0.030191842 -0.055371456 0.06918813 -0.06445749
-0.073299766 -0.0419115 -0.057066638 0.07063969 0.054473534 -0.09524082 -0.029976703 0.066839956
0.062384486 0.053855456 0.07687595 0.05846536 -0.06734062 -0.0356681 0.04992302 0.068561755
0.061111357 0.04496142 0.093671195 -0.045239788 -0.06301572 0.030019108 -0.03267356 0.09962826
0.06875788 -0.0880515 -0.06579752 0.05825804 0.098058306 0.09692652 -0.06818655 -0.09657043
0.06223408 0.09260354 -0.04621091 -0.10385472 -0.057243027 -0.07723038 -0.08767462 0.07202169
0.08069378 0.060498662 0.0414936 -0.07686308 0.08296863 -0.028103305 -0.069531135 0.05941977
0.054425947 -0.05642837 -0.045025926 0.06660621 0.05650693 0.053515036 -0.08884418 -0.06961934
0.007724336 0.00851707 0.005996117 0.012008535 0.00064299296 0.008575427 0.0012426451 0.008248081
0.008465916 0.007777917 0.008567034 0.003112517 0.00850465 0.0071142945 0.0047619236 0.00066553516
0.0007648838 0.005193577 0.00313234 0.004610217 0.009247966 0.007382911 0.0008215005 0.0094796065
0.0089294 0.0018850373 0.009751819 0.007953619 0.0083547095 0.00022186933 0.0072407103 0.011794557
0.0076446366 0.010648671 0.0039852695 0.008528808 0.012855996 0.012773208 0.009009062 0.011764602
0.004577094 0.011084013 0.008067732 0.008117042 0.003140561 0.010672178 0.011906546 0.00826297
0.0037721393 0.00042599897 0.0007106983 0.009509536 0.011694648 0.0070464606 0.0019360991 0.0026778928
0.007694563 0.00032878236 0.007977824 0.009236206 0.008643165 0.008488857 0.011487707 0.0009632095
