transfer_learning/models/lstm_TL_u1_.pth (torch, 411688 bytes, 18 tensors)

encoder.weight_ih_l0 f4 [256, 3]
00000000: 0ca3 ecbb 5a23 f0bc 4c2a d63d 77ff b63d
00000010: 24ac ef3d 962c 5d3e 65a5 08bd d4fb cb3d
00000020: 3512 86bd cf4d c53e 5ae2 6e3e 8ac8 063f
00000030: ed07 23bd 5ce9 a43d d478 183e 868a ff3d
00000040: d3f8 62bd 32c3 63bd 7c15 74bd f0ab fa3d
00000050: 6912 9fbd 6a1e 0cbe 1b13 55bd 25c8 4c3d
00000060: 82c8 e8bd 978e 95bd 20d7 443f 468e 763e
00000070: 6cf2 04bd d93f 503f 30f2 d3bd bae0 0cbe
00000080: a19e 84be 68da d5bc f984 dabd 0143 913d
00000090: 4a76 903c b447 a43d 838d cf3e 549d 5ebd
000000a0: bffd 2abd d48d 733e 1480 083e d0e6 fc3d
000000b0: 3a1a a9bd ec78 e03d 2ac2 563d 25b5 21be
000000c0: 6897 dfbd 692e 113e ebce 153e 162d 39bc
000000d0: fdde 8fbd 01fd 033d 3caf 16be 90cf 14be
000000e0: ee0f fe3d 350b a0bc dccb ed3c a7c0 5b3f
000000f0: 25b0 353d 07ac 0abe 7c10 fcba 4804 143e
00000100: 3aa4 c73d c5ed 1a3f 54d4 91bd fbd7 0b3d
00000110: 017f 673e 556c 0cbe 58f6 2abd 8423 0d3d
00000120: ae77 aebd bb2f 003e 9fe2 2e3f 8364 08be
00000130: 204c 20be 02d5 373a dea8 923e 79fb f03e
00000140: 82bb 543f 1d9b eb3c 0e2b 8abd eb62 a13d
00000150: 7a19 6e3c 31ce d33c 9c87 153d ffaf ea3d
00000160: 4448 bcbd 0ab5 15be f200 133e 48b2 4b3d
00000170: 2a1e fcbd dafe 4ebc 5735 45be 6321 b8bd
00000180: ae14 59bd b8e7 b53d 594d f7bc deb9 b6bc
00000190: 91c5 0dbe b61e 3a3d fbd5 2a3d 3fdd 243e
000001a0: b467 8fbd 3684 39bd 83f0 163e 7708 423e
000001b0: 587c f2bd 2a11 45bd a5a3 1a3d e15f 1dbd
000001c0: 4581 00be 532e 60be 7127 283e a1de f93c
000001d0: aa78 2c3f 011f 03be 12d6 05bd 6ad7 163e
000001e0: 825a 8b3d af54 f93c 5314 91bd de54 3a3c
000001f0: 5d62 d13c fed7 873d bceb 0a3c aacb 3c3d
00000200: a47c 38be 4a60 053e 2585 04be c53d 1ebd
00000210: b843 e5bd ad21 52bb 9190 eb3d 37da b9bd
00000220: 408f b7bd ca44 6f3f 4bb4 0a3e 42f7 ebbd
00000230: 1787 9f3d 3d7d 36be 7002 02be fd1e 613e
00000240: 4404 003e f264 943d 5920 393d 6ed6 e93d
00000250: f7f5 04be 53e6 703e a918 a8bd 0f5b 3ebc
00000260: e612 9b3d 5a46 853d 233b c33b 6fd6 b8bd
00000270: 63ce 383d 8d24 ffbd be40 de3c 5d8e 053d
00000280: 098f 94bd 4c82 ddbd 9b4d cb3c 654e d73b
00000290: e2b0 403f 8cd7 c23d 055d bf3d 8dd2 493e
000002a0: 4fc2 49bd 100a aa3c 8541 fcbc 4f88 603e
000002b0: c235 bfbb 5a99 3d3f 02df b7bd 4334 f2bc
000002c0: 80e7 713e c1dd 353c 3afe bb3d 4ef3 be3d
000002d0: f50a 673e cea9 793e 4885 723f 0409 8fbc
000002e0: 0c08 d2bd d6b3 313d d947 0cbd 69df 103d
000002f0: 2bb7 333d 6dcf aa3d f7e7 0f3e a152 b8bc
00000300: 7e1b 6f3d ab01 893d 7f42 2f3e 4bab a1bd
00000310: 6c4c dcbc 7c3b baba f009 9f3d b819 123e
00000320: 3eaf 1c3d 9c81 2f3d 6892 563d 128f a23e
00000330: 4bb7 58bd 9331 b3bc 93d8 843c 46b5 90bd
00000340: e6bd c0bd 07ee 4fbb 4fe8 87bc 1449 febd
00000350: d315 5dbe 9a19 163e 747d 163e 0c9b 89bd
00000360: 1d3b 13bd 16a5 bb3c a936 2cbe 7402 15be
00000370: a30e dbbb 2da4 21bb 44fe 0cbe ddb4 493d
00000380: 67f2 8e3d 8638 14be f1c9 ffbd 0c32 a5bd
00000390: a429 8fbd 3b1a e13c aad4 95ba eef1 9c3c
000003a0: 77d1 d53d faf7 643e 0824 d3bd e30b 0f3d
000003b0: 20bd bf3d 338b 103d a397 cd3d f240 f53d
000003c0: e508 73bd 25f6 9ebc c6f6 253e 2d09 8a3d
000003d0: 1267 d4bc aa26 4c3e e17a dd3d 4407 563a
000003e0: 59c1 453e 696b aabc 75dc 6dbd 31ed a03e
000003f0: 2b25 6f3c da2e b73d c470 17be 6be0 f53d
-0.007221585 -0.029313732 0.10457286 0.08935445 0.11702755 0.2159904 -0.033360858 0.09960142
-0.065464415 0.38535926 0.23328534 0.5264975 -0.03980248 0.08052322 0.14889842 0.12477593
-0.05541308 -0.055606075 -0.0595908 0.12239826 -0.07767183 -0.13683477 -0.052020174 0.04999556
-0.11366369 -0.073025875 0.76890755 0.2407771 -0.032457754 0.81347424 -0.10348928 -0.13757601
-0.25902274 -0.02610512 -0.10669894 0.07092858 0.01763453 0.08021489 0.40537652 -0.05434926
-0.041745897 0.23784572 0.13330108 0.123487115 -0.082569554 0.10960564 0.052431263 -0.15791757
-0.1091755 0.1417786 0.14629714 -0.011302253 -0.070249535 0.032223705 -0.14715284 -0.14532304
0.12405382 -0.019536594 0.029027872 0.8584084 0.044357438 -0.13542186 -0.0019230987 0.14454758
0.097481206 0.6051906 -0.071205765 0.034141522 0.22607042 -0.137132 -0.041738838 0.0344577
-0.08518921 0.12518208 0.68314546 -0.13319592 -0.1565404 0.00070126366 0.2864446 0.47066858
0.83098614 0.028760487 -0.06746493 0.07880195 0.014532441 0.025855156 0.03650628 0.1145935
-0.09193471 -0.14619842 0.1435583 0.04973057 -0.12310441 -0.012634004 -0.19258629 -0.08990743
-0.052998237 0.088820875 -0.03018825 -0.022305425 -0.13844897 0.045439444 0.041707974 0.16100024
-0.07002202 -0.0452921 0.14740185 0.18948542 -0.11840123 -0.048112072 0.03775372 -0.038421515
-0.12549312 -0.21892671 0.16421296 0.030501666 0.6737162 -0.12804796 -0.032674856 0.14730611
0.06804372 0.030435888 -0.07083955 0.011372773 0.025559599 0.06632994 0.008479055 0.046092667
-0.18016297 0.13025013 -0.12941416 -0.038633127 -0.11194557 -0.003206353 0.11502183 -0.09074824
-0.0896287 0.9346434 0.13545339 -0.1152177 0.07789438 -0.17821212 -0.12696242 0.21984477
0.12501627 0.07245816 0.045196865 0.11417852 -0.12984453 0.23525362 -0.082078286 -0.01161839
0.07571964 0.06507559 0.0059579774 -0.09025275 0.0451187 -0.124581434 0.02713048 0.03260647
-0.07253844 -0.10815868 0.024817279 0.0065706247 0.752699 0.095137686 0.09343914 0.19709225
-0.049257573 0.020756751 -0.03079296 0.21926998 -0.005835266 0.7406212 -0.08978082 -0.029565936
0.23623466 0.0111002335 0.09179349 0.093237504 0.22562774 0.24381182 0.9473462 -0.017460354
-0.10255441 0.043384396 -0.034248207 0.03536931 0.043875854 0.083403446 0.14053331 -0.022500338
0.058375828 0.06689771 0.1711521 -0.07894 -0.02689191 -0.0014208402 0.07765567 0.14267623
0.03825306 0.042848215 0.052385718 0.3174978 -0.052909177 -0.021874225 0.016216552 -0.07065825
-0.0941122 -0.0031727569 -0.016590266 -0.12416282 -0.21590357 0.14658204 0.14696294 -0.06719026
-0.035945047 0.022905868 -0.16817726 -0.14551717 -0.0066850944 -0.0024664507 -0.1376887 0.04924475
0.06979828 -0.14474687 -0.12489689 -0.08066186 -0.06990364 0.027478328 -0.0011431177 0.01915833
0.10440343 0.2236022 -0.10309607 0.034923445 0.093622446 0.035289 0.10038688 0.11975278
-0.059334654 -0.01940448 0.16207418 0.067400314 -0.025928054 0.19936624 0.10814453 0.0008164535
0.19312038 -0.02080317 -0.058071572 0.31430963 0.014596264 0.08944483 -0.1478911 0.12005695

encoder.weight_hh_l0 f4 [256, 64]
00000000: 85e4 49bd e475 a1bd aaa9 7cbc d070 c43c
00000010: c431 023d 7d96 7f3d 5560 5f3d 7527 923d
00000020: 1f47 123c 4dda 923d c91b 333d 62df 7bbc
00000030: 7902 3d3d 3c89 403d 30ed 173e 9584 b4bd
00000040: 7e47 5c3d d326 743b d78e 4cbd 2100 3dbd
00000050: 73cf db3d c1fa ac3d f0c0 603b 2f80 46bc
00000060: 1456 7e3d 0c9b 87bc 8052 cbbc 692d d63d
00000070: 7dd2 65ba d127 16bc 8435 f3bd 7101 7a3d
00000080: b972 f2bc 81a3 e3bd 4600 c5bb 9e87 293d
00000090: d108 993d 5fde 90bd ebe1 b5bd 53c8 473b
000000a0: bf52 ab3c 2ca1 e6bc d93b a03d bc68 c53c
000000b0: e61c 933c 0540 bbbc 327c 37bd 8d18 e33d
000000c0: cfc0 b1bd ea02 eb3d 9e17 f63d 9ce8 9b3d
000000d0: 76c9 b4b8 2b98 f33b dbb0 8d3d 3f96 0b3e
000000e0: 7869 bdbd 4f00 d63d a93f 45bd f4df 123e
000000f0: 69af 763d 079a 933d 4597 62bc c360 223d
00000100: c52a 72bd 3cf2 1c3e 3f47 e13c 8599 74be
00000110: a704 23bc 5548 7fbc 17be 863d cc60 adbc
00000120: 98c7 42bd 6387 cd3d 35c3 843d a28c 803d
00000130: 0c57 aabd 631a 81bc 3783 eabd 1b32 53bd
00000140: ec8d c7bc 2985 e33b b107 8d3c 6167 973e
00000150: d1d6 a63d 4a50 bebc 2d1f cb3d b2c7 bc3c
00000160: c42e 213d f5bd 4bbc 7ad4 c83b a436 6a3d
00000170: a0fc 6fbd eaa4 ad3c 7c5f 89bd c510 cabc
00000180: ad99 a7bd f3fd 8dbc cebf 1abc ad08 1a3c
00000190: d295 8fbd 610a 21bd fa7b 10be 59c4 d83d
000001a0: b8aa e4bd 9c3f 483d 1483 65bd f963 1abd
000001b0: e7ad 0b3d ece8 bd3c 410b fabc cf6e 30bd
000001c0: 830c 61bd 97ee f9bd 59fd 1b3c 539a 01be
000001d0: b60d 00bd f494 a9bd d1ba 603c 8303 14bd
000001e0: afbb 47bd f63e 92bc a351 22bd c885 a53d
000001f0: 0e45 d03d c83b bb3d c25b 123d caee a2bd
00000200: e748 0fbc 92a8 87bd 70cc f23c 0960 633b
00000210: 6ce9 82ba 83e0 173d 5774 bfbd 280c 143d
00000220: a3e5 1b3c d618 b1bd c04e a43d ee9d 133d
00000230: 4127 b5bd 0efa 1abb 12ea 233c 33c9 42bd
00000240: 255d 043d 3813 9b3d 3c2d 3f3b a247 103d
00000250: 463c b53c 895a a83c 1b54 dabc c7ac 5f3d
00000260: 3ee7 653c a9f2 8fbd fb96 2fbc 53b5 fe39
00000270: 8a34 37ba 68f2 523c fa74 693c 5a67 46bd
00000280: d56e 8abd daf7 73bd 9097 fdbd 0602 883d
00000290: a93a d53d b3ca c9bc 5e77 753d 4eb4 403d
000002a0: 75fe 523d d33e 853d f21b 16be 162f 86bd
000002b0: 09d4 153c 8e80 953d 8a52 473d 54db 1e3d
000002c0: 2d2f a6ba fc22 64bd b6aa 793d 6075 7f3d
000002d0: cef1 543c 214a d1bc 71f3 943d daf9 d03c
000002e0: 470c a73a 2e84 3cbd e8ef 9cbc 3a3f 90bc
000002f0: a032 413d 841a f73d 028b 163c aa2d 88bc
00000300: 2ed4 683e 0e35 4a3e 70dd 7ebe 6f40 373d
00000310: ff6f b13e 5d03 78be f9ee 903e f13f ce3d
00000320: eab2 663d 0cf7 2e3c ab9a 9dbe 29f4 933e
00000330: 6d44 01be 47b7 683e 192d bbbe 6119 9c3e
00000340: 3c8b 7d3e bf91 a93e 40fe 73be 39a7 3d3e
00000350: 3bb0 54be 019f 24be f1e5 5e3e 24b4 cf3d
00000360: cee0 8d3e 2391 833e f824 983c 586a 773e
00000370: a810 8cbe f055 2f3e 8a7c 453e ea30 e7be
00000380: 53b0 613e 7ef8 333e 84f1 9c3e 3068 39be
00000390: 713a 80be 5546 48be affa 78be 5089 213e
000003a0: 7f20 7e3e 216a a4be ed54 8abe abd8 adbe
000003b0: f721 c5bd 814a f53d 6e04 30be 8011 d4bd
000003c0: bd71 20be 3a4e 9cbe 4fa0 a73e a225 6fbe
000003d0: 1019 6b3e 7ef8 3cbe 8718 ea3e f7e2 54be
000003e0: 05ea 023e 1210 a6bc 4e01 b0be aa46 3fbe
000003f0: 2857 b9be 5675 73be 6714 7c3e d3ce 9bbe
-0.0492902 -0.07883814 -0.01542131 0.023979574 0.03178574 0.062399376 0.05453523 0.07136432
0.008928089 0.07170544 0.04372767 -0.015373083 0.046144936 0.047005877 0.14836574 -0.088143505
0.053779118 0.0037254586 -0.04994091 -0.0461427 0.10732927 0.08446265 0.0034294687 -0.012115522
0.06209381 -0.016553424 -0.024819613 0.1045788 -0.0008767022 -0.009164766 -0.11875442 0.06103653
-0.02959572 -0.1111517 -0.0060119955 0.0413891 0.07472385 -0.07073664 -0.08880981 0.0030484393
0.02091348 -0.028153025 0.07823915 0.024097793 0.017958116 -0.022857675 -0.044796176 0.11088667
-0.086793534 0.11475165 0.12016223 0.07612726 -8.620594e-05 0.0074339113 0.06918498 0.13631533
-0.09248632 0.104492776 -0.048156414 0.14343244 0.060225878 0.07207113 -0.013830011 0.03964306
-0.05912282 0.1532678 0.027499793 -0.23886688 -0.00994984 -0.01558121 0.065792255 -0.02116432
-0.04755363 0.100355886 0.06482545 0.062768236 -0.08317384 -0.015759652 -0.114508085 -0.051561456
-0.024359666 0.006943364 0.017215582 0.2957106 0.08146442 -0.023231644 0.09918056 0.02304444
0.03935124 -0.012435426 0.006128845 0.057181016 -0.05859053 0.021196801 -0.06707665 -0.0246662
-0.08183608 -0.017333006 -0.009445144 0.0094014825 -0.07010998 -0.03931654 -0.14109793 0.10584325
-0.111653745 0.048888788 -0.05603321 -0.037692998 0.034101393 0.023182355 -0.030522944 -0.043074425
-0.054943573 -0.122037105 0.009520852 -0.12656526 -0.031263076 -0.08280364 0.0137164155 -0.03613616
-0.048762973 -0.017852288 -0.039628636 0.080821574 0.10169421 0.09142262 0.03573204 -0.07955702
-0.008745409 -0.06623949 0.029638499 0.0034694693 -0.0009987778 0.037079345 -0.09348362 0.036144406
0.009515199 -0.08647315 0.08022833 0.036039285 -0.08845378 -0.002364758 0.010004537 -0.04755516
0.032315392 0.07572025 0.002917125 0.035224564 0.022123467 0.020550983 -0.026651433 0.054608133
0.014032183 -0.070287056 -0.010717149 0.00048581752 -0.0006988725 0.012875177 0.014249081 -0.048438407
-0.06759421 -0.05956254 -0.12382424 0.06641011 0.10411579 -0.024632787 0.05992829 0.047046952
0.0515122 0.065061234 -0.14659098 -0.0655195 0.009144791 0.072999105 0.0486627 0.038783386
-0.0012678854 -0.055697426 0.06095382 0.062367797 0.012997104 -0.025548043 0.07272995 0.025509764
0.0012744748 -0.046024494 -0.019157365 -0.017608274 0.04716742 0.12065604 0.0091884155 -0.016623337
0.2273719 0.19746801 -0.24889159 0.044739183 0.3465576 -0.24220033 0.28307322 0.100707896
0.05632297 0.010679018 -0.30782065 0.28897217 -0.12623759 0.22726165 -0.36557844 0.30488113
0.24760145 0.33119008 -0.23827457 0.18520822 -0.20770352 -0.1607628 0.21767403 0.10141781
0.27710575 0.25696668 0.018572316 0.2416166 -0.27356458 0.17122626 0.19285789 -0.45154506
0.22039919 0.17575261 0.30653012 -0.1810615 -0.25044587 -0.1955808 -0.24314378 0.15775037
0.24817084 -0.3211222 -0.27017918 -0.33954367 -0.09625619 0.11977101 -0.1718919 -0.103549
-0.15668388 -0.30528432 0.32739493 -0.233542 0.2295878 -0.18454167 0.45721838 -0.20789705
0.12784584 -0.020271335 -0.34375995 -0.186793 -0.36199307 -0.23775229 0.24617158 -0.30431232

encoder.bias_ih_l0 f4 [256]
00000000: 86f6 c8bb 706f 143d 9654 26bc 2d5c 883e
00000010: ae30 2e3b 3244 023c be8f 69b9 9ee3 58bc
00000020: 29e9 333d 5163 cc3d dbfd f0ba d72a bbbb
00000030: aba4 223e 5abb 60bc 0bc0 263b 116c b6bc
00000040: d4d6 aebb 19a3 4839 0bf4 d5bb d335 da3d
00000050: ae08 1fbd c600 c63d c393 1dbc 36f3 663b
00000060: c015 0e3d c254 cdbc 45cc e23e 9890 4e3a
00000070: 6709 55bd 75b4 68bb ec4d c23a f4fc 50bd
00000080: 6b25 d03b 50b9 923b 174e 063c a4aa 87bb
00000090: f13a cb3a 607c 9d3b ff5f ad3d 0a3d 4cbc
000000a0: d010 c63a 3598 a33a 1785 5b3a f983 a43b
000000b0: 46f9 b13c 1cc5 6d3d c51d e0bb b29e 00bd
000000c0: 709f cbbb 4ddb b8bc 75c8 82bc 0f3f 8a3b
000000d0: e5ed 80bc ae80 1ebc 301a b33d d765 073c
000000e0: 5e1b e4bb abaf f53d e430 8d3c 0953 0cbc
000000f0: 5beb b73d 19c2 7bb9 2f09 4d3b 1d50 043c
00000100: 6a3a c8bb 9371 ffbc 2a88 9abb 1405 a73d
00000110: ecee 1639 b334 e93b 5aaf 293c df6e 6ebb
00000120: 9b4a 053d 16ed d2bb 6f15 003b 170c b5bb
00000130: 5c46 1fbb a5a9 93bc 14b9 813b 5d48 0f3b
00000140: 7ba2 cfbb 2570 1f3b 7815 53bb d8e9 10bb
00000150: 3eef 07bd 2cfd b73b 79ba a8bb 3714 a33b
00000160: 550b aebc 4fab 553b d174 c1bc 452c 6b3a
00000170: 3de2 69bc 3f45 2fbb 1177 033b 38c1 2bbd
00000180: 9fdd 0d3c 75d4 803b 3908 1b3c d841 85ba
00000190: 8f5d 443b 4563 3a3c 67c0 363d b82c a4bb
000001a0: 7eb7 a73b b421 33ba cc1e ce3b e36b 193b
000001b0: bb03 e43d 31b7 e13b 3df5 48bb d70b 2bbd
000001c0: 3b6c 9bbb 4d16 d2bc f109 37bc 3f67 003c
000001d0: 1909 48bc 6bd5 33bc c4d4 0f3d 852c 313c
000001e0: c437 15bc d5bc 073d 6e1e c3bb 9c95 6ebd
000001f0: 218b d53b 2e50 75bb cc34 083c 8c51 ea3b
00000200: efbf 193c d5d8 f43b e49d 6cbc 575c 36bc
00000210: 5846 f13b d4e6 8fbc 1505 9b3c b68f 9f3b
00000220: 8e6c 5f3c 39dd 97bc dce1 52bc d562 193c
00000230: 8220 ae3c 8731 f23b 40d2 67bc 66f5 8e3c
00000240: a476 293b e1ea 413c 601b e1bb 28fa 7cbb
00000250: 02b5 5c3c 14c2 06bd 0d88 283c f81a 903c
00000260: 5c67 903c 0143 823c 81b3 183d 6d4a 6c3c
00000270: b757 cc3c dc93 01ba 88f3 6c3c 5fda c7bc
00000280: 1053 963c 40d7 0b3c bfa6 af3c a89b 8fbc
00000290: 8c78 46bc fa96 61bc 14ae 18ba 1945 9b3c
000002a0: ad19 bc3c 4313 30bc af43 7bbc 2017 5cbc
000002b0: ccf3 483c 7a3a d83b cffc 17bc bb1f 05bc
000002c0: c3f6 2339 5dd0 ac3c 4051 72bb d5e2 81bc
000002d0: 36f1 733b c803 783b e9dc 33bb c32a 9dbc
000002e0: f962 3f3c 393d 1e3b 8ea6 4ebc 8ffc 4e3c
000002f0: ae7d 19bc 88ea e6bb 5a37 433c 5291 82bc
00000300: e649 54bc 99f1 a53c 27c6 51bc 22f4 8a3e
00000310: dbbe da3a fa7d 973b c5bf 9d39 2fdf 60bc
00000320: a06b 553c a2bc 0e3e 0221 92bb 8e30 95bb
00000330: 5e72 0a3e 8248 30bc 4041 02bb e004 e5bc
00000340: 03c7 78bc c92b e5ba 5cf8 d7bb 72af 023e
00000350: 970f e8bc 1ecc d43d 8666 73bc fa45 783a
00000360: a9e0 b93c 4f3e d7bc a7cd ca3e 238f e9bb
00000370: 1847 5fbd cc84 91bc 990e 063b 2392 00bd
00000380: 2df2 2abc f8cc 1abc c566 f83a 32ee 9cbb
00000390: 9f0f 103b e181 9c3a 5b4e ab3d cf16 70bc
000003a0: ae65 1dbc 32dc 04bb b2fd 9cbc 6c0c 8e3b
000003b0: 60b2 c93d 0e5e 693d f346 09bc bc0b 0bbd
000003c0: 4100 66bc 7aac 3dba 0d7a 4cbb e61a 6cbb
000003d0: 47cf 76bc 9d45 28bc a3ff 333e 49eb 8e3b
000003e0: ee7f dabb 0e9b 063e f48e 4f3c dc96 0e3b
000003f0: e65a 0e3e 145e 61bc 078b 90ba 28b5 fb3a
-0.0061329035 0.036239088 -0.010152003 0.26632825 0.0026579308 0.007950829 -0.0002227416 -0.013237862
0.04392353 0.099798806 -0.0018386202 -0.005711894 0.15883128 -0.013716543 0.0025444056 -0.022268327
-0.005335668 0.00019134245 -0.0065293363 0.106547974 -0.038826637 0.09668116 -0.009617749 0.003524018
0.03468871 -0.02506483 0.4429647 0.00078798225 -0.05201092 -0.0035507951 0.0014824248 -0.051022485
0.006352117 0.0044776574 0.008197329 -0.004140215 0.0015505237 0.0048060864 0.084655754 -0.012465725
0.0015111212 0.0012481274 0.0008374019 0.005020615 0.021725308 0.058049306 -0.0068394863 -0.031401344
-0.006214075 -0.022565508 -0.015964726 0.004218943 -0.015738437 -0.009674234 0.08745229 0.008264027
-0.0069612702 0.11996397 0.017235227 -0.008564719 0.08980437 -0.00024009532 0.0031285991 0.008075741
-0.006110479 -0.031182086 -0.004715939 0.081552655 0.0001439412 0.007116878 0.0103567485 -0.0036382002
0.032541852 -0.0064369543 0.0019544025 -0.005525123 -0.0024303412 -0.018025229 0.0039588306 0.00218632
-0.006336508 0.0024328318 -0.0032208841 -0.0022112038 -0.033187144 0.0056148972 -0.0051491824 0.004976775
-0.021245638 0.0032603329 -0.023615273 0.0008971135 -0.014275131 -0.0026744155 0.0020059983 -0.041932315
0.008658796 0.003931577 0.00946241 -0.0010166718 0.0029962992 0.011376207 0.044617083 -0.0050102137
0.0051183095 -0.000683333 0.0062902924 0.0023410253 0.11133524 0.006888293 -0.0030663752 -0.04175934
-0.0047431267 -0.0256454 -0.011171804 0.007837116 -0.0122092 -0.010976176 0.03511502 0.010813837
-0.009107534 0.03313907 -0.0059545552 -0.058248147 0.0065168296 -0.0037431824 0.008313369 0.0071508344
0.009384139 0.0074721375 -0.014441941 -0.011130414 0.007363122 -0.017566122 0.018923322 0.0048694266
0.013636721 -0.018538104 -0.012871232 0.009361942 0.021255735 0.007391158 -0.014149249 0.017451
0.002585807 0.011835785 -0.0068697184 -0.0038601253 0.01347089 -0.03289993 0.010286343 0.017590985
0.01762741 0.01590109 0.037280563 0.014422041 0.02494417 -0.0004942992 0.014462359 -0.02439612
0.018350154 0.008535206 0.021441815 -0.017530277 -0.012113702 -0.013768906 -0.00058242795 0.018953847
0.022961462 -0.01074678 -0.015335961 -0.013433248 0.012265157 0.006598768 -0.009276583 -0.008125241
0.00015636817 0.02109545 -0.0036974698 -0.015855232 0.003722263 0.003784405 -0.0027444905 -0.01918543
0.011681312 0.0024145378 -0.012612952 0.012633457 -0.009368343 -0.0070470013 0.011915052 -0.015938435
-0.012957072 0.020256804 -0.012803591 0.27139384 0.001668896 0.004623172 0.00030088253 -0.013725086
0.013026148 0.13939145 -0.0044595012 -0.0045529073 0.1352019 -0.010759475 -0.0019875318 -0.027956426
-0.015184167 -0.0017484362 -0.006590886 0.1276224 -0.028327746 0.10390495 -0.014855986 0.00094708765
0.022690134 -0.026274828 0.39610025 -0.007127659 -0.05451116 -0.017763518 0.0020455478 -0.031389367
-0.010433716 -0.009448282 0.0018951526 -0.0047891373 0.0021981967 0.0011940562 0.083645545 -0.0146538755
-0.009606762 -0.0020272848 -0.01916394 0.004334977 0.098484755 0.056974463 -0.008378732 -0.033946738
-0.0140381465 -0.0007235479 -0.0031200678 -0.0036026775 -0.015064067 -0.010270503 0.17577986 0.0043615443
-0.0066680824 0.13145086 0.01266836 0.00217574 0.13901863 -0.01375534 -0.0011027762 0.0019203769

encoder.bias_hh_l0 f4 [256]
00000000: 86f6 c8bb 706f 143d 9654 26bc 2d5c 883e
00000010: ae30 2e3b 3244 023c be8f 69b9 9ee3 58bc
00000020: 29e9 333d 5163 cc3d dbfd f0ba d72a bbbb
00000030: aba4 223e 5abb 60bc 0bc0 263b 116c b6bc
00000040: d4d6 aebb 19a3 4839 0bf4 d5bb d335 da3d
00000050: ae08 1fbd c600 c63d c393 1dbc 36f3 663b
00000060: c015 0e3d c254 cdbc 45cc e23e 9890 4e3a
00000070: 6709 55bd 75b4 68bb ec4d c23a f4fc 50bd
00000080: 6b25 d03b 50b9 923b 174e 063c a4aa 87bb
00000090: f13a cb3a 607c 9d3b ff5f ad3d 0a3d 4cbc
000000a0: d010 c63a 3598 a33a 1785 5b3a f983 a43b
000000b0: 46f9 b13c 1cc5 6d3d c51d e0bb b29e 00bd
000000c0: 709f cbbb 4ddb b8bc 75c8 82bc 0f3f 8a3b
000000d0: e5ed 80bc ae80 1ebc 301a b33d d765 073c
000000e0: 5e1b e4bb abaf f53d e430 8d3c 0953 0cbc
000000f0: 5beb b73d 19c2 7bb9 2f09 4d3b 1d50 043c
00000100: 6a3a c8bb 9371 ffbc 2a88 9abb 1405 a73d
00000110: ecee 1639 b334 e93b 5aaf 293c df6e 6ebb
00000120: 9b4a 053d 16ed d2bb 6f15 003b 170c b5bb
00000130: 5c46 1fbb a5a9 93bc 14b9 813b 5d48 0f3b
00000140: 7ba2 cfbb 2570 1f3b 7815 53bb d8e9 10bb
00000150: 3eef 07bd 2cfd b73b 79ba a8bb 3714 a33b
00000160: 550b aebc 4fab 553b d174 c1bc 452c 6b3a
00000170: 3de2 69bc 3f45 2fbb 1177 033b 38c1 2bbd
00000180: 9fdd 0d3c 75d4 803b 3908 1b3c d841 85ba
00000190: 8f5d 443b 4563 3a3c 67c0 363d b82c a4bb
000001a0: 7eb7 a73b b421 33ba cc1e ce3b e36b 193b
000001b0: bb03 e43d 31b7 e13b 3df5 48bb d70b 2bbd
000001c0: 3b6c 9bbb 4d16 d2bc f109 37bc 3f67 003c
000001d0: 1909 48bc 6bd5 33bc c4d4 0f3d 852c 313c
000001e0: c437 15bc d5bc 073d 6e1e c3bb 9c95 6ebd
000001f0: 218b d53b 2e50 75bb cc34 083c 8c51 ea3b
00000200: efbf 193c d5d8 f43b e49d 6cbc 575c 36bc
00000210: 5846 f13b d4e6 8fbc 1505 9b3c b68f 9f3b
00000220: 8e6c 5f3c 39dd 97bc dce1 52bc d562 193c
00000230: 8220 ae3c 8731 f23b 40d2 67bc 66f5 8e3c
00000240: a476 293b e1ea 413c 601b e1bb 28fa 7cbb
00000250: 02b5 5c3c 14c2 06bd 0d88 283c f81a 903c
00000260: 5c67 903c 0143 823c 81b3 183d 6d4a 6c3c
00000270: b757 cc3c dc93 01ba 88f3 6c3c 5fda c7bc
00000280: 1053 963c 40d7 0b3c bfa6 af3c a89b 8fbc
00000290: 8c78 46bc fa96 61bc 14ae 18ba 1945 9b3c
000002a0: ad19 bc3c 4313 30bc af43 7bbc 2017 5cbc
000002b0: ccf3 483c 7a3a d83b cffc 17bc bb1f 05bc
000002c0: c3f6 2339 5dd0 ac3c 4051 72bb d5e2 81bc
000002d0: 36f1 733b c803 783b e9dc 33bb c32a 9dbc
000002e0: f962 3f3c 393d 1e3b 8ea6 4ebc 8ffc 4e3c
000002f0: ae7d 19bc 88ea e6bb 5a37 433c 5291 82bc
00000300: e649 54bc 99f1 a53c 27c6 51bc 22f4 8a3e
00000310: dbbe da3a fa7d 973b c5bf 9d39 2fdf 60bc
00000320: a06b 553c a2bc 0e3e 0221 92bb 8e30 95bb
00000330: 5e72 0a3e 8248 30bc 4041 02bb e004 e5bc
00000340: 03c7 78bc c92b e5ba 5cf8 d7bb 72af 023e
00000350: 970f e8bc 1ecc d43d 8666 73bc fa45 783a
00000360: a9e0 b93c 4f3e d7bc a7cd ca3e 238f e9bb
00000370: 1847 5fbd cc84 91bc 990e 063b 2392 00bd
00000380: 2df2 2abc f8cc 1abc c566 f83a 32ee 9cbb
00000390: 9f0f 103b e181 9c3a 5b4e ab3d cf16 70bc
000003a0: ae65 1dbc 32dc 04bb b2fd 9cbc 6c0c 8e3b
000003b0: 60b2 c93d 0e5e 693d f346 09bc bc0b 0bbd
000003c0: 4100 66bc 7aac 3dba 0d7a 4cbb e61a 6cbb
000003d0: 47cf 76bc 9d45 28bc a3ff 333e 49eb 8e3b
000003e0: ee7f dabb 0e9b 063e f48e 4f3c dc96 0e3b
000003f0: e65a 0e3e 145e 61bc 078b 90ba 28b5 fb3a
-0.0061329035 0.036239088 -0.010152003 0.26632825 0.0026579308 0.007950829 -0.0002227416 -0.013237862
0.04392353 0.099798806 -0.0018386202 -0.005711894 0.15883128 -0.013716543 0.0025444056 -0.022268327
-0.005335668 0.00019134245 -0.0065293363 0.106547974 -0.038826637 0.09668116 -0.009617749 0.003524018
0.03468871 -0.02506483 0.4429647 0.00078798225 -0.05201092 -0.0035507951 0.0014824248 -0.051022485
0.006352117 0.0044776574 0.008197329 -0.004140215 0.0015505237 0.0048060864 0.084655754 -0.012465725
0.0015111212 0.0012481274 0.0008374019 0.005020615 0.021725308 0.058049306 -0.0068394863 -0.031401344
-0.006214075 -0.022565508 -0.015964726 0.004218943 -0.015738437 -0.009674234 0.08745229 0.008264027
-0.0069612702 0.11996397 0.017235227 -0.008564719 0.08980437 -0.00024009532 0.0031285991 0.008075741
-0.006110479 -0.031182086 -0.004715939 0.081552655 0.0001439412 0.007116878 0.0103567485 -0.0036382002
0.032541852 -0.0064369543 0.0019544025 -0.005525123 -0.0024303412 -0.018025229 0.0039588306 0.00218632
-0.006336508 0.0024328318 -0.0032208841 -0.0022112038 -0.033187144 0.0056148972 -0.0051491824 0.004976775
-0.021245638 0.0032603329 -0.023615273 0.0008971135 -0.014275131 -0.0026744155 0.0020059983 -0.041932315
0.008658796 0.003931577 0.00946241 -0.0010166718 0.0029962992 0.011376207 0.044617083 -0.0050102137
0.0051183095 -0.000683333 0.0062902924 0.0023410253 0.11133524 0.006888293 -0.0030663752 -0.04175934
-0.0047431267 -0.0256454 -0.011171804 0.007837116 -0.0122092 -0.010976176 0.03511502 0.010813837
-0.009107534 0.03313907 -0.0059545552 -0.058248147 0.0065168296 -0.0037431824 0.008313369 0.0071508344
0.009384139 0.0074721375 -0.014441941 -0.011130414 0.007363122 -0.017566122 0.018923322 0.0048694266
0.013636721 -0.018538104 -0.012871232 0.009361942 0.021255735 0.007391158 -0.014149249 0.017451
0.002585807 0.011835785 -0.0068697184 -0.0038601253 0.01347089 -0.03289993 0.010286343 0.017590985
0.01762741 0.01590109 0.037280563 0.014422041 0.02494417 -0.0004942992 0.014462359 -0.02439612
0.018350154 0.008535206 0.021441815 -0.017530277 -0.012113702 -0.013768906 -0.00058242795 0.018953847
0.022961462 -0.01074678 -0.015335961 -0.013433248 0.012265157 0.006598768 -0.009276583 -0.008125241
0.00015636817 0.02109545 -0.0036974698 -0.015855232 0.003722263 0.003784405 -0.0027444905 -0.01918543
0.011681312 0.0024145378 -0.012612952 0.012633457 -0.009368343 -0.0070470013 0.011915052 -0.015938435
-0.012957072 0.020256804 -0.012803591 0.27139384 0.001668896 0.004623172 0.00030088253 -0.013725086
0.013026148 0.13939145 -0.0044595012 -0.0045529073 0.1352019 -0.010759475 -0.0019875318 -0.027956426
-0.015184167 -0.0017484362 -0.006590886 0.1276224 -0.028327746 0.10390495 -0.014855986 0.00094708765
0.022690134 -0.026274828 0.39610025 -0.007127659 -0.05451116 -0.017763518 0.0020455478 -0.031389367
-0.010433716 -0.009448282 0.0018951526 -0.0047891373 0.0021981967 0.0011940562 0.083645545 -0.0146538755
-0.009606762 -0.0020272848 -0.01916394 0.004334977 0.098484755 0.056974463 -0.008378732 -0.033946738
-0.0140381465 -0.0007235479 -0.0031200678 -0.0036026775 -0.015064067 -0.010270503 0.17577986 0.0043615443
-0.0066680824 0.13145086 0.01266836 0.00217574 0.13901863 -0.01375534 -0.0011027762 0.0019203769

encoder.weight_ih_l1 f4 [256, 64]
00000000: 3690 783d 9f1e 9abd eba7 e4bc a765 813c
00000010: a652 ed3d 5e5a a6bd 51b4 b43c 9ab5 fdbd
00000020: d801 10be 54d6 4fbd 984e 6abc 7c30 263d
00000030: fdb9 923d 7f1e d33d faec 4e3d 5351 9c3c
00000040: 039e a63d f889 f93c 05c7 393d 5e1f 183e
00000050: b619 983d 1327 f03d c620 debd 36a0 1fbd
00000060: e8a2 cdbc 6000 423d 38c4 fd3d ab29 ab3c
00000070: a571 b1bd 88cf f93d 5651 e93c cbd5 a6bc
00000080: 521d 8fbd 0248 043e 069f 4c3e ef0d 2f3d
00000090: 4f5f eebd e657 cf3c f4a9 75be e8a2 2a3e
000000a0: 53e7 8c3d 4812 b6bb 13ac 9c3d 1731 173e
000000b0: afd7 f0bd bf78 19be 7540 0fbe 5ef9 e3bc
000000c0: 69b3 94bd 4097 91bd 057d da3d a642 533d
000000d0: 1cae 3fbd 870b e43d 76de 2b3d 5e3c e13d
000000e0: 6665 df3d d0f7 143e e0c8 bd3d 99b6 5abe
000000f0: abf5 e83b 730e ebba c9c4 ecbc 2a7e 69bd
00000100: d0df 2abe 0e30 f9bd 0e8b 893d 2f98 a8bc
00000110: be87 21be bc11 ff3d 6221 e3bd 1f71 ad3d
00000120: e64b 533e 0080 9ebc 7628 373e 5180 f9bd
00000130: 1af2 b23d 5d75 e3bb 98eb 813c 3693 3ebe
00000140: f272 f63c be6f 4c3c 16af 843d cf67 e5bd
00000150: a680 9f3d bbb1 3abe 39af 2e3c 756f 9a3d
00000160: dfc0 bebc 7598 dbbd 67c1 e3bc 892b 28be
00000170: c7a0 e13c 8422 dcbd d6f5 ce3d 0df4 703d
00000180: dc05 b93d 479f 2abe 704d b43d c5a8 ce3a
00000190: f05d 273e 55d5 ac3c ecd4 673d 6954 8dbc
000001a0: 344d 66bd 28db 0a3d 81fe 1f3e a5c8 9bbd
000001b0: a364 423d cca0 1d3e 1fe2 923a 4545 7dbd
000001c0: 67c2 b13d 3da2 43bd 30ea efbd 2c22 093e
000001d0: e788 0fbe b1f9 503d a35e 363d 0d88 183c
000001e0: 829f d8bd bdb1 a1bd 3ac4 4e3d 2454 10bd
000001f0: f040 06be 9c70 cd3d 5db3 babd ab74 e93c
00000200: 5cfe 2e3e 3683 9ebd fe60 54bc 81a4 c83e
00000210: f7b1 653d 9a38 25bd 99ec 88bd 359c d5bd
00000220: 7e08 7abc 1da1 ac3c 06f0 18be 0198 8abd
00000230: 4d8b 1a3e c16e 2c3c 79da b1bd f3ac bb3c
00000240: 55cf c33d 929f a23d 85ca e4bd 294d 83bd
00000250: 0fc6 993d 7e8a b83d caea 0d3e 6986 33bd
00000260: cee1 8d3d 21c4 96bd 9338 be3e 9b16 6c3d
00000270: 39bb 0fbe d38d 0d3e 6616 163e 37a0 ec3c
00000280: 8a70 143e c9fe 903d bcf2 4b3d 877b c138
00000290: f564 72bd 8a09 44bd 00ff 65bd d0e1 e7bc
000002a0: 09c8 c63d 09ba 233d 7995 a5bd 377e f23c
000002b0: b875 e8bd 2f51 0a3e eb03 dd3c 0d01 073c
000002c0: 3425 993d 1fc2 033b f624 983d afe8 21bc
000002d0: aaa1 8b3d fe3d b6b9 d5ba 4e3e fc7a bb3d
000002e0: 8a4e 333d ebaf 13be 7f41 febd 6500 0bbe
000002f0: 7bde 193d ea77 15be f101 18bd 77b6 f7bd
00000300: b738 98bc b6a7 aebd 8f2b d43d 792d 2a3d
00000310: 7b50 0a3e 3adc 23be ca20 27bc 3437 943d
00000320: 0d70 063e 8112 083e 54a0 edbd d478 a83d
00000330: 46bb 453e 9c29 88bd 8b31 d43c 62e9 f93b
00000340: 9e65 c5bd 8fa0 d73d fc15 0ebe a86b 0e3e
00000350: 27cd b23d 7ede 5a3d eee1 d0bc 31a8 5a3d
00000360: d75d 073c b4b6 c23d 830e 443e 7d63 a63d
00000370: 052b bd3d 8a97 aabd 9982 25bd 3cbb 6bbd
00000380: 0249 cbbd 7960 b8bd 54cb 173e 5777 93bc
00000390: ccb2 8f3d 1d6e 8abd ac4d f43d cdc1 3abd
000003a0: 0c1c 8dbd 9f19 bdbd 5d53 623d 66a3 4ebd
000003b0: 4929 853b 4985 66bd 985a 02bd 6dc7 1dbd
000003c0: c536 a2bd 97bb 0fbd 3d61 f03d 7d74 503d
000003d0: ea07 133b e520 83bc e037 07be d30f 82bc
000003e0: 8805 843d b025 46be 5c06 bc3d 49f7 e23c
000003f0: e9c8 debd 78a5 6c3d 08ed 053e 9b49 53bd
0.060684405 -0.07525372 -0.0279121 0.015795542 0.115880296 -0.08122705 0.022058638 -0.123881534
-0.14063203 -0.05074151 -0.014300965 0.040573582 0.07164381 0.10308551 0.050518967 0.019081747
0.08135607 0.030461296 0.045355815 0.14855716 0.07426779 0.11726203 -0.10846095 -0.03897115
-0.025102094 0.04736364 0.123909414 0.020893892 -0.08664254 0.121977866 0.028481167 -0.020365616
-0.06988014 0.12918094 0.19982538 0.042737897 -0.116392724 0.025310468 -0.23990613 0.16663706
0.06880059 -0.0055563785 0.07650008 0.1476482 -0.117598884 -0.14987467 -0.13989432 -0.027828868
-0.07260782 -0.07108927 0.10668377 0.051577233 -0.046796903 0.11135011 0.041960202 0.10997842
0.10908012 0.14547658 0.092668295 -0.21358718 0.007109364 -0.0017933383 -0.028902428 -0.057005085
-0.1668694 -0.12167369 0.06715976 -0.02058038 -0.15774438 0.124545544 -0.11090352 0.08468842
0.20634422 -0.019348145 0.17886528 -0.121826775 0.087375835 -0.006941481 0.01585941 -0.18610844
0.030084107 0.012477813 0.064787075 -0.112014405 0.077882096 -0.18231861 0.0106618935 0.0754079
-0.023285327 -0.10722438 -0.027802182 -0.16422857 0.027542485 -0.10748771 0.10105483 0.058826495
0.09034321 -0.16662322 0.088038325 0.001576685 0.16344428 0.021097818 0.056599542 -0.017252164
-0.05622597 0.03390041 0.1562443 -0.07606629 0.047459256 0.1539337 0.0011206305 -0.06183364
0.086796574 -0.047762144 -0.117145896 0.13391942 -0.14017068 0.051019374 0.044523846 0.009309781
-0.10577299 -0.07895229 0.050480105 -0.035236493 -0.13110709 0.10031244 -0.09116242 0.028498014
0.17089218 -0.0773987 -0.012962578 0.39188007 0.056077924 -0.040337183 -0.066857524 -0.10430185
-0.015260814 0.021072919 -0.14935312 -0.06767274 0.15092202 0.010524453 -0.086842485 0.022909617
0.0956103 0.07940592 -0.1117144 -0.064112015 0.0750848 0.0901079 0.13859096 -0.043829355
0.069278345 -0.07361627 0.37152538 0.057638746 -0.14036264 0.13823633 0.14656982 0.02888499
0.14496055 0.070798464 0.049792036 9.225966e-05 -0.05917831 -0.04786066 -0.05615139 -0.028305918
0.097061224 0.03997234 -0.0808515 0.0296012 -0.11350578 0.13507532 0.026979407 0.008239997
0.07477799 0.002010472 0.07428925 -0.009882136 0.06817944 -0.00034759933 0.20188458 0.09154317
0.043776073 -0.14422576 -0.12414836 -0.13574369 0.03756569 -0.14596525 -0.037111226 -0.12095349
-0.018581731 -0.08528082 0.10359871 0.041547272 0.13507263 -0.16001979 -0.010200689 0.07237092
0.13128681 0.13288309 -0.11602846 0.08226171 0.1930972 -0.06648561 0.02590253 0.0076266984
-0.096385226 0.10528671 -0.13875574 0.13908255 0.08730536 0.05343484 -0.025498357 0.053383056
0.008262119 0.09507504 0.19146161 0.08124445 0.09236721 -0.08329685 -0.04040775 -0.057551607
-0.099260345 -0.09002776 0.14823657 -0.018001242 0.07016525 -0.06759284 0.11928877 -0.04559498
-0.06890115 -0.092334025 0.055255283 -0.050448798 0.0040637595 -0.056279454 -0.03182468 -0.038520265
-0.07920603 -0.03509101 0.11737297 0.050892342 0.0022435137 -0.016006896 -0.13204908 -0.015876686
0.064463675 -0.19350314 0.091809005 0.027705805 -0.10878164 0.05777499 0.13078701 -0.051583868

encoder.weight_hh_l1 f4 [256, 64]
00000000: 8513 62be b99b a8bd 4fcc bfbd 682f 223d
00000010: d2d9 0f3e 0435 10bd 7fd6 033e 2c0f 69bd
00000020: b5a5 043e c045 a63d cae5 a4bb f2f4 2bbd
00000030: dd94 793c fa51 4a3d e205 21be eac1 8fbe
00000040: 8590 febd b805 933d 8d16 e9bd 155f 0abd
00000050: d75d 083d feee 20bd d11c 7e3b 6a84 79be
00000060: 28ba f1bd 5e1e 3f39 1849 8cbc 2f9f afbd
00000070: f3fe 2cbd 1716 bc3d b757 a43d 2a01 dbbd
00000080: 68dd 343c 9a4f 2ebe c61b 27bd faa5 c63c
00000090: 2a3c b3bd 8059 a1be e575 16be 787b f9bd
000000a0: 5acb 86bd 0999 7cbd 327b cc3b ffe7 a53d
000000b0: 0a65 1ebe 45e0 0a3e 7103 68be ec64 1cbe
000000c0: dee1 453e 455f 073d d899 f03d 0158 a6be
000000d0: e6fa 37be 15d1 603d 3b50 bebc e0a5 5d3d
000000e0: 652a 0dbd 79ef dfbd 9737 163e d9c5 a13d
000000f0: 9482 da3d d082 31bd 8220 d43c 0554 3e3c
00000100: 2c20 c83d 72ec 88bd a8f5 df3c 691b 03bd
00000110: a6cf 683e 9d9f d5bd f4ae 3c3c cea6 87bb
00000120: ca58 0e3d a8f1 d7bc 7ebe 153d a7d5 77bd
00000130: b9d5 49bb ed19 3dbd c697 19bd 7b17 fa3d
00000140: 07fd 74bc 585b aeba 1c77 c53d 47e1 b5bd
00000150: 2c84 0fbe 5ea7 02bc ca64 f43d 1640 693d
00000160: 18c3 cf3d 6015 7a3d 408b 31be 7ffe 9e3d
00000170: 0d16 c6bd 1302 d93d b919 b5bb 10e2 753d
00000180: d99a 8f3b d0d8 283d 230e 80bd acea 83bd
00000190: c121 18bc 5d6f eabc 799a aabb 3640 a438
000001a0: f95c 5d3c 7b41 bebc a261 d73d d555 69bd
000001b0: a8e4 bf3b 6620 f0bd b9dc 45bd cdec 233d
000001c0: fa68 bcbc 913b f9bd cbba 293e c80a 02be
000001d0: 0ea0 e93c ccee e2bd 662b 843d 8326 2bbe
000001e0: c4b0 53bd bbd5 173d 7c24 64bd 92b4 9cbd
000001f0: 4f8a c13d c1ea 14be 941b 263e efec 6d3d
00000200: 28fc aabd 76f3 a8bd 1e6b 53be 9bc8 dabc
00000210: f29b a63d 76f5 c4bc bf56 973d 3ccd f4bd
00000220: 1352 3a3e d8ad 88bd 553d 8b3d a35b 3abe
00000230: a4b3 993b 1ee3 a33d d164 e63c ee5f ec3b
00000240: d412 f63c 354c d5bd a940 83bd 9555 5e3a
00000250: e01a ccbc 81b4 debc 3b16 01be 638f bdbd
00000260: 17b6 32bd 46db 5c3b 67bd fc3d 959c 53bd
00000270: 086c 96bd 849d bcbc 7c2d 863d fe4d 583d
00000280: 8ecc 413e 562e c13b 7fe1 c13a 90a4 a1bb
00000290: ac9b f7bc d9cb 943c 4047 3dbd 4f50 79bd
000002a0: 8023 01be 3842 3a3e 8bd2 553d 25c6 1b3d
000002b0: 4003 183d a4bc 1a3e 14de 86be fb7a a8bd
000002c0: 7754 e23d 1222 e13d 9303 59be 7417 28be
000002d0: e9aa 903c 27d8 823e 0a38 3e3e 1873 053e
000002e0: b5f7 72bd 4cbf 1cbd 13ba e6bd 204d 0d3d
000002f0: 0e06 e23d dcfd 3b3c bcac 88bd fdff 8fbd
00000300: f232 0abe 3ad0 103d d676 5ebd c380 053e
00000310: b36a 27bc 762a d6ba 2751 823d 5f28 dabd
00000320: 30bc 953d 699c 22be f906 bb3d 14ac e2bd
00000330: fd4e 283d 0be0 b33d f144 21be 573d 9ebd
00000340: f73b 0ebd 32cb 30bd 65e0 1fbd 856c bcbb
00000350: b82b f1bd 2a8d 18be b9d5 03be 595a 98bd
00000360: e58f 0dbd 100e e03d a5c6 663d 09c5 8bbd
00000370: 1b2d eebd abe7 0b3d c706 1b3d 5710 b13d
00000380: 5163 8bbb bfe6 13bd a777 3ebc fdd4 473d
00000390: 2b9e c03d 4f4b 9abd 199e b53d 5385 16bd
000003a0: d20d c73d e86b d63d 9e75 613c 9667 853d
000003b0: 4e0c 21be a882 863d 345c 41bd 7da0 c3bd
000003c0: 3da4 babc 68dd 3c3d aedc 843d 81b6 2ebe
000003d0: d273 e6bc 8a2f 083d d44f 983d 6ad3 2e3e
000003e0: 3423 9bbd 03ee 7e3c a24a 253d c3a3 503d
000003f0: a659 683d 7a5a 18bd 919a de3c 98a4 7fbd
-0.22077759 -0.08232827 -0.09365141 0.03959599 0.14047936 -0.03520681 0.12874793 -0.056899235
0.12953837 0.081187725 -0.005032276 -0.041981645 0.015233246 0.049394585 -0.157249 -0.28077632
-0.12429909 0.07178825 -0.11381254 -0.033782084 0.033292618 -0.03929042 0.00387745 -0.24366918
-0.118030846 0.00018226492 -0.017124698 -0.08575284 -0.042235326 0.09183901 0.08024543 -0.106935814
0.0110391155 -0.17022553 -0.04079797 0.024249066 -0.0875171 -0.31513596 -0.1469341 -0.12181753
-0.06581755 -0.061669383 0.006240272 0.0810089 -0.15468231 0.13562115 -0.22657563 -0.15272874
0.19324443 0.03304984 0.11748093 -0.32489017 -0.17966804 0.054886896 -0.023231616 0.05411327
-0.03446426 -0.10934348 0.14669643 0.078990646 0.10669437 -0.043337643 0.025894407 0.0116167115
0.09771761 -0.06685723 0.027338818 -0.032008562 0.22735462 -0.104308344 0.011516321 -0.0041397577
0.034752645 -0.026360348 0.03655862 -0.06050649 -0.0030797555 -0.046167303 -0.037498258 0.1221151
-0.014952905 -0.0013302369 0.09641859 -0.08880859 -0.14015263 -0.007974474 0.119332865 0.056945883
0.10144633 0.06105554 -0.17338276 0.07763385 -0.096721746 0.10596099 -0.005526748 0.060030043
0.004382473 0.041222394 -0.06252696 -0.064412445 -0.009285391 -0.028617555 -0.005206403 7.8320896e-05
0.013510936 -0.023224583 0.10516669 -0.05696662 0.0058561154 -0.117249295 -0.0483062 0.040020753
-0.022999275 -0.121695645 0.16575162 -0.12699425 0.028518703 -0.11080703 0.0645359 -0.1671391
-0.05168225 0.037069064 -0.055698857 -0.076516286 0.094502084 -0.14542677 0.16221458 0.058087286
-0.08348876 -0.082495615 -0.2064633 -0.026706984 0.08135213 -0.024042826 0.073895924 -0.11953208
0.18195371 -0.06673783 0.067988075 -0.18199019 0.0046906043 0.080023035 0.028124245 0.007213584
0.030038275 -0.10414926 -0.06408817 0.00084813806 -0.024915159 -0.02718568 -0.12606137 -0.092558645
-0.043630686 0.0033700033 0.12340813 -0.051663 -0.07344824 -0.023024328 0.06551644 0.052808754
0.18925688 0.0058954163 0.0014791935 -0.0049329475 -0.030225597 0.018163608 -0.046210527 -0.060867604
-0.12611198 0.18189323 0.052202743 0.038030762 0.037112474 0.15111023 -0.26341307 -0.08226582
0.11051267 0.109928265 -0.2119277 -0.16415197 0.017659621 0.25555536 0.18576065 0.13032186
-0.059318263 -0.038268372 -0.112659596 0.03449738 0.11036311 0.011474099 -0.066735715 -0.07031248
-0.13495997 0.03535483 -0.05431255 0.130374 -0.01021831 -0.0016339559 0.06363135 -0.106522314
0.073112845 -0.15879978 0.09132189 -0.110679775 0.041090954 0.08782967 -0.15748955 -0.077265434
-0.034725156 -0.043162532 -0.03903236 -0.005750241 -0.11775917 -0.148976 -0.12874497 -0.074391074
-0.034561057 0.10940182 0.056341786 -0.06824691 -0.11629697 0.034156483 0.03784826 0.08645695
-0.004253783 -0.03610873 -0.011625207 0.048787106 0.09405168 -0.07533895 0.08868045 -0.03674824
0.09719433 0.104698 0.013760952 0.06513898 -0.1572735 0.065678895 -0.047207072 -0.09552095
-0.022783393 0.046109587 0.06487404 -0.17061807 -0.0281314 0.03324846 0.07437101 0.17072836
-0.07575074 0.015559676 0.04035438 0.050937425 0.05672612 -0.03719566 0.027173312 -0.06241283

encoder.bias_ih_l1 f4 [256]
00000000: 34f5 1d3d 3a5a f8bc 9668 8c3d 2e49 533d
00000010: cfc2 bc3d cc0d 993d 6a92 4d3d 2671 b23c
00000020: 38d4 643d 268e 863d 9909 ce3d 7660 843d
00000030: 236c 413c df40 a73d 2e67 153d ef6b d63d
00000040: d764 b93c 2509 9bbb b807 b03d 16b7 773c
00000050: 8b5d 0c3c f5d6 183e 6ea2 f53c eec1 7dbb
00000060: b0bc 723d ba1c e63d 8891 d3bb 449a 9d3c
00000070: c91a db3c 8066 6f3d 4084 e03c 7447 db3b
00000080: 468b 843d 057e 1a3c 41bd 073c 1464 713c
00000090: 5aee 823d 5d4d bd3d 0cca 903d 8212 f83c
000000a0: 74b0 f73c 3ceb f13c 8290 9cbc 0fc5 0f3d
000000b0: bb95 fa3d ed6d 963d eb71 ed3d 5c4d 183d
000000c0: 65eb d33c 947a 9f3c 018c 1b3c 6bad 4f3e
000000d0: 9a73 873d 32f0 443d 1cea 1b3d 249c 183d
000000e0: db37 043e 7ced be3a 0058 c33c 29b2 efbc
000000f0: 46c7 fa3c 2847 473c 77e1 283a 0de9 4d3d
00000100: eefc 873d 1ebf 40bb a298 613d 59a6 4b3d
00000110: 50a0 083d 2314 a43d d701 333d eaa3 ec3a
00000120: 04d3 503d ea21 a2bc 111e 4a3d 3ec6 113d
00000130: 7857 383c 273e 9b3d 0448 643d f1ec 883d
00000140: b4c0 153d d63b 3abb b1f4 b63d 1214 a83d
00000150: 5f78 89bb 0aad f33c 35e7 583d 409f 613b
00000160: bb80 8a3d a19d c83d 7c88 fbbb 2df0 fb3b
00000170: bf0c d93c b18e 1f3d b7e1 8d3d bc9a b23c
00000180: e3c4 c03d d635 ad3c 5bb5 07bc 519c 123d
00000190: c433 403d e7e9 1e3e 1626 ea3c 654c e73c
000001a0: c563 433d c907 723d 9f63 73bc 8f22 c33c
000001b0: 2972 083e 37df a03d 8452 e73d da49 903d
000001c0: 7aaa e53b bd9b 9e3c ef5e 703d 52dc 8f3d
000001d0: 647a 583d 8dd5 9c3d 34fd c23d 4519 103d
000001e0: 075c ce3d 2b7f 853c 3b52 103d 4255 a5bb
000001f0: 8c37 053d 9e14 cd3c 4a16 e73b 4113 6d3d
00000200: 20d6 a5bc 47b2 eebc 0e70 55bd 50c8 8e3d
00000210: b7eb 1b3d c51a e23c 3118 693d 5b0b 3cbd
00000220: 6d49 423d f8e3 f1ba 0fa7 cb3c 38c1 05bd
00000230: 9ee7 c53c 0dff 693d 28a1 743c 2212 1abd
00000240: 8207 c9bc acb3 d03c 9a38 ddbc f16d 10bc
00000250: 72ee 1ebc 3178 92bc 7f25 fdbc b3d9 0dbd
00000260: 7a8f 30bd 98c0 24bc 3593 cd3c 4e9a 083d
00000270: 551a 66bd 71d1 0e3d bf67 063d 04aa 593d
00000280: 5555 68bd 3ae8 16bd f842 02bd 5a94 b63c
00000290: 1b04 cfbc 3b2d 5b3c 8f43 0fbd 28a2 44bd
000002a0: 38b5 eebc d792 d83c f785 a23a 8951 393d
000002b0: 76c4 b2ba 67e9 323d 3ad0 6abd 2d28 fdbc
000002c0: ccb2 b33c 2677 e43c fec7 e03c 4484 07bb
000002d0: b2f5 5ebd e5b4 353d 2903 0c3d 867c a53c
000002e0: a953 11bc 79e4 26bd d955 d9bc 4aea 19bc
000002f0: 10e9 073d 4720 aa3c f4d2 223d 9ad2 8fbc
00000300: a85b 123e 2f31 ccbc e067 873c f0c6 dcbb
00000310: 43b2 513d 5b1f c33d 9ab2 973c 9f4b abbb
00000320: ddd7 923c 1206 653d 746b 923d 26a2 103c
00000330: 6ef7 2cbc 36e6 183d 0d35 f43c 5466 fe3c
00000340: 8871 ff3c acfe e9bc 1d45 113d fc37 b43d
00000350: 6d99 19bc a7ca 933d 2d7b b93c 2077 4c3b
00000360: 81cb f03c 2ba7 9a3c b2c0 91bb 4097 eb3b
00000370: 3f10 9ebb b128 353d 9086 703c 95a8 0a3d
00000380: bf1f 5a3e 4924 d63b f66f 94bc 474f 58bc
00000390: 425d eb3d bb2e fc3c ec79 b13c 1cb8 313c
000003a0: 7347 0a3d 0088 9a3d a81b a0bc da00 7e3c
000003b0: baf5 3d3d 5ebd fd3c 6b30 123e 31d1 1a3d
000003c0: 2334 173d 32ad bd3c f2ca 243d 6afc 793e
000003d0: 3fcb ce3c f0ba 4a3d a5a9 d63d fc5e 843c
000003e0: 9019 953d be09 18bc 0ffe 1b3d 8276 18bd
000003f0: 2db7 d73c f563 6b3c 578a 67bb 975a 5a3d
0.038563922 -0.03031646 0.06855886 0.05158346 0.09216844 0.07473335 0.05018846 0.021782469
0.05586645 0.065700814 0.10060424 0.06463711 0.011805567 0.0816667 0.036475353 0.104698054
0.022631092 -0.0047313147 0.08595222 0.015119335 0.008567224 0.1492575 0.02998468 -0.0038720327
0.059261978 0.11235948 -0.0064565577 0.019238599 0.02674617 0.05844736 0.027406812 0.0066918675
0.06471877 0.009429459 0.008284868 0.014733333 0.06393118 0.092432715 0.070697874 0.030282263
0.030235507 0.029531114 -0.019111875 0.03510004 0.1223559 0.073451854 0.11593994 0.03718315
0.02586908 0.01946763 0.009493829 0.20280997 0.06613846 0.04808063 0.03806506 0.037258282
0.12911932 0.0014566625 0.023845673 -0.029259758 0.0306126 0.012162961 0.0006442288 0.050271083
0.066400394 -0.002941079 0.055077203 0.04971919 0.03335601 0.08011653 0.043702926 0.0018054221
0.05098249 -0.019791562 0.04934508 0.03558945 0.011251323 0.07580214 0.055732742 0.06685818
0.03656073 -0.0028417013 0.0893339 0.08206953 -0.0041952576 0.029745597 0.05295487 0.0034427196
0.06762835 0.0979569 -0.0076761823 0.0076885433 0.026495336 0.03895444 0.06927817 0.021802299
0.09412553 0.021143835 -0.008282985 0.035793606 0.046924368 0.15518914 0.028582614 0.02823467
0.04770257 0.059089456 -0.0148552945 0.02382019 0.13324799 0.07855075 0.112950355 0.07045336
0.007008848 0.019361371 0.058684286 0.07024445 0.052851096 0.07657919 0.09520951 0.03518035
0.100761466 0.01629599 0.03523467 -0.005045564 0.032523677 0.025034245 0.0070522176 0.05787969
-0.020243704 -0.029137744 -0.052108817 0.069718 0.038066592 0.027600655 0.056907836 -0.045909267
0.047433306 -0.0018454781 0.024859933 -0.03265497 0.024158295 0.057128 0.014931001 -0.03761495
-0.024539713 0.0254763 -0.027004529 -0.008815275 -0.0097004045 -0.017879577 -0.030901669 -0.034631442
-0.04310558 -0.010055684 0.025094608 0.03335028 -0.056177456 0.034867708 0.032813784 0.053140655
-0.056722004 -0.036842562 -0.031802148 0.022287536 -0.025270512 0.013377483 -0.03497654 -0.048006207
-0.029139146 0.026437206 0.0012399544 0.045243774 -0.0013638872 0.04367962 -0.057327487 -0.030902946
0.021935843 0.027888846 0.027439114 -0.0020678202 -0.054433532 0.044361968 0.0341827 0.020200979
-0.008870044 -0.040745232 -0.026530193 -0.009394238 0.03318125 0.020767344 0.03975196 -0.017556477
0.14292777 -0.024925796 0.016529024 -0.0067375824 0.051195394 0.09527465 0.018517781 -0.0052275206
0.017925197 0.055913992 0.07149401 0.008827722 -0.010557039 0.03732892 0.029810453 0.031054653
0.031182066 -0.02856382 0.035466302 0.08799741 -0.009374958 0.07216387 0.022641743 0.0031198934
0.029393913 0.01887854 -0.00444802 0.0071896613 -0.004823714 0.04422826 0.01468052 0.03385218
0.21301173 0.0065350872 -0.018119793 -0.013202495 0.11492397 0.030784002 0.021664582 0.010847118
0.033759546 0.07545471 -0.019544438 0.015503133 0.04637692 0.030974086 0.14276282 0.037797157
0.036914956 0.023153875 0.040232606 0.24412695 0.0252434 0.049494684 0.10481576 0.016158573
0.07280266 -0.0092796665 0.038084086 -0.037222393 0.026332462 0.014367093 -0.003533026 0.05330905
