transfer_learning/models/lstm_TL_u1_pretrain.pth (torch, 414128 bytes, 18 tensors)

weight_ih_l0 f4 [256, 3]
0.06778779 -0.1466681 -0.20342205 -0.028663551 -0.022554988 -0.14037922 0.0018143477 0.1066734
0.28622958 -0.02829865 -0.021921346 0.08598049 0.011259109 -0.0829487 0.4499126 0.12735224
-0.0025481225 0.31300983 -0.09484727 0.18060617 0.017458089 0.19726716 0.0856236 0.32473072
0.16540138 0.06765776 -0.024408825 -0.13263057 -0.13855176 -0.00489016 0.1318807 0.11206264
0.16719353 0.06685595 0.09260585 0.12699768 0.038489554 0.09486625 0.018411402 -0.12885705
-0.18509382 0.12840499 -0.008417978 -0.12194478 -0.1412592 -0.09952324 -0.08307478 0.22780919
-0.1541136 0.03436812 0.047487658 -0.0854346 0.08803051 0.06640377 0.110532284 0.10912044
0.10003203 -0.015135857 0.19718462 0.41443232 -0.0012709643 0.13685177 0.21530014 -0.07815764
-0.1392704 -0.06944037 0.027025849 -0.14111672 -0.042702083 -0.0060952133 -0.121071234 0.08778825
-0.07672278 -0.039360046 0.21558309 -0.07138828 0.123692065 0.29786858 -0.13762829 0.1586388
0.13568217 -0.07152023 -0.17276157 -0.10571747 -0.026028657 -0.069337204 -0.02909362 0.09631248
0.08421417 -0.21522628 -0.0027315433 0.03041907 0.35218373 0.07441444 -0.14361505 0.2554169
-0.110835195 0.13460065 -0.32237583 0.09634342 -0.17911598 0.13682131 -0.058641434 -0.06876655
-0.06762498 0.04949617 0.028759675 -0.04886258 0.093768366 -0.16204126 0.24731973 -0.076404504
-0.13402297 -0.007993895 0.15631431 0.14651127 0.19020756 0.13289754 0.13841689 -0.15341944
0.051122904 -0.1309534 0.3445005 0.06372691 -0.07373069 -0.024798563 0.016102906 -0.11951652
0.10149182 0.093700275 0.1409232 0.19217265 -0.04290492 0.108368926 0.6889832 -0.11053765
-0.12110792 0.112776496 -0.059248067 0.13419239 -0.0027366919 -0.15031487 0.115607716 0.0010363845
0.06317935 -0.067783296 0.056592118 0.08139433 0.15937436 0.485595 -0.053329315 0.09434503
0.10976342 0.090417385 -0.04027767 -0.09199243 -0.01918258 -0.14025052 -0.15605262 -0.02107791
-0.06639856 -0.015806634 -0.08899495 0.058824863 -0.12383101 -0.15662311 -0.08963979 0.5234679
-0.0972188 0.012883249 -0.05056545 0.08979685 -0.07984507 0.02803662 0.12820496 0.089856595
-0.014027101 -0.031625055 0.01335942 -0.14422005 -0.09005446 -0.061163627 0.20919928 0.03655516
0.07389809 -0.09097121 0.15202284 -0.034008972 0.06679807 0.14548576 0.14282124 0.095836066
0.18905574 0.06837404 0.041861463 0.02865737 0.040467508 -1.2646533 -0.0276935 0.15472303
-0.46245402 -0.073205546 0.024164338 0.06606432 -0.04339227 -0.10529635 -0.51613796 0.068725996
0.15210204 -0.37503952 0.19996887 0.075691864 -0.27870318 0.022100907 -0.014847483 0.013705011
0.045434784 -0.0064152363 0.0037622752 0.11253602 -0.053057387 0.088237114 -0.0781379 0.12516648
-0.48434812 0.13629994 0.17763145 -0.35252625 0.1422145 -0.11844277 -0.1218312 0.08652389
-0.10688045 -0.46570793 0.10797992 -0.10670604 0.009080022 0.1617859 0.13208477 -0.3017175
-0.048688125 -0.12881963 0.023801968 -0.101017036 -0.058212496 0.0813963 0.09221632 0.12582245
-0.06595184 0.33624616 0.25781444 -0.23179623 0.17160158 0.0772904 0.06946194 0.13678634
00000000: 53d4 8a3d 2a30 16be df4d 50be d3cf eabc
00000010: 3dc5 b8bc 92bf 0fbe 68cf ed3a 9577 da3d
00000020: af8c 923e 92d2 e7bc 6594 b3bc 8a16 b03d
00000030: 2078 383c 02e1 a9bd f25a e63e a068 023e
00000040: 67fe 26bb d342 a03e 493f c2bd d3f0 383e
00000050: 4404 8f3c 6700 4a3e 6d5b af3d 1b43 a63e
00000060: fb5e 293e 2790 8a3d 04f5 c7bc 4fd0 07be
00000070: 83e0 0dbe a33d a0bb bc0b 073e 1981 e53d
00000080: c834 2b3e c6eb 883d 23a8 bd3d ae0b 023e
00000090: 39a7 1d3d 3d49 c23d 82d3 963c 1af3 03be
000000a0: 3c89 3dbe 997c 033e 8feb 09bc 2fbe f9bd
000000b0: 40a6 10be d7d2 cbbd 1c23 aabd d046 693e
000000c0: f5cf 1dbe 96c5 0c3d 6b82 423d 56f8 aebd
000000d0: 5749 b43d b3fe 873d c05e e23d 8a7a df3d
000000e0: 98dd cc3d 63fc 77bc c4ea 493e 7930 d43e
000000f0: 7c96 a6ba df22 0c3e a477 5c3e 1d11 a0bd
00000100: e69c 0ebe c136 8ebd 5065 dd3c e780 10be
00000110: 61e8 2ebd 5bba c7bb 32f4 f7bd 53ca b33d
00000120: d520 9dbd 0038 21bd d0c1 5c3e 0534 92bd
00000130: 4452 fd3d 3b82 983e 6eee 0cbe 3672 223e
00000140: 44f0 0a3e 3379 92bd 69e8 30be 6782 d8bd
00000150: 0d3a d5bc aa00 8ebd be55 eebc 7a3f c53d
00000160: 7b78 ac3d 4764 5cbe b103 33bb 6a31 f93c
00000170: 6d51 b43e 9966 983d d30f 13be 01c6 823e
00000180: 90fd e2bd c1d4 093e 720e a5be b34f c53d
00000190: 2e6a 37be e31a 0c3e 0032 70bd 7ad5 8cbd
000001a0: f77e 8abd 7fbc 4a3d 6999 eb3c 2124 48bd
000001b0: a109 c03d 25ee 25be 6241 7d3e f779 9cbd
000001c0: 513d 09be d3f8 02bc dc10 203e 0d07 163e
000001d0: c5c5 423e 4b16 083e 28bd 0d3e fc19 1dbe
000001e0: 4066 513d a618 06be 5f62 b03e 4183 823d
000001f0: 1e00 97bd 5b26 cbbc 3eea 833c 14c5 f4bd
00000200: f1da cf3d eee5 bf3d 2c4e 103e e8c8 443e
00000210: 12bd 2fbd 87f0 dd3d 3461 303f 9061 e2bd
00000220: 6e07 f8bd 5df7 e63d 1aae 72bd bb69 093e
00000230: 125a 33bb 24ec 19be bdc3 ec3d 4bd7 873a
00000240: 2d64 813d f8d1 8abd 23cd 673d 12b2 a63d
00000250: 0833 233e e89f f83e d76f 5abd f837 c13d
00000260: a5cb e03d c02c b93d 33fa 24bd 8766 bcbd
00000270: c924 9dbc d59d 0fbe 42cc 1fbe 95ab acbc
00000280: f8fb 87bd ea7c 81bc fc42 b6bd 57f2 703d
00000290: 1d9b fdbd cf61 20be 1195 b7bd fe01 063f
000002a0: a61a c7bd 4314 533c b81d 4fbd 69e7 b73d
000002b0: d085 a3bd 0ead e53c 2948 033e bc06 b83d
000002c0: edd1 65bc 4689 01bd 78e1 5a3c 6cae 13be
000002d0: 796e b8bd b686 7abd 5638 563e ddba 153d
000002e0: e257 973d 1d4f babd e0ab 1b3e fe4c 0bbd
000002f0: 6dcd 883d 38fa 143e bb3f 123e b345 c43d
00000300: d497 413e b007 8c3d ed76 2b3d dcc2 ea3c
00000310: 42c1 253d 29e0 a1bf 7bdd e2bc b76f 1e3e
00000320: c6c6 ecbe caec 95bd 4af4 c53c bb4c 873d
00000330: 18bc 31bd 9da5 d7bd 9e21 04bf 37c0 8c3d
00000340: a3c0 1b3e 2e05 c0be a4c4 4c3e 5604 9b3d
00000350: 2fb2 8ebe f60c b53c db42 73bc fc8a 603c
00000360: d319 3a3d e736 d2bb 8190 763b 4979 e63d
00000370: b452 59bd a9b5 b43d c306 a0bd a42b 003e
00000380: 7afc f7be 3692 0b3e 05e5 353e 527e b4be
00000390: aea0 113e 1f92 f2bd a382 f9bd 7033 b13d
000003a0: 23e4 dabd 4571 eebe 9424 dd3d b288 dabd
000003b0: 5fc4 143c 34ab 253e 3b41 073e b77a 9abe
000003c0: 336d 47bd 4be9 03be 58fc c23c 05e2 cebd
000003d0: 3a70 6ebd 1ab3 a63d e9db bc3d 9ad7 003e
000003e0: c211 87bd 7528 ac3e 4100 843e fe5b 6dbe
000003f0: 53b8 2f3e 6e4a 9e3d 1042 8e3d b811 0c3e

weight_hh_l0 f4 [256, 64]
-0.075760596 0.035111256 0.009369577 -0.044431414 0.09961011 -0.0062271333 0.07191763 -0.048923343
0.012503585 0.03825588 -0.06077418 -0.1052136 -0.051899374 -0.0067708413 -0.026170786 -0.024766432
0.0996527 -0.0849405 0.0776046 -0.030827839 -0.0012178511 -0.021661669 -0.00015851964 -0.011159865
0.06914734 0.093901746 -0.0072769555 0.056903057 0.12298256 0.067974634 -0.08123288 0.06453678
-0.08269944 0.05601459 0.08062079 0.030419515 -0.11908346 0.07114093 0.02051701 0.18408129
0.011644163 0.018116606 -0.017248744 0.04386252 0.06994454 -0.011935117 0.13369377 -0.07307985
0.042146284 0.064218335 -0.031829473 -0.069731124 -0.10420815 -0.102013014 0.044714868 0.079106145
0.04155368 0.17191702 -0.017159048 -0.0037767228 -0.09210043 0.028285451 0.0004294523 0.004332475
0.07482054 0.27083597 0.23630889 -0.1424162 -0.2062609 0.34962776 -0.103898115 -0.1283154
0.124694824 0.14231552 -0.09219997 -0.001175545 -0.14017121 0.40920672 0.084791735 0.1070952
-0.07467943 0.030193409 -0.034499273 -0.31223163 0.1481 0.2574818 0.069204934 -0.1620226
0.41162777 0.22689676 0.20367537 0.12366403 -0.0836452 0.048984047 0.29492918 -0.12958255
0.18265775 -0.10428472 -0.1170212 0.09040645 0.053158976 0.15107605 -0.10257297 -0.01586812
-0.04323377 -0.002758987 -0.19190827 0.15625645 0.029724456 -0.054984108 0.053855557 -0.06716398
-0.09005768 -0.14173247 -0.28095907 0.07194127 0.048784867 -0.07946158 -0.08115408 -0.24228434
0.16032127 -0.007744377 0.13440736 -0.101439476 0.2143855 0.053572513 0.11196804 0.18514901
0.040056735 0.3933983 0.089262605 -0.13538961 -0.21092167 0.16062726 -0.01741671 -0.076319285
-0.05505044 -0.013732619 -0.10244695 0.06349845 -0.186418 0.02393034 -0.11539202 -0.031800915
-0.020595592 0.028144294 0.08525569 -0.06426195 0.055079002 0.20274405 -0.09535385 -0.0636
-0.031594668 0.09207576 0.038700376 0.08547476 0.113792785 -0.14475109 -0.035586625 -0.009072373
-0.07433409 -0.051434815 -0.11717569 0.023327855 -0.06382943 0.054213963 -0.042354006 0.015442926
-0.016152775 -0.034908775 -0.06480069 0.012260419 0.18338726 -0.054061137 -0.04694032 0.07645142
0.04892408 -0.10295828 -0.093711466 -0.104848206 0.01427172 -0.09012647 -0.16225997 -0.11127622
-0.035791688 0.026920997 -0.09758955 -0.058753014 0.030056389 0.18142675 -0.014076263 -0.066924244
0.019065786 0.059199043 -0.0021514387 0.061333325 0.030156044 0.076193064 0.04005604 -0.025539717
0.017859459 0.12095974 0.16157591 -0.04443539 -0.009344976 0.052878935 -0.036220495 0.05233294
0.05894832 -0.028732074 0.07864811 -0.14089912 -0.12908173 0.035250224 0.021381201 -0.071773596
-0.16264226 -0.023975966 0.001345767 -0.03441641 0.06836867 -0.03404111 0.07038934 -0.084950335
0.030511377 0.13149384 0.030907722 -0.026303831 0.0035692502 0.048274275 0.003716673 0.025998902
-0.005283408 -0.07245474 -0.064389996 0.04517951 -0.024008648 -0.07346744 0.086411715 0.068250544
0.07666771 0.046210326 -0.0072851432 -0.048125286 0.03328115 -0.065511465 0.018102972 0.105740316
-0.057136137 0.004537838 -0.003603698 0.045588475 0.09579923 0.010316777 -0.11273896 -0.15026915
00000000: 5f28 9bbd d2d0 0f3d db82 193c b7fd 35bd
00000010: 6300 cc3d fb0c ccbb 8d49 933d d863 48bd
00000020: d6db 4c3c 33b2 1c3d 59ee 78bd 3a7a d7bd
00000030: 7094 54bd efdd ddbb 1e64 d6bc f9e2 cabc
00000040: b716 cc3d 49f5 adbd 29ef 9e3d aa8a fcbc
00000050: 4da0 9fba d073 b1bc 4b38 26b9 ded7 36bc
00000060: 1f9d 8d3d 8f4f c03d 8773 eebb 2e13 693d
00000070: 48de fb3d 4936 8b3d 6d5d a6bd dc2b 843d
00000080: 535e a9bd 8e6f 653d 831c a53d 5932 f93c
00000090: 07e2 f3bd 56b2 913d 4a13 a83c ce7f 3c3e
000000a0: 29c7 3e3c 4769 943c 3d4d 8dbc 30a9 333d
000000b0: 153f 8f3d 828b 43bc 05e7 083e e3aa 95bd
000000c0: 95a1 2c3d e784 833d 9f5f 02bd 31cf 8ebd
000000d0: 156b d5bd 33ec d0bd f026 373d 6702 a23d
000000e0: 3134 2a3d 040b 303e 2291 8cbc e582 77bb
000000f0: 269f bcbd e4b6 e73c 1d28 e139 6ff7 8d3b
00000100: 833b 993d 03ab 8a3e f5fa 713e 8dd5 11be
00000110: 0f36 53be 6902 b33e 89c8 d4bd 1d65 03be
00000120: 0060 ff3d 29bb 113e 56d3 bcbd bf14 9aba
00000130: 0b89 0fbe 8b83 d13e 4aa7 ad3d ba54 db3d
00000140: 87f1 98bd 2b58 f73c 1c4f 0dbd d3dc 9fbe
00000150: 87a7 173e a8d4 833e 51bb 8d3d 41e9 25be
00000160: e0c0 d23e a057 683e 4790 503e 9143 fd3d
00000170: 2d4e abbd 7fa3 483d f500 973e 4ab1 04be
00000180: a20a 3b3e 3a93 d5bd d0a8 efbd 0427 b93d
00000190: 3abd 593d aeb3 1a3e c711 d2bd dcfd 81bc
000001a0: e515 31bd 1fd0 34bb 9a83 44be b101 203e
000001b0: b480 f33c 0437 61bd a597 5c3d 458d 89bd
000001c0: 2970 b8bd 5122 11be ded9 8fbe f255 933d
000001d0: a4d2 473d c1bc a2bd 1c34 a6bd 6319 78be
000001e0: 422b 243e 8bc4 fdbb 15a2 093e 80bf cfbd
000001f0: df87 5b3e da6e 5b3d 804f e53d b497 3d3e
00000200: 8812 243d 816b c93e 50cf b63d 93a3 0abe
00000210: dafb 57be 797b 243e 7dad 8ebc 494d 9cbd
00000220: 927c 61bd c7fe 60bc b5cf d1bd 7a0b 823d
00000230: 5ce4 3ebe 8f09 c43c a752 ecbd ad41 02bd
00000240: 16b8 a8bc dd8e e63c 899a ae3d c59b 83bd
00000250: 859a 613d 239c 4f3e e148 c3bd b840 82bd
00000260: 6969 01bd 3792 bc3d 4984 1e3d 640d af3d
00000270: 310c e93d a139 14be 48c3 11bd 4aa4 14bc
00000280: 793c 98bd 50ad 52bd cff9 efbd 0f1a bf3c
00000290: 01b9 82bd 760f 5e3d 657b 2dbd 5404 7d3c
000002a0: d352 84bc 81fc 0ebd 39b6 84bd eddf 483c
000002b0: dfc9 3b3e 366f 5dbd 7e44 40bd 9092 9c3d
000002c0: 9e64 483d cadb d2bd cceb bfbd a8ba d6bd
000002d0: efd3 693c 3a94 b8bd 7a27 26be c9e4 e3bd
000002e0: 4e9a 12bd 6c89 dc3c 08dd c7bd 00a7 70bd
000002f0: d138 f63c efc7 393e 20a0 66bc 940f 89bd
00000300: da2f 9c3c b27a 723d 27ff 0cbb a738 7b3d
00000310: cf09 f73c 1c0b 9c3d cd11 243d ab38 d1bc
00000320: 004e 923c bdb9 f73d 2874 253e e201 36bd
00000330: ac1b 19bc 9597 583d f15b 14bd 115b 563d
00000340: cb73 713d 875f ebbc 4312 a13d dc47 10be
00000350: 002e 04be 8a62 103d a127 af3c 09fe 92bd
00000360: b18b 26be 3f69 c4bc 7364 b03a 39f8 0cbd
00000370: e004 8c3d b16e 0bbd 4928 903d 71fa adbd
00000380: fff2 f93c 52a6 063e 3132 fd3c 227b d7bc
00000390: 15ea 693b 3fbb 453d 6d93 733b a6fb d43c
000003a0: 7020 adbb 2763 94bd e7de 83bd 260e 393d
000003b0: c9ad c4bc 1976 96bd a0f8 b03d f1c6 8b3d
000003c0: f603 9d3d 0a47 3d3d 36b8 eebb 051f 45bd
000003d0: d151 083d e02a 86bd af4c 943c 618e d83d
000003e0: 9507 6abd 25b2 943b 052c 6cbb fbba 3a3d
000003f0: 6332 c43d b307 293c afe3 e6bd 28e0 19be

bias_ih_l0 f4 [256]
-0.003919781 0.055230178 0.0388193 -0.010305645 0.031057011 0.0786443 0.027064722 0.10581812
0.025943344 -0.02897641 -0.02754352 0.017327067 -0.024022631 -0.043296248 -0.014297943 -0.0008891519
-0.041136503 -0.009928343 -0.018278906 0.0870987 0.01598151 -0.032011453 -0.0023395182 0.0064149946
0.04173896 0.0120705785 0.012640559 -0.08064995 -0.0095401695 -0.013253201 0.033069417 -0.00878178
0.0015463529 -0.04143789 -0.010103045 0.03367926 -0.015955485 -0.004992194 0.055257376 -0.0030965703
-0.010827988 -0.021613898 -0.011003236 -0.0084623 0.1068666 -0.00047266882 0.034735516 -0.022068318
-0.024113933 0.065724336 0.03313088 -0.04281854 -0.014409017 -0.017269662 0.003864381 -0.006698702
-0.0068567335 -0.04896141 0.018360706 -0.044701338 0.010068574 0.0030793278 -0.02896653 -0.0062107234
0.020638378 0.061773457 0.034716446 -0.006663114 0.023001606 0.09610533 0.04673295 0.10230198
0.05245708 0.0114697395 -0.016365563 0.05912097 0.0041622696 -0.05655836 0.006992866 0.018966783
-0.0029486034 0.027083043 0.028752388 0.23500761 0.04424984 -0.009004887 0.008740234 0.042672608
0.090126604 0.044672027 0.012636119 -0.015206383 0.051670577 0.013227761 0.04684491 0.0067379186
0.07763321 -0.0013391265 0.017250853 0.11784066 -0.0063176556 0.0353824 0.040397286 0.028353764
-0.0009630882 -0.009268716 0.031883974 0.025429865 0.15831135 0.015388336 0.059696652 0.0031083531
-0.014971791 0.024429468 0.063955784 0.020829657 0.008098577 -0.006112403 0.02021949 -0.012488723
-0.022504218 -0.012286842 0.014389037 0.02713313 0.0321229 0.02336515 0.008665369 0.013979705
0.017476885 -0.020493753 -0.0010862651 0.006946146 0.006259282 -0.020352665 0.014870137 -0.0325311
0.0016875856 0.00061222224 0.01256861 -0.002461028 0.012359822 0.0018874125 0.019836493 -0.010894181
0.010490576 0.0052878815 -0.023018206 0.01984773 -0.0023474332 -0.023925863 -0.0095497975 -0.013253189
-0.029396769 -0.020767989 -0.0024547824 -0.0013966527 -0.0064598476 0.019150555 0.0002522087 0.020613113
-0.032548845 0.017945152 -0.0032448168 -0.01305002 -0.0155662345 0.0077322763 0.025266867 0.0035604045
-0.02249435 -0.008774495 0.028987011 -0.0071656187 -0.00060377887 -0.017489227 -0.0020837162 0.0081682475
0.012362789 -0.009427716 -0.016623987 0.02474299 0.020994233 0.008737398 0.0041031716 0.018396785
0.0047941688 -0.016100492 0.0011195247 0.014812786 0.0037439386 -0.005614959 -0.0032827621 -0.013206047
-0.022982126 0.1050314 0.050409246 -0.012606464 0.034255248 0.10300254 0.028426625 0.13346253
0.025280928 -0.024331594 -0.02187348 0.039753877 -0.030446894 -0.034767177 -0.0039236723 0.0006285698
-0.035399877 0.0058172066 -0.020794658 0.10027641 0.027952293 -0.029798606 0.0029910163 0.008155579
0.04772897 0.02913663 0.0140640065 -0.08860857 -0.007291693 -0.006696332 0.03553645 -0.013254332
-0.008284849 -0.04615993 -0.012125113 0.03752077 -0.020957634 -0.003974787 0.059081025 -0.0074124546
0.060544096 -0.017109847 -0.015073955 -0.0046232715 0.23855744 -0.01719195 0.027450474 -0.028785046
-0.024723189 0.06293726 0.04803338 0.0019303851 -0.01493755 -0.01721971 0.009604472 0.003668426
0.005222924 -0.042856425 0.020916125 -0.052492365 0.018039757 0.003740919 -0.019842176 0.0003496251
00000000: 8271 80bb 0a39 623d fc00 1f3d 02d9 28bc
00000010: 466b fe3c 4310 a13d d6b6 dd3c 2cb7 d83d
00000020: 2387 d43c f05f edbc f3a2 e1bc 7ef1 8d3c
00000030: 1ccb c4bc 6857 31bd eb41 6abc f915 69ba
00000040: c07e 28bd 7daa 22bc a5bd 95bc ce60 b23d
00000050: a8eb 823c 711e 03bd 9a52 19bb e034 d23b
00000060: 79f6 2a3d adc3 453c 591a 4f3c cd2b a5bd
00000070: 5f4e 1cbc f423 59bc cc73 073d 74e1 0fbc
00000080: feae ca3a c7ba 29bd 3e87 25bc 44f3 093d
00000090: 14b5 82bc 8f95 a3bb 8f55 623d d4ef 4abb
000000a0: e067 31bc a10f b1bc eb46 34bc 75a5 0abc
000000b0: e0dc da3d 89d0 f7b9 d446 0e3d 9ec8 b4bc
000000c0: 958a c5bc 7b9a 863d 3fb4 073d 7e62 2fbd
000000d0: cc13 6cbc 1b79 8dbc 8e41 7d3b c980 dbbb
000000e0: 73ae e0bb c28b 48bd 3169 963c c018 37bd
000000f0: a9f6 243c 8cce 493b 374b edbc 5383 cbbb
00000100: d111 a93c 2a06 7d3d d532 0e3d 4056 dabb
00000110: dd6d bc3c dfd2 c43d 0d6b 3f3d b383 d13d
00000120: 3cdd 563d 93eb 3b3c 1311 86bc d528 723d
00000130: a663 883b bda9 67bd 6924 e53b 3a60 9b3c
00000140: 5b3d 41bb 42dd dd3c 218a eb3c d6a5 703e
00000150: 523f 353d 3c89 13bc 3333 0f3c 79c9 2e3d
00000160: 4c94 b83d 04fa 363d b907 4f3c 3124 79bc
00000170: 87a4 533d 40b9 583c 73e0 3f3d c2c9 dc3b
00000180: 29fe 9e3d a185 afba a951 8d3c 7256 f13d
00000190: 5604 cfbb 23ed 103d a077 253d 2746 e83c
000001a0: c177 7cba d0db 17bc c598 023d 4b52 d03c
000001b0: 5f1c 223e 5c1f 7c3c 7a84 743d 83b5 4b3b
000001c0: 3e4c 75bc 4f20 c83c 40fb 823d f5a2 aa3c
000001d0: e5af 043c 8d4a c8bb 58a3 a53c 809d 4cbc
000001e0: c45a b8bc c04e 49bc ffbf 6b3c 4c46 de3c
000001f0: 4d93 033d 4568 bf3c 31f9 0d3c 220b 653c
00000200: af2b 8f3c 84e2 a7bc 0261 8eba 7f9c e33b
00000210: aa1a cd3b a2ba a6bc e0a1 733c 553f 05bd
00000220: fa31 dd3a 8a7d 203a 92ec 4d3c 3349 21bb
00000230: da80 4a3c 0e63 f73a 2480 a23c 827d 32bc
00000240: aae0 2b3c f745 ad3b ad90 bcbc b597 a23c
00000250: 65d7 19bb 2c00 c4bc c176 1cbc e723 59bc
00000260: 7ed1 f0bc a121 aabc 6ae0 20bb e30f b7ba
00000270: 21ad d3bb a0e1 9c3c e13a 8439 d5dc a83c
00000280: f051 05bd b601 933c fea6 54bb c0cf 55bc
00000290: 8509 7fbc 095f fd3b 76fc ce3c ad55 693b
000002a0: 1246 b8bc e6c2 0fbc 2b76 ed3c 91cd eabb
000002b0: ea46 1eba 9145 8fbc f58e 08bb 1dd4 053c
000002c0: 4c8d 4a3c b576 1abc 072f 88bc d0b1 ca3c
000002d0: 19fc ab3c 4e27 0f3c e673 863b dbb4 963c
000002e0: 6718 9d3b 2ee5 83bc 04bd 923a 54b1 723c
000002f0: de5c 753b b1fd b7bb 9c23 57bb 2d5e 58bc
00000300: 0345 bcbc b41a d73d ed79 4e3d 588b 4ebc
00000310: 3b4f 0c3d fff2 d23d f4de e83c 67aa 083e
00000320: f319 cf3c 0d53 c7bc 0330 b3bc f6d4 223d
00000330: c46b f9bc 0768 0ebd 2692 80bb 9bc6 243a
00000340: 76ff 10bd 449e be3b 8f59 aabc b85d cd3d
00000350: 35fc e43c 351c f4bc ed04 443b fa9e 053c
00000360: 747f 433d f1af ee3c b86c 663c 6978 b5bd
00000370: 27ef eebb e76c dbbb ab8e 113d b328 59bc
00000380: 2dbd 07bc 3212 3dbd 69a8 46bc 61af 193d
00000390: 58af abbc ee3e 82bb f2fe 713d 2de4 f2bb
000003a0: 16fd 773d f329 8cbc c0f8 76bc d07e 97bb
000003b0: 6748 743e 22d6 8cbc d1df e03c 9ece ebbc
000003c0: 4988 cabc 40e5 803d a6be 443d fa04 fd3a
000003d0: a0bc 74bc 5910 8dbc 135c 1d3c fa69 703b
000003e0: 1025 ab3b 388a 2fbd 4b58 ab3c 3c02 57bd
000003f0: 1dc8 933c 352a 753b 0f8c a2bc e34d b739

bias_hh_l0 f4 [256]
-0.003919781 0.055230178 0.0388193 -0.010305645 0.031057011 0.0786443 0.027064722 0.10581812
0.025943344 -0.02897641 -0.02754352 0.017327067 -0.024022631 -0.043296248 -0.014297943 -0.0008891519
-0.041136503 -0.009928343 -0.018278906 0.0870987 0.01598151 -0.032011453 -0.0023395182 0.0064149946
0.04173896 0.0120705785 0.012640559 -0.08064995 -0.0095401695 -0.013253201 0.033069417 -0.00878178
0.0015463529 -0.04143789 -0.010103045 0.03367926 -0.015955485 -0.004992194 0.055257376 -0.0030965703
-0.010827988 -0.021613898 -0.011003236 -0.0084623 0.1068666 -0.00047266882 0.034735516 -0.022068318
-0.024113933 0.065724336 0.03313088 -0.04281854 -0.014409017 -0.017269662 0.003864381 -0.006698702
-0.0068567335 -0.04896141 0.018360706 -0.044701338 0.010068574 0.0030793278 -0.02896653 -0.0062107234
0.020638378 0.061773457 0.034716446 -0.006663114 0.023001606 0.09610533 0.04673295 0.10230198
0.05245708 0.0114697395 -0.016365563 0.05912097 0.0041622696 -0.05655836 0.006992866 0.018966783
-0.0029486034 0.027083043 0.028752388 0.23500761 0.04424984 -0.009004887 0.008740234 0.042672608
0.090126604 0.044672027 0.012636119 -0.015206383 0.051670577 0.013227761 0.04684491 0.0067379186
0.07763321 -0.0013391265 0.017250853 0.11784066 -0.0063176556 0.0353824 0.040397286 0.028353764
-0.0009630882 -0.009268716 0.031883974 0.025429865 0.15831135 0.015388336 0.059696652 0.0031083531
-0.014971791 0.024429468 0.063955784 0.020829657 0.008098577 -0.006112403 0.02021949 -0.012488723
-0.022504218 -0.012286842 0.014389037 0.02713313 0.0321229 0.02336515 0.008665369 0.013979705
0.017476885 -0.020493753 -0.0010862651 0.006946146 0.006259282 -0.020352665 0.014870137 -0.0325311
0.0016875856 0.00061222224 0.01256861 -0.002461028 0.012359822 0.0018874125 0.019836493 -0.010894181
0.010490576 0.0052878815 -0.023018206 0.01984773 -0.0023474332 -0.023925863 -0.0095497975 -0.013253189
-0.029396769 -0.020767989 -0.0024547824 -0.0013966527 -0.0064598476 0.019150555 0.0002522087 0.020613113
-0.032548845 0.017945152 -0.0032448168 -0.01305002 -0.0155662345 0.0077322763 0.025266867 0.0035604045
-0.02249435 -0.008774495 0.028987011 -0.0071656187 -0.00060377887 -0.017489227 -0.0020837162 0.0081682475
0.012362789 -0.009427716 -0.016623987 0.02474299 0.020994233 0.008737398 0.0041031716 0.018396785
0.0047941688 -0.016100492 0.0011195247 0.014812786 0.0037439386 -0.005614959 -0.0032827621 -0.013206047
-0.022982126 0.1050314 0.050409246 -0.012606464 0.034255248 0.10300254 0.028426625 0.13346253
0.025280928 -0.024331594 -0.02187348 0.039753877 -0.030446894 -0.034767177 -0.0039236723 0.0006285698
-0.035399877 0.0058172066 -0.020794658 0.10027641 0.027952293 -0.029798606 0.0029910163 0.008155579
0.04772897 0.02913663 0.0140640065 -0.08860857 -0.007291693 -0.006696332 0.03553645 -0.013254332
-0.008284849 -0.04615993 -0.012125113 0.03752077 -0.020957634 -0.003974787 0.059081025 -0.0074124546
0.060544096 -0.017109847 -0.015073955 -0.0046232715 0.23855744 -0.01719195 0.027450474 -0.028785046
-0.024723189 0.06293726 0.04803338 0.0019303851 -0.01493755 -0.01721971 0.009604472 0.003668426
0.005222924 -0.042856425 0.020916125 -0.052492365 0.018039757 0.003740919 -0.019842176 0.0003496251
00000000: 8271 80bb 0a39 623d fc00 1f3d 02d9 28bc
00000010: 466b fe3c 4310 a13d d6b6 dd3c 2cb7 d83d
00000020: 2387 d43c f05f edbc f3a2 e1bc 7ef1 8d3c
00000030: 1ccb c4bc 6857 31bd eb41 6abc f915 69ba
00000040: c07e 28bd 7daa 22bc a5bd 95bc ce60 b23d
00000050: a8eb 823c 711e 03bd 9a52 19bb e034 d23b
00000060: 79f6 2a3d adc3 453c 591a 4f3c cd2b a5bd
00000070: 5f4e 1cbc f423 59bc cc73 073d 74e1 0fbc
00000080: feae ca3a c7ba 29bd 3e87 25bc 44f3 093d
00000090: 14b5 82bc 8f95 a3bb 8f55 623d d4ef 4abb
000000a0: e067 31bc a10f b1bc eb46 34bc 75a5 0abc
000000b0: e0dc da3d 89d0 f7b9 d446 0e3d 9ec8 b4bc
000000c0: 958a c5bc 7b9a 863d 3fb4 073d 7e62 2fbd
000000d0: cc13 6cbc 1b79 8dbc 8e41 7d3b c980 dbbb
000000e0: 73ae e0bb c28b 48bd 3169 963c c018 37bd
000000f0: a9f6 243c 8cce 493b 374b edbc 5383 cbbb
00000100: d111 a93c 2a06 7d3d d532 0e3d 4056 dabb
00000110: dd6d bc3c dfd2 c43d 0d6b 3f3d b383 d13d
00000120: 3cdd 563d 93eb 3b3c 1311 86bc d528 723d
00000130: a663 883b bda9 67bd 6924 e53b 3a60 9b3c
00000140: 5b3d 41bb 42dd dd3c 218a eb3c d6a5 703e
00000150: 523f 353d 3c89 13bc 3333 0f3c 79c9 2e3d
00000160: 4c94 b83d 04fa 363d b907 4f3c 3124 79bc
00000170: 87a4 533d 40b9 583c 73e0 3f3d c2c9 dc3b
00000180: 29fe 9e3d a185 afba a951 8d3c 7256 f13d
00000190: 5604 cfbb 23ed 103d a077 253d 2746 e83c
000001a0: c177 7cba d0db 17bc c598 023d 4b52 d03c
000001b0: 5f1c 223e 5c1f 7c3c 7a84 743d 83b5 4b3b
000001c0: 3e4c 75bc 4f20 c83c 40fb 823d f5a2 aa3c
000001d0: e5af 043c 8d4a c8bb 58a3 a53c 809d 4cbc
000001e0: c45a b8bc c04e 49bc ffbf 6b3c 4c46 de3c
000001f0: 4d93 033d 4568 bf3c 31f9 0d3c 220b 653c
00000200: af2b 8f3c 84e2 a7bc 0261 8eba 7f9c e33b
00000210: aa1a cd3b a2ba a6bc e0a1 733c 553f 05bd
00000220: fa31 dd3a 8a7d 203a 92ec 4d3c 3349 21bb
00000230: da80 4a3c 0e63 f73a 2480 a23c 827d 32bc
00000240: aae0 2b3c f745 ad3b ad90 bcbc b597 a23c
00000250: 65d7 19bb 2c00 c4bc c176 1cbc e723 59bc
00000260: 7ed1 f0bc a121 aabc 6ae0 20bb e30f b7ba
00000270: 21ad d3bb a0e1 9c3c e13a 8439 d5dc a83c
00000280: f051 05bd b601 933c fea6 54bb c0cf 55bc
00000290: 8509 7fbc 095f fd3b 76fc ce3c ad55 693b
000002a0: 1246 b8bc e6c2 0fbc 2b76 ed3c 91cd eabb
000002b0: ea46 1eba 9145 8fbc f58e 08bb 1dd4 053c
000002c0: 4c8d 4a3c b576 1abc 072f 88bc d0b1 ca3c
000002d0: 19fc ab3c 4e27 0f3c e673 863b dbb4 963c
000002e0: 6718 9d3b 2ee5 83bc 04bd 923a 54b1 723c
000002f0: de5c 753b b1fd b7bb 9c23 57bb 2d5e 58bc
00000300: 0345 bcbc b41a d73d ed79 4e3d 588b 4ebc
00000310: 3b4f 0c3d fff2 d23d f4de e83c 67aa 083e
00000320: f319 cf3c 0d53 c7bc 0330 b3bc f6d4 223d
00000330: c46b f9bc 0768 0ebd 2692 80bb 9bc6 243a
00000340: 76ff 10bd 449e be3b 8f59 aabc b85d cd3d
00000350: 35fc e43c 351c f4bc ed04 443b fa9e 053c
00000360: 747f 433d f1af ee3c b86c 663c 6978 b5bd
00000370: 27ef eebb e76c dbbb ab8e 113d b328 59bc
00000380: 2dbd 07bc 3212 3dbd 69a8 46bc 61af 193d
00000390: 58af abbc ee3e 82bb f2fe 713d 2de4 f2bb
000003a0: 16fd 773d f329 8cbc c0f8 76bc d07e 97bb
000003b0: 6748 743e 22d6 8cbc d1df e03c 9ece ebbc
000003c0: 4988 cabc 40e5 803d a6be 443d fa04 fd3a
000003d0: a0bc 74bc 5910 8dbc 135c 1d3c fa69 703b
000003e0: 1025 ab3b 388a 2fbd 4b58 ab3c 3c02 57bd
000003f0: 1dc8 933c 352a 753b 0f8c a2bc e34d b739

weight_ih_l1 f4 [256, 64]
-0.0074482462 0.14828596 0.14037277 -0.13384937 -0.18240045 0.32381088 0.076387934 -0.24657544
-0.0106748445 0.00028648393 -0.15517113 -0.046750806 -0.03569445 0.19195513 -0.04488378 0.17598249
-0.08967861 -0.029618599 -0.1776338 -0.15851344 0.09834551 0.257496 -0.011491884 0.092721105
0.28214347 -0.08750079 0.25438315 0.10644279 0.073250726 -0.09648276 0.16497764 0.059431493
0.13630693 0.012776411 0.17340793 -0.10207561 0.2058822 0.056614123 0.051285453 -0.22026813
-0.05470531 -0.023950137 -0.04063877 -0.058726482 0.07697234 0.02043348 -0.13953334 -0.10757796
-0.08541903 -0.063661516 0.15498981 0.002904178 -0.013570767 -0.061081246 0.04210367 -0.101382315
0.17513971 0.082492925 0.15374824 -0.23138984 0.13496517 0.12643214 0.061095916 0.18707426
-0.15465374 -0.009557427 0.048655123 -0.17789243 -0.1375672 -0.24283227 0.059614938 -0.07062783
-0.15309057 0.060912717 0.06614411 -0.05837844 0.092910334 -0.03232625 -0.15872651 0.04130309
-0.15125272 0.047174837 -0.033392224 -0.06049291 0.06383897 0.1564126 0.02801022 0.024745451
-0.12842691 -0.13803236 -0.072526634 0.13071255 -0.048248086 -0.032131813 -0.20225823 0.13414837
0.11797905 0.015717588 0.20653526 -0.19880386 0.0193246 -0.1912525 0.14169157 -0.17849422
0.12709357 -0.022965506 -0.042036068 0.08753467 0.0873844 -0.14466846 -0.11176458 -0.034685183
-0.09448112 0.13773008 0.2844084 0.061052613 0.010570994 0.10481768 0.03560718 -0.015690379
0.1851987 0.009077671 0.035835285 0.06055459 0.053510476 -0.04724846 0.108835645 -0.05668529
-0.04074149 -0.01627996 -0.13800241 -0.010195416 -0.090092495 -0.119262375 0.04789764 0.1476917
-0.112047575 -0.058629204 0.061055273 -0.0113426605 -0.0040020556 -0.111485094 -0.032694545 0.019511413
-0.059357595 0.18467546 0.06473899 0.09532939 -0.16182795 -0.12747914 0.0029999344 -0.01362701
-0.012646009 -0.24465686 -4.8979357e-05 0.14645307 0.13301557 0.045142055 -0.112168 -0.06844874
-0.05553652 -0.037938092 0.054628845 -0.112223804 0.068962745 -0.14609781 -0.082124926 -0.015002589
-0.042336185 0.11373987 -0.03262204 0.057327796 0.03928877 0.07946618 -0.29002067 0.07900322
0.0032029692 0.06830275 0.022727849 0.038695373 -0.026288962 -0.02861641 -0.21789142 -0.042427495
0.104290105 0.13937448 -0.078533836 -0.16444781 -0.088511884 0.10584844 -0.023350462 -0.038702063
0.09449271 -0.07680007 -0.14629047 -0.057073057 0.24044004 -0.17784017 0.10567183 0.33603632
0.16325818 0.11140183 0.20799758 0.040217604 -0.06074328 -0.0414812 0.031625833 -0.044918608
-0.0005474536 0.10051804 0.014572971 0.13087444 -0.100724354 0.029645858 -0.042142093 0.02446081
-0.27944514 -0.09616385 -0.24576358 0.10670245 0.047839902 0.05869205 -0.050493315 0.13041674
-0.05540292 0.08803266 -0.14714585 0.02748108 -0.17903788 0.061936155 -0.1719977 -0.035963327
0.19135685 -0.03843315 -0.10628659 0.11364169 0.18949342 0.11875282 0.01900148 0.17023937
-0.088928856 0.20614125 -0.20112456 -0.021496153 0.0590556 0.008515731 0.08706503 0.12183959
-0.11270406 -0.01704438 -0.005476235 0.013188505 -0.14204903 -0.11184786 0.048160035 -0.18472026
00000000: 6b10 f4bb 46d8 173e e1bd 0f3e cf0f 09be
00000010: 2fc7 3abe 8aca a53e 4771 9c3d 467e 7cbe
00000020: 8be5 2ebc 3933 9639 2ee5 1ebe c67d 3fbd
00000030: 5834 12bd e38f 443e 0ed8 37bd c134 343e
00000040: 6ba9 b7bd b4a2 f2bc a3e5 35be 5951 22be
00000050: 5f69 c93d 84d6 833e 7448 3cbc 90e4 bd3d
00000060: 1c75 903e 9d33 b3bd 823e 823e adfe d93d
00000070: 7a04 963d c198 c5bd e6ef 283e 706e 733d
00000080: 0b94 0b3e 2754 513c d991 313e 040d d1bd
00000090: c9d2 523e 36e4 673d b210 523d f88d 61be
000000a0: ad12 60bd 1433 c4bc d774 26bd 2e8b 70bd
000000b0: ada3 9d3d 1d64 a73c d4e1 0ebe d551 dcbd
000000c0: 2cf0 aebd f860 82bd a6b5 1e3e 0654 3e3b
000000d0: ec57 5ebc 5430 7abd e674 2c3d 88a1 cfbd
000000e0: d357 333e 0df2 a83d 2e70 1d3e 75f1 6cbe
000000f0: 4f34 0a3e 6d77 013e b63f 7a3d 6590 3f3e
00000100: 8d5d 1ebe c196 1cbc 984a 473d 6f29 36be
00000110: 6bde 0cbe 06a9 78be cb2e 743d 53a5 90bd
00000120: c6c3 1cbe 9d7f 793d 9076 873d 3b1e 6fbd
00000130: c647 be3d 8868 04bd 3489 22be 6e2d 293d
00000140: fee1 1abe 673a 413d 49c6 08bd 6ac7 77bd
00000150: 02be 823d a02a 203e b075 e53c f9b6 ca3c
00000160: 5882 03be 5b58 0dbe d888 94bd 83d9 053e
00000170: c99f 45bd a69c 03bd c81c 4fbe 315e 093e
00000180: 009f f13d 2cc2 803c fb7d 533e 3d93 4bbe
00000190: a04e 9e3c b2d7 43be 9817 113e 30c7 36be
000001a0: d124 023e 2822 bcbc 032e 2cbd 6145 b33d
000001b0: 98f6 b23d f823 14be d4e4 e4bd 0d12 0ebd
000001c0: 517f c1bd 1d09 0d3e fa9d 913e 4e12 7a3d
000001d0: f631 2d3c a7aa d63d d6d8 113d 1c89 80bc
000001e0: baa4 3d3e 83ba 143c 05c8 123d 1708 783d
000001f0: cd2d 5b3d 9a87 41bd 39e5 de3d d62e 68bd
00000200: 8ce0 26bd 8d5d 85bc 8150 0dbe ad0a 27bc
00000210: 6a82 b8bd d53f f4bd 5130 443d 7e3c 173e
00000220: 3379 e5bd 2d25 70bd 1815 7a3d 91d6 39bc
00000230: ad23 83bb 4c52 e4bd b7ea 05bd 66d6 9f3c
00000240: f320 73bd 901b 3d3e e095 843d 0e3c c33d
00000250: 3ab6 25be e489 02be 8c9a 443b d343 5fbc
00000260: 3531 4fbc 5487 7abe 2f6f 4db8 cbf7 153e
00000270: 3c35 083e e0e6 383d 56b8 e5bd da2e 8cbd
00000280: 437a 63bd f964 1bbd 7fc2 5f3d 98d5 e5bd
00000290: 573c 8d3d aa9a 15be 1d31 a8bd 6bcd 75bc
000002a0: b568 2dbd 73f0 e83d b09e 05bd 8dd0 6a3d
000002b0: 43ed 203d 2abf a23d 977d 94be 71cc a13d
000002c0: e8e8 513b 50e2 8b3d c12f ba3c 0a7f 1e3d
000002d0: f35b d7bc f66c eabc ee1e 5fbe 74c8 2dbd
000002e0: 0d96 d53d 2fb8 0e3e 59d6 a0bd 0265 28be
000002f0: b845 b5bd 11c7 d83d 7849 bfbc 0e86 1ebd
00000300: 6585 c13d 5b49 9dbd 2bcd 15be 70c5 69bd
00000310: ea35 763e bc1b 36be 796a d83d f40c ac3e
00000320: 272d 273e a526 e43d 51fd 543e 37bb 243d
00000330: f2cd 78bd 31e8 29bd 178a 013d 93fc 37bd
00000340: fd82 0fba 67dc cd3d 78c3 6e3c f303 063e
00000350: 9248 cebd dfdb f23c 309d 2cbd 0962 c83c
00000360: 6f13 8fbe 8df1 c4bd 73a9 7bbe d086 da3d
00000370: c6f3 433d 1367 703d 14d2 4ebd f78b 053e
00000380: 2cee 62bd 784a b43d 67ad 16be 0020 e13c
00000390: b555 37be c4b0 7d3d 2a20 30be 484e 13bd
000003a0: 0df3 433e 146c 1dbd c9ac d9bd f9bc e83d
000003b0: 900a 423e ae34 f33d fea8 9b3c 3b53 2e3e
000003c0: 5520 b6bd b116 533e 99f3 4dbe b318 b0bc
000003d0: 49e4 713d 9185 0b3c 274f b23d 0987 f93d
000003e0: 63d1 e6bd a8a0 8bbc fd71 b3bb 9914 583c
000003f0: 4d75 11be 7e10 e5bd 7543 453d 4f27 3dbe

weight_hh_l1 f4 [256, 64]
-0.043915182 0.04037656 -0.11756135 0.06451729 -0.019614942 -0.06967781 -0.0818881 0.022364248
0.028368844 0.0321574 -0.006578414 0.123417154 0.03181103 0.030198231 -0.045375388 0.036863536
-0.08027567 -0.027277092 0.08423259 0.08519146 -0.14902978 -0.03495804 0.16425556 0.19177309
-0.03919795 0.078030236 0.12405903 0.012434661 -0.05842461 0.012436297 -0.14840156 -0.012155898
0.14821164 -0.09623735 -0.09097176 0.0769063 0.10969808 -0.019733002 -0.1470386 0.011069981
0.14912835 0.10118545 -0.0012018813 0.1327953 -0.08304419 0.3248662 -0.009048708 0.008428069
-0.21772058 0.10056766 -0.161989 -0.060221754 -0.009224258 0.16259095 -0.19831362 0.097093284
-0.056683 -0.040155083 0.084604174 0.06440218 0.021165848 -0.13351631 0.048154276 -0.05373814
0.029058112 0.16420676 0.0048438585 0.005249721 -0.026122909 -0.20340648 0.0626994 -0.14389738
0.09998224 0.13848026 -0.017823042 0.12284478 0.028237233 0.037198424 -0.017409608 -0.14192124
-0.049960155 -0.199168 0.04543928 0.18895735 -0.111319326 0.4275625 0.11413413 -0.023359055
-0.019670913 0.1050849 0.093899034 -0.020584637 -0.13489704 -0.0584766 0.16004518 -0.041089114
-0.15105149 -0.15016977 -0.0935867 -0.06858192 -0.08685481 -0.021987263 -0.17349386 -0.212809
-0.028638562 0.00988939 0.029743467 -0.07516024 -0.40240753 -0.10148964 -0.11037924 -0.07928199
-0.052533895 -0.048741683 -0.009326595 0.052729495 0.15897092 -0.066394836 -0.028865654 0.17836668
0.08286143 0.05831044 -0.144838 -0.09139939 0.0045136483 -0.17055023 0.054752607 -0.13007647
-0.04012398 0.14122526 -0.12992048 -0.045045007 -0.10822068 0.057147395 -0.055015042 -0.17607918
0.045839712 -0.043329734 0.08516856 -0.041280158 0.041283052 -0.04979911 0.019046603 -0.09660999
0.047194578 0.10014531 0.023885 0.028275292 -0.10965051 -0.043284263 0.197561 0.07161611
0.08010619 -0.0114308065 -0.025473906 -0.015291846 0.050277933 0.028495083 -0.15029898 0.09113405
0.044352055 0.0991757 0.075727545 -0.029815767 -0.03501781 0.01927225 0.017626101 0.04197942
0.023618339 0.024986949 0.09204333 0.03822747 -0.10816349 0.16043107 0.11703016 0.04280264
0.0042654956 0.030934274 0.054852135 0.023223832 0.033915218 0.015256874 0.062018435 -0.0060793003
-0.045531377 0.1085853 0.119613096 0.016343953 -0.024049005 -0.09035257 0.090193175 0.108121425
-0.0955076 0.012735206 0.019761942 0.091770895 0.092185356 0.1275114 -0.01641396 0.0983022
0.14293587 0.08551722 -0.13258521 0.016573245 -0.075472966 -0.028554052 -0.017343936 -0.055479344
-0.06676602 -0.056636892 0.08803056 0.07749513 0.06405199 0.0879636 -0.12252188 0.06674828
-0.15689932 0.06789345 0.10533199 -0.04808067 0.013071797 -0.14995115 -0.056156315 0.046005275
0.19913915 -0.020683547 0.09906011 0.11002444 -0.12741207 -0.22437106 -0.01718273 0.1753939
0.036394473 -0.02071363 0.013340807 0.09056147 -0.08596893 0.24664326 0.19899823 -0.06991076
0.017020624 0.03248078 -0.026140146 -0.004962446 0.08704094 0.12171071 -0.033257954 0.048943724
-0.032662332 0.042204108 0.04075833 0.022649623 0.058030136 0.034137905 0.055045143 -0.09694628
00000000: 68e0 33bd e461 253d 01c4 f0bd a421 843d
00000010: 84af a0bc 3db3 8ebd f3b4 a7bd 3a35 b73c
00000020: c765 e83c 7ab7 033d bc8f d7bb 22c2 fc3d
00000030: 484c 023d 4862 f73c 8bdb 39bd 38fe 163d
00000040: 9267 a4bd 3574 dfbc 2382 ac3d dc78 ae3d
00000050: 439b 18be 2930 0fbd 9c32 283e 2a60 443e
00000060: 088e 20bd 51ce 9f3d a912 fe3d c0ba 4b3c
00000070: a54e 6fbd 9cc1 4b3c 94f6 17be 8829 47bc
00000080: cbc4 173e 1618 c5bd 674f babd 0d81 9d3d
00000090: 63a9 e03d 1ba7 a1bc 4991 16be de5e 353c
000000a0: 1ab5 183e 513a cf3d 7288 9dba 7efb 073e
000000b0: 1313 aabd dd54 a63e 0841 14bc e215 0a3c
000000c0: 25f2 5ebe 6bf6 cd3d 72e0 25be 16ab 76bd
000000d0: 5821 17bc 3e7e 263e ba12 4bbe d8d8 c63d
000000e0: 6f2c 68bd a879 24bd f444 ad3d 4ae5 833d
000000f0: 0064 ad3c 80b8 08be 6b3d 453d 861c 5cbd
00000100: 470b ee3c d125 283e 3bb9 9e3b da05 ac3b
00000110: b6ff d5bc ca49 50be 8b68 803d d659 13be
00000120: 7dc3 cc3d c5cd 0d3e a101 92bc 0b96 fb3d
00000130: c551 e73c 605d 183d 989e 8ebc cd53 11be
00000140: 05a3 4cbd b2f2 4bbe 8a1e 3a3d 097e 413e
00000150: 63fb e3bd 79e9 da3e 28bf e93d 7d5b bfbc
00000160: e524 a1bc c136 d73d 234e c03d 1da1 a8bc
00000170: 7322 0abe 2985 6fbd e2e2 233e 0f4d 28bd
00000180: 3ead 1abe 1bc6 19be 62aa bfbd ad74 8cbd
00000190: efe0 b1bd a21e b4bc 60a8 31be 9aea 59be
000001a0: 6b9b eabc 1c07 223c 92a8 f33c 9ded 99bd
000001b0: 5c08 cebe cdd9 cfbd 830e e2bd 995e a2bd
000001c0: c82d 57bd 5ca5 47bd 93ce 18bc e2fa 573d
000001d0: 46c9 223e 04fa 87bd aa77 ecbc c1a5 363e
000001e0: 41b3 a93d eed6 6e3d 6a50 14be 9a2f bbbd
000001f0: 3ae7 933b b8a4 2ebe 4544 603d c432 05be
00000200: 0b59 24bd 5b9d 103e e009 05be 1d81 38bd
00000210: cea2 ddbd 6313 6a3d 7457 61bd 1a4e 34be
00000220: 6cc2 3b3d 857a 31bd db6c ae3d 6215 29bd
00000230: 6b18 293d 27fa 4bbd 9f07 9c3c 75db c5bd
00000240: 1a4f 413d fc18 cd3d 7aaa c33c 96a1 e73c
00000250: 7290 e0bd d74a 31bd 6e4d 4a3e 78ab 923d
00000260: b70e a43d 4748 3bbc a7ae d0bc a78a 7abc
00000270: 3cf0 4d3d 856e e93c fae7 19be 7da4 ba3d
00000280: 80aa 353d a11c cb3d 0b17 9b3d 3240 f4bc
00000290: d66e 0fbd d6e0 9d3c 9d64 903c 9df2 2b3d
000002a0: 3f7b c13c 6eb1 cc3c 3781 bc3d 6894 1c3d
000002b0: d284 ddbd 0b48 243e 82ad ef3d d251 2f3d
000002c0: 92c5 8b3b e069 fd3c a2ac 603d e83f be3c
000002d0: afea 0a3d f8f7 793c 0b07 7e3d de34 c7bb
000002e0: 1c7f 3abd f861 de3d b6f7 f43d c1e3 853c
000002f0: 6b02 c5bc c50a b9bd 33b7 b83d c46e dd3d
00000300: 7d99 c3bd 53a7 503c cce3 a13c 61f2 bb3d
00000310: adcb bc3d 5992 023e 9276 86bc aa52 c93d
00000320: c85d 123e a723 af3d 6bc4 07be 9dc4 873c
00000330: 9291 9abd 30ea e9bc df14 8ebc 4f3e 63bd
00000340: a0bc 88bd 16fc 67bd 5e49 b43d c4b5 9e3d
00000350: b12d 833d 4326 b43d c0ec fabd 52b3 883d
00000360: 37aa 20be b90b 8b3d 4cb8 d73d 3df0 44bd
00000370: 172b 563c cb8c 19be 2a04 66bd 0770 3c3d
00000380: 22eb 4b3e 8b70 a9bc 07e0 ca3d 7e54 e13d
00000390: 4f78 02be 87c1 65be ccc2 8cbc 759a 333e
000003a0: 5f12 153d a1af a9bc 6693 5a3c 4b78 b93d
000003b0: 7a10 b0bd 0d90 7c3e 31c6 4b3e 5f2d 8fbd
000003c0: d66e 8b3c 910a 053d dc23 d6bc 049c a2bb
000003d0: 8542 b23d 7743 f93d 7e39 08bd 3779 483d
000003e0: f0c8 05bd 37de 2c3d 35f2 263d b48b b93c
000003f0: 02b1 6d3d 30d4 0b3d 0477 613d c58b c6bd

bias_ih_l1 f4 [256]
0.09287487 0.05403831 0.03846774 0.01042254 -0.0019314375 0.02184662 -0.007746893 -0.017080324
0.027002478 0.011901055 0.064161725 -0.01235848 0.059615094 0.004062059 0.024908213 0.09486924
-0.0081909215 -0.03709002 0.060727395 0.058418993 0.01687195 0.00785644 -0.02250792 0.011929403
0.026065148 0.20709471 0.083212666 -0.037824932 0.0250245 0.11289222 0.027077775 -0.016156254
0.044679075 0.0043650875 0.12973927 0.07677443 -0.052008566 0.0038195883 0.075551614 -0.0085830325
0.024511425 0.017758386 -0.015273483 -0.07942749 -0.0053317198 0.004311024 0.023835301 0.056860894
0.056600556 0.029390724 -0.05451001 0.035947092 0.059515055 0.03390147 0.0628688 0.017019236
-0.021555092 0.024426756 -0.002942522 0.005671293 0.021940982 0.0029846565 0.07407645 -0.05097905
0.061127674 0.065332174 0.029895347 0.09380463 0.023825198 0.0390439 0.016865468 0.0031107739
0.03487925 0.067509905 0.07462715 0.02988814 0.07376307 0.09293075 0.014582775 0.11383878
0.015053623 0.08246699 0.10065545 0.057130214 0.037162755 0.06382152 0.013987658 0.050077487
0.022976806 0.14294907 0.11359158 0.028789928 0.09128508 0.11476445 0.021306245 0.010749376
0.055553216 0.047892913 0.037213035 0.034147944 0.029037617 0.011408911 0.07221476 0.06864157
0.043727357 0.019591097 0.047149736 0.037569698 0.017294142 0.15037364 0.059325937 0.062118307
0.12233213 0.05225805 0.09048041 0.0478941 0.054218438 0.06435121 0.09256733 0.023702534
0.044330455 0.04808881 0.063375354 0.011783795 0.040519707 0.033227775 0.06393746 0.07756715
-0.08402605 0.026679019 -0.047368463 0.061566994 -0.03467842 0.037460707 -0.029089179 0.02091641
0.06500594 -0.004725515 -0.0764177 0.031083323 -0.019623742 -0.008273147 -0.0232481 -0.032740854
-0.041338924 -0.0758764 0.06906986 0.043398447 -0.03786941 0.03423344 -0.034226175 0.04332763
-0.06164613 0.06449743 0.060889997 -0.0375998 -0.021254227 0.0028948851 -0.05715606 0.026340684
0.041639596 -0.03226691 0.01821251 -0.011883686 0.016135547 -0.04384717 -0.03726535 0.012600788
0.043303188 0.04910834 0.021996694 -0.026530484 -0.033826087 -0.0016741604 0.061433863 -0.037170984
-0.056432668 0.03667485 0.0002678404 -0.052870154 0.03162647 0.027976653 -0.0761728 0.053852662
-0.034220576 -0.00601831 0.04384245 0.047628 0.04156157 -0.03828394 0.025190448 0.019158369
0.061704993 0.034914263 0.015661437 0.077685684 0.0063939346 0.06107826 0.007930754 -0.016622595
0.06894791 0.0027767718 0.036698256 -0.0022585397 0.047960825 0.12743708 0.069479406 0.05010589
-0.018741326 0.11072403 0.07509903 0.039144937 0.01835654 0.06455394 -0.030019209 0.017611628
0.0060434532 0.07615006 0.06400102 -0.025520043 0.055429026 0.10865247 0.03696164 -0.011672966
0.015902644 0.041673962 0.14818396 0.10305368 -0.032627866 -0.015837174 0.021338146 0.07327127
0.029548973 0.003601013 0.01593939 0.09233089 0.0020301512 0.2437592 0.0067545036 0.008346234
0.12533808 0.043777995 0.074523225 -1.8335168e-05 0.09512749 0.050257787 0.09392306 0.013177679
-0.023989668 -0.015185175 0.05987362 -0.007712811 0.0092501845 0.033375952 0.024643129 0.073250405
00000000: 2e35 be3d 4657 5d3d 5990 1d3d 4dc3 2a3c
00000010: 4a28 fdba aff7 b23c a6d9 fdbb 09ec 8bbc
00000020: 4d34 dd3c a5fc 423c 3967 833d 397b 4abc
00000030: f52e 743d 051b 853b 4f0c cc3c ce4a c23d
00000040: 3733 06bc b4eb 17bd 4abd 783d c148 6f3d
00000050: 0b37 8a3c 4cb8 003c 8862 b8bc 8b73 433c
00000060: 9486 d53c a310 543e 676b aa3d 51ee 1abd
00000070: 2e00 cd3c 0934 e73d 36d2 dd3c 1f5a 84bc
00000080: 6801 373d 0209 8f3b 5fda 043e ea3b 9d3d
00000090: ef06 55bd 0f52 7a3b ceba 9a3d d99f 0cbc
000000a0: 2fcc c83c 097a 913c a13d 7abc e1aa a2bd
000000b0: b5b5 aebb 7e43 8d3b 4042 c33c f8e6 683d
000000c0: fcd5 673d d1c4 f03c e345 5fbd 423d 133d
000000d0: 0fc6 733d 45dc 0a3d 5bc1 803d ed6b 8b3c
000000e0: 4e94 b0bc 9f1a c83c 54d7 40bb 41d6 b93b
000000f0: 93bd b33c 3a9a 433b 65b5 973d 69cf 50bd
00000100: 0361 7a3d e0cc 853d 16e7 f43c a41c c03d
00000110: 102d c33c 7fec 1f3d 7329 8a3c 20de 4b3b
00000120: 8bdd 0e3d a242 8a3d 1fd6 983d f9d7 f43c
00000130: 1811 973d 7a52 be3d 97ec 6e3c 4e24 e93d
00000140: 79a3 763c 74e4 a83d 7224 ce3d 5f01 6a3d
00000150: f937 183d dbb4 823d 7d2c 653c 0d1e 4d3d
00000160: db39 bc3c 3e61 123e b4a2 e83d dbd8 eb3c
00000170: acf3 ba3d a009 eb3d 6f8a ae3c 271e 303c
00000180: c58b 633d 5c2b 443d b26c 183d b7de 0b3d
00000190: 4ce0 ed3c 71ec 3a3c 55e5 933d f493 8c3d
000001a0: 751b 333d 827d a03c 1520 413d afe2 193d
000001b0: 72ac 8d3c 8cfb 193e c1ff 723d c46f 7e3d
000001c0: 4589 fa3d 890c 563d cb4d b93d 9b2c 443d
000001d0: 2714 5e3d 91ca 833d f193 bd3d d12b c23c
000001e0: da93 353d c6f8 443d f0ca 813d d210 413c
000001f0: fef7 253d d919 083d a5f1 823d 87db 9e3d
00000200: da15 acbd f58d da3c 6f05 42bd ac2d 7c3d
00000210: f50a 0ebd 6670 193d 6e4c eebc e458 ab3c
00000220: d621 853d 7ed8 9abb e280 9cbd 74a2 fe3c
00000230: f8c1 a0bc 188c 07bc cd72 bebc 461b 06bd
00000240: 0153 29bd 1665 9bbd 8074 8d3d 92c2 313d
00000250: f41c 1bbd 5d38 0c3d bf30 0cbd 5078 313d
00000260: a780 7cbd 3b17 843d ca67 793d 3f02 1abd
00000270: 581d aebc 1db8 3d3b 791c 6abd 6bc8 d73c
00000280: 488e 2a3d 4f2a 04bd 6732 953c cbb3 42bc
00000290: b22e 843c 1799 33bd 8da3 18bd 8973 4e3c
000002a0: af5e 313d d425 493d 6932 b43c 7556 d9bc
000002b0: 398d 0abd 806f dbba 13a2 7b3d 9a40 18bd
000002c0: f125 67bd 5e38 163d ee6c 8c39 608e 58bd
000002d0: c28a 013d 4b2f e53c 7c00 9cbd 9c94 5c3d
000002e0: e02a 0cbd 3e35 c5bb 2494 333d 9415 433d
000002f0: 773c 2a3d 9fcf 1cbd 335c ce3c 03f2 9c3c
00000300: 60be 7c3d 4202 0f3d 6a4c 803c ac19 9f3d
00000310: 3684 d13b 332d 7a3d feef 013c 1c2c 88bc
00000320: 9034 8d3d 80fa 353b e950 163d 0204 14bb
00000330: 9272 443d de7e 023e 384b 8e3d d53b 4d3d
00000340: 6987 99bc 48c3 e23d 85cd 993d 7156 203d
00000350: 7460 963c db34 843d d8ea f5bc 4346 903c
00000360: 2908 c63b 90f4 9b3d f712 833d 690f d1bc
00000370: 8c09 633d 3085 de3d 1765 173d f83f 3fbc
00000380: 4346 823c 51b2 2a3d 89bd 173e cf0d d33d
00000390: cca4 05bd f6bc 81bc 56cd ae3c 3f0f 963d
000003a0: b010 f23c f9fe 6b3b 5393 823c fa17 bd3d
000003b0: 490c 053b 039c 793e e254 dd3b a5be 083c
000003c0: a058 003e 8e50 333d a29f 983d 79ce 99b7
000003d0: 34d2 c23d 1cdb 4d3d bc5a c03d 31e7 573c
000003e0: fb85 c4bc 3ecb 78bc 0a3e 753d c0bb fcbb
000003f0: 168e 173c 39b5 083d 63e0 c93c 4f04 963d
