test_TL/models/lstm_TL_u2.pth (torch, 950004 bytes, 22 tensors)

encoder_lstm.weight_ih_l0 f4 [512, 4]
000000 40 eb 35 00 e6 d8 35 00 d6 87 36 80 61 a8 36 00
       4.951673e-39 4.94509e-39 -5.007846e-39 5.01952e-39
000010 cb 68 35 00 c1 54 36 80 0f ed 35 80 93 ca 35 80
       4.904874e-39 -4.989521e-39 -4.952322e-39 -4.939951e-39
000020 a3 8a 41 80 64 80 35 00 1f 37 36 80 8a e6 35 80
       -6.019041e-39 4.913339e-39 -4.97889e-39 -4.949983e-39
000030 68 8e 35 00 86 e8 35 80 f8 18 36 00 02 fc 35 00
       4.918367e-39 -4.950695e-39 4.968074e-39 4.957685e-39
000040 98 58 36 80 73 69 36 80 0d 72 35 80 39 f1 35 80
       -4.990898e-39 -4.996945e-39 -4.908195e-39 -4.953816e-39
000050 21 6a 35 00 87 7e 35 80 dc 79 35 00 97 c4 35 00
       4.905353e-39 -4.912671e-39 4.910996e-39 4.937804e-39
000060 df 42 36 00 31 a4 35 00 23 c0 35 80 3f 2b 36 00
       4.983106e-39 4.926182e-39 -4.936207e-39 4.97463e-39
000070 ed aa 35 80 30 6b 35 80 8a 0b 36 00 83 89 35 00
       -4.928598e-39 -4.905733e-39 4.963256e-39 4.916611e-39
000080 47 18 36 80 fe 14 36 80 11 81 35 80 76 50 36 80
       -4.967826e-39 -4.966647e-39 -4.913582e-39 -4.987981e-39
000090 be 23 36 80 89 ab 36 80 62 01 36 00 f1 da 35 80
       -4.971939e-39 -5.020652e-39 4.959613e-39 -4.945823e-39
0000a0 97 17 36 80 b4 d2 35 80 a4 18 36 80 d0 aa 35 00
       -4.967579e-39 -4.942867e-39 -4.967956e-39 4.928557e-39
0000b0 97 f3 35 00 c0 dc 35 80 c2 06 36 80 29 2f 36 80
       4.954665e-39 -4.946471e-39 -4.961541e-39 -4.976035e-39
0000c0 b5 7b 35 80 75 5c 36 00 ab 3b 36 80 bb d0 35 80
       -4.911659e-39 4.992284e-39 -4.980522e-39 -4.94216e-39
0000d0 0b cf 35 80 53 3e 36 00 d8 89 35 00 4b 83 36 80
       -4.941554e-39 4.981475e-39 4.91673e-39 -5.006216e-39
0000e0 f9 47 36 00 e6 f7 35 00 e8 e8 35 80 d7 66 36 00
       4.984936e-39 4.95621e-39 -4.950832e-39 4.996009e-39
0000f0 67 83 35 00 bf 37 36 00 29 cf 36 00 44 b9 35 00
       4.91442e-39 4.979115e-39 5.033432e-39 4.933742e-39
000100 81 83 36 00 18 c9 35 80 4a 69 36 80 8c fa 35 00
       5.006292e-39 -4.93942e-39 -4.996887e-39 4.95716e-39
000110 4f db 35 00 21 aa 35 00 32 28 36 00 a8 7a 35 00
       4.945954e-39 4.928312e-39 4.973536e-39 4.911282e-39
000120 93 01 36 00 53 b3 35 80 8d 1f 36 80 8f 77 35 00
       4.959682e-39 -4.931611e-39 -4.970435e-39 4.910171e-39
000130 dd 69 35 80 68 85 35 80 62 d4 35 00 cc 1f 36 80
       -4.905258e-39 -4.915138e-39 4.94347e-39 -4.970523e-39
000140 1c d2 35 00 6b f6 35 00 b3 1c 36 80 43 72 35 00
       4.942654e-39 4.95568e-39 -4.969412e-39 4.90827e-39
000150 64 87 35 00 5d a0 35 80 dd 8d 35 80 8a 5e 36 00
       4.91585e-39 -4.924809e-39 -4.918172e-39 4.993031e-39
000160 92 7d 36 80 e3 7d 36 00 bd 09 36 00 57 39 36 00
       -5.004163e-39 5.004276e-39 4.96261e-39 4.979686e-39
000170 65 2b 36 80 97 2b 36 00 8c bf 36 80 2c 9a 36 80
       -4.974684e-39 4.974754e-39 -5.027831e-39 -5.014423e-39
000180 34 6d 35 80 f0 7e 35 80 d8 96 36 00 68 fe 35 80
       -4.906456e-39 -4.912818e-39 5.01323e-39 -4.958545e-39
000190 eb 0b 36 80 d3 f7 35 00 35 5c 36 80 b4 c1 35 00
       -4.963392e-39 4.956184e-39 -4.992194e-39 4.936769e-39
0001a0 50 50 36 00 5f 0e 36 80 cf 6e 35 00 e8 62 36 80
       4.987927e-39 -4.964272e-39 4.907032e-39 -4.994598e-39
0001b0 e6 bf 35 00 84 d7 35 00 70 90 35 00 0f 0b 36 00
       4.936121e-39 4.944594e-39 4.919096e-39 4.963084e-39
0001c0 ab a3 35 00 e7 0f 36 00 b6 50 36 00 9e b1 35 00
       4.925994e-39 4.964821e-39 4.98807e-39 4.930998e-39
0001d0 6e 6f 35 80 d6 95 35 80 a3 88 36 00 92 93 35 00
       -4.907255e-39 -4.921032e-39 5.008133e-39 4.92022e-39
0001e0 8f d8 35 80 f4 c6 35 80 58 da 35 00 79 43 36 80
       -4.944968e-39 -4.938652e-39 4.945608e-39 -4.983321e-39
0001f0 af b2 35 00 38 26 36 00 e1 dd 35 80 a1 b1 35 00
       4.931381e-39 4.972827e-39 -4.946876e-39 4.931003e-39
000200 db 25 36 00 88 9c 35 00 41 74 35 80 27 33 36 80
       4.972697e-39 4.923434e-39 -4.908985e-39 -4.977467e-39
000210 05 1e 36 80 ef 09 36 00 f1 35 36 80 4b b5 36 80
       -4.969886e-39 4.96268e-39 -4.978467e-39 -5.024152e-39
000220 31 05 36 00 6a 52 36 80 1a 9f 35 80 b4 1a 36 00
       4.960979e-39 -4.988681e-39 -4.924356e-39 4.968696e-39
000230 a4 d7 35 00 a5 83 35 80 13 12 36 00 a8 de 35 80
       4.944639e-39 -4.914506e-39 4.9656e-39 -4.947155e-39
000240 25 03 36 00 41 a2 35 00 38 56 36 80 1f 83 35 00
       4.960245e-39 4.925487e-39 -4.990046e-39 4.914319e-39
000250 e3 65 36 00 a7 f7 35 00 a0 8d 36 80 da b8 35 80
       4.995667e-39 4.956122e-39 -5.009922e-39 -4.933594e-39
000260 54 af 35 80 cd 39 36 80 96 d9 35 00 f1 4c 36 80
       -4.930177e-39 -4.979852e-39 4.945336e-39 -4.986718e-39
000270 c0 c6 35 80 d2 d0 35 80 e2 06 36 80 b4 d8 35 80
       -4.93858e-39 -4.942192e-39 -4.961586e-39 -4.94502e-39
000280 70 36 36 80 17 34 36 00 68 05 36 00 6c 9b 35 00
       -4.978645e-39 4.977803e-39 4.961056e-39 4.923036e-39
000290 36 77 36 00 bb 81 35 80 0f 98 35 00 68 20 36 80
       5.001882e-39 -4.91382e-39 4.92183e-39 -4.970742e-39
0002a0 0c 7e 36 00 c2 97 35 00 47 58 36 00 b7 61 36 00
       5.004334e-39 4.921722e-39 4.990785e-39 4.99417e-39
0002b0 d6 7b 35 80 92 90 35 80 2a b3 35 00 f5 aa 35 80
       -4.911705e-39 -4.919143e-39 4.931553e-39 -4.928609e-39
0002c0 bb 7e 35 80 30 31 36 80 b5 87 36 00 10 c4 35 80
       -4.912744e-39 -4.976762e-39 5.0078e-39 -4.937615e-39
0002d0 90 7b 35 00 e1 93 36 80 cb 26 36 00 a4 5e 36 00
       4.911607e-39 -5.012166e-39 4.973033e-39 4.993067e-39
0002e0 b9 98 35 00 89 da 35 80 41 1e 36 00 23 ea 35 00
       4.922068e-39 -4.945677e-39 4.96997e-39 4.951274e-39
0002f0 c3 e9 35 80 27 e0 35 00 5c 72 36 00 40 47 36 80
       -4.951139e-39 4.947692e-39 5.000141e-39 -4.984676e-39
000300 c2 c1 35 00 47 95 36 00 9e 7b 36 00 d1 38 36 00
       4.936789e-39 5.012667e-39 5.003462e-39 4.979499e-39
000310 cd a2 36 80 10 d4 35 80 e5 b5 35 00 af 33 36 80
       -5.017519e-39 -4.943355e-39 4.932533e-39 -4.977657e-39
000320 84 2b 36 00 2c 30 36 80 d6 a3 35 00 bb e1 42 80
       4.974727e-39 -4.976398e-39 4.926055e-39 -6.14212e-39
000330 a7 55 36 00 ad 14 36 80 25 19 36 80 ea c7 35 00
       4.989843e-39 -4.966534e-39 -4.968137e-39 4.938997e-39
000340 1c 01 36 80 76 2d 36 80 5f b4 35 80 1b 4d 36 00
       -4.959515e-39 -4.975425e-39 -4.931986e-39 4.986777e-39
000350 28 c2 35 80 3c 57 36 00 b7 a5 36 80 62 48 44 80
       -4.936931e-39 4.99041e-39 -5.018564e-39 -6.27078e-39
000360 6e 6f 35 80 ef 75 35 00 bf 66 36 80 14 74 35 00
       -4.907255e-39 4.909588e-39 -4.995975e-39 4.908922e-39
000370 94 c9 35 00 82 71 35 80 45 4c 36 80 21 51 36 80
       4.939594e-39 -4.908e-39 -4.986477e-39 -4.98822e-39
000380 b3 eb 35 00 bf 43 36 00 b7 6b 35 80 94 8d 35 00
       4.951834e-39 4.98342e-39 -4.905922e-39 4.91807e-39
000390 80 23 36 80 b7 ec 35 80 a7 e0 35 80 f8 37 36 80
       -4.971852e-39 -4.952199e-39 -4.947871e-39 -4.979195e-39
0003a0 e1 6a 36 00 5d 8f 35 80 27 53 36 00 75 6f 35 00
       4.997458e-39 -4.91871e-39 4.988946e-39 4.907265e-39
0003b0 d4 3a 36 80 a6 d2 35 00 53 2f 36 80 84 83 36 00
       -4.98022e-39 4.942848e-39 -4.976094e-39 5.006296e-39
0003c0 5c 04 36 80 c1 da 35 00 89 8c 36 00 09 04 36 00
       -4.96068e-39 4.945755e-39 5.009531e-39 4.960564e-39
0003d0 bd bc 35 80 01 13 39 00 bf ac 35 00 78 92 35 00
       -4.934988e-39 5.24144e-39 4.929251e-39 4.919824e-39
0003e0 1b e7 35 80 92 5d 36 80 96 51 36 00 cd 9e 35 80
       -4.950186e-39 -4.992683e-39 4.988384e-39 -4.924248e-39
0003f0 4e 71 35 80 5a cf 35 00 59 b9 36 80 50 c8 35 00
       -4.907927e-39 4.941665e-39 -5.025607e-39 4.93914e-39

encoder_lstm.weight_hh_l0 f4 [512, 128]
000000 ea 92 35 00 bc 30 36 80 9c ad 36 80 5a a9 35 00
       4.919984e-39 -4.9766e-39 -5.021396e-39 4.928033e-39
000010 4f 90 36 00 d8 7d 35 80 2a 3e 36 80 e3 2c 36 00
       5.010885e-39 -4.912426e-39 -4.981417e-39 4.975219e-39
000020 14 00 36 80 cc 93 35 80 23 d2 36 00 ec 2e 36 00
       -4.959145e-39 -4.920301e-39 5.0345e-39 4.975949e-39
000030 2a f9 35 80 f5 85 35 00 24 31 36 80 d6 7a 36 00
       -4.956665e-39 4.915336e-39 -4.976745e-39 5.003182e-39
000040 2b 9a 35 80 45 e9 35 80 69 a7 36 00 1d e1 35 80
       -4.922586e-39 -4.950963e-39 5.019172e-39 -4.948037e-39
000050 cd b2 36 00 d7 1c 36 00 57 21 36 00 11 b6 35 00
       5.023258e-39 4.969463e-39 4.971077e-39 4.932594e-39
000060 08 68 36 80 14 24 36 00 ef 07 36 80 ab d3 35 00
       -4.996436e-39 4.972059e-39 -4.961963e-39 4.943213e-39
000070 7f 48 36 80 5a a9 36 80 af 8b 35 00 6f f5 35 80
       -4.985123e-39 -5.019869e-39 4.91739e-39 -4.955326e-39
000080 79 17 36 00 8b 27 36 00 50 90 35 80 44 89 35 80
       4.967537e-39 4.973302e-39 -4.919051e-39 -4.916523e-39
000090 ad d5 35 80 96 16 36 00 0d 6b 35 00 e4 63 36 80
       -4.943934e-39 4.967219e-39 4.905684e-39 -4.994951e-39
0000a0 25 17 36 80 3a 46 36 80 3f a5 35 00 af 00 36 00
       -4.96742e-39 -4.98431e-39 4.92656e-39 4.959362e-39
0000b0 cb 10 36 80 59 76 35 80 2b 2a 36 00 32 53 36 00
       -4.965141e-39 -4.909736e-39 4.974244e-39 4.988962e-39
0000c0 1c 92 35 80 d3 27 36 80 9a 93 35 80 bd f2 35 00
       -4.919695e-39 -4.973403e-39 -4.920231e-39 4.95436e-39
0000d0 a9 0a 36 80 27 86 35 00 56 96 36 00 d2 eb 35 00
       -4.962941e-39 4.915406e-39 5.013047e-39 4.951878e-39
0000e0 35 d5 35 80 92 76 36 00 a0 93 36 80 70 a8 35 00
       -4.943766e-39 5.001652e-39 -5.012075e-39 4.927705e-39
0000f0 db ce 35 00 ab c8 35 80 0a 4e 36 00 fb ba 35 00
       4.941487e-39 -4.939267e-39 4.987112e-39 4.934357e-39
000100 bb a5 35 00 d9 b3 35 80 03 e4 35 80 7c 06 36 00
       4.926734e-39 -4.931798e-39 -4.949076e-39 4.961443e-39
000110 00 30 36 00 1a 20 36 00 a6 a1 35 00 6e f3 35 80
       4.976336e-39 4.970633e-39 4.92527e-39 -4.954607e-39
000120 fd b1 35 80 5c 34 36 00 75 b2 35 00 40 89 35 00
       -4.931131e-39 4.9779e-39 4.9313e-39 4.916517e-39
000130 f5 e5 35 80 ed 67 36 00 c7 eb 35 80 71 7b 35 80
       -4.949774e-39 4.996398e-39 -4.951862e-39 -4.911564e-39
000140 e3 ce 36 80 de 89 35 00 ac 6e 35 00 8c a1 35 80
       -5.033334e-39 4.916739e-39 4.906983e-39 -4.925233e-39
000150 ed d8 35 80 1f 53 36 00 85 bb 35 80 b7 e1 35 80
       -4.9451e-39 4.988935e-39 -4.93455e-39 -4.948253e-39
000160 2c a0 36 00 fd 34 36 80 27 9d 36 00 2d b4 35 00
       5.016576e-39 -4.978125e-39 5.015492e-39 4.931916e-39
000170 42 ab 35 80 3b 6f 36 00 c6 82 36 80 7c 6c 35 00
       -4.928717e-39 4.999019e-39 -5.00603e-39 4.906198e-39
000180 a4 71 36 00 c3 d8 35 00 cd 9b 35 80 47 7d 35 80
       4.999883e-39 4.945041e-39 -4.923172e-39 -4.912222e-39
000190 a3 89 35 80 ab 30 36 00 ac 48 36 80 0d 54 36 00
       -4.916656e-39 4.976576e-39 -4.985187e-39 4.989269e-39
0001a0 c3 c3 36 00 fa c4 35 80 6b 7e 35 80 70 bf 35 80
       5.029343e-39 -4.937943e-39 -4.912632e-39 -4.935956e-39
0001b0 71 56 36 00 7b d1 35 80 26 fd 35 00 18 42 36 00
       4.990126e-39 -4.942429e-39 4.958094e-39 4.982827e-39
0001c0 e5 d6 35 00 e7 95 35 00 65 01 36 80 a6 87 36 80
       4.944371e-39 4.921056e-39 -4.959617e-39 -5.007778e-39
0001d0 12 13 36 00 72 db 35 80 60 e7 35 00 3e d0 35 00
       4.965958e-39 -4.946003e-39 4.950283e-39 4.941985e-39
0001e0 21 88 35 00 53 cd 35 80 48 cc 35 80 ea 7e 36 00
       4.916115e-39 -4.940938e-39 -4.940564e-39 5.004645e-39
0001f0 30 c2 35 80 20 fc 35 80 a8 95 36 80 fa 6f 36 00
       -4.936943e-39 -4.957727e-39 -5.012803e-39 4.999286e-39
000200 d0 86 35 80 8b 11 36 80 6c 62 36 80 59 35 36 80
       -4.915643e-39 -4.96541e-39 -4.994424e-39 -4.978254e-39
000210 fe 95 36 00 12 29 36 80 cc 0e 36 00 06 cf 35 80
       5.012924e-39 -4.97385e-39 4.964425e-39 -4.941547e-39
000220 32 e0 35 00 ad 47 36 00 94 6f 35 00 a7 02 36 80
       4.947707e-39 4.984829e-39 4.907308e-39 -4.960068e-39
000230 57 b2 35 00 3d f6 35 00 11 4c 36 80 ae 78 36 00
       4.931258e-39 4.955615e-39 -4.986404e-39 5.002409e-39
000240 7d 46 36 00 5e 7d 35 00 a3 cb 35 00 18 0e 36 00
       4.984403e-39 4.912255e-39 4.940332e-39 4.964173e-39
000250 d3 c3 35 80 d6 67 36 00 d9 51 36 80 85 92 35 00
       -4.93753e-39 4.996366e-39 -4.988478e-39 4.919843e-39
000260 4b 08 36 00 20 f7 35 80 45 d4 35 80 b6 77 35 00
       4.962092e-39 -4.955933e-39 -4.943429e-39 4.910225e-39
000270 b0 9f 36 80 b9 a9 35 00 19 72 35 00 d8 f5 35 00
       -5.016402e-39 4.928166e-39 4.908212e-39 4.955473e-39
000280 cb 36 36 00 e6 9d 35 80 ac f4 35 80 88 40 36 80
       4.978773e-39 -4.923925e-39 -4.955053e-39 -4.982266e-39
000290 1d 1c 36 80 8a 39 36 00 9d 95 36 80 82 77 36 00
       -4.969202e-39 4.979758e-39 -5.012788e-39 5.001988e-39
0002a0 2a a0 35 80 4a 9f 36 80 8f e6 35 80 6d 4b 36 00
       -4.924737e-39 -5.016259e-39 -4.94999e-39 4.986174e-39
0002b0 d8 26 36 00 3c 84 35 00 b6 25 36 00 d9 d9 35 00
       4.973051e-39 4.914718e-39 4.972645e-39 4.94543e-39
0002c0 7e df 35 00 bf b3 35 80 56 99 35 00 34 1c 36 80
       4.947455e-39 -4.931762e-39 4.922288e-39 -4.969234e-39
0002d0 06 a6 35 00 a5 ad 35 00 3c 7f 36 80 e6 aa 35 80
       4.926839e-39 4.929573e-39 -5.00476e-39 -4.928588e-39
0002e0 eb ac 35 80 3c 47 36 80 e7 6f 35 80 05 37 36 80
       -4.929313e-39 -4.984671e-39 -4.907424e-39 -4.978854e-39
0002f0 15 27 36 00 ee 48 36 80 cf 35 36 00 a4 47 36 80
       4.973137e-39 -4.985279e-39 4.97842e-39 -4.984817e-39
000300 5e 8c 36 80 04 c0 35 00 46 e4 36 00 94 6f 36 80
       -5.009471e-39 4.936164e-39 5.041006e-39 -4.999143e-39
000310 02 1b 36 00 b4 76 35 00 71 ee 35 80 0c 12 36 00
       4.968805e-39 4.909864e-39 -4.952818e-39 4.965591e-39
000320 58 79 35 80 0a 0a 36 00 e9 68 36 80 74 c4 35 00
       -4.910811e-39 4.962718e-39 -4.996751e-39 4.937755e-39
000330 2b e3 35 00 e8 a9 35 00 e1 f9 35 80 6d f1 35 00
       4.948774e-39 4.928232e-39 -4.956921e-39 4.953889e-39
000340 ec 43 36 80 f8 85 35 80 21 b9 35 80 40 da 35 80
       -4.983483e-39 -4.91534e-39 -4.933693e-39 -4.945575e-39
000350 0b 76 36 80 ea 7d 36 00 da 75 36 00 57 03 36 00
       -5.001463e-39 5.004286e-39 5.001394e-39 4.960315e-39
000360 27 cb 35 00 56 28 36 00 04 ca 36 00 39 69 35 00
       4.940159e-39 4.973587e-39 5.031586e-39 4.905028e-39
000370 1e 90 35 00 65 e9 35 80 f7 05 36 80 01 9f 35 80
       4.918981e-39 -4.951007e-39 -4.961257e-39 -4.924321e-39
000380 16 7e 35 80 53 80 35 00 2e cd 36 00 3b 70 35 80
       -4.912512e-39 4.913315e-39 5.032721e-39 -4.907542e-39
000390 28 e0 35 00 c4 54 36 80 e9 bf 35 80 7c 80 35 80
       4.947693e-39 -4.989525e-39 -4.936126e-39 -4.913373e-39
0003a0 45 04 36 80 72 94 35 80 3d 9f 35 00 2c 06 36 80
       -4.960648e-39 -4.920533e-39 4.924405e-39 -4.961331e-39
0003b0 a1 f8 35 00 2c d8 35 80 89 b4 36 00 8c e3 35 80
       4.956473e-39 -4.944829e-39 5.02388e-39 -4.94891e-39
0003c0 e3 d1 35 80 f1 9e 35 00 7f a3 35 00 7c a4 36 00
       -4.942574e-39 4.924299e-39 4.925933e-39 5.018123e-39
0003d0 fa c1 35 00 f9 70 36 00 3b 28 36 80 38 c8 35 80
       4.936867e-39 4.999644e-39 -4.973549e-39 -4.939106e-39
0003e0 79 95 35 00 85 a5 35 00 28 d2 35 80 0a 6b 35 00
       4.920902e-39 4.926659e-39 -4.942671e-39 4.90568e-39
0003f0 69 61 36 00 7e 0c 36 00 8c 41 36 80 93 6e 35 80
       4.994061e-39 4.963598e-39 -4.98263e-39 -4.906948e-39

encoder_lstm.bias_ih_l0 f4 [512]
000000 75 a9 36 80 24 6b 36 00 70 13 36 00 2a 36 36 00
       -5.019907e-39 4.997552e-39 4.96609e-39 4.978547e-39
000010 f3 3d 36 80 06 74 35 00 d7 1f 36 80 fc 5b 36 00
       -4.98134e-39 4.908903e-39 -4.970539e-39 4.992115e-39
000020 6d 69 36 80 8b bd 35 00 e2 83 35 80 7d 32 36 00
       -4.996936e-39 4.935277e-39 -4.914592e-39 4.977229e-39
000030 44 5e 36 00 95 75 36 80 b6 db 35 00 fd 89 35 80
       4.992933e-39 -5.001297e-39 4.946099e-39 -4.916782e-39
000040 f4 d2 35 00 59 1f 36 80 9c a1 35 80 da 7f 35 00
       4.942957e-39 -4.970362e-39 -4.925256e-39 4.913146e-39
000050 da bd 35 80 52 b3 35 80 30 c5 35 00 84 4a 36 80
       -4.935387e-39 -4.93161e-39 4.938019e-39 -4.985848e-39
000060 af 8e 35 00 8b 6e 36 80 c5 b1 36 00 6a 22 36 80
       4.918467e-39 -4.998772e-39 5.022888e-39 -4.971462e-39
000070 08 9e 36 00 a0 15 36 00 df 60 42 80 3b 7c 35 00
       5.015808e-39 4.966874e-39 -6.095894e-39 4.911847e-39
000080 3c dd 35 80 49 f3 35 80 cd 96 35 80 89 3d 36 00
       -4.946645e-39 -4.954556e-39 -4.921378e-39 4.981191e-39
000090 e0 9c 36 00 89 b1 36 00 4a b6 36 80 87 8a 36 80
       5.015393e-39 5.022804e-39 -5.02451e-39 -5.008811e-39
0000a0 8a 7f 35 80 34 2a 36 80 c7 c8 35 80 1f e9 35 80
       -4.913034e-39 -4.974256e-39 -4.939307e-39 -4.95091e-39
0000b0 bd e8 35 80 b9 71 36 80 28 c7 35 00 31 74 36 00
       -4.950772e-39 -4.999913e-39 4.938725e-39 5.000798e-39
0000c0 5a 0e 36 80 fa fa 35 00 4a a4 35 80 97 ae 35 80
       -4.964265e-39 4.957315e-39 -4.926217e-39 -4.929912e-39
0000d0 0f 8d 35 80 77 19 36 00 85 6b 35 00 d6 7f 36 80
       -4.917884e-39 4.968252e-39 4.905852e-39 -5.004976e-39
0000e0 54 43 36 80 eb 70 35 00 7d 7c 36 80 b7 a1 35 00
       -4.98327e-39 4.907789e-39 -5.003775e-39 4.925294e-39
0000f0 c8 91 35 80 d6 6d 35 80 87 80 36 80 a6 4c 36 80
       -4.919578e-39 -4.906683e-39 -5.005224e-39 -4.986613e-39
000100 07 2e 36 80 69 90 35 80 67 a2 3e 00 66 87 35 00
       -4.975628e-39 -4.919086e-39 5.75206e-39 4.915853e-39
000110 2a 01 36 00 2d 76 36 80 5e c9 36 00 d5 28 36 00
       4.959534e-39 -5.00151e-39 5.031354e-39 4.973765e-39
000120 27 26 36 00 c5 e5 35 80 03 5d 36 00 52 a8 42 80
       4.972803e-39 -4.949707e-39 4.992483e-39 -6.121525e-39
000130 71 9b 35 00 be d7 35 00 ed 8e 35 00 54 e1 35 80
       4.923043e-39 4.944675e-39 4.918553e-39 -4.948114e-39
000140 51 a6 35 80 c8 97 35 00 82 ee 35 00 f7 25 36 00
       -4.926944e-39 4.92173e-39 4.952842e-39 4.972736e-39
000150 0d 11 36 80 04 28 36 80 75 c9 35 80 a9 45 36 00
       -4.965233e-39 -4.973472e-39 -4.93955e-39 4.984106e-39
000160 b9 bf 36 00 cf 47 36 80 b9 2e 36 00 0e bf 35 80
       5.027894e-39 -4.984877e-39 4.975878e-39 -4.935819e-39
000170 28 ac 35 80 a5 ec 35 80 29 eb 35 00 40 df 35 80
       -4.92904e-39 -4.952173e-39 4.951641e-39 -4.947368e-39
000180 2d c3 35 80 9e e5 35 80 56 3a 36 00 81 2f 36 00
       -4.937297e-39 -4.949652e-39 4.980044e-39 4.976158e-39
000190 1a 16 36 00 c8 c3 35 00 ca 39 36 80 7e 45 36 80
       4.967045e-39 4.937514e-39 -4.979848e-39 -4.984046e-39
0001a0 98 a1 35 80 4c 5e 36 00 d5 8b 36 00 62 fb 35 00
       -4.92525e-39 4.992944e-39 5.009279e-39 4.95746e-39
0001b0 cb b2 35 00 23 5f 36 00 1a 86 35 80 e4 99 35 00
       4.93142e-39 4.993245e-39 -4.915388e-39 4.922487e-39
0001c0 ad 7f 35 00 55 15 36 80 e5 fe 35 80 ce d0 35 80
       4.913083e-39 -4.966769e-39 -4.95872e-39 -4.942186e-39
0001d0 f5 f9 3d 80 20 7d 35 80 8f 3b 36 00 4f 3e 36 80
       -5.691633e-39 -4.912168e-39 4.980482e-39 -4.981469e-39
0001e0 8c ba 36 00 83 c8 35 00 66 38 36 00 2a e3 35 80
       5.026037e-39 4.939211e-39 4.979349e-39 -4.948772e-39
0001f0 65 ce 35 00 14 c1 35 00 e4 3a 36 80 09 ae 35 80
       4.941322e-39 4.936545e-39 -4.980243e-39 -4.929713e-39
000200 79 8f 35 80 a0 8b 36 00 f4 f3 35 00 96 66 36 00
       -4.91875e-39 5.009205e-39 4.954795e-39 4.995918e-39
000210 20 a5 35 00 d2 45 36 80 73 66 36 80 b2 89 36 00
       4.926517e-39 -4.984164e-39 -4.995869e-39 5.008513e-39
000220 87 30 36 00 91 e0 35 00 7b d0 35 80 0a c1 35 00
       4.976525e-39 4.94784e-39 -4.94207e-39 4.93653e-39
000230 55 89 35 80 c4 3b 36 80 dc f4 35 80 13 64 36 00
       -4.916547e-39 -4.980557e-39 -4.95512e-39 4.995017e-39
000240 d8 46 36 00 e5 46 36 80 5a a7 35 80 cf 73 35 00
       4.984531e-39 -4.984549e-39 -4.927316e-39 4.908826e-39
000250 17 78 36 00 8e 68 35 80 0c 3b 36 00 8a 26 36 80
       5.002197e-39 -4.904788e-39 4.980299e-39 -4.972942e-39
000260 50 55 36 00 d1 14 36 80 47 e7 35 80 af 0c 36 80
       4.989721e-39 -4.966584e-39 -4.950248e-39 -4.963667e-39
000270 21 c0 35 00 3c 06 36 80 12 63 36 00 5f 9f 35 80
       4.936204e-39 -4.961353e-39 4.994657e-39 -4.924453e-39
000280 f4 05 36 00 98 74 36 80 b0 f6 35 00 04 95 35 00
       4.961252e-39 -5.000943e-39 4.955776e-39 4.920738e-39
000290 d9 79 35 80 62 66 36 00 85 98 35 00 70 ac 36 00
       -4.910992e-39 4.995845e-39 4.921995e-39 5.020976e-39
0002a0 42 85 35 80 31 1c 36 80 64 22 36 80 c0 af 35 80
       -4.915085e-39 -4.96923e-39 -4.971454e-39 -4.930329e-39
0002b0 23 64 36 80 20 21 36 80 24 4e 36 00 10 0f 36 80
       -4.995039e-39 -4.971e-39 4.987148e-39 -4.96452e-39
0002c0 32 05 36 80 d2 72 36 00 ef f1 35 80 f1 2f 36 00
       -4.96098e-39 5.000307e-39 -4.954071e-39 4.976315e-39
0002d0 b3 df 35 00 66 01 36 00 65 3e 36 80 46 8e 35 80
       4.94753e-39 4.959618e-39 -4.9815e-39 -4.91832e-39
0002e0 ab 15 36 00 82 a0 35 80 7f 0c 36 00 8a a2 36 80
       4.96689e-39 -4.92486e-39 4.9636e-39 -5.017425e-39
0002f0 d0 32 36 80 67 05 36 80 26 27 36 80 00 86 35 80
       -4.977345e-39 -4.961055e-39 -4.97316e-39 -4.915351e-39
000300 f3 64 36 80 22 fd 35 80 1d 10 36 00 d6 85 35 80
       -4.99533e-39 -4.958088e-39 4.964897e-39 -4.915293e-39
000310 fa 22 36 80 23 2e 36 80 dd 50 36 00 0f dc 35 80
       -4.971664e-39 -4.975668e-39 4.988125e-39 -4.946223e-39
000320 23 6e 35 00 d1 6a 35 00 84 d7 35 80 9c ac 35 00
       4.906791e-39 4.9056e-39 -4.944594e-39 4.929202e-39
000330 35 ec 35 00 6c c5 35 00 5d 2d 36 00 f7 d2 35 00
       4.952016e-39 4.938103e-39 4.97539e-39 4.942961e-39
000340 7a 03 36 80 fa 79 36 80 94 3b 36 80 5a 29 36 80
       -4.960364e-39 -5.002874e-39 -4.98049e-39 -4.973951e-39
000350 75 2e 36 00 5c c8 35 80 5b 3b 36 80 9e 87 35 80
       4.975782e-39 -4.939157e-39 -4.98041e-39 -4.915932e-39
000360 86 7f 35 00 45 6f 35 80 f1 e0 35 80 0b 6f 35 00
       4.913028e-39 -4.907197e-39 -4.947975e-39 4.907116e-39
000370 ef 2b 36 00 f7 67 35 80 6f cc 35 00 36 7a 36 00
       4.974877e-39 -4.904577e-39 4.940618e-39 5.002958e-39
000380 80 98 36 00 4a 7f 35 80 43 d1 35 00 80 cd 35 80
       5.013823e-39 -4.912944e-39 4.94235e-39 -4.941001e-39
000390 df 19 36 80 8c d6 35 80 68 c0 35 80 44 02 36 80
       -4.968398e-39 -4.944246e-39 -4.936304e-39 -4.95993e-39
0003a0 61 1e 36 00 ae a6 36 00 52 9f 36 00 fa 01 36 80
       4.970015e-39 5.01891e-39 5.01627e-39 -4.959826e-39
0003b0 ef 72 35 80 3a 93 35 80 df 10 36 00 f9 55 3f 80
       -4.908512e-39 -4.920096e-39 4.965169e-39 -5.816477e-39
0003c0 f8 68 35 00 b6 31 36 00 2c 93 35 00 36 bc 35 80
       4.904937e-39 4.97695e-39 4.920077e-39 -4.934799e-39
0003d0 23 f4 35 80 4a 01 36 00 55 a3 36 00 a2 3a 36 80
       -4.954861e-39 4.959579e-39 5.017709e-39 -4.98015e-39
0003e0 72 c8 35 00 28 b3 35 80 d3 71 35 80 46 fc 35 00
       4.939188e-39 -4.93155e-39 -4.908114e-39 4.95778e-39
0003f0 93 10 36 80 52 48 36 00 3f 80 36 80 79 bd 35 00
       -4.965063e-39 4.98506e-39 -5.005123e-39 4.935251e-39

encoder_lstm.bias_hh_l0 f4 [512]
000000 aa f2 35 00 07 ac 35 00 84 b8 35 00 53 c4 35 80
       4.954333e-39 4.928993e-39 4.933473e-39 -4.937709e-39
000010 2e 3a 36 80 19 ca 35 80 4c e7 35 80 16 04 36 00
       -4.979988e-39 -4.93978e-39 -4.950255e-39 4.960583e-39
000020 81 2e 36 80 90 6b 35 00 22 8b 35 80 b1 6e 35 00
       -4.975799e-39 4.905867e-39 -4.917193e-39 4.90699e-39
000030 68 91 35 00 1d 9c 35 00 43 3c 36 00 92 9e 35 80
       4.919443e-39 4.923284e-39 4.980735e-39 -4.924166e-39
000040 ad af 35 00 45 ff 35 00 ab 73 35 80 42 7e 35 00
       4.930302e-39 4.958855e-39 -4.908775e-39 4.912574e-39
000050 6f c4 35 00 b4 33 36 80 d3 b8 36 80 a0 2d 36 80
       4.937748e-39 -4.977664e-39 -5.025419e-39 -4.975484e-39
000060 e8 46 3d 00 ef 20 36 00 65 3d 36 00 49 65 36 80
       5.627402e-39 4.970931e-39 4.981141e-39 -4.995451e-39
000070 a1 1f 36 00 7d 7e 36 80 6b d0 35 80 d7 76 35 00
       4.970463e-39 -5.004492e-39 -4.942048e-39 4.909913e-39
000080 1b 2b 36 80 62 e3 35 00 49 da 35 00 b7 c3 35 80
       -4.97458e-39 4.948851e-39 4.945587e-39 -4.93749e-39
000090 c0 8a 35 00 43 d4 35 00 88 a6 35 80 c3 fc 35 00
       4.917055e-39 4.943426e-39 -4.927021e-39 4.957955e-39
0000a0 22 0c 36 00 6a 66 36 00 ad e4 35 00 34 92 35 00
       4.963469e-39 4.995856e-39 4.949315e-39 4.919729e-39
0000b0 8f c3 35 00 17 6f 35 80 70 b9 35 00 48 83 36 00
       4.937435e-39 -4.907133e-39 4.933804e-39 5.006212e-39
0000c0 a7 07 36 00 8c ae 35 80 29 c4 35 00 f2 c5 35 80
       4.961862e-39 -4.929897e-39 4.93765e-39 -4.93829e-39
0000d0 6e 37 36 00 94 04 36 00 59 16 36 00 31 51 36 80
       4.979001e-39 4.960759e-39 4.967134e-39 -4.988243e-39
0000e0 f7 a9 35 00 c5 e9 35 80 8f cf 35 80 d6 d7 36 80
       4.928253e-39 -4.951142e-39 -4.941739e-39 -5.036544e-39
0000f0 20 af 35 00 a7 37 40 80 a3 8c 36 00 4b e6 36 00
       4.930104e-39 -5.897436e-39 5.009568e-39 5.04173e-39
000100 9c b0 36 00 00 b5 35 00 58 df 35 00 53 e5 35 80
       5.022472e-39 4.932212e-39 4.947402e-39 -4.949547e-39
000110 a9 4e 36 00 dc 5c 36 00 b6 a0 35 00 6a bb 35 80
       4.987335e-39 4.992428e-39 4.924934e-39 -4.934513e-39
000120 f5 e7 35 00 53 00 36 00 ce 19 36 00 06 97 35 80
       4.950492e-39 4.959233e-39 4.968374e-39 -4.921458e-39
000130 d8 ad 35 80 39 dc 35 80 f7 7d 36 00 ab 13 36 00
       -4.929645e-39 -4.946282e-39 5.004304e-39 4.966172e-39
000140 8f bc 35 80 e8 71 36 80 63 a9 35 80 fa 70 35 80
       -4.934923e-39 -4.999979e-39 -4.928046e-39 -4.90781e-39
000150 61 aa 35 80 2c 07 36 80 56 a9 35 80 f5 74 35 00
       -4.928402e-39 -4.96169e-39 -4.928028e-39 4.909238e-39
000160 74 9c 35 80 55 03 36 00 0b 1a 36 80 20 15 36 80
       -4.923406e-39 4.960312e-39 -4.968459e-39 -4.966695e-39
000170 5a 6f 35 80 c1 03 3b 80 75 2e 36 80 57 e8 35 00
       -4.907227e-39 -5.419641e-39 -4.975782e-39 4.950629e-39
000180 62 80 36 80 ea cc 35 00 eb 7c 35 80 2b e7 35 80
       -5.005172e-39 4.94079e-39 -4.912093e-39 -4.950209e-39
000190 57 6a 35 80 e7 33 36 00 66 cb 3c 00 16 29 36 00
       -4.905429e-39 4.977736e-39 5.583095e-39 4.973856e-39
0001a0 d4 df 35 80 ab bf 35 00 91 63 36 80 8d 9d 35 80
       -4.947576e-39 4.936039e-39 -4.994834e-39 -4.9238e-39
0001b0 ec 9b 35 80 8a 7c 36 80 e2 c1 35 00 78 2e 36 80
       -4.923216e-39 -5.003793e-39 4.936833e-39 -4.975787e-39
0001c0 e6 ca 35 80 cd 1c 36 80 ca 4a 36 80 44 a0 35 00
       -4.940068e-39 -4.969449e-39 -4.985946e-39 4.924774e-39
0001d0 14 fd 35 00 77 5d 36 80 44 cc 35 80 3b 6a 35 80
       4.958069e-39 -4.992646e-39 -4.940558e-39 -4.90539e-39
0001e0 71 2f 36 00 6e ea 35 00 19 94 36 00 11 93 35 80
       4.976136e-39 4.951379e-39 5.012244e-39 -4.920039e-39
0001f0 a8 3b 36 80 3a aa 36 00 41 8a 35 00 db c0 36 80
       -4.980517e-39 5.020183e-39 4.916877e-39 -5.0283e-39
000200 a2 72 3a 00 49 8f 36 00 5e bf 35 00 e8 96 35 00
       5.367581e-39 5.010518e-39 4.935931e-39 4.921416e-39
000210 dc 7e 35 00 bd 11 36 00 b0 fc 35 00 c1 d7 35 80
       4.91279e-39 4.96548e-39 4.957928e-39 -4.944679e-39
000220 b6 3a 36 80 4e 55 36 80 b3 47 36 00 b7 9d 36 00
       -4.980178e-39 -4.989718e-39 4.984838e-39 5.015694e-39
000230 95 f1 35 00 28 f1 35 80 02 18 36 80 c0 8d 35 80
       4.953945e-39 -4.953792e-39 -4.967729e-39 -4.918132e-39
000240 d4 4a 36 00 69 00 36 80 57 3a 36 80 a1 a6 35 00
       4.98596e-39 -4.959264e-39 -4.980045e-39 4.927056e-39
000250 6b e1 35 00 22 3b 36 00 a0 9b 36 00 27 01 36 00
       4.948146e-39 4.98033e-39 5.014945e-39 4.95953e-39
000260 dd 3a 42 00 58 54 36 80 bb 00 36 80 44 31 36 00
       6.082259e-39 -4.989374e-39 -4.959379e-39 4.97679e-39
000270 13 5f 36 80 c3 75 35 00 95 8f 36 00 46 95 36 80
       -4.993223e-39 4.909526e-39 5.010624e-39 -5.012666e-39
000280 d9 15 36 80 56 0a 3e 00 9a c2 35 00 47 80 36 00
       -4.966954e-39 5.697509e-39 4.937091e-39 5.005134e-39
000290 29 05 36 80 f6 71 35 00 80 d0 35 00 0c f0 35 80
       -4.960968e-39 4.908163e-39 4.942077e-39 -4.953394e-39
0002a0 fb 4f 36 00 90 c4 35 80 b9 8e 35 80 0a f7 35 00
       4.987808e-39 -4.937795e-39 -4.91848e-39 4.955902e-39
0002b0 4c a9 35 00 39 aa 35 00 ca 95 35 80 df a4 35 00
       4.928014e-39 4.928346e-39 -4.921015e-39 4.926426e-39
0002c0 5f 3b 36 80 86 5c 36 00 ea 9d 35 80 7d 02 36 00
       -4.980415e-39 4.992308e-39 -4.92393e-39 4.96001e-39
0002d0 84 2a 36 80 e6 d5 35 00 0a 79 35 80 29 ce 35 80
       -4.974369e-39 4.944014e-39 -4.910702e-39 -4.941238e-39
0002e0 bd 2b 36 00 bc c3 36 80 ac 51 36 00 94 84 35 00
       4.974807e-39 -5.029333e-39 4.988415e-39 4.914841e-39
0002f0 6b 39 36 00 15 74 36 00 15 4d 36 80 a7 e7 35 80
       4.979714e-39 5.000759e-39 -4.986769e-39 -4.950382e-39
000300 18 b9 35 00 7c 71 36 00 ca e2 35 80 27 8b 35 80
       4.93368e-39 4.999827e-39 -4.948638e-39 -4.9172e-39
000310 b5 18 36 00 c2 19 36 80 77 e6 35 00 8e 14 36 80
       4.96798e-39 -4.968357e-39 4.949957e-39 -4.96649e-39
000320 2c 28 36 80 76 91 36 00 ba f7 35 00 d6 6c 35 00
       -4.973528e-39 5.011298e-39 4.956149e-39 4.906324e-39
000330 05 56 36 00 86 c7 35 00 c4 25 36 00 d7 dd 35 80
       4.989975e-39 4.938857e-39 4.972665e-39 -4.946862e-39
000340 79 6d 35 80 f9 6b 35 00 84 d2 35 80 1b 04 36 00
       -4.906553e-39 4.906015e-39 -4.9428e-39 4.96059e-39
000350 1d be 35 80 ae b6 36 80 f1 26 3e 00 5d 6b 36 80
       -4.935481e-39 -5.02465e-39 5.70777e-39 -4.997631e-39
000360 8f 9a 35 00 be 84 35 00 1b e1 35 80 4b 44 3e 00
       4.922726e-39 4.9149e-39 -4.948034e-39 5.7183e-39
000370 57 9c 35 80 fb c3 35 80 03 ec 35 80 f5 b5 35 80
       -4.923365e-39 -4.937586e-39 -4.951946e-39 -4.932555e-39
000380 49 38 36 80 56 e0 35 80 27 35 36 00 b5 00 36 80
       -4.979308e-39 -4.947758e-39 4.978184e-39 -4.95937e-39
000390 dc 24 36 80 6a 1f 36 80 3e b0 36 00 7e e3 35 00
       -4.97234e-39 -4.970386e-39 5.02234e-39 4.94889e-39
0003a0 26 51 36 00 07 9e 35 80 dd 38 36 80 38 5f 36 80
       4.988227e-39 -4.923971e-39 -4.979515e-39 -4.993275e-39
0003b0 36 3a 36 00 90 b5 35 00 bf 2f 36 00 39 6f 36 00
       4.979999e-39 4.932414e-39 4.976245e-39 4.999016e-39
0003c0 38 d4 35 80 db 0d 36 00 ea b2 35 00 80 2a 36 80
       -4.943411e-39 4.964087e-39 4.931464e-39 -4.974363e-39
0003d0 47 a9 35 80 5f ff 35 00 39 ac 35 00 1f e1 35 00
       -4.928007e-39 4.958891e-39 4.929063e-39 4.94804e-39
0003e0 be 93 35 00 1b 78 35 80 de 38 36 80 bd dd 35 80
       4.920281e-39 -4.910367e-39 -4.979517e-39 -4.946826e-39
0003f0 11 aa 35 00 1a bf 35 00 cb 56 36 80 d6 a0 36 00
       4.92829e-39 4.935836e-39 -4.990252e-39 5.016814e-39

encoder_lstm.weight_ih_l1 f4 [512, 128]
000000 f1 89 36 00 5a ef 35 00 c1 42 36 00 fe 40 36 00
       5.008601e-39 4.953144e-39 4.983064e-39 4.982432e-39
000010 6d 86 35 00 91 c8 35 80 3d 14 3e 00 17 1f 36 00
       4.915504e-39 -4.939231e-39 5.701061e-39 4.97027e-39
000020 c7 36 36 00 65 b9 35 80 ad d3 35 00 8a b2 35 00
       4.978767e-39 -4.933788e-39 4.943216e-39 4.931329e-39
000030 39 7f 35 80 e7 b5 35 80 4a bd 35 80 48 d8 35 00
       -4.91292e-39 -4.932536e-39 -4.935185e-39 4.944868e-39
000040 a3 ed 35 00 e3 94 35 00 65 43 36 80 48 75 35 00
       4.952529e-39 4.920692e-39 -4.983293e-39 4.909354e-39
000050 11 92 35 00 06 0a 36 00 1b a3 35 00 16 a9 35 80
       4.91968e-39 4.962713e-39 4.925793e-39 -4.927938e-39
000060 eb 4c 36 00 74 f5 35 00 de d9 36 80 52 0d 36 80
       4.98671e-39 4.955333e-39 -5.037273e-39 -4.963895e-39
000070 13 ac 35 80 08 ca 35 80 95 6b 35 00 32 63 36 00
       -4.92901e-39 -4.939756e-39 4.905874e-39 4.994701e-39
000080 a5 45 36 00 4b 8c 35 80 10 f0 35 00 aa aa 35 80
       4.9841e-39 -4.917609e-39 4.9534e-39 -4.928504e-39
000090 02 98 36 00 6a 1e 36 80 dc ad 35 80 fd b5 35 00
       5.013647e-39 -4.970027e-39 -4.92965e-39 4.932566e-39
0000a0 7d 52 36 80 ac 87 35 80 80 8c 35 80 f4 c4 35 80
       -4.988708e-39 -4.915951e-39 -4.917683e-39 -4.937935e-39
0000b0 5c 9a 36 00 3e ff 3b 00 2d c3 35 00 21 c8 35 80
       5.01449e-39 5.509858e-39 4.937297e-39 -4.939074e-39
0000c0 13 65 36 00 a9 d1 35 00 5e 96 35 00 46 9c 35 00
       4.995375e-39 4.942493e-39 4.921223e-39 4.923342e-39
0000d0 45 be 35 80 24 27 40 80 a0 08 36 80 21 09 36 00
       -4.935537e-39 -5.891513e-39 -4.962211e-39 4.962392e-39
0000e0 74 a2 35 00 1d 21 36 80 13 a2 35 80 d6 f0 35 00
       4.925558e-39 -4.970996e-39 -4.925423e-39 4.953677e-39
0000f0 2d f7 35 80 f0 22 36 00 46 74 36 80 cf 42 36 00
       -4.955951e-39 4.97165e-39 -5.000828e-39 4.983083e-39
000100 49 dc 35 80 45 03 36 00 dc 12 36 80 55 d0 35 80
       -4.946305e-39 4.96029e-39 -4.965882e-39 -4.942017e-39
000110 db e6 35 00 cb 76 35 80 2d 4f 36 00 06 e1 35 80
       4.950097e-39 -4.909896e-39 4.98752e-39 -4.948004e-39
000120 13 6f 36 80 40 db 35 00 b4 d5 35 00 1f f1 35 00
       -4.998963e-39 4.945933e-39 4.943944e-39 4.953779e-39
000130 23 ac 35 80 12 6c 36 80 93 42 36 80 48 8e 36 00
       -4.929032e-39 -4.997885e-39 -4.982999e-39 5.010158e-39
000140 94 b2 35 80 70 f1 35 00 40 ee 35 80 12 57 36 80
       -4.931343e-39 4.953893e-39 -4.952749e-39 -4.990352e-39
000150 ee 00 36 80 cd 58 36 00 46 97 35 00 bb 94 35 80
       -4.95945e-39 4.990973e-39 4.921548e-39 -4.920636e-39
000160 d3 72 35 80 ce 24 36 00 ca 66 36 80 37 f5 35 80
       -4.908472e-39 4.97232e-39 -4.99599e-39 -4.955248e-39
000170 3e bf 36 00 59 2f 36 80 4f 3b 36 00 3a 4b 36 80
       5.027722e-39 -4.976102e-39 4.980393e-39 -4.986103e-39
000180 74 86 35 00 dd 7a 35 80 06 81 36 80 0e 40 36 00
       4.915514e-39 -4.911356e-39 -5.005402e-39 4.982095e-39
000190 1c 6d 35 00 f4 99 35 00 c8 e7 35 80 d3 15 42 00
       4.906422e-39 4.922509e-39 -4.950429e-39 6.068972e-39
0001a0 ba bd 36 80 92 6c 36 80 df 99 36 00 d9 e1 35 80
       -5.027178e-39 -4.998064e-39 5.014315e-39 -4.9483e-39
0001b0 26 f9 35 00 c5 6a 35 80 11 50 36 80 a6 4b 36 80
       4.956659e-39 -4.905583e-39 -4.987839e-39 -4.986254e-39
0001c0 3d 37 36 80 8f b4 35 00 dd a8 35 00 be 04 36 80
       -4.978933e-39 4.932054e-39 4.927858e-39 -4.960818e-39
0001d0 11 00 36 00 62 4d 36 00 6a 89 36 80 e7 f2 35 00
       4.95914e-39 4.986877e-39 -5.008412e-39 4.954418e-39
0001e0 57 70 35 00 81 e9 35 00 26 b2 35 00 62 cc 35 00
       4.907581e-39 4.951047e-39 4.931189e-39 4.9406e-39
0001f0 be 32 36 00 f3 19 36 00 99 c7 35 00 dc 1d 36 00
       4.97732e-39 4.968426e-39 4.938883e-39 4.969828e-39
000200 46 98 36 80 dc 03 36 00 ad f7 35 00 d4 8c 35 80
       -5.013742e-39 4.960501e-39 4.95613e-39 -4.917801e-39
000210 1a a1 35 00 e6 19 36 80 68 7b 36 00 59 52 36 00
       4.925074e-39 -4.968407e-39 5.003387e-39 4.988658e-39
000220 2a 90 35 80 54 e1 35 80 3e 6d 35 00 32 3c 36 80
       -4.918998e-39 -4.948114e-39 4.90647e-39 -4.980711e-39
000230 86 8d 36 80 63 75 35 80 44 8c 35 80 bc 82 35 80
       -5.009886e-39 -4.909392e-39 -4.917599e-39 -4.91418e-39
000240 d9 b7 35 00 53 6b 35 00 de 2a 36 00 3d 91 36 00
       4.933233e-39 4.905782e-39 4.974495e-39 5.011218e-39
000250 8c b0 35 00 01 17 36 80 5c ea 35 80 45 7e 35 80
       4.930614e-39 -4.967369e-39 -4.951354e-39 -4.912578e-39
000260 e0 38 36 80 d1 b1 35 80 a6 3b 36 00 6c 8f 35 80
       -4.97952e-39 -4.93107e-39 4.980515e-39 -4.918731e-39
000270 5f 9c 35 80 36 65 36 80 02 52 36 80 b7 d7 35 80
       -4.923377e-39 -4.995424e-39 -4.988536e-39 -4.944665e-39
000280 e0 f6 35 00 bb ff 35 80 c9 7c 35 00 02 c2 35 00
       4.955843e-39 -4.95902e-39 4.912046e-39 4.936878e-39
000290 a2 58 36 80 4d b5 35 00 cd b3 35 00 c7 47 36 00
       -4.990912e-39 4.93232e-39 4.931782e-39 4.984866e-39
0002a0 8e 0e 36 00 2c a3 35 00 69 ce 35 00 5e 5f 36 00
       4.964338e-39 4.925816e-39 4.941327e-39 4.993328e-39
0002b0 35 9a 35 80 d0 eb 35 80 2d bf 35 00 04 b8 35 00
       -4.9226e-39 -4.951875e-39 4.935862e-39 4.933294e-39
0002c0 2a dc 35 00 7d b5 35 80 66 08 36 00 10 95 35 80
       4.946261e-39 -4.932387e-39 4.96213e-39 -4.920755e-39
0002d0 29 c8 35 80 d1 6c 36 00 a0 d7 35 00 e7 d6 35 80
       -4.939085e-39 4.998153e-39 4.944633e-39 -4.944374e-39
0002e0 75 19 36 80 77 8b 35 00 f7 9c 35 80 a3 64 36 00
       -4.968249e-39 4.917312e-39 -4.92359e-39 4.995218e-39
0002f0 8d ad 35 00 e9 a2 35 80 b4 b1 35 80 f9 d7 35 80
       4.92954e-39 -4.925722e-39 -4.931029e-39 -4.944758e-39
000300 f6 38 36 00 5a 0f 36 00 d7 53 36 80 51 b1 36 80
       4.97955e-39 4.964624e-39 -4.989193e-39 -5.022726e-39
000310 38 fe 35 00 97 77 36 00 5e 98 36 00 1e 4c 36 80
       4.958478e-39 5.002018e-39 5.013776e-39 -4.986422e-39
000320 cb 89 35 00 57 44 36 00 b0 dd 35 00 26 43 36 00
       4.916712e-39 4.983633e-39 4.946808e-39 4.983205e-39
000330 8d f8 35 80 ff 16 36 00 b9 63 36 00 bd b3 36 80
       -4.956445e-39 4.967366e-39 4.99489e-39 -5.023595e-39
000340 9a 14 36 80 77 51 36 00 28 8d 35 00 8f 1e 36 00
       -4.966507e-39 4.988341e-39 4.917919e-39 4.970079e-39
000350 7a 2e 36 80 5a eb 35 00 3a 7f 35 00 46 84 35 80
       -4.97579e-39 4.95171e-39 4.912922e-39 -4.914732e-39
000360 ca 2d 36 80 1c d2 36 80 75 ef 35 00 e7 55 36 80
       -4.975543e-39 -5.03449e-39 4.953182e-39 -4.989933e-39
000370 c1 2b 36 80 99 34 36 00 2f c6 36 00 21 0c 36 00
       -4.974813e-39 4.977985e-39 5.030212e-39 4.963468e-39
000380 89 12 36 00 d8 84 36 00 12 6c 35 00 98 90 35 00
       4.965766e-39 5.006772e-39 4.90605e-39 4.919152e-39
000390 9e c4 35 00 ac a7 36 80 5a 6b 35 00 85 65 36 00
       4.937814e-39 -5.019266e-39 4.905792e-39 4.995535e-39
0003a0 f5 99 35 80 e9 e0 35 80 85 be 35 00 1a 37 36 00
       -4.92251e-39 -4.947964e-39 4.935627e-39 4.978884e-39
0003b0 dc 4c 36 80 44 15 36 00 c1 58 36 80 c5 41 36 80
       -4.986689e-39 4.966745e-39 -4.990956e-39 -4.98271e-39
0003c0 52 71 36 80 20 44 36 00 76 70 35 80 55 e2 35 00
       -4.999768e-39 4.983555e-39 -4.907625e-39 4.948474e-39
0003d0 fa f1 35 00 72 37 36 00 38 bb 36 80 1f 68 35 80
       4.954086e-39 4.979007e-39 -5.026278e-39 -4.904633e-39
0003e0 b1 19 36 00 db 74 36 00 71 2a 36 00 ee b0 35 00
       4.968333e-39 5.001037e-39 4.974342e-39 4.930752e-39
0003f0 22 37 36 80 d9 44 36 00 1f 97 36 80 1b 6f 35 00
       -4.978895e-39 4.983815e-39 -5.013329e-39 4.907138e-39

encoder_lstm.weight_hh_l1 f4 [512, 128]
000000 e4 68 35 00 0c 32 36 80 b1 b9 35 80 7f 23 36 00
       4.904909e-39 -4.97707e-39 -4.933895e-39 4.97185e-39
000010 e1 7a 36 80 8f 47 36 00 a0 b7 35 80 2e 6d 42 00
       -5.003197e-39 4.984787e-39 -4.933154e-39 6.100309e-39
000020 6e 9c 36 80 fa 42 36 00 1b d2 35 80 95 a1 36 00
       -5.015233e-39 4.983143e-39 -4.942653e-39 5.017082e-39
000030 6e 3b 36 80 56 a5 36 00 3f 6f 36 80 bc 71 35 80
       -4.980436e-39 5.018428e-39 -4.999024e-39 -4.908082e-39
000040 9f 55 36 00 79 a5 35 80 1c 71 35 80 05 11 36 80
       4.989832e-39 -4.926642e-39 -4.907857e-39 -4.965222e-39
000050 ee cd 35 00 25 67 36 00 c4 eb 35 80 ca 17 36 80
       4.941155e-39 4.996118e-39 -4.951858e-39 -4.96765e-39
000060 79 02 36 80 2b e2 35 00 71 89 36 00 26 c3 35 00
       -4.960004e-39 4.948415e-39 5.008421e-39 4.937287e-39
000070 12 47 36 80 a1 ac 35 80 fc 03 36 00 67 b2 35 80
       -4.984612e-39 -4.929209e-39 4.960546e-39 -4.93128e-39
000080 b3 b6 35 00 49 c0 35 80 ba 71 35 00 4a b3 35 80
       4.932821e-39 -4.93626e-39 4.908079e-39 -4.931598e-39
000090 de 5a 36 00 6e 88 35 00 10 96 35 80 18 f4 35 80
       4.991714e-39 4.916223e-39 -4.921114e-39 -4.954846e-39
0000a0 c9 3b 36 80 4b fb 35 80 a7 9d 35 80 04 2c 36 80
       -4.980564e-39 -4.957428e-39 -4.923836e-39 -4.974907e-39
0000b0 65 3d 36 80 d7 d5 35 00 73 45 36 80 c6 ef 35 00
       -4.981141e-39 4.943993e-39 -4.98403e-39 4.953296e-39
0000c0 5c 77 36 00 c8 e8 35 80 9d bc 36 80 cf f2 35 80
       5.001935e-39 -4.950787e-39 -5.026778e-39 -4.954385e-39
0000d0 0c b5 35 80 3f 78 35 00 41 98 35 00 70 6f 35 80
       -4.932229e-39 4.910417e-39 4.9219e-39 -4.907258e-39
0000e0 dd 89 36 00 f1 e9 35 00 e9 3b 36 80 be 6a 35 80
       5.008573e-39 4.951204e-39 -4.980609e-39 -4.905573e-39
0000f0 b2 de 35 00 1b df 35 00 5b b1 35 00 46 73 36 80
       4.94717e-39 4.947316e-39 4.930904e-39 -5.000469e-39
000100 5e 71 35 00 8e 66 36 80 6a f3 35 00 00 1c 36 00
       4.90795e-39 -4.995906e-39 4.954602e-39 4.969161e-39
000110 dc a9 35 00 78 83 35 00 e9 a0 35 00 88 59 36 80
       4.928215e-39 4.914443e-39 4.925005e-39 -4.991235e-39
000120 d2 d9 35 00 ff a7 35 00 be b5 35 00 85 4c 36 80
       4.94542e-39 4.927547e-39 4.932478e-39 -4.986567e-39
000130 83 1f 36 80 c1 82 36 00 05 e9 35 80 b2 7c 36 80
       -4.970421e-39 5.006022e-39 -4.950873e-39 -5.003849e-39
000140 6e d2 36 00 da 1c 36 80 d1 6f 36 00 b8 36 36 80
       5.034605e-39 -4.969467e-39 4.999229e-39 -4.978746e-39
000150 66 c3 35 00 e0 af 35 80 f0 71 35 80 22 6a 35 00
       4.937377e-39 -4.930373e-39 -4.908154e-39 4.905355e-39
000160 5b 5e 36 00 70 24 36 00 be ab 35 00 f6 7f 35 80
       4.992965e-39 4.972188e-39 4.928891e-39 -4.913185e-39
000170 1e 21 36 80 41 81 35 00 c6 c0 35 80 af d6 35 80
       -4.970997e-39 4.913649e-39 -4.936435e-39 -4.944295e-39
000180 69 e2 35 80 24 41 36 00 a0 fb 35 80 d6 cb 35 00
       -4.948502e-39 4.982485e-39 -4.957547e-39 4.940404e-39
000190 39 2f 36 00 95 82 35 80 17 12 36 80 e5 93 35 00
       4.976057e-39 -4.914125e-39 -4.965606e-39 4.920336e-39
0001a0 ca 70 36 80 7a d3 35 80 89 b1 35 00 ce 85 35 00
       -4.999578e-39 -4.943145e-39 4.930969e-39 4.915281e-39
0001b0 04 19 36 80 d3 c4 35 80 d5 8f 35 80 a1 fe 35 00
       -4.968091e-39 -4.937889e-39 -4.918879e-39 4.958625e-39
0001c0 14 2e 36 80 ef 92 36 80 4e d8 35 80 06 87 35 00
       -4.975647e-39 -5.011827e-39 -4.944877e-39 4.915719e-39
0001d0 62 ce 35 00 d0 06 36 00 29 43 36 00 23 fe 35 80
       4.941317e-39 4.96156e-39 4.98321e-39 -4.958448e-39
0001e0 63 b0 35 00 94 f2 35 00 84 4f 36 80 d6 a8 35 00
       4.930557e-39 4.954302e-39 -4.987642e-39 4.927848e-39
0001f0 59 72 35 00 84 6e 36 80 e1 9c 35 80 88 bb 35 00
       4.908302e-39 -4.998762e-39 -4.923559e-39 4.934555e-39
000200 dc 65 36 00 4d 6b 35 00 2a 70 36 80 9d 0c 36 80
       4.995657e-39 4.905774e-39 -4.999354e-39 -4.963642e-39
000210 3d 85 35 00 0c d5 35 00 de 29 36 80 98 71 35 80
       4.915078e-39 4.943708e-39 -4.974136e-39 -4.908031e-39
000220 7b 3e 36 80 68 39 36 80 12 d0 35 00 ab 36 36 00
       -4.98153e-39 -4.97971e-39 4.941923e-39 4.978728e-39
000230 e4 87 36 80 7f 42 44 80 24 82 36 00 74 4c 36 80
       -5.007865e-39 -6.268668e-39 5.005802e-39 -4.986543e-39
000240 c5 9c 36 80 bf 3e 36 80 6a 66 36 00 b8 ba 35 00
       -5.015355e-39 -4.981626e-39 4.995856e-39 4.934263e-39
000250 2a 43 36 80 5b 22 36 80 5a b0 35 80 b4 fc 35 00
       -4.983211e-39 -4.971441e-39 -4.930544e-39 4.957934e-39
000260 2f e4 35 00 14 b8 35 00 19 65 36 80 5c e0 35 00
       4.949138e-39 4.933316e-39 -4.995384e-39 4.947766e-39
000270 e7 16 36 80 45 a0 35 80 35 b5 35 80 ea 6d 35 80
       -4.967333e-39 -4.924775e-39 -4.932286e-39 -4.906711e-39
000280 f9 8a 35 00 89 de 35 00 1e 72 35 00 53 b8 36 80
       4.917135e-39 4.947112e-39 4.908219e-39 -5.02524e-39
000290 02 0d 36 80 d4 a9 36 00 ea f2 35 80 3a a0 36 80
       -4.963783e-39 5.02004e-39 -4.954422e-39 -5.016595e-39
0002a0 96 55 36 80 90 19 36 80 dd 6a 36 80 cf 7e 35 80
       -4.989819e-39 -4.968287e-39 -4.997452e-39 -4.912772e-39
0002b0 33 c3 35 80 12 5e 36 80 2e c1 36 00 2a 77 35 80
       -4.937306e-39 -4.992863e-39 5.028417e-39 -4.91003e-39
0002c0 15 6c 35 80 5c 6e 35 80 64 99 35 80 58 52 36 80
       -4.906054e-39 -4.906871e-39 -4.922307e-39 -4.988656e-39
0002d0 58 d8 35 80 92 01 36 00 bb 0f 36 00 d4 79 35 80
       -4.944891e-39 4.95968e-39 4.96476e-39 -4.910985e-39
0002e0 3c f2 35 80 7c f9 35 00 1f db 35 00 80 13 36 80
       -4.954179e-39 4.95678e-39 4.945887e-39 -4.966112e-39
0002f0 aa 42 36 80 d5 ce 35 80 b9 16 36 80 b0 3c 36 80
       -4.983031e-39 -4.941479e-39 -4.967268e-39 -4.980887e-39
000300 86 d5 35 00 a6 17 36 00 76 16 36 00 5d 1c 36 00
       4.943879e-39 4.9676e-39 4.967174e-39 4.969292e-39
000310 32 50 36 80 8f 8e 36 00 fc a2 36 00 3f df 35 80
       -4.987885e-39 5.010257e-39 5.017585e-39 -4.947367e-39
000320 2c 11 36 80 29 a2 35 80 78 40 36 80 f1 d3 35 00
       -4.965277e-39 -4.925453e-39 -4.982244e-39 4.943312e-39
000330 7c 76 35 00 ac ec 35 80 6b b8 35 00 43 80 35 00
       4.909785e-39 -4.952183e-39 4.933438e-39 4.913293e-39
000340 55 95 35 80 cb 21 36 00 b0 27 36 80 f4 57 36 80
       -4.920852e-39 4.97124e-39 -4.973354e-39 -4.990668e-39
000350 f0 ee 35 80 9c 2a 36 00 ba 79 36 00 89 3c 36 00
       -4.952996e-39 4.974402e-39 5.002784e-39 4.980833e-39
000360 d4 e6 35 80 75 cd 35 00 f6 a2 36 00 33 36 36 80
       -4.950087e-39 4.940985e-39 5.017576e-39 -4.97856e-39
000370 b0 fa 35 00 72 a7 36 00 3c 30 36 00 43 7e 35 80
       4.957211e-39 5.019185e-39 4.97642e-39 -4.912575e-39
000380 ba 90 35 00 3f 1d 36 00 9d d1 36 00 24 98 35 00
       4.9192e-39 4.969608e-39 5.034312e-39 4.921859e-39
000390 bb 46 36 00 47 0c 36 80 81 ce 35 80 f7 42 36 80
       4.98449e-39 -4.963521e-39 -4.941361e-39 -4.983139e-39
0003a0 53 7a 35 00 17 81 35 80 3c c2 35 80 bc d9 35 80
       4.911163e-39 -4.91359e-39 -4.93696e-39 -4.94539e-39
0003b0 ad 1e 36 80 0f 8e 36 80 88 9c 35 80 4c 08 36 00
       -4.970121e-39 -5.010078e-39 -4.923434e-39 4.962093e-39
0003c0 db c6 36 00 db 99 35 80 b6 28 36 80 a6 93 35 80
       5.030453e-39 -4.922474e-39 -4.973721e-39 -4.920248e-39
0003d0 69 70 35 00 ca 20 36 80 cb 0f 36 80 92 9e 35 00
       4.907606e-39 -4.970879e-39 -4.964782e-39 4.924166e-39
0003e0 e6 8d 35 00 a2 9a 36 80 96 61 36 00 0a e0 35 00
       4.918185e-39 -5.014589e-39 4.994124e-39 4.947651e-39
0003f0 9e a9 36 00 d2 81 35 80 14 b4 35 80 db 7b 35 80
       5.019964e-39 -4.913852e-39 -4.931881e-39 -4.911712e-39
