test_TL/models/lstm_TL_u1.pth (torch, 950004 bytes, 22 tensors)

encoder_lstm.weight_ih_l0 f4 [512, 4]
000000 c0 10 36 80 c0 d2 35 00 00 1d 36 80 6d b6 35 00
       -4.965126e-39 4.942884e-39 -4.96952e-39 4.932723e-39
000010 95 e2 35 00 f5 da 35 80 c1 a9 35 80 93 9d 36 00
       4.948564e-39 -4.945828e-39 -4.928178e-39 5.015644e-39
000020 d1 2a 36 80 94 a7 36 00 d5 68 35 80 97 3c 36 00
       -4.974476e-39 5.019232e-39 -4.904888e-39 4.980852e-39
000030 3a aa 35 80 09 c1 35 00 08 0e 36 80 53 d3 35 80
       -4.928347e-39 4.936529e-39 -4.96415e-39 -4.94309e-39
000040 17 0d 36 00 fc 72 35 00 1e 87 35 80 94 87 36 80
       4.963813e-39 4.90853e-39 -4.915752e-39 -5.007753e-39
000050 2a e5 35 80 ef 27 42 00 1a 98 35 00 23 a1 35 00
       -4.94949e-39 6.075468e-39 4.921845e-39 4.925086e-39
000060 b3 0a 36 00 36 4f 36 00 b2 6e 36 00 4e bc 35 00
       4.962955e-39 4.987532e-39 4.998827e-39 4.934832e-39
000070 22 4a 36 00 4e 75 35 80 8e 13 36 80 cd 17 36 80
       4.98571e-39 -4.909362e-39 -4.966132e-39 -4.967655e-39
000080 6f c9 35 00 c1 f8 35 80 f5 20 36 00 ff ed 35 80
       4.939542e-39 -4.956517e-39 4.97094e-39 -4.952658e-39
000090 da 42 36 00 cd f2 35 00 13 7c 36 00 f6 6c 3e 00
       4.983099e-39 4.954382e-39 5.003626e-39 5.732889e-39
0000a0 f9 06 36 80 a6 13 36 00 09 af 35 80 f6 e5 35 00
       -4.961618e-39 4.966165e-39 -4.930072e-39 4.949776e-39
0000b0 47 d7 35 80 29 1a 36 00 a0 56 36 80 52 3d 36 80
       -4.944508e-39 4.968501e-39 -4.990192e-39 -4.981114e-39
0000c0 e5 ba 35 00 f9 6b 35 80 de 80 36 80 b2 80 42 80
       4.934326e-39 -4.906015e-39 -5.005346e-39 -6.10731e-39
0000d0 42 c7 35 00 21 f4 35 00 c3 b5 36 00 57 bf 35 00
       4.938762e-39 4.954858e-39 5.02432e-39 4.935921e-39
0000e0 44 63 36 00 10 af 35 80 10 ed 35 00 c0 e2 35 80
       4.994727e-39 -4.930082e-39 4.952323e-39 -4.948624e-39
0000f0 7a 74 36 00 b4 c6 35 00 b1 a4 36 80 9a 3e 36 00
       5.000901e-39 4.938563e-39 -5.018197e-39 4.981574e-39
000100 6b f4 35 00 7d 62 36 80 0f 01 36 80 b9 80 36 00
       4.954962e-39 -4.994448e-39 -4.959497e-39 5.005294e-39
000110 ba c1 35 80 2b b5 35 00 c9 c7 35 00 01 87 36 00
       -4.936777e-39 4.932272e-39 4.938951e-39 5.007547e-39
000120 87 6f 36 80 b4 bf 35 00 88 08 36 80 64 7c 35 80
       -4.999125e-39 4.936051e-39 -4.962177e-39 -4.911904e-39
000130 59 ed 35 80 74 33 36 80 06 c1 35 00 eb 9f 35 00
       -4.952426e-39 -4.977575e-39 4.936525e-39 4.924649e-39
000140 98 12 36 00 cf 95 36 80 65 4d 36 00 8f a2 35 00
       4.965787e-39 -5.012858e-39 4.986881e-39 4.925596e-39
000150 69 61 36 00 b5 76 35 00 13 5a 36 80 7c 05 41 00
       4.994061e-39 4.909865e-39 -4.99143e-39 5.971275e-39
000160 0c 85 35 00 49 69 36 00 78 e2 35 80 f3 a0 35 80
       4.91501e-39 4.996886e-39 -4.948523e-39 -4.925019e-39
000170 be 19 36 80 90 cf 35 80 25 9f 35 00 19 a8 36 00
       -4.968351e-39 -4.94174e-39 4.924372e-39 5.019419e-39
000180 9a 9c 35 80 33 76 35 80 95 bd 42 80 9f c0 35 80
       -4.92346e-39 -4.909683e-39 -6.129152e-39 -4.936381e-39
000190 0d 6b 35 80 19 7b 35 80 ca ab 35 00 c2 94 35 80
       -4.905684e-39 -4.91144e-39 4.928908e-39 -4.920646e-39
0001a0 73 23 36 80 72 f8 35 80 08 c5 36 00 23 08 36 00
       -4.971834e-39 -4.956407e-39 5.029798e-39 4.962036e-39
0001b0 9f 25 36 00 a8 aa 35 80 ab 05 36 00 fd 40 36 80
       4.972613e-39 -4.928501e-39 4.96115e-39 -4.98243e-39
0001c0 2c cc 35 00 8e 3e 36 80 1c 6f 36 80 8b 9f 35 00
       4.940524e-39 -4.981557e-39 -4.998975e-39 4.924515e-39
0001d0 4a 61 36 00 66 15 36 80 91 78 36 80 33 be 35 00
       4.994018e-39 -4.966793e-39 -5.002368e-39 4.935512e-39
0001e0 4d d3 35 80 31 c2 35 00 a3 19 36 80 a4 c3 35 00
       -4.943082e-39 4.936944e-39 -4.968314e-39 4.937464e-39
0001f0 64 46 36 00 df 41 36 00 19 8b 35 80 6d 29 36 80
       4.984368e-39 4.982747e-39 -4.91718e-39 -4.973978e-39
000200 03 ae 35 80 e9 81 35 00 16 d6 35 80 10 d1 35 00
       -4.929705e-39 4.913884e-39 -4.944081e-39 4.942279e-39
000210 6c 12 36 80 36 a9 35 00 c4 9f 35 00 46 a8 35 80
       -4.965725e-39 4.927983e-39 4.924594e-39 -4.927646e-39
000220 4f 8f 35 00 fc 4f 36 00 12 0f 36 80 94 d5 39 80
       4.918691e-39 4.98781e-39 -4.964523e-39 -5.31124e-39
000230 9b ae 35 80 bd a0 35 80 89 d7 35 80 fa de 35 80
       -4.929918e-39 -4.924943e-39 -4.944601e-39 -4.94727e-39
000240 47 6d 36 80 0c ae 36 00 8c e7 35 80 bb ce 36 00
       -4.998318e-39 5.021553e-39 -4.950345e-39 5.033278e-39
000250 40 84 35 00 be 7a 35 00 15 40 36 80 08 84 35 80
       4.914724e-39 4.911313e-39 -4.982105e-39 -4.914645e-39
000260 1b e6 35 00 32 11 36 80 43 2d 36 00 87 a2 35 80
       4.949828e-39 -4.965285e-39 4.975354e-39 -4.925585e-39
000270 0f 63 36 80 21 87 35 00 5f ed 35 00 cf 9e 35 80
       -4.994652e-39 4.915756e-39 4.952434e-39 -4.924251e-39
000280 71 10 36 80 84 a4 35 80 cd 9b 36 00 ff 50 36 80
       -4.965015e-39 -4.926298e-39 5.015008e-39 -4.988173e-39
000290 c0 ad 36 00 e2 67 35 00 f4 7d 36 80 ef 5f 36 80
       5.021447e-39 4.904547e-39 -5.0043e-39 -4.993531e-39
0002a0 13 61 36 80 c0 f6 35 80 6b 28 36 80 95 6e 35 00
       -4.99394e-39 -4.955799e-39 -4.973616e-39 4.90695e-39
0002b0 23 7f 35 00 e7 59 36 80 be 4f 36 00 8c 40 36 00
       4.91289e-39 -4.991368e-39 4.987723e-39 4.982272e-39
0002c0 5b 69 35 00 31 d1 35 00 55 f0 35 80 59 25 36 00
       4.905076e-39 4.942325e-39 -4.953496e-39 4.972515e-39
0002d0 42 11 36 00 a5 03 36 00 9e 0f 36 00 c8 8d 36 80
       4.965308e-39 4.960424e-39 4.964719e-39 -5.009978e-39
0002e0 18 8b 36 00 d0 cb 35 00 12 af 35 00 33 cd 35 80
       5.009014e-39 4.940395e-39 4.930085e-39 -4.940893e-39
0002f0 b2 ef 35 00 b4 6a 36 00 2b 47 36 00 5b 00 36 00
       4.953268e-39 4.997395e-39 4.984647e-39 4.959244e-39
000300 8d 35 36 80 34 b4 35 80 85 34 36 00 0b e1 35 00
       -4.978327e-39 -4.931926e-39 4.977957e-39 4.948012e-39
000310 a9 9b 35 80 75 77 35 00 42 0a 37 80 e8 85 35 80
       -4.923122e-39 4.910134e-39 -5.054632e-39 -4.915318e-39
000320 0b 08 36 80 46 64 36 80 90 39 36 00 dd 25 36 80
       -4.962002e-39 -4.995088e-39 4.979766e-39 -4.9727e-39
000330 a0 c3 35 80 48 76 36 00 fc e6 39 00 12 3a 36 00
       -4.937458e-39 5.001548e-39 5.317485e-39 4.979948e-39
000340 a1 4c 36 00 6a eb 35 80 cc 7e 35 00 87 26 36 00
       4.986606e-39 -4.951732e-39 4.912767e-39 4.972938e-39
000350 95 bd 35 00 7b e2 35 00 f7 b4 35 80 e4 26 36 80
       4.93529e-39 4.948527e-39 -4.932199e-39 -4.973068e-39
000360 98 f4 35 80 31 0c 36 80 d9 94 36 80 e9 73 36 00
       -4.955025e-39 -4.96349e-39 -5.012513e-39 5.000698e-39
000370 db 56 36 80 2b c1 35 00 e1 e1 35 80 fa 48 36 80
       -4.990275e-39 4.936577e-39 -4.948311e-39 -4.985296e-39
000380 3c 5c 36 00 ca 30 36 80 50 fe 35 00 d0 01 36 00
       4.992204e-39 -4.976619e-39 4.958511e-39 4.959767e-39
000390 3a 46 36 00 47 b3 35 00 3a 55 36 00 bc 7a 35 00
       4.98431e-39 4.931594e-39 4.98969e-39 4.91131e-39
0003a0 b6 33 36 00 85 32 36 80 10 95 36 00 08 b1 35 80
       4.977667e-39 -4.97724e-39 5.01259e-39 -4.930788e-39
0003b0 ef ce 35 80 7f db 35 80 2e b4 35 00 79 f1 35 80
       -4.941515e-39 -4.946022e-39 4.931918e-39 -4.953905e-39
0003c0 f3 1f 36 80 f5 27 36 80 fb b0 36 00 be f9 35 80
       -4.970578e-39 -4.97345e-39 5.022605e-39 -4.956872e-39
0003d0 44 08 36 80 96 1d 36 00 db c3 35 00 8f 51 36 80
       -4.962082e-39 4.96973e-39 4.937541e-39 -4.988375e-39
0003e0 fd d8 35 80 86 24 36 80 63 96 35 80 48 2f 36 00
       -4.945122e-39 -4.972219e-39 -4.92123e-39 4.976078e-39
0003f0 d4 fb 35 80 d4 c5 35 00 fa 45 36 80 c9 78 35 80
       -4.95762e-39 4.938249e-39 -4.98422e-39 -4.910611e-39

encoder_lstm.weight_hh_l0 f4 [512, 128]
000000 dc fd 35 00 87 09 36 80 eb 6b 35 00 6c 5c 36 80
       4.958349e-39 -4.962535e-39 4.905995e-39 -4.992272e-39
000010 42 11 36 00 0a 2a 36 00 a9 6e 35 00 fc b6 35 80
       4.965308e-39 4.974198e-39 4.906979e-39 -4.932924e-39
000020 8b a9 35 80 6c c9 35 80 79 6c 36 00 e2 de 35 00
       -4.928102e-39 -4.939538e-39 4.99803e-39 4.947237e-39
000030 f5 aa 35 80 22 9e 35 80 f1 97 36 00 68 bd 36 80
       -4.928609e-39 -4.924009e-39 5.013623e-39 -5.027063e-39
000040 84 96 35 80 66 e5 35 80 dc 68 35 80 17 eb 35 80
       -4.921276e-39 -4.949574e-39 -4.904898e-39 -4.951616e-39
000050 8b 8a 35 80 e2 20 36 80 ad 5d 36 00 d5 18 36 80
       -4.916981e-39 -4.970913e-39 4.992721e-39 -4.968025e-39
000060 7e 6a 35 80 55 f6 35 00 1f 46 36 80 39 e5 35 00
       -4.905483e-39 4.955649e-39 -4.984272e-39 4.949511e-39
000070 f2 d2 35 00 c9 dc 35 80 a5 36 36 80 0a 56 36 80
       4.942954e-39 -4.946484e-39 -4.97872e-39 -4.989982e-39
000080 fe a0 35 80 3d 0a 36 00 2a 84 35 00 fb a2 36 00
       -4.925034e-39 4.96279e-39 4.914693e-39 5.017583e-39
000090 b9 1e 36 00 03 a3 36 00 c8 98 35 00 dc eb 35 80
       4.970138e-39 5.017594e-39 4.922089e-39 -4.951892e-39
0000a0 76 2f 36 00 c5 08 36 80 37 69 36 00 1c 82 36 80
       4.976143e-39 -4.962263e-39 4.996861e-39 -5.005791e-39
0000b0 e7 bf 36 80 ed 0f 36 00 5c fe 35 80 48 8c 35 00
       -5.027958e-39 4.96483e-39 -4.958528e-39 4.917605e-39
0000c0 3e ba 35 00 fc 73 35 00 0d 92 35 80 9e 7f 35 00
       4.934092e-39 4.908889e-39 -4.919674e-39 4.913062e-39
0000d0 17 b9 35 80 09 b8 35 80 e8 4b 42 00 b3 b0 35 80
       -4.933679e-39 -4.9333e-39 6.088373e-39 -4.930669e-39
0000e0 26 e0 35 80 ce 2a 36 80 96 ab 35 00 bc 9a 35 00
       -4.94769e-39 -4.974472e-39 4.928835e-39 4.92279e-39
0000f0 7e b4 36 00 16 7c 35 00 d3 85 36 80 64 56 36 00
       5.023865e-39 4.911795e-39 -5.007124e-39 4.990108e-39
000100 3f dc 35 00 3e ab 35 80 67 fa 35 00 03 e5 35 00
       4.946291e-39 -4.928711e-39 4.957109e-39 4.949435e-39
000110 29 c4 36 80 49 f3 35 80 af ce 35 80 27 ba 35 80
       -5.029486e-39 -4.954556e-39 -4.941425e-39 -4.93406e-39
000120 1c 83 36 00 09 4b 36 00 01 c5 35 00 b7 13 36 80
       5.00615e-39 4.986034e-39 4.937953e-39 -4.966189e-39
000130 34 b8 35 80 32 89 35 00 e9 10 36 00 cf 72 36 00
       -4.933361e-39 4.916498e-39 4.965183e-39 5.000302e-39
000140 7d 40 36 00 9c 8a 36 80 20 fa 35 80 7d 91 35 00
       4.982251e-39 -5.00884e-39 -4.957009e-39 4.919473e-39
000150 f6 6e 35 80 a5 15 36 00 30 f1 35 80 e3 c9 35 80
       -4.907087e-39 4.966881e-39 -4.953803e-39 -4.939705e-39
000160 e9 30 36 80 8a 44 36 00 cd 4b 36 00 a1 b3 36 00
       -4.976662e-39 4.983704e-39 4.986309e-39 5.023556e-39
000170 a1 84 36 80 0c 13 36 80 58 ad 35 00 c3 26 3b 00
       -5.006695e-39 -4.96595e-39 4.929465e-39 5.4322e-39
000180 1d a7 35 80 d8 34 36 00 8f b0 35 80 a9 52 36 00
       -4.92723e-39 4.978074e-39 -4.930619e-39 4.98877e-39
000190 eb 6e 35 00 b8 40 36 80 cd 06 36 00 ba f6 35 80
       4.907071e-39 -4.982334e-39 4.961556e-39 -4.95579e-39
0001a0 aa 92 36 80 15 31 36 80 39 b1 35 00 7c d6 35 00
       -5.01173e-39 -4.976724e-39 4.930857e-39 4.944224e-39
0001b0 5b 32 36 80 5d d4 35 80 a1 a2 36 80 ce 49 36 00
       -4.977181e-39 -4.943463e-39 -5.017457e-39 4.985593e-39
0001c0 de d1 35 80 59 b5 35 80 49 d9 35 00 fe 6c 35 00
       -4.942567e-39 -4.932337e-39 4.945229e-39 4.90638e-39
0001d0 7f c5 35 80 8f 74 35 80 48 a7 35 00 08 89 35 80
       -4.93813e-39 -4.909095e-39 4.92729e-39 -4.916439e-39
0001e0 cf 46 36 00 f6 7b 35 80 b8 c0 35 80 c4 e5 35 00
       4.984518e-39 -4.91175e-39 -4.936416e-39 4.949706e-39
0001f0 5d 94 35 80 ca 09 36 00 f8 8b 36 80 98 49 36 00
       -4.920504e-39 4.962628e-39 -5.009328e-39 4.985517e-39
000200 82 4a 36 80 31 9d 35 80 20 b7 35 80 6e 1b 36 80
       -4.985845e-39 -4.923671e-39 -4.932974e-39 -4.968957e-39
000210 9b 93 36 00 83 c6 35 80 6b 2c 36 00 ef 7d 35 00
       5.012068e-39 -4.938494e-39 4.975051e-39 4.912458e-39
000220 a3 2d 36 80 c8 95 35 00 bf c8 35 80 9a d2 35 80
       -4.975488e-39 4.921013e-39 -4.939295e-39 -4.942831e-39
000230 36 75 35 80 5c 17 36 00 6a bc 36 80 4d 94 35 00
       -4.909329e-39 4.967497e-39 -5.026707e-39 4.920482e-39
000240 d6 49 36 80 41 2f 36 80 7b b8 35 80 5f 73 35 80
       -4.985604e-39 -4.976068e-39 -4.93346e-39 -4.908669e-39
000250 9c e8 35 00 44 e5 35 00 4d 26 36 80 fa a7 35 00
       4.950726e-39 4.949526e-39 -4.972857e-39 4.92754e-39
000260 91 c1 35 80 72 4c 36 80 f9 2a 36 80 84 0f 36 80
       -4.93672e-39 -4.98654e-39 -4.974532e-39 -4.964683e-39
000270 2b 39 36 00 30 5b 36 80 4b 6e 35 00 25 9d 35 80
       4.979625e-39 -4.991829e-39 4.906847e-39 -4.923654e-39
000280 5c 6f 35 00 14 76 35 00 25 25 36 80 f1 82 35 80
       4.90723e-39 4.90964e-39 -4.972442e-39 -4.914254e-39
000290 7c f1 35 80 cd d5 35 80 a6 86 35 00 39 8e 35 00
       -4.95391e-39 -4.943979e-39 4.915584e-39 4.918301e-39
0002a0 2c 7b 35 00 a3 84 35 00 67 2d 36 00 33 6d 35 00
       4.911467e-39 4.914862e-39 4.975404e-39 4.906455e-39
0002b0 ac ba 35 80 a3 80 35 80 9f 61 36 80 8f 08 36 00
       -4.934247e-39 -4.913427e-39 -4.994137e-39 4.962187e-39
0002c0 61 40 36 80 08 84 35 80 af c2 35 00 34 1b 36 00
       -4.982212e-39 -4.914645e-39 4.93712e-39 4.968875e-39
0002d0 cf 6c 36 80 14 70 35 00 18 3b 36 80 4d c1 35 00
       -4.99815e-39 4.907487e-39 -4.980316e-39 4.936625e-39
0002e0 04 3d 36 80 41 89 35 80 eb 95 35 00 a3 36 36 80
       -4.981005e-39 -4.916519e-39 4.921062e-39 -4.978717e-39
0002f0 78 ed 35 80 19 43 36 80 f7 69 35 80 81 17 36 80
       -4.952469e-39 -4.983187e-39 -4.905294e-39 -4.967548e-39
000300 1e 69 35 80 b0 a1 36 80 eb 1a 42 00 b9 78 36 00
       -4.90499e-39 -5.01712e-39 6.070799e-39 5.002424e-39
000310 c0 03 36 80 74 06 36 80 dc b1 35 00 ab d1 35 80
       -4.960462e-39 -4.961432e-39 4.931085e-39 -4.942496e-39
000320 c6 e0 35 00 67 df 35 00 77 fc 35 80 80 7c 36 00
       4.947915e-39 4.947423e-39 -4.957849e-39 5.003779e-39
000330 22 6a 35 80 28 91 35 00 0b 16 36 00 35 1e 36 00
       -4.905355e-39 4.919354e-39 4.967024e-39 4.969953e-39
000340 09 73 35 00 2a bf 36 80 4f 83 35 00 89 7a 35 00
       4.908548e-39 -5.027694e-39 4.914386e-39 4.911239e-39
000350 02 07 36 00 ec af 35 00 47 0c 36 80 87 b5 35 00
       4.961631e-39 4.93039e-39 -4.963521e-39 4.932401e-39
000360 94 e8 35 80 0e 52 36 80 63 c1 36 00 66 10 36 80
       -4.950715e-39 -4.988552e-39 5.028491e-39 -4.965e-39
000370 ac 83 35 80 82 8e 36 00 79 7f 36 80 da 8b 36 00
       -4.914516e-39 5.010239e-39 -5.004845e-39 5.009286e-39
000380 61 8a 36 80 c5 2c 36 00 a5 da 35 00 92 7d 35 00
       -5.008758e-39 4.975177e-39 4.945716e-39 4.912327e-39
000390 72 8e 35 80 ed bb 35 80 0f 56 36 00 28 75 36 80
       -4.918381e-39 -4.934696e-39 4.989989e-39 -5.001145e-39
0003a0 bd 4e 36 80 04 aa 35 80 36 ad 35 80 74 69 35 80
       -4.987363e-39 -4.928271e-39 -4.929418e-39 -4.905111e-39
0003b0 e7 9a 36 80 6a 89 35 00 11 60 36 80 69 ed 35 80
       -5.014685e-39 4.916576e-39 -4.993579e-39 -4.952448e-39
0003c0 f4 3c 36 00 e8 86 35 00 88 15 36 80 59 e8 35 00
       4.980983e-39 4.915677e-39 -4.966841e-39 4.950632e-39
0003d0 86 85 35 80 6b 99 36 80 ae c8 36 00 69 14 36 80
       -4.91518e-39 -5.014153e-39 5.031107e-39 -4.966439e-39
0003e0 a0 9e 35 00 4c 23 36 80 38 7c 36 00 50 fb 35 00
       4.924185e-39 -4.971779e-39 5.003678e-39 4.957435e-39
0003f0 5f 27 36 00 d8 8d 35 00 8a 42 36 00 48 1d 36 80
       4.97324e-39 4.918165e-39 4.982987e-39 -4.969621e-39

encoder_lstm.bias_ih_l0 f4 [512]
000000 a1 7b 36 00 1f 1c 36 80 ba a9 35 80 93 ec 35 80
       5.003466e-39 -4.969205e-39 -4.928168e-39 -4.952148e-39
000010 6c 7a 35 80 1d 41 36 80 34 90 35 80 a3 46 36 00
       -4.911198e-39 -4.982475e-39 -4.919012e-39 4.984456e-39
000020 11 84 35 00 e9 b7 35 00 84 a0 35 80 2d aa 35 00
       4.914658e-39 4.933256e-39 -4.924863e-39 4.928329e-39
000030 6a d8 35 00 34 2f 36 80 28 06 36 80 a2 be 35 00
       4.944916e-39 -4.97605e-39 -4.961325e-39 4.935667e-39
000040 63 fb 35 80 55 50 36 00 dc e3 35 80 4f 9e 35 00
       -4.957462e-39 4.987934e-39 -4.949022e-39 4.924072e-39
000050 8a cc 35 80 cc 7d 35 80 cd b7 35 00 ea 04 36 00
       -4.940656e-39 -4.912409e-39 4.933217e-39 4.96088e-39
000060 78 a7 35 80 47 1c 36 00 ee fb 35 00 c6 74 35 00
       -4.927358e-39 4.969261e-39 4.957657e-39 4.909172e-39
000070 82 00 36 00 d9 b1 35 80 4a a1 35 80 3b 68 35 00
       4.959299e-39 -4.931081e-39 -4.925141e-39 4.904672e-39
000080 2b 4b 36 80 16 7e 36 00 48 e0 35 80 8d 1b 36 00
       -4.986082e-39 5.004348e-39 -4.947738e-39 4.969e-39
000090 52 e0 35 80 1e 57 36 00 2f 7b 35 00 6e 08 36 80
       -4.947752e-39 4.990369e-39 4.911471e-39 -4.962141e-39
0000a0 d3 b8 35 00 0c d6 35 00 94 1a 36 80 ae 92 35 00
       4.933584e-39 4.944067e-39 -4.968651e-39 4.9199e-39
0000b0 b1 84 35 00 18 b6 35 00 66 c0 35 80 b2 d7 35 00
       4.914882e-39 4.932604e-39 -4.936301e-39 4.944658e-39
0000c0 bc 24 36 80 51 33 36 00 7a 2a 36 80 0d 8f 35 00
       -4.972295e-39 4.977526e-39 -4.974355e-39 4.918598e-39
0000d0 be a5 35 00 41 7b 35 00 7b a6 35 80 57 53 36 80
       4.926738e-39 4.911496e-39 -4.927003e-39 -4.989013e-39
0000e0 22 09 36 00 cc 69 35 00 0f 7c 35 00 b9 2d 36 00
       4.962393e-39 4.905234e-39 4.911785e-39 4.975519e-39
0000f0 1f fa 35 00 97 7c 35 00 2f 3d 36 80 8f 81 35 00
       4.957008e-39 4.911976e-39 -4.981065e-39 4.913758e-39
000100 91 c9 35 80 05 b7 35 80 da a3 35 00 38 c6 36 80
       -4.93959e-39 -4.932936e-39 4.92606e-39 -5.030224e-39
000110 94 20 36 00 fa a6 35 00 4f d5 35 00 97 a9 36 00
       4.970804e-39 4.927181e-39 4.943802e-39 5.019954e-39
000120 ef e7 35 80 9b 74 35 80 3d 65 36 80 75 da 35 00
       -4.950483e-39 -4.909111e-39 -4.995434e-39 4.945649e-39
000130 77 e5 35 80 e8 b5 36 80 7c d9 35 80 3f 73 36 00
       -4.949598e-39 -5.024372e-39 -4.9453e-39 5.00046e-39
000140 d8 8b 35 80 80 9f 35 80 cd 62 36 00 1e 8a 35 00
       -4.917448e-39 -4.924499e-39 4.99456e-39 4.916828e-39
000150 64 71 35 00 0a e3 35 00 a1 2c 36 80 7c 14 36 80
       4.907958e-39 4.948728e-39 -4.975127e-39 -4.966465e-39
000160 10 0b 36 80 b2 1b 36 00 c8 57 36 80 51 70 35 00
       -4.963085e-39 4.969052e-39 -4.990607e-39 4.907573e-39
000170 0a 5c 36 80 45 a8 35 80 cd 9f 36 00 96 7c 36 80
       -4.992134e-39 -4.927645e-39 5.016443e-39 -5.00381e-39
000180 3d c1 35 80 e6 2b 36 00 13 03 36 00 7b 1f 36 80
       -4.936602e-39 4.974865e-39 4.96022e-39 -4.97041e-39
000190 33 05 36 80 3d 56 36 80 c5 b6 35 00 96 62 36 00
       -4.960982e-39 -4.990053e-39 4.932847e-39 4.994483e-39
0001a0 bb 7b 36 00 a0 ba 36 80 02 9d 35 00 43 6d 36 80
       5.003503e-39 -5.026065e-39 4.923605e-39 -4.998313e-39
0001b0 4b 04 36 80 d4 75 36 00 bd 6b 36 00 aa ed 35 80
       -4.960657e-39 5.001386e-39 4.997766e-39 -4.952539e-39
0001c0 08 5d 36 00 98 60 36 00 53 17 36 80 20 04 36 80
       4.99249e-39 4.993768e-39 -4.967484e-39 -4.960597e-39
0001d0 33 2c 36 00 c1 c0 35 80 25 98 35 80 ad 4e 36 00
       4.974972e-39 -4.936428e-39 -4.92186e-39 4.98734e-39
0001e0 fb b9 35 00 91 f9 35 80 62 07 36 00 7f 8e 36 00
       4.933999e-39 -4.956809e-39 4.961765e-39 5.010235e-39
0001f0 54 82 35 00 87 52 36 00 23 77 35 00 02 56 36 80
       4.914034e-39 4.988722e-39 4.91002e-39 -4.98997e-39
000200 b1 dc 36 00 56 d4 35 80 d8 6e 36 80 8d ec 35 00
       5.038286e-39 -4.943453e-39 -4.99888e-39 4.95214e-39
000210 a9 f8 35 80 ec c6 36 00 40 72 36 80 91 11 36 00
       -4.956484e-39 5.030477e-39 -5.000102e-39 4.965418e-39
000220 d8 79 35 80 99 6f 35 80 5a a2 35 00 54 4d 36 80
       -4.91099e-39 -4.907315e-39 4.925522e-39 -4.986857e-39
000230 de 4f 36 00 78 fd 35 80 05 81 35 00 c2 77 35 00
       4.987768e-39 -4.958209e-39 4.913565e-39 4.910242e-39
000240 42 10 36 00 0e 7a 35 00 f4 cf 3f 00 f0 b7 35 80
       4.964949e-39 4.911066e-39 5.860236e-39 -4.933266e-39
000250 92 3c 36 00 78 74 35 80 ea e5 35 00 e5 6d 35 80
       4.980845e-39 -4.909062e-39 4.949759e-39 -4.906704e-39
000260 82 c2 36 00 5a 9b 36 80 e1 09 36 80 3a b4 35 80
       5.028893e-39 -5.014846e-39 -4.96266e-39 -4.931934e-39
000270 b6 0f 36 00 fc de 35 00 a0 34 36 80 f8 ad 35 80
       4.964753e-39 4.947273e-39 -4.977995e-39 -4.92969e-39
000280 b1 b0 38 80 42 49 36 00 f8 0c 36 80 11 fc 35 80
       -5.206173e-39 4.985397e-39 -4.963769e-39 -4.957706e-39
000290 c4 93 36 80 fc 1f 36 80 c9 39 36 00 97 e0 35 80
       -5.012125e-39 -4.97059e-39 4.979846e-39 -4.947849e-39
0002a0 66 ed 35 00 8c 51 36 00 9d cb 35 80 e9 8c 35 80
       4.952444e-39 4.98837e-39 -4.940324e-39 -4.91783e-39
0002b0 1f df 35 00 7f bd 35 00 fa 2d 36 80 8b 8a 35 00
       4.947322e-39 4.93526e-39 -4.97561e-39 4.916981e-39
0002c0 cf 3c 36 80 1a a4 35 00 83 9e 35 00 44 9e 35 80
       -4.980931e-39 4.92615e-39 4.924145e-39 -4.924056e-39
0002d0 c0 13 36 00 a8 db 35 80 c2 87 36 80 25 a4 35 00
       4.966202e-39 -4.946079e-39 -5.007818e-39 4.926165e-39
0002e0 ec 9e 39 00 98 e0 35 00 22 4d 36 80 9a 72 35 00
       5.291634e-39 4.94785e-39 -4.986787e-39 4.908393e-39
0002f0 b5 a3 35 80 eb f0 35 80 df 23 36 80 2e b0 35 80
       -4.926008e-39 -4.953706e-39 -4.971985e-39 -4.930483e-39
000300 76 6e 36 00 02 9e 35 00 5a 37 36 00 35 a4 35 80
       4.998743e-39 4.923964e-39 4.978973e-39 -4.926188e-39
000310 f3 a9 35 80 72 12 36 80 73 ce 35 80 0e ea 35 80
       -4.928248e-39 -4.965734e-39 -4.941341e-39 -4.951244e-39
000320 66 83 35 80 4c 64 36 00 60 bd 35 00 6c 63 36 00
       -4.914418e-39 4.995097e-39 4.935216e-39 4.994783e-39
000330 14 97 36 00 53 81 36 00 bc 7a 36 80 60 3c 36 00
       5.013313e-39 5.00551e-39 -5.003146e-39 4.980775e-39
000340 f6 62 36 80 b3 58 36 80 f7 d1 35 80 13 fd 35 00
       -4.994617e-39 -4.990936e-39 -4.942602e-39 4.958067e-39
000350 ff 6f 36 00 a8 b6 35 00 d1 74 35 80 c2 86 36 80
       4.999293e-39 4.932806e-39 -4.909187e-39 -5.007459e-39
000360 e0 88 36 80 51 70 35 00 f2 6d 35 80 86 ea 35 00
       -5.008218e-39 4.907573e-39 -4.906722e-39 4.951412e-39
000370 68 65 36 00 7a 1e 36 00 66 31 36 80 2a 69 35 00
       4.995495e-39 4.97005e-39 -4.976838e-39 4.905007e-39
000380 18 50 36 80 fc 0e 36 00 db 7c 36 00 3c d2 35 00
       -4.987849e-39 4.964492e-39 5.003906e-39 4.942699e-39
000390 71 a4 36 00 33 85 35 00 16 ab 36 80 c8 67 36 00
       5.018107e-39 4.915064e-39 -5.020491e-39 4.996346e-39
0003a0 db 98 35 80 df 11 36 00 05 b2 35 80 7c 31 36 00
       -4.922116e-39 4.965528e-39 -4.931143e-39 4.976868e-39
0003b0 96 07 36 00 d1 1d 36 00 98 84 35 00 d1 23 36 00
       4.961838e-39 4.969813e-39 4.914847e-39 4.971965e-39
0003c0 31 d4 35 80 10 b3 35 80 3e 69 36 80 5f 7c 35 80
       -4.943401e-39 -4.931517e-39 -4.99687e-39 -4.911897e-39
0003d0 5b 72 35 80 cf 55 36 00 e3 14 36 00 9d c8 35 80
       -4.908304e-39 4.989899e-39 4.96661e-39 -4.939248e-39
0003e0 8f 0c 36 00 e2 6a 35 00 ae 7f 35 80 00 d7 35 80
       4.963622e-39 4.905624e-39 -4.913084e-39 -4.944409e-39
0003f0 97 41 36 00 16 6e 35 80 5b 3b 36 00 c1 58 36 80
       4.982646e-39 -4.906773e-39 4.98041e-39 -4.990956e-39

encoder_lstm.bias_hh_l0 f4 [512]
000000 df 53 41 00 ec ac 35 00 52 8c 35 00 40 0f 36 80
       5.999395e-39 4.929314e-39 4.917619e-39 -4.964587e-39
000010 24 c6 35 00 25 e6 35 00 c6 27 36 80 24 30 36 80
       4.938361e-39 4.949842e-39 -4.973385e-39 -4.976386e-39
000020 aa 37 36 80 d2 a5 35 80 61 47 36 80 d4 00 36 80
       -4.979085e-39 -4.926766e-39 -4.984723e-39 -4.959414e-39
000030 0c 75 36 80 42 c0 35 00 2e ac 36 00 ff db 35 80
       -5.001105e-39 4.93625e-39 5.020883e-39 -4.946201e-39
000040 0c b9 35 80 eb c6 35 00 a0 6f 35 00 4a 46 36 80
       -4.933664e-39 4.93864e-39 4.907325e-39 -4.984332e-39
000050 d1 1c 36 00 5d ea 35 80 11 8b 35 80 9e 55 36 00
       4.969454e-39 -4.951355e-39 -4.917169e-39 4.98983e-39
000060 ae 0e 36 00 62 d6 36 00 90 6e 36 00 ba 9d 36 00
       4.964383e-39 5.036023e-39 4.998779e-39 5.015698e-39
000070 20 a9 44 00 bb 49 36 80 b6 43 36 00 48 d4 35 00
       6.305484e-39 -4.985566e-39 4.983407e-39 4.943433e-39
000080 1d 70 36 80 d9 1d 36 00 1c 12 36 00 86 3a 36 00
       -4.999335e-39 4.969824e-39 4.965613e-39 4.980111e-39
000090 c7 86 35 00 f8 1c 36 80 28 c7 35 80 42 b0 35 00
       4.91563e-39 -4.969509e-39 -4.938725e-39 4.93051e-39
0000a0 0d 03 36 80 21 0b 36 80 84 6f 36 80 cd e5 35 80
       -4.960211e-39 -4.963109e-39 -4.999121e-39 -4.949718e-39
0000b0 95 ef 35 00 75 2a 36 00 b8 db 35 80 57 19 3e 80
       4.953227e-39 4.974348e-39 -4.946102e-39 -5.702891e-39
0000c0 1c 77 35 80 19 d9 36 00 b4 b2 35 00 b3 28 36 80
       -4.91001e-39 5.036997e-39 4.931388e-39 -4.973717e-39
0000d0 4d 26 36 80 4f 76 35 00 34 ca 35 80 61 7c 35 80
       -4.972857e-39 4.909722e-39 -4.939818e-39 -4.9119e-39
0000e0 f0 84 35 00 ef 2a 36 00 8d 0e 36 00 d1 d4 35 00
       4.91497e-39 4.974518e-39 4.964337e-39 4.943625e-39
0000f0 d1 81 35 00 13 de 35 80 0c 3e 41 80 27 b0 35 00
       4.91385e-39 -4.946947e-39 -5.991565e-39 4.930473e-39
000100 f9 92 35 80 a0 18 36 80 3b 8d 35 80 5b 59 36 80
       -4.920005e-39 -4.96795e-39 -4.917945e-39 -4.991171e-39
000110 e8 fa 35 00 f3 75 35 80 44 db 35 00 74 05 36 80
       4.95729e-39 -4.909594e-39 4.945939e-39 -4.961073e-39
000120 f0 f7 35 00 d5 d4 35 80 72 91 35 80 19 03 36 80
       4.956225e-39 -4.943631e-39 -4.919457e-39 -4.960228e-39
000130 cd 76 36 00 f2 c1 35 80 24 fe 35 80 f9 92 35 80
       5.001734e-39 -4.936856e-39 -4.95845e-39 -4.920005e-39
000140 8c 68 35 00 04 77 35 80 c8 b9 35 00 34 f3 35 80
       4.904786e-39 -4.909976e-39 4.933927e-39 -4.954526e-39
000150 7b d8 35 80 d7 a3 35 80 4c 98 35 00 26 12 36 00
       -4.94494e-39 -4.926056e-39 4.921915e-39 4.965627e-39
000160 ee b6 35 80 cb b5 36 80 db c1 35 00 c6 33 36 80
       -4.932904e-39 -5.024332e-39 4.936824e-39 -4.97769e-39
000170 1d 5e 36 00 b9 6f 36 00 42 8e 35 80 52 a0 36 80
       4.992878e-39 4.999195e-39 -4.918314e-39 -5.016629e-39
000180 c8 a7 35 80 df 76 36 80 9c b9 35 80 4a 89 35 80
       -4.92747e-39 -5.00176e-39 -4.933865e-39 -4.916531e-39
000190 db 09 36 80 d0 2b 36 80 00 c6 35 00 6d b1 35 80
       -4.962652e-39 -4.974834e-39 4.93831e-39 -4.93093e-39
0001a0 0d fa 35 00 0e c5 35 80 11 03 36 00 12 78 35 00
       4.956983e-39 -4.937971e-39 4.960217e-39 4.910354e-39
0001b0 b0 70 36 00 83 3f 36 80 ea 11 36 00 88 fc 35 80
       4.999541e-39 -4.9819e-39 4.965543e-39 -4.957872e-39
0001c0 fb 95 36 80 de 97 36 00 3e a6 35 80 3e 8e 35 00
       -5.01292e-39 5.013596e-39 -4.926918e-39 4.918308e-39
0001d0 e1 f0 35 80 3b 84 35 00 7d 9b 35 00 77 1c 36 00
       -4.953692e-39 4.914717e-39 4.92306e-39 4.969328e-39
0001e0 34 0f 36 00 13 d6 35 00 62 ef 35 80 7e af 35 80
       4.96457e-39 4.944077e-39 -4.953156e-39 -4.930236e-39
0001f0 39 54 36 00 a8 6e 36 00 4d 92 36 80 75 79 35 80
       4.98933e-39 4.998813e-39 -5.0116e-39 -4.910852e-39
000200 b0 8c 35 80 d5 09 36 80 76 62 36 80 7b ed 35 80
       -4.91775e-39 -4.962644e-39 -4.994438e-39 -4.952473e-39
000210 63 24 36 80 ee ad 35 00 bf 47 36 00 4d c2 35 00
       -4.97217e-39 4.929676e-39 4.984854e-39 4.936983e-39
000220 3f 79 35 80 50 78 35 80 15 6a 35 00 73 8e 35 80
       -4.910776e-39 -4.910441e-39 4.905336e-39 -4.918382e-39
000230 48 1d 36 00 23 35 36 80 60 7e 35 80 7f be 35 00
       4.969621e-39 -4.978179e-39 -4.912616e-39 4.935618e-39
000240 9c af 36 00 0b c0 35 00 f7 7c 36 80 f4 6b 44 00
       5.022114e-39 4.936173e-39 -5.003946e-39 6.28354e-39
000250 71 07 36 80 0c a1 36 00 e3 4d 36 00 43 cf 35 80
       -4.961786e-39 5.01689e-39 4.987057e-39 -4.941633e-39
000260 cd 41 36 80 3f 3d 36 80 d4 e5 35 80 e1 f6 35 80
       -4.982722e-39 -4.981088e-39 -4.949728e-39 -4.955845e-39
000270 07 19 36 80 d8 8c 36 80 19 52 36 80 d0 22 36 00
       -4.968095e-39 -5.009642e-39 -4.988568e-39 4.971605e-39
000280 4b d5 35 80 5d 5c 36 80 ca 02 36 80 0c 8e 36 00
       -4.943796e-39 -4.99225e-39 -4.960117e-39 5.010074e-39
000290 a6 cf 35 80 50 c4 35 80 3a 16 36 80 64 14 36 80
       -4.941772e-39 -4.937705e-39 -4.96709e-39 -4.966432e-39
0002a0 c2 eb 35 00 67 d1 35 00 59 ce 35 00 15 96 36 80
       4.951855e-39 4.942401e-39 4.941305e-39 -5.012956e-39
0002b0 bc d0 35 00 65 6d 35 80 8a 7c 35 80 d6 88 35 00
       4.942161e-39 -4.906525e-39 -4.911957e-39 4.916369e-39
0002c0 74 f6 35 00 7b 18 36 00 a6 9f 35 00 3a 50 36 80
       4.955692e-39 4.967899e-39 4.924552e-39 -4.987897e-39
0002d0 2a 4e 36 00 81 bf 36 80 ce 81 35 00 b2 54 36 00
       4.987157e-39 -5.027815e-39 4.913846e-39 4.9895e-39
0002e0 87 cc 35 80 0c d8 36 00 bb 05 41 80 86 27 36 00
       -4.940652e-39 5.03662e-39 -5.971363e-39 4.973295e-39
0002f0 db 02 36 00 da 70 36 80 93 c5 35 80 c6 84 35 00
       4.960141e-39 -4.9996e-39 -4.938158e-39 4.914911e-39
000300 62 d0 35 80 2f 6b 35 00 db 2b 36 00 69 48 36 80
       -4.942035e-39 4.905732e-39 4.974849e-39 -4.985093e-39
000310 87 7d 35 80 ab d0 35 00 c7 d4 35 00 bd 6f 36 00
       -4.912312e-39 4.942137e-39 4.943611e-39 4.999201e-39
000320 36 ca 35 80 11 93 35 00 6d 36 36 00 0c 86 35 80
       -4.939821e-39 4.920039e-39 4.978641e-39 -4.915368e-39
000330 b4 df 35 80 ea 86 36 80 f2 d8 35 80 da 87 35 80
       -4.947531e-39 -5.007515e-39 -4.945107e-39 -4.916016e-39
000340 35 0a 36 00 89 87 36 80 6e fe 35 80 34 b0 35 80
       4.962778e-39 -5.007738e-39 -4.958553e-39 -4.930491e-39
000350 50 8c 35 00 18 e5 35 00 c5 8a 35 00 c6 df 35 80
       4.917616e-39 4.949465e-39 4.917062e-39 -4.947556e-39
000360 cd f6 35 80 b8 73 36 80 20 d3 35 00 86 78 35 80
       -4.955817e-39 -5.000629e-39 4.943019e-39 -4.910517e-39
000370 24 f8 35 00 34 0d 38 00 06 5b 3e 80 fd cb 3e 80
       4.956297e-39 5.147524e-39 -5.726454e-39 -5.766978e-39
000380 a5 79 35 80 27 15 38 80 28 94 36 80 ff 34 36 00
       -4.910919e-39 -5.150376e-39 -5.012265e-39 4.978128e-39
000390 0f fd 35 00 99 3a 36 00 44 8b 35 80 c2 10 36 00
       4.958062e-39 4.980138e-39 -4.91724e-39 4.965128e-39
0003a0 00 85 35 80 47 62 36 00 86 32 36 00 c9 39 36 00
       -4.914993e-39 4.994372e-39 4.977241e-39 4.979846e-39
0003b0 ae dd 36 00 10 25 36 00 d3 3b 36 00 cf 19 36 00
       5.03864e-39 4.972412e-39 4.980578e-39 4.968375e-39
0003c0 12 10 36 00 6c f5 35 80 20 49 36 80 99 17 36 00
       4.964882e-39 -4.955322e-39 -4.985349e-39 4.967582e-39
0003d0 76 0d 36 00 c6 5c 36 80 18 41 36 80 26 77 36 00
       4.963946e-39 -4.992398e-39 -4.982468e-39 5.001859e-39
0003e0 21 94 36 00 10 af 36 00 f0 22 36 00 f6 e4 35 00
       5.012255e-39 5.021917e-39 4.97165e-39 4.949417e-39
0003f0 1b 1a 36 80 74 bb 35 80 a2 23 36 80 43 67 36 00
       -4.968482e-39 -4.934527e-39 -4.9719e-39 4.99616e-39

encoder_lstm.weight_ih_l1 f4 [512, 128]
000000 13 b8 36 00 b2 3f 36 80 01 fe 35 00 3f 73 35 00
       5.02515e-39 -4.981966e-39 4.958401e-39 4.908624e-39
000010 4d 81 35 80 6d 7c 35 00 61 c4 35 80 be 93 35 80
       -4.913666e-39 4.911917e-39 -4.937729e-39 -4.920281e-39
000020 4a 34 36 00 8a 99 35 00 02 36 36 00 5c fb 35 80
       4.977875e-39 4.922361e-39 4.978491e-39 -4.957452e-39
000030 94 81 35 80 65 85 35 80 50 77 35 80 bd e1 35 00
       -4.913765e-39 -4.915134e-39 -4.910083e-39 4.948261e-39
000040 d9 7e 35 00 05 39 36 00 cb 8c 35 00 96 6a 36 80
       4.912786e-39 4.979572e-39 4.917788e-39 -4.997353e-39
000050 0c 60 36 80 a7 53 36 00 04 42 36 80 65 e1 35 00
       -4.993572e-39 4.989126e-39 -4.982799e-39 4.948138e-39
000060 76 ed 35 00 8d 73 35 00 c7 41 36 00 2d 1b 36 00
       4.952466e-39 4.908733e-39 4.982713e-39 4.968866e-39
000070 bf 19 36 00 3d 3e 36 00 c2 5f 36 00 8b c6 35 80
       4.968353e-39 4.981444e-39 4.993468e-39 -4.938505e-39
000080 8e 0b 36 80 55 6f 35 80 dd 62 36 00 c0 a7 35 00
       -4.963262e-39 -4.90722e-39 4.994582e-39 4.927459e-39
000090 3f 65 36 80 ec 98 35 00 bd 9c 36 80 72 03 36 00
       -4.995437e-39 4.92214e-39 -5.015344e-39 4.960353e-39
0000a0 a6 0a 36 00 45 4e 36 80 ef c3 35 80 a3 14 36 00
       4.962937e-39 -4.987195e-39 -4.937569e-39 4.96652e-39
0000b0 66 31 36 80 02 34 36 00 7f 08 36 00 e2 fe 35 00
       -4.976838e-39 4.977774e-39 4.962165e-39 4.958716e-39
0000c0 e1 34 36 00 1f 8a 36 80 65 ad 35 80 4e d9 35 00
       4.978086e-39 -5.008665e-39 -4.929484e-39 4.945236e-39
0000d0 46 f6 35 80 2a ae 35 00 80 40 36 00 9b d0 35 80
       -4.955628e-39 4.92976e-39 4.982255e-39 -4.942115e-39
0000e0 4c 84 35 00 bf cb 35 00 87 db 35 80 ec 32 36 00
       4.91474e-39 4.940372e-39 -4.946033e-39 4.977384e-39
0000f0 b5 dc 35 00 20 24 36 80 a1 2c 36 80 e4 e8 35 00
       4.946456e-39 -4.972076e-39 -4.975127e-39 4.950827e-39
000100 50 bd 36 00 dd 76 35 00 aa 3d 36 00 6a a6 35 80
       5.02703e-39 4.909921e-39 4.981238e-39 -4.92698e-39
000110 46 a0 35 80 bd f0 35 80 6d df 37 00 2d ac 35 00
       -4.924777e-39 -4.953642e-39 5.131102e-39 4.929046e-39
000120 48 ce 35 00 0e ca 35 80 f6 0a 36 00 a2 3b 36 00
       4.941281e-39 -4.939765e-39 4.963049e-39 4.980509e-39
000130 10 39 36 80 d7 e0 35 80 83 e9 35 80 b9 92 35 00
       -4.979587e-39 -4.947939e-39 -4.95105e-39 4.919915e-39
000140 13 96 35 80 aa 48 36 80 f4 1f 36 00 19 36 36 80
       -4.921118e-39 -4.985184e-39 4.97058e-39 -4.978523e-39
000150 c2 a9 36 00 a8 72 35 80 2b c8 35 00 c6 18 36 00
       5.020014e-39 -4.908412e-39 4.939088e-39 4.968004e-39
000160 2d 7a 36 80 ef 31 36 00 2e 30 36 80 0f d9 36 80
       -5.002945e-39 4.97703e-39 -4.9764e-39 -5.036983e-39
000170 7c 19 36 00 1a b4 36 80 dd c9 35 80 8a 74 35 80
       4.968259e-39 -5.023725e-39 -4.939696e-39 -4.909088e-39
000180 a6 81 36 00 9d 55 36 80 a5 80 35 00 2b 62 36 00
       5.005626e-39 -4.989829e-39 4.91343e-39 4.994333e-39
000190 20 96 36 80 d1 bb 35 80 79 6c 36 00 d0 7c 35 80
       -5.012971e-39 -4.934657e-39 4.99803e-39 -4.912056e-39
0001a0 2f e8 35 80 b3 6a 35 00 9d d5 35 00 5b a1 35 00
       -4.950573e-39 4.905558e-39 4.943911e-39 4.925165e-39
0001b0 36 85 35 00 a5 4e 36 00 ad 9b 35 80 43 6e 36 00
       4.915068e-39 4.987329e-39 -4.923127e-39 4.998671e-39
0001c0 1a ec 35 80 64 d1 35 00 44 a0 35 00 1d 77 36 00
       -4.951979e-39 4.942396e-39 4.924774e-39 5.001847e-39
0001d0 45 35 36 80 fe 8a 35 80 21 41 36 80 ee 82 35 80
       -4.978226e-39 -4.917142e-39 -4.98248e-39 -4.91425e-39
0001e0 5f 51 39 00 a0 c8 35 80 d3 5e 36 80 d4 1f 36 00
       5.263814e-39 -4.939252e-39 -4.993133e-39 4.970535e-39
0001f0 fb 28 36 80 5a 84 35 80 51 7e 36 80 c2 db 3e 80
       -4.973818e-39 -4.91476e-39 -5.00443e-39 -5.772635e-39
000200 d9 9e 36 80 11 e3 35 00 e6 0d 36 80 66 db 35 00
       -5.0161e-39 4.948737e-39 -4.964103e-39 4.945987e-39
000210 22 34 3a 00 b7 91 35 80 71 d2 3c 80 73 9b 35 00
       5.34516e-39 -4.919554e-39 -5.585622e-39 4.923046e-39
000220 db 66 36 00 74 10 36 00 d1 1d 36 80 d5 96 35 80
       4.996014e-39 4.965019e-39 -4.969813e-39 -4.92139e-39
000230 1a 71 35 00 18 2f 36 80 f4 9f 36 00 bf 47 36 00
       4.907854e-39 -4.976011e-39 5.016497e-39 4.984854e-39
000240 1d 04 36 00 41 c1 35 80 46 7c 36 80 b6 0c 36 80
       4.960592e-39 -4.936608e-39 -5.003698e-39 -4.963677e-39
000250 9a 3c 36 80 d9 b2 35 80 8c e1 35 00 d0 af 35 80
       -4.980857e-39 -4.93144e-39 4.948192e-39 -4.930351e-39
000260 78 c4 36 80 77 c9 36 80 6c fb 35 80 cb 66 36 80
       -5.029597e-39 -5.031389e-39 -4.957474e-39 -4.995992e-39
000270 40 59 36 80 68 39 36 80 18 d8 35 80 2f 96 36 80
       -4.991134e-39 -4.97971e-39 -4.944801e-39 -5.012993e-39
000280 91 a2 35 80 13 16 36 00 a5 e2 35 80 dc 95 35 00
       -4.925599e-39 4.967036e-39 -4.948586e-39 4.921041e-39
000290 08 50 36 80 93 69 36 00 6f e1 35 00 80 47 36 00
       -4.987827e-39 4.99699e-39 4.948152e-39 4.984766e-39
0002a0 92 39 36 80 30 eb 36 80 5a b6 35 00 77 4f 36 80
       -4.979769e-39 -5.043486e-39 4.932697e-39 -4.987623e-39
0002b0 7e 57 36 00 a4 95 35 00 fa e9 35 00 36 f4 35 00
       4.990503e-39 4.920962e-39 4.951216e-39 4.954888e-39
0002c0 f8 e7 35 00 6e 80 35 00 16 6b 36 80 36 2f 37 80
       4.950496e-39 4.913353e-39 -4.997532e-39 -5.067888e-39
0002d0 5e 04 36 80 7a d6 35 80 95 d5 35 80 0d 35 36 80
       -4.960683e-39 -4.944221e-39 -4.9439e-39 -4.978148e-39
0002e0 5d 7d 36 00 13 17 36 00 9b bd 36 80 f5 77 35 80
       5.004089e-39 4.967394e-39 -5.027134e-39 -4.910314e-39
0002f0 32 45 36 80 f0 09 36 80 72 f5 35 80 03 80 36 00
       -4.98394e-39 -4.962682e-39 -4.95533e-39 5.005039e-39
000300 71 6a 35 80 af 1c 36 00 30 70 36 80 1a 86 35 80
       -4.905465e-39 4.969407e-39 -4.999362e-39 -4.915388e-39
000310 fb 09 36 80 ed df 35 00 9c 5f 36 80 03 e0 35 00
       -4.962697e-39 4.947611e-39 -4.993415e-39 4.947642e-39
000320 e9 ec 35 80 6e d2 35 80 65 6d 35 00 54 80 35 80
       -4.952269e-39 -4.942769e-39 4.906525e-39 -4.913317e-39
000330 41 09 36 80 10 a7 36 00 7a 11 36 00 50 de 35 80
       -4.962436e-39 5.019048e-39 4.965386e-39 -4.947032e-39
000340 9e e2 35 00 3d c2 36 00 be 75 35 80 2f 3b 36 80
       4.948576e-39 5.028796e-39 -4.909519e-39 -4.980348e-39
000350 94 07 36 00 31 b1 35 80 7d 4c 36 80 3a 15 41 80
       4.961835e-39 -4.930846e-39 -4.986556e-39 -5.976922e-39
000360 74 9c 35 00 ce 2c 36 00 3e 8b 35 80 6b 2c 36 80
       4.923406e-39 4.97519e-39 -4.917232e-39 -4.975051e-39
000370 8b a3 35 00 c7 7e 35 00 a2 d3 35 00 92 3f 36 00
       4.92595e-39 4.91276e-39 4.943201e-39 4.981922e-39
000380 5f 9f 36 00 94 5c 36 00 61 7f 36 00 94 c7 36 80
       5.016288e-39 4.992328e-39 5.004812e-39 -5.030712e-39
000390 ee 30 36 00 c1 99 43 00 70 0f 36 80 2c c2 35 00
       4.97667e-39 6.208135e-39 -4.964655e-39 4.936937e-39
0003a0 9d 9a 35 00 0e 1b 36 80 e0 7f 36 80 bd b1 35 00
       4.922746e-39 -4.968822e-39 -5.00499e-39 4.931042e-39
0003b0 e6 69 36 80 bf 3d 36 00 aa e1 35 00 d7 c3 42 00
       -4.997106e-39 4.981267e-39 4.948234e-39 6.131397e-39
0003c0 9a 0e 36 80 c6 a0 35 80 23 f6 35 80 f8 7d 35 80
       -4.964355e-39 -4.924956e-39 -4.955579e-39 -4.91247e-39
0003d0 85 e0 35 00 7a b4 35 80 53 6a 35 00 48 2a 36 00
       4.947824e-39 -4.932024e-39 4.905423e-39 4.974284e-39
0003e0 77 c3 35 80 f2 e2 35 80 6e 4c 36 00 0c 8c 35 00
       -4.937401e-39 -4.948694e-39 4.986535e-39 4.91752e-39
0003f0 aa 7b 36 00 9b bd 35 80 dd f2 35 80 c0 3a 36 00
       5.003479e-39 -4.935299e-39 -4.954404e-39 4.980192e-39

encoder_lstm.weight_hh_l1 f4 [512, 128]
000000 39 62 36 00 54 69 35 80 41 9f 35 00 65 ee 35 80
       4.994352e-39 -4.905066e-39 4.924411e-39 -4.952801e-39
000010 e2 bb 35 00 26 83 35 80 fc bf 35 80 22 7e 35 80
       4.934681e-39 -4.914328e-39 -4.936152e-39 -4.912529e-39
000020 be 97 35 00 23 7d 36 00 ff c7 35 00 f8 ef 35 80
       4.921716e-39 5.004007e-39 4.939026e-39 -4.953366e-39
000030 ba 6f 35 80 8e 63 36 80 93 34 36 00 6a a8 35 80
       -4.907361e-39 -4.99483e-39 4.977977e-39 -4.927697e-39
000040 f9 a6 36 80 63 e3 35 80 bb 26 36 80 83 91 35 80
       -5.019015e-39 -4.948852e-39 -4.97301e-39 -4.919481e-39
000050 18 d7 35 80 17 50 36 00 38 38 36 80 f4 02 36 00
       -4.944442e-39 4.987848e-39 -4.979284e-39 4.960176e-39
000060 fd a0 35 00 74 70 36 00 39 81 35 00 e1 60 36 00
       4.925033e-39 4.999457e-39 4.913638e-39 4.99387e-39
000070 84 25 36 80 5b 72 35 00 81 b7 35 00 33 4a 36 80
       -4.972575e-39 4.908304e-39 4.93311e-39 -4.985734e-39
000080 96 5f 36 00 aa 39 36 80 a9 ff 35 80 d0 5a 36 80
       4.993407e-39 -4.979803e-39 -4.958995e-39 -4.991694e-39
000090 b3 c9 35 00 f9 b0 35 00 6d 69 35 00 6a 34 36 00
       4.939637e-39 4.930767e-39 4.905101e-39 4.97792e-39
0000a0 42 d6 35 80 7c 76 36 80 e3 b4 35 00 19 75 36 80
       -4.944143e-39 -5.001621e-39 4.932171e-39 -5.001124e-39
0000b0 67 84 36 80 f8 99 35 00 56 e4 35 00 5e 6d 36 00
       -5.006614e-39 4.922515e-39 4.949193e-39 4.99835e-39
0000c0 04 79 36 80 7d 6f 36 00 55 84 35 00 ed c5 35 80
       -5.002529e-39 4.999111e-39 4.914753e-39 -4.938284e-39
0000d0 2e 1c 36 00 27 51 36 80 b9 8f 35 00 2d 5b 36 00
       4.969226e-39 -4.988229e-39 4.918839e-39 4.991824e-39
0000e0 79 7f 35 80 f9 de 35 00 db 15 36 80 00 cc 35 00
       -4.91301e-39 4.947269e-39 -4.966957e-39 4.940463e-39
0000f0 ce c1 36 80 b2 d4 35 80 39 8c 35 00 7f 2c 36 00
       -5.028641e-39 -4.943582e-39 4.917584e-39 4.975079e-39
000100 c7 49 36 80 10 ca 35 00 ea 4b 36 80 ff f2 35 80
       -4.985583e-39 4.939768e-39 -4.98635e-39 -4.954452e-39
000110 d4 4a 36 00 d9 20 36 80 cd 7f 35 00 70 81 35 80
       4.98596e-39 -4.9709e-39 4.913128e-39 -4.913715e-39
000120 e8 a0 35 80 dc 73 35 80 25 8f 35 00 20 88 35 80
       -4.925004e-39 -4.908844e-39 4.918632e-39 -4.916114e-39
000130 6e dd 40 80 4d ad 35 00 1b 68 36 00 52 4d 36 00
       -5.956906e-39 4.92945e-39 4.996463e-39 4.986854e-39
000140 8c 44 36 00 60 cf 36 80 44 b7 35 80 6b 85 35 80
       4.983707e-39 -5.033509e-39 -4.933025e-39 -4.915143e-39
000150 d9 85 35 00 ab f0 35 00 e7 5f 36 80 60 38 36 00
       4.915297e-39 4.953617e-39 -4.99352e-39 4.97934e-39
000160 93 c7 36 80 2a 8b 35 00 71 80 35 00 62 40 36 80
       -5.03071e-39 4.917204e-39 4.913357e-39 -4.982213e-39
000170 35 7f 35 80 48 34 36 80 ac 98 35 00 9f e4 35 80
       -4.912915e-39 -4.977872e-39 4.92205e-39 -4.949295e-39
000180 4e c7 35 80 8f 7f 36 00 ee c9 36 00 f8 8a 35 00
       -4.938778e-39 5.004876e-39 5.031556e-39 4.917134e-39
000190 d9 30 36 80 19 6a 35 00 06 19 36 00 77 ae 35 00
       -4.97664e-39 4.905342e-39 4.968094e-39 4.929867e-39
0001a0 6e 26 36 00 67 45 36 00 bc 15 36 80 91 bf 36 00
       4.972903e-39 4.984014e-39 -4.966914e-39 5.027838e-39
0001b0 a4 10 36 80 84 23 36 00 d7 04 36 00 69 6c 35 80
       -4.965086e-39 4.971857e-39 4.960853e-39 -4.906172e-39
0001c0 b9 ab 36 80 b7 85 36 00 03 4e 36 00 83 dc 35 80
       -5.020719e-39 5.007085e-39 4.987102e-39 -4.946386e-39
0001d0 6d 9b 35 80 ab 7e 35 80 1a dc 35 00 f7 bf 35 00
       -4.923038e-39 -4.912721e-39 4.946239e-39 4.936145e-39
0001e0 a5 05 36 80 87 36 36 80 f7 12 36 00 ec ca 35 00
       -4.961142e-39 -4.978678e-39 4.96592e-39 4.940076e-39
0001f0 c0 fc 35 80 e7 88 36 80 3b f3 42 80 65 f8 35 80
       -4.957951e-39 -5.008228e-39 -6.148397e-39 -4.956388e-39
000200 13 d6 38 80 b1 a9 35 00 54 ca 36 00 9d be 36 00
       -5.219583e-39 4.928155e-39 5.031698e-39 5.027496e-39
000210 3e 2b 36 00 44 49 36 00 e7 7f 35 00 fa 00 36 00
       4.974629e-39 4.9854e-39 4.913164e-39 4.959467e-39
000220 78 33 36 00 c0 ad 36 00 dc 6d 35 80 9b c2 36 00
       4.97758e-39 5.021447e-39 -4.906691e-39 5.028928e-39
000230 63 03 36 80 e3 0e 36 00 07 34 36 80 93 db 35 80
       -4.960332e-39 4.964457e-39 -4.97778e-39 -4.94605e-39
000240 9f 76 36 00 7e 28 36 80 1b a4 35 80 10 82 35 80
       5.00167e-39 -4.973643e-39 -4.926151e-39 -4.913939e-39
000250 c7 46 36 80 97 b5 35 80 b5 3b 36 80 ae 34 36 00
       -4.984507e-39 -4.932423e-39 -4.980536e-39 4.978015e-39
000260 35 a7 35 80 14 a2 35 00 c2 29 36 00 63 98 35 00
       -4.927264e-39 4.925424e-39 4.974097e-39 4.921947e-39
000270 7e 12 36 00 b6 ee 35 80 65 de 35 80 c5 ce 35 80
       4.96575e-39 -4.952915e-39 -4.947061e-39 -4.941456e-39
000280 37 92 36 80 5a 3d 36 80 cf 13 36 80 35 41 36 00
       -5.011569e-39 -4.981126e-39 -4.966223e-39 4.982509e-39
000290 06 24 36 00 8e 31 36 80 f3 27 36 80 42 d7 36 00
       4.97204e-39 -4.976894e-39 -4.973448e-39 5.036337e-39
0002a0 0f d4 35 80 61 73 36 80 1d e5 35 80 22 69 35 80
       -4.943354e-39 -5.000507e-39 -4.949472e-39 -4.904996e-39
0002b0 aa 57 36 00 c5 eb 35 00 b1 b7 35 80 55 60 36 80
       4.990565e-39 4.95186e-39 -4.933177e-39 -4.993674e-39
0002c0 7d 8d 35 00 4c 77 35 80 93 4e 36 80 f6 72 36 00
       4.918038e-39 -4.910077e-39 -4.987304e-39 5.000357e-39
0002d0 1b 11 36 00 db 71 36 80 2c c0 36 80 f8 55 36 00
       4.965253e-39 -4.99996e-39 -5.028055e-39 4.989957e-39
0002e0 60 9a 41 00 db 66 36 00 e1 0b 36 80 a5 43 36 80
       6.024687e-39 4.996014e-39 -4.963378e-39 -4.983383e-39
0002f0 fb 8e 35 00 da 7c 35 80 d3 43 36 00 6e 9c 36 80
       4.918573e-39 -4.91207e-39 4.983448e-39 -5.015233e-39
000300 fc 18 36 80 17 79 36 00 3c 68 35 80 03 58 36 00
       -4.96808e-39 5.002556e-39 -4.904674e-39 4.99069e-39
000310 43 7c 35 00 96 42 36 80 8a e3 35 80 a7 fb 35 00
       4.911858e-39 -4.983003e-39 -4.948907e-39 4.957557e-39
000320 a6 a1 35 80 64 6f 35 00 cb b3 36 80 eb c2 35 00
       -4.92527e-39 4.907241e-39 -5.023614e-39 4.937205e-39
000330 20 5c 36 00 a0 20 36 00 c8 d3 35 80 64 07 36 00
       4.992165e-39 4.97082e-39 -4.943254e-39 4.961768e-39
000340 82 b9 36 00 09 69 35 80 f7 79 35 80 f6 9d 35 00
       5.025664e-39 -4.904961e-39 -4.911034e-39 4.923947e-39
000350 8a 78 36 80 bd cf 35 00 1f aa 35 80 bc 8f 3b 80
       -5.002358e-39 4.941804e-39 -4.928309e-39 -5.469856e-39
000360 a5 5b 36 80 6a 7b 35 80 d1 06 36 80 da c9 35 80
       -4.991993e-39 -4.911554e-39 -4.961562e-39 -4.939692e-39
000370 6f 86 35 80 48 52 36 80 31 b8 35 00 d1 3b 36 00
       -4.915507e-39 -4.988634e-39 4.933357e-39 4.980575e-39
000380 a0 e9 35 00 46 71 35 00 fa ef 35 80 b4 0b 36 00
       4.95109e-39 4.907916e-39 -4.953369e-39 4.963315e-39
000390 fd 0a 36 00 e0 21 3d 00 bb 07 36 80 9b e8 35 80
       4.963059e-39 5.614117e-39 -4.96189e-39 -4.950724e-39
0003a0 bb 89 35 80 bb cc 35 00 41 bd 35 80 6d 50 36 00
       -4.91669e-39 4.940725e-39 -4.935173e-39 4.987968e-39
0003b0 42 00 36 80 46 54 36 00 e1 99 35 00 99 d5 35 80
       -4.959209e-39 4.989348e-39 4.922483e-39 -4.943906e-39
0003c0 05 bc 36 80 a2 15 36 00 c6 47 36 80 ff 18 36 80
       -5.026565e-39 4.966877e-39 -4.984864e-39 -4.968084e-39
0003d0 37 42 36 00 02 81 35 00 db 9f 36 80 6c 83 35 80
       4.98287e-39 4.91356e-39 -5.016462e-39 -4.914427e-39
0003e0 02 13 36 00 3a 7a 36 00 c1 26 36 80 cb 4d 36 80
       4.965936e-39 5.002963e-39 -4.973019e-39 -4.987024e-39
0003f0 23 bc 36 80 d3 32 36 00 63 d4 3d 80 e7 d7 35 80
       -5.026608e-39 4.977349e-39 -5.678155e-39 -4.944732e-39
