test_TL/models/lstm_small.pth (torch, 950004 bytes, 22 tensors)

encoder_lstm.weight_ih_l0 f4 [512, 4]
0	0x80362d12	-4.975285e-39
1	0x803620a3	-4.970825e-39
2	0x8036e1b4	-5.040084e-39
3	0x00357d6f	4.912278e-39
4	0x80369868	-5.01379e-39
5	0x00363501	4.978131e-39
6	0x0035e5db	4.949738e-39
7	0x80359743	-4.921544e-39
8	0x003654c5	4.989526e-39
9	0x80360d61	-4.963916e-39
10	0x8035d4f9	-4.943681e-39
11	0x8035b161	-4.930913e-39
12	0x00361ae3	4.968762e-39
13	0x8035740f	-4.908915e-39
14	0x8035f398	-4.954666e-39
15	0x80357a7b	-4.911219e-39
16	0x00361f07	4.970247e-39
17	0x803677d8	-5.002109e-39
18	0x8035d8ad	-4.94501e-39
19	0x80362a3d	-4.974269e-39
20	0x803660d0	-4.993847e-39
21	0x0035cf14	4.941567e-39
22	0x803601d5	-4.959774e-39
23	0x00368730	5.007613e-39
24	0x00359c22	4.923291e-39
25	0x0035de2e	4.946984e-39
26	0x80366021	-4.993601e-39
27	0x80368d8c	-5.009894e-39
28	0x00359fa8	4.924555e-39
29	0x00361c16	4.969192e-39
30	0x003643fe	4.983508e-39
31	0x803681a3	-5.005622e-39
32	0x00359bef	4.92322e-39
33	0x80367119	-4.999689e-39
34	0x003613af	4.966178e-39
35	0x0035927f	4.919834e-39
36	0x8035cb46	-4.940202e-39
37	0x003650ed	4.988147e-39
38	0x00360ef5	4.964482e-39
39	0x80368b5c	-5.00911e-39
40	0x0035f9fe	4.956962e-39
41	0x00367b86	5.003429e-39
42	0x0036224b	4.971419e-39
43	0x803682a7	-5.005986e-39
44	0x8035691a	-4.904985e-39
45	0x003605fe	4.961266e-39
46	0x003625a2	4.972617e-39
47	0x0036550e	4.989629e-39
48	0x80366738	-4.996145e-39
49	0x8035c44f	-4.937704e-39
50	0x80359743	-4.921544e-39
51	0x0036a2b8	5.017489e-39
52	0x0035f062	4.953514e-39
53	0x8036587d	-4.99086e-39
54	0x0035bd90	4.935284e-39
55	0x0036678b	4.996261e-39
56	0x8035b741	-4.93302e-39
57	0x0035c618	4.938344e-39
58	0x00360020	4.959162e-39
59	0x80359a52	-4.922641e-39
60	0x803682ef	-5.006087e-39
61	0x003575da	4.909558e-39
62	0x8035c9d0	-4.939678e-39
63	0x8035f4e5	-4.955133e-39
64	0x8035fffe	-4.959114e-39
65	0x80359fe8	-4.924645e-39
66	0x00367f13	5.004702e-39
67	0x0035c10c	4.936533e-39
68	0x0036110e	4.965235e-39
69	0x0035d8c2	4.94504e-39
70	0x0036b2a0	5.023195e-39
71	0x0035cc4d	4.94057e-39
72	0x80358a0b	-4.916802e-39
73	0x80359003	-4.918943e-39
74	0x0035a7cc	4.927475e-39
75	0x80366432	-4.99506e-39
76	0x8035ab15	-4.928654e-39
77	0x8036a4cf	-5.018239e-39
78	0x80363126	-4.976748e-39
79	0x00364532	4.98394e-39
80	0x0036b4d2	5.023983e-39
81	0x0036d00c	5.03375e-39
82	0x0035d8f4	4.94511e-39
83	0x00357028	4.907515e-39
84	0x00356e06	4.90675e-39
85	0x003635a4	4.97836e-39
86	0x80368e46	-5.010155e-39
87	0x8035aff2	-4.930399e-39
88	0x803572fb	-4.908529e-39
89	0x803669a2	-4.997011e-39
90	0x8035cd67	-4.940966e-39
91	0x80360504	-4.960916e-39
92	0x80357e28	-4.912538e-39
93	0x80359102	-4.9193e-39
94	0x00357ecc	4.912767e-39
95	0x8035aa2c	-4.928327e-39
96	0x80369acd	-5.014649e-39
97	0x0035fb80	4.957502e-39
98	0x003627f8	4.973455e-39
99	0x80363b75	-4.980446e-39
100	0x8036050d	-4.960929e-39
101	0x80359280	-4.919836e-39
102	0x0035b46e	4.932007e-39
103	0x0035f721	4.955934e-39
104	0x8036513a	-4.988255e-39
105	0x00358ab6	4.917041e-39
106	0x003627a9	4.973344e-39
107	0x8035bb51	-4.934478e-39
108	0x80360110	-4.959498e-39
109	0x80357360	-4.90867e-39
110	0x0036041a	4.960588e-39
111	0x0036ab19	5.020495e-39
112	0x8035ebe2	-4.9519e-39
113	0x0036d1d9	5.034396e-39
114	0x8035f65a	-4.955656e-39
115	0x8035a9df	-4.92822e-39
116	0x00358e8a	4.918415e-39
117	0x8036350b	-4.978145e-39
118	0x803689b0	-5.00851e-39
119	0x0035ab58	4.928748e-39
120	0x80367258	-5.000136e-39
121	0x803631eb	-4.977024e-39
122	0x00366067	4.9937e-39
123	0x8036884d	-5.008012e-39
124	0x8035e2bc	-4.948618e-39
125	0x8036c9e9	-5.031549e-39
126	0x80365b9d	-4.991981e-39
127	0x803665d3	-4.995644e-39
128	0x00365380	4.989071e-39
129	0x0035f1d8	4.954038e-39
130	0x8035de4d	-4.947028e-39
131	0x0035b713	4.932956e-39
132	0x00364520	4.983914e-39
133	0x0035e0c4	4.947912e-39
134	0x80358d35	-4.917937e-39
135	0x0035e2ac	4.948596e-39
136	0x00361a4a	4.968548e-39
137	0x00368110	5.005416e-39
138	0x803605f5	-4.961254e-39
139	0x80365491	-4.989454e-39
140	0x003588d7	4.91637e-39
141	0x00360ead	4.964381e-39
142	0x00363545	4.978226e-39
143	0x80359f91	-4.924523e-39
144	0x00359ef4	4.924303e-39
145	0x0035a5ee	4.926806e-39
146	0x8035b732	-4.933e-39
147	0x0036509e	4.988037e-39
148	0x8035b0fd	-4.930773e-39
149	0x00359c4a	4.923347e-39
150	0x8035f6e0	-4.955843e-39
151	0x0036457c	4.984043e-39
152	0x004374a6	6.194824e-39
153	0x00357327	4.90859e-39
154	0x00358ea8	4.918457e-39
155	0x8035cd42	-4.940914e-39
156	0x003630a0	4.97656e-39
157	0x00357e57	4.912603e-39
158	0x80359131	-4.919366e-39
159	0x00365dc4	4.992754e-39
160	0x0035e6a0	4.950014e-39
161	0x8035d165	-4.942398e-39
162	0x8035866f	-4.915507e-39
163	0x80429cab	-6.117345e-39
164	0x0035c3fe	4.93759e-39
165	0x003634a1	4.977996e-39
166	0x003668b2	4.996674e-39
167	0x8035fa2a	-4.957023e-39
168	0x0035e577	4.949598e-39
169	0x80367340	-5.000461e-39
170	0x8035a4e6	-4.926436e-39
171	0x80356dd4	-4.90668e-39
172	0x80359151	-4.919411e-39
173	0x8035f282	-4.954277e-39
174	0x0035c1c4	4.936791e-39
175	0x80362395	-4.971881e-39
176	0x80365255	-4.988652e-39
177	0x8035c15e	-4.936648e-39
178	0x80366054	-4.993673e-39
179	0x00366526	4.995402e-39
180	0x0036793d	5.002609e-39
181	0x003615e6	4.966972e-39
182	0x00365dd6	4.992779e-39
183	0x0035fde1	4.958356e-39
184	0x8036397e	-4.979741e-39
185	0x0036140a	4.966305e-39
186	0x80358ab5	-4.91704e-39
187	0x80359c8f	-4.923444e-39
188	0x0035f47d	4.954987e-39
189	0x8035fd09	-4.958053e-39
190	0x00367cf1	5.003937e-39
191	0x8035b361	-4.93163e-39
192	0x00368e7c	5.01023e-39
193	0x00359007	4.918949e-39
194	0x8035d761	-4.944545e-39
195	0x0036609b	4.993772e-39
196	0x80367c4a	-5.003703e-39
197	0x8035c084	-4.936343e-39
198	0x8035ec5c	-4.952071e-39
199	0x0035a5b5	4.926726e-39
200	0x803656d0	-4.990259e-39
201	0x8035aa3d	-4.928351e-39
202	0x8035b8ca	-4.933571e-39
203	0x00357131	4.907887e-39
204	0x00363884	4.979391e-39
205	0x0035ddcf	4.946851e-39
206	0x0036637a	4.994802e-39
207	0x80363868	-4.979352e-39
208	0x00360e3c	4.964223e-39
209	0x003689b9	5.008522e-39
210	0x8035c3c1	-4.937505e-39
211	0x8035ef00	-4.953018e-39
212	0x8036bd74	-5.02708e-39
213	0x00362783	4.973291e-39
214	0x00368de8	5.010023e-39
215	0x8035843c	-4.914718e-39
216	0x8035c0eb	-4.936487e-39
217	0x803573d6	-4.908835e-39
218	0x80357c1d	-4.911805e-39
219	0x8036cb5e	-5.032071e-39
220	0x8036689d	-4.996645e-39
221	0x00360c6a	4.96357e-39
222	0x80367d0e	-5.003978e-39
223	0x00364ec8	4.987378e-39
224	0x003621d0	4.971246e-39
225	0x0035f9b7	4.956862e-39
226	0x80358c47	-4.917603e-39
227	0x8035f2f4	-4.954436e-39
228	0x8035a99a	-4.928123e-39
229	0x8035f90b	-4.956621e-39
230	0x8035f805	-4.956254e-39
231	0x00358222	4.913964e-39
232	0x00359752	4.921565e-39
233	0x803660f0	-4.993891e-39
234	0x803e5ab9	-5.726346e-39
235	0x803591e6	-4.91962e-39
236	0x8036c639	-5.030226e-39
237	0x80365edf	-4.99315e-39
238	0x80367248	-5.000113e-39
239	0x00357333	4.908607e-39
240	0x8035c5d8	-4.938254e-39
241	0x8035f775	-4.956052e-39
242	0x00369101	5.011134e-39
243	0x0035aee2	4.930017e-39
244	0x8035b79a	-4.933145e-39
245	0x00361e7e	4.970055e-39
246	0x0036388b	4.9794e-39
247	0x8035d133	-4.942328e-39
248	0x00360bd7	4.963364e-39
249	0x00359fd1	4.924613e-39
250	0x8036444c	-4.983617e-39
251	0x80365d32	-4.992549e-39
252	0x0035d79f	4.944632e-39
253	0x80369f69	-5.016302e-39
254	0x803572c8	-4.908457e-39
255	0x80366fd0	-4.999228e-39

encoder_lstm.weight_hh_l0 f4 [512, 128]
0	0x80356f00	-4.9071e-39
1	0x80359eb6	-4.924216e-39
2	0x8035cca7	-4.940697e-39
3	0x00358d17	4.917895e-39
4	0x8035d74f	-4.94452e-39
5	0x80362a8a	-4.974377e-39
6	0x8035a2eb	-4.925725e-39
7	0x00363e8a	4.981552e-39
8	0x0035bf08	4.93581e-39
9	0x00365b67	4.991906e-39
10	0x8035e04e	-4.947747e-39
11	0x803635b5	-4.978383e-39
12	0x8035c806	-4.939036e-39
13	0x0035d3cb	4.943258e-39
14	0x00361a04	4.96845e-39
15	0x00364929	4.985362e-39
16	0x00357d1c	4.912162e-39
17	0x0035d1af	4.942502e-39
18	0x00365fcb	4.993481e-39
19	0x8035ca4c	-4.939852e-39
20	0x00358f3c	4.918664e-39
21	0x80357e81	-4.912662e-39
22	0x8036ca1f	-5.031624e-39
23	0x0035b0c4	4.930693e-39
24	0x00363fd3	4.982013e-39
25	0x80369a32	-5.014432e-39
26	0x00359152	4.919412e-39
27	0x00366574	4.995511e-39
28	0x80357424	-4.908945e-39
29	0x00363219	4.977088e-39
30	0x8035c9ad	-4.939629e-39
31	0x00358536	4.915068e-39
32	0x80367bc4	-5.003516e-39
33	0x80357e45	-4.912578e-39
34	0x80358ba5	-4.917376e-39
35	0x0036a9dc	5.020051e-39
36	0x8035d1ea	-4.942584e-39
37	0x003583a8	4.91451e-39
38	0x803674ff	-5.001087e-39
39	0x0035a10f	4.925058e-39
40	0x8036d3fe	-5.035165e-39
41	0x00359617	4.921123e-39
42	0x0036c802	5.030866e-39
43	0x80357c84	-4.911949e-39
44	0x00360d34	4.963853e-39
45	0x8035d9f2	-4.945465e-39
46	0x80364218	-4.982827e-39
47	0x80364489	-4.983703e-39
48	0x80361dcf	-4.96981e-39
49	0x8035bc34	-4.934796e-39
50	0x00362343	4.971766e-39
51	0x803669bf	-4.997051e-39
52	0x0035f97e	4.956782e-39
53	0x8035f475	-4.954976e-39
54	0x8036aca0	-5.021043e-39
55	0x80362189	-4.971147e-39
56	0x0035724d	4.908285e-39
57	0x803645c8	-4.98415e-39
58	0x803584b5	-4.914888e-39
59	0x8035c093	-4.936364e-39
60	0x00358912	4.916453e-39
61	0x8035bc9e	-4.934944e-39
62	0x00357f5f	4.912973e-39
63	0x803637cf	-4.979137e-39
64	0x8035dee4	-4.94724e-39
65	0x0035fcdd	4.957992e-39
66	0x0035a25b	4.925523e-39
67	0x00357c90	4.911966e-39
68	0x8035e3d8	-4.949016e-39
69	0x8036c87d	-5.031038e-39
70	0x00356bd8	4.905968e-39
71	0x8035971f	-4.921493e-39
72	0x00361905	4.968092e-39
73	0x00358e2f	4.918287e-39
74	0x003627cd	4.973395e-39
75	0x0036321e	4.977095e-39
76	0x00361654	4.967127e-39
77	0x003569e4	4.905268e-39
78	0x00359318	4.920049e-39
79	0x80361bf6	-4.969147e-39
80	0x8035d8b1	-4.945016e-39
81	0x00359227	4.919711e-39
82	0x803665ab	-4.995588e-39
83	0x00359346	4.920113e-39
84	0x003623d6	4.971972e-39
85	0x00368ee8	5.010382e-39
86	0x00363b8f	4.980482e-39
87	0x80363e23	-4.981407e-39
88	0x00359db9	4.923862e-39
89	0x8036a93d	-5.019828e-39
90	0x003b61e4	5.453411e-39
91	0x80369092	-5.010979e-39
92	0x8035dca8	-4.946438e-39
93	0x8035f1f6	-4.95408e-39
94	0x0035edbc	4.952564e-39
95	0x003697ae	5.013529e-39
96	0x80363c0c	-4.980658e-39
97	0x803673ed	-5.000703e-39
98	0x0035cdd5	4.94112e-39
99	0x00358151	4.913671e-39
100	0x003663ae	4.994875e-39
101	0x8035a7ee	-4.927523e-39
102	0x0035805a	4.913325e-39
103	0x8035ee91	-4.952863e-39
104	0x8036dba4	-5.037909e-39
105	0x0035e02a	4.947696e-39
106	0x003655ba	4.98987e-39
107	0x00397fba	5.280443e-39
108	0x80367c58	-5.003723e-39
109	0x8035d101	-4.942258e-39
110	0x0035f7af	4.956133e-39
111	0x80366ee5	-4.998898e-39
112	0x8035dac5	-4.945761e-39
113	0x0035ca3c	4.93983e-39
114	0x0036ab1b	5.020498e-39
115	0x803579bb	-4.91095e-39
116	0x0035cef7	4.941526e-39
117	0x8035bd44	-4.935177e-39
118	0x00364699	4.984442e-39
119	0x00361e9a	4.970095e-39
120	0x00357761	4.910106e-39
121	0x00359b5c	4.923014e-39
122	0x0036717f	4.999832e-39
123	0x0035d1fa	4.942607e-39
124	0x003615be	4.966916e-39
125	0x00357140	4.907908e-39
126	0x80359db0	-4.923849e-39
127	0x0035f950	4.956718e-39
128	0x0035c488	4.937783e-39
129	0x80361c14	-4.96919e-39
130	0x8035787e	-4.910506e-39
131	0x0035d9a6	4.945359e-39
132	0x80369021	-5.01082e-39
133	0x00366d9d	4.998439e-39
134	0x0035bbc4	4.934639e-39
135	0x0036a301	5.017592e-39
136	0x0036d271	5.034609e-39
137	0x8035c417	-4.937625e-39
138	0x80358cea	-4.917832e-39
139	0x00365264	4.988673e-39
140	0x0036611a	4.99395e-39
141	0x003576e4	4.909931e-39
142	0x8035d95d	-4.945257e-39
143	0x0035888b	4.916264e-39
144	0x80357bb0	-4.911652e-39
145	0x80356bbc	-4.905929e-39
146	0x8035d20c	-4.942632e-39
147	0x0035cd98	4.941034e-39
148	0x80364061	-4.982212e-39
149	0x8035aa8f	-4.928466e-39
150	0x8036ce18	-5.03305e-39
151	0x803590a1	-4.919164e-39
152	0x80356a72	-4.905467e-39
153	0x80359b16	-4.922916e-39
154	0x0035d437	4.94341e-39
155	0x8036545e	-4.989382e-39
156	0x00362c43	4.974995e-39
157	0x803596b4	-4.921343e-39
158	0x0035ac7c	4.929157e-39
159	0x003581a4	4.913788e-39
160	0x8035e93f	-4.950954e-39
161	0x0035b42c	4.931915e-39
162	0x80356b9e	-4.905887e-39
163	0x80357b22	-4.911453e-39
164	0x803656f8	-4.990315e-39
165	0x003629f3	4.974165e-39
166	0x8035bb3f	-4.934453e-39
167	0x00358a75	4.91695e-39
168	0x0035dbb4	4.946096e-39
169	0x0035a858	4.927672e-39
170	0x80358a33	-4.916858e-39
171	0x0035ca91	4.939948e-39
172	0x00361df1	4.969858e-39
173	0x0035c571	4.93811e-39
174	0x8035ad01	-4.929343e-39
175	0x0035e2fe	4.948711e-39
176	0x0035fd67	4.958185e-39
177	0x0035e515	4.94946e-39
178	0x003585da	4.915298e-39
179	0x80360214	-4.959862e-39
180	0x8035a89e	-4.92777e-39
181	0x80365e7b	-4.99301e-39
182	0x8035ee3f	-4.952748e-39
183	0x00366525	4.9954e-39
184	0x8035c5e5	-4.938272e-39
185	0x8035ac70	-4.92914e-39
186	0x80358f97	-4.918792e-39
187	0x00360a93	4.96291e-39
188	0x0036b32f	5.023396e-39
189	0x00357768	4.910116e-39
190	0x0035730c	4.908552e-39
191	0x0036e4a2	5.041135e-39
192	0x0036ceb5	5.03327e-39
193	0x8036582d	-4.990748e-39
194	0x80361d5a	-4.969646e-39
195	0x80361ea9	-4.970116e-39
196	0x8035f65b	-4.955657e-39
197	0x8036c633	-5.030217e-39
198	0x0035a2b6	4.925651e-39
199	0x803613d7	-4.966234e-39
200	0x80363daf	-4.981245e-39
201	0x003598b7	4.922065e-39
202	0x0035b672	4.93273e-39
203	0x0035acca	4.929266e-39
204	0x00368437	5.006547e-39
205	0x8035e6ab	-4.95003e-39
206	0x00428139	6.107499e-39
207	0x8036def2	-5.039095e-39
208	0x8036350d	-4.978148e-39
209	0x003607fa	4.961978e-39
210	0x80367ed6	-5.004617e-39
211	0x803616f6	-4.967354e-39
212	0x8035843b	-4.914717e-39
213	0x803643ed	-4.983484e-39
214	0x0036801e	5.005077e-39
215	0x0036036e	4.960347e-39
216	0x8035bb30	-4.934432e-39
217	0x80364721	-4.984633e-39
218	0x803637ca	-4.97913e-39
219	0x803582d9	-4.91422e-39
220	0x0035b291	4.931339e-39
221	0x80364b31	-4.98609e-39
222	0x8035bef9	-4.93579e-39
223	0x0035b810	4.93331e-39
224	0x0035f4d0	4.955103e-39
225	0x003635c9	4.978411e-39
226	0x00367cfe	5.003956e-39
227	0x8035a6aa	-4.927069e-39
228	0x80356ff1	-4.907438e-39
229	0x0036b258	5.023094e-39
230	0x8035a1f2	-4.925376e-39
231	0x003605b5	4.961164e-39
232	0x00364c6f	4.986536e-39
233	0x003593f3	4.920355e-39
234	0x80363dbf	-4.981267e-39
235	0x80356c03	-4.906029e-39
236	0x803664a3	-4.995218e-39
237	0x80361b38	-4.968881e-39
238	0x0035da31	4.945554e-39
239	0x00362003	4.9706e-39
240	0x00384348	5.166924e-39
241	0x8036300b	-4.976351e-39
242	0x803650f7	-4.988162e-39
243	0x8035c09e	-4.93638e-39
244	0x8035c522	-4.937999e-39
245	0x00360fba	4.964758e-39
246	0x8036ae47	-5.021636e-39
247	0x00360ef0	4.964475e-39
248	0x80360496	-4.960762e-39
249	0x80382222	-5.155032e-39
250	0x0036beb2	5.027525e-39
251	0x8035e0f2	-4.947976e-39
252	0x8036420d	-4.982811e-39
253	0x003641c2	4.982706e-39
254	0x80362883	-4.97365e-39
255	0x00357d02	4.912126e-39

encoder_lstm.bias_ih_l0 f4 [512]
0	0x803609b0	-4.962592e-39
1	0x003622d9	4.971618e-39
2	0x00368a36	5.008698e-39
3	0x8036240e	-4.972051e-39
4	0x803585e9	-4.915319e-39
5	0x003619ed	4.968417e-39
6	0x0035ba1c	4.934045e-39
7	0x8035858b	-4.915187e-39
8	0x0035e107	4.948006e-39
9	0x8035b1ed	-4.931109e-39
10	0x00363791	4.97905e-39
11	0x00357b56	4.911526e-39
12	0x80359426	-4.920427e-39
13	0x80366cf3	-4.9982e-39
14	0x8036a82b	-5.019444e-39
15	0x80362d39	-4.97534e-39
16	0x80447880	-6.288041e-39
17	0x0035dd11	4.946585e-39
18	0x00364360	4.983286e-39
19	0x0035d483	4.943516e-39
20	0x00360b1c	4.963102e-39
21	0x80358561	-4.915129e-39
22	0x8036a578	-5.018476e-39
23	0x0035a165	4.925179e-39
24	0x00363a88	4.980114e-39
25	0x8036625b	-4.9944e-39
26	0x8035c016	-4.936189e-39
27	0x80357125	-4.90787e-39
28	0x8036a68b	-5.018861e-39
29	0x8036373b	-4.97893e-39
30	0x80357c8f	-4.911965e-39
31	0x80359bef	-4.92322e-39
32	0x80358d2b	-4.917923e-39
33	0x8035dd5e	-4.946693e-39
34	0x003b12c8	5.425032e-39
35	0x8035e86b	-4.950657e-39
36	0x0035a405	4.92612e-39
37	0x80359833	-4.92188e-39
38	0x0035fa66	4.957107e-39
39	0x80363d74	-4.981162e-39
40	0x00356ade	4.905618e-39
41	0x8035d1fe	-4.942612e-39
42	0x80363507	-4.97814e-39
43	0x803599f3	-4.922508e-39
44	0x0035ac5d	4.929114e-39
45	0x80363afd	-4.980278e-39
46	0x0035af4d	4.930167e-39
47	0x80369f58	-5.016279e-39
48	0x8035cfcf	-4.941829e-39
49	0x00357de2	4.91244e-39
50	0x0035e870	4.950664e-39
51	0x80360884	-4.962172e-39
52	0x803604e2	-4.960868e-39
53	0x00362757	4.973229e-39
54	0x80359327	-4.92007e-39
55	0x00356f09	4.907113e-39
56	0x00360742	4.96172e-39
57	0x803569d9	-4.905252e-39
58	0x0035d0ab	4.942137e-39
59	0x0035907a	4.91911e-39
60	0x0035c09d	4.936378e-39
61	0x00363041	4.976427e-39
62	0x00367d64	5.004098e-39
63	0x8035fc6a	-4.95783e-39
64	0x003646df	4.98454e-39
65	0x00360fff	4.964855e-39
66	0x0036769c	5.001666e-39
67	0x80362a54	-4.974301e-39
68	0x8035962d	-4.921154e-39
69	0x00356a4b	4.905412e-39
70	0x8036080e	-4.962006e-39
71	0x003638e8	4.979531e-39
72	0x80369ec0	-5.016066e-39
73	0x80361aa9	-4.96868e-39
74	0x003649e0	4.985618e-39
75	0x80364013	-4.982102e-39
76	0x80357bdc	-4.911714e-39
77	0x8035f676	-4.955695e-39
78	0x80362395	-4.971881e-39
79	0x80358e62	-4.918359e-39
80	0x80360ac1	-4.962975e-39
81	0x8035bf06	-4.935808e-39
82	0x0036679e	4.996288e-39
83	0x003589b0	4.916674e-39
84	0x8035a366	-4.925898e-39
85	0x8035979e	-4.921671e-39
86	0x8035696b	-4.905098e-39
87	0x00358ff2	4.918919e-39
88	0x0036582e	4.99075e-39
89	0x8035984d	-4.921917e-39
90	0x0036af4b	5.022e-39
91	0x803666a9	-4.995944e-39
92	0x8035b034	-4.930491e-39
93	0x8035d9a4	-4.945356e-39
94	0x80356aa2	-4.905534e-39
95	0x003652c1	4.988803e-39
96	0x003580d3	4.913495e-39
97	0x0035db56	4.945964e-39
98	0x00366e76	4.998743e-39
99	0x0036a49f	5.018172e-39
100	0x0035cdd8	4.941124e-39
101	0x0035d8bd	4.945032e-39
102	0x00362aab	4.974423e-39
103	0x003594fe	4.92073e-39
104	0x80362d68	-4.975405e-39
105	0x803679da	-5.002829e-39
106	0x8035ed42	-4.952393e-39
107	0x8035e36a	-4.948862e-39
108	0x003602b3	4.960085e-39
109	0x003625fb	4.972742e-39
110	0x0036436c	4.983303e-39
111	0x003699c6	5.01428e-39
112	0x00359e70	4.924118e-39
113	0x0035fc59	4.957807e-39
114	0x003594d8	4.920676e-39
115	0x80362887	-4.973655e-39
116	0x8035c92c	-4.939448e-39
117	0x80362e95	-4.975827e-39
118	0x003632d2	4.977348e-39
119	0x80362b83	-4.974726e-39
120	0x8035aeab	-4.92994e-39
121	0x80364922	-4.985352e-39
122	0x0035daf2	4.945824e-39
123	0x0035ff28	4.958814e-39
124	0x0035d0df	4.94221e-39
125	0x00359bb2	4.923134e-39
126	0x00358e88	4.918412e-39
127	0x0035ac55	4.929102e-39
128	0x003607c1	4.961898e-39
129	0x80358e6a	-4.91837e-39
130	0x00360acb	4.962989e-39
131	0x00363a3a	4.980005e-39
132	0x8036197b	-4.968257e-39
133	0x8035e269	-4.948502e-39
134	0x0035c96e	4.93954e-39
135	0x0036410f	4.982455e-39
136	0x8036587e	-4.990862e-39
137	0x00360472	4.960711e-39
138	0x0036d612	5.035911e-39
139	0x803585e6	-4.915315e-39
140	0x0035ee8b	4.952854e-39
141	0x003642e8	4.983118e-39
142	0x8035eb19	-4.951618e-39
143	0x003694af	5.012454e-39
144	0x8035878b	-4.915905e-39
145	0x0035c772	4.938829e-39
146	0x80363001	-4.976337e-39
147	0x00358a65	4.916928e-39
148	0x80356d94	-4.90659e-39
149	0x00363c38	4.980719e-39
150	0x00358d07	4.917872e-39
151	0x80361b1b	-4.96884e-39
152	0x8035cf67	-4.941683e-39
153	0x80356b62	-4.905803e-39
154	0x8035c468	-4.937739e-39
155	0x0036e259	5.040315e-39
156	0x80361b9f	-4.969025e-39
157	0x80363d76	-4.981165e-39
158	0x0035c81f	4.939071e-39
159	0x003633b6	4.977667e-39
160	0x8035dcc6	-4.94648e-39
161	0x8035683d	-4.904675e-39
162	0x8036283f	-4.973554e-39
163	0x003632d2	4.977348e-39
164	0x0035a097	4.92489e-39
165	0x0036d7a0	5.036468e-39
166	0x8035f8ab	-4.956487e-39
167	0x80358df5	-4.918206e-39
168	0x80358a2c	-4.916848e-39
169	0x80367edb	-5.004624e-39
170	0x80356a2d	-4.90537e-39
171	0x80367006	-4.999303e-39
172	0x0035af56	4.93018e-39
173	0x8036620e	-4.994292e-39
174	0x803641ed	-4.982767e-39
175	0x00368b47	5.00908e-39
176	0x00363e83	4.981542e-39
177	0x8035943e	-4.92046e-39
178	0x80361dd7	-4.969821e-39
179	0x0036502a	4.987874e-39
180	0x00361d18	4.969554e-39
181	0x00358097	4.91341e-39
182	0x0035a4c6	4.926391e-39
183	0x00358402	4.914637e-39
184	0x8035e38a	-4.948907e-39
185	0x8035bb0a	-4.934378e-39
186	0x8036cac8	-5.031861e-39
187	0x00357f2e	4.912905e-39
188	0x8035b13c	-4.930861e-39
189	0x80359221	-4.919702e-39
190	0x8035e2b5	-4.948608e-39
191	0x00362be2	4.974859e-39
192	0x0035f803	4.956251e-39
193	0x00364b38	4.9861e-39
194	0x003569ff	4.905306e-39
195	0x803639db	-4.979871e-39
196	0x8035fbb5	-4.957577e-39
197	0x8035ff85	-4.958944e-39
198	0x8035f636	-4.955605e-39
199	0x80361652	-4.967124e-39
200	0x8036641f	-4.995033e-39
201	0x0035b540	4.932302e-39
202	0x00369fc9	5.016437e-39
203	0x003630db	4.976643e-39
204	0x803fe573	-5.867947e-39
205	0x0035c4b7	4.937849e-39
206	0x0036aa08	5.020113e-39
207	0x0035afa7	4.930293e-39
208	0x8035e0c0	-4.947906e-39
209	0x80363dbb	-4.981262e-39
210	0x8035c410	-4.937615e-39
211	0x80364d8a	-4.986933e-39
212	0x0035d5e8	4.944016e-39
213	0x0035d3ca	4.943257e-39
214	0x0035b35e	4.931626e-39
215	0x80366822	-4.996473e-39
216	0x8035b724	-4.93298e-39
217	0x8035e1d5	-4.948295e-39
218	0x8035f61d	-4.95557e-39
219	0x0035ff7d	4.958933e-39
220	0x0035e988	4.951057e-39
221	0x8035e20f	-4.948376e-39
222	0x8035a609	-4.926843e-39
223	0x0035da0b	4.9455e-39
224	0x8036530c	-4.988908e-39
225	0x8035f80b	-4.956262e-39
226	0x003599f3	4.922508e-39
227	0x8035aae8	-4.928591e-39
228	0x8035dc99	-4.946417e-39
229	0x0035be71	4.935599e-39
230	0x0035f644	4.955625e-39
231	0x8035f0b9	-4.953636e-39
232	0x0042e319	6.14261e-39
233	0x00362a0c	4.9742e-39
234	0x8035ec13	-4.951969e-39
235	0x003612d2	4.965868e-39
236	0x00374a39	5.077578e-39
237	0x00368ec7	5.010336e-39
238	0x80365952	-4.991159e-39
239	0x00423e17	6.083416e-39
240	0x00359d17	4.923635e-39
241	0x8035f070	-4.953534e-39
242	0x00357bec	4.911736e-39
243	0x80361449	-4.966394e-39
244	0x0035c75a	4.938795e-39
245	0x0036232b	4.971733e-39
246	0x0035fc03	4.957686e-39
247	0x8035de60	-4.947054e-39
248	0x80360241	-4.959925e-39
249	0x8036c909	-5.031235e-39
250	0x0035cbea	4.940432e-39
251	0x003572d6	4.908477e-39
252	0x0035ace1	4.929299e-39
253	0x80360d16	-4.963811e-39
254	0x0035fab5	4.957218e-39
255	0x8035e6fc	-4.950143e-39

encoder_lstm.bias_hh_l0 f4 [512]
0	0x00359f6c	4.924471e-39
1	0x80360d0e	-4.9638e-39
2	0x00369b30	5.014788e-39
3	0x00362e24	4.975669e-39
4	0x8036289e	-4.973687e-39
5	0x8035d121	-4.942303e-39
6	0x0035b8ca	4.933571e-39
7	0x8035f134	-4.953809e-39
8	0x80361303	-4.965937e-39
9	0x00368e81	5.010238e-39
10	0x803581c1	-4.913828e-39
11	0x80364893	-4.985152e-39
12	0x803678e5	-5.002486e-39
13	0x0035ec66	4.952085e-39
14	0x8035abff	-4.928982e-39
15	0x8043041a	-6.15445e-39
16	0x8035a460	-4.926248e-39
17	0x80359c0c	-4.92326e-39
18	0x803652c2	-4.988805e-39
19	0x0036c1d9	5.028656e-39
20	0x00362baa	4.97478e-39
21	0x8035e005	-4.947644e-39
22	0x80363e0e	-4.981378e-39
23	0x0035aec3	4.929974e-39
24	0x8035e4b8	-4.94933e-39
25	0x80356984	-4.905133e-39
26	0x0035e609	4.949802e-39
27	0x00361f20	4.970282e-39
28	0x8036bfda	-5.02794e-39
29	0x80367292	-5.000217e-39
30	0x8035b94e	-4.933756e-39
31	0x80365044	-4.98791e-39
32	0x0036ca14	5.031609e-39
33	0x80365adf	-4.991715e-39
34	0x8035f005	-4.953384e-39
35	0x80362594	-4.972597e-39
36	0x00358193	4.913764e-39
37	0x8035e284	-4.94854e-39
38	0x8035e744	-4.950244e-39
39	0x00364809	4.984958e-39
40	0x00359916	4.922198e-39
41	0x003658df	4.990998e-39
42	0x00363438	4.97785e-39
43	0x8035c2a6	-4.937108e-39
44	0x80359986	-4.922355e-39
45	0x0035bd49	4.935184e-39
46	0x003570c7	4.907738e-39
47	0x00363f6c	4.981868e-39
48	0x00357cf3	4.912105e-39
49	0x8036130a	-4.965947e-39
50	0x003590c5	4.919215e-39
51	0x80363420	-4.977816e-39
52	0x80356b28	-4.905722e-39
53	0x003620ea	4.970924e-39
54	0x00367a1b	5.00292e-39
55	0x00362aa3	4.974412e-39
56	0x00363901	4.979566e-39
57	0x8036a61d	-5.018707e-39
58	0x80365cd7	-4.992421e-39
59	0x0036ae9f	5.021759e-39
60	0x80366a98	-4.997355e-39
61	0x00357b77	4.911572e-39
62	0x0035efd6	4.953318e-39
63	0x00362050	4.970708e-39
64	0x0036682b	4.996485e-39
65	0x00365094	4.988023e-39
66	0x8036a0e2	-5.01683e-39
67	0x80357576	-4.909418e-39
68	0x00364442	4.983603e-39
69	0x00358fad	4.918822e-39
70	0x00362648	4.97285e-39
71	0x8035b28f	-4.931336e-39
72	0x803638b5	-4.97946e-39
73	0x8036000d	-4.959135e-39
74	0x8035ab4a	-4.928728e-39
75	0x00365385	4.989078e-39
76	0x003649fc	4.985657e-39
77	0x003604ff	4.960909e-39
78	0x00364ae9	4.98599e-39
79	0x8035bf62	-4.935937e-39
80	0x8036487c	-4.985119e-39
81	0x8035c09f	-4.936381e-39
82	0x0035f567	4.955315e-39
83	0x0035ecad	4.952185e-39
84	0x00360ac7	4.962983e-39
85	0x80363d69	-4.981147e-39
86	0x8036016f	-4.959631e-39
87	0x00358eff	4.918579e-39
88	0x80360618	-4.961303e-39
89	0x80359f2d	-4.924383e-39
90	0x803575b7	-4.90951e-39
91	0x0035cf47	4.941638e-39
92	0x80364403	-4.983515e-39
93	0x00359cad	4.923486e-39
94	0x0035fd57	4.958163e-39
95	0x8035defe	-4.947276e-39
96	0x00357666	4.909755e-39
97	0x0035ec82	4.952124e-39
98	0x8035ea72	-4.951384e-39
99	0x8036717e	-4.99983e-39
100	0x0035e12d	4.948059e-39
101	0x80358588	-4.915183e-39
102	0x0035a3c7	4.926034e-39
103	0x803586a3	-4.91558e-39
104	0x0035994e	4.922277e-39
105	0x8035d1d1	-4.942549e-39
106	0x00359150	4.91941e-39
107	0x00359e29	4.924018e-39
108	0x00361a8e	4.968643e-39
109	0x00363c15	4.98067e-39
110	0x8035e093	-4.947843e-39
111	0x003588f6	4.916414e-39
112	0x0036071c	4.961667e-39
113	0x00365e4a	4.992941e-39
114	0x00365ae8	4.991728e-39
115	0x8035ffb7	-4.959014e-39
116	0x80358394	-4.914483e-39
117	0x003606de	4.96158e-39
118	0x80362891	-4.973669e-39
119	0x8035dab2	-4.945734e-39
120	0x8035b2e2	-4.931452e-39
121	0x80362d0d	-4.975278e-39
122	0x0035819a	4.913774e-39
123	0x8035e1d2	-4.94829e-39
124	0x8035c7ec	-4.939e-39
125	0x80366c7e	-4.998036e-39
126	0x0036062e	4.961334e-39
127	0x80362638	-4.972827e-39
128	0x00366901	4.996785e-39
129	0x803636cf	-4.978778e-39
130	0x0036c156	5.028473e-39
131	0x8035c057	-4.93628e-39
132	0x8035a2b6	-4.925651e-39
133	0x0035ec6a	4.95209e-39
134	0x0035c2a8	4.937111e-39
135	0x00364f93	4.987663e-39
136	0x80366e21	-4.998624e-39
137	0x80369000	-5.010774e-39
138	0x8035dfa7	-4.947513e-39
139	0x0035d802	4.94477e-39
140	0x0035ac64	4.929123e-39
141	0x8035fe3b	-4.958482e-39
142	0x00363999	4.979779e-39
143	0x8035cb14	-4.940132e-39
144	0x00357232	4.908247e-39
145	0x803650cb	-4.9881e-39
146	0x0036119f	4.965438e-39
147	0x0035e3bd	4.948978e-39
148	0x80357e9f	-4.912704e-39
149	0x0035e20e	4.948374e-39
150	0x8035804c	-4.913306e-39
151	0x80362614	-4.972777e-39
152	0x00364ba9	4.986259e-39
153	0x0036b56a	5.024196e-39
154	0x00357ec2	4.912753e-39
155	0x00365dea	4.992807e-39
156	0x00357d28	4.912179e-39
157	0x0035ea5b	4.951352e-39
158	0x8035c89e	-4.939249e-39
159	0x0035c591	4.938155e-39
160	0x0035aed1	4.929994e-39
161	0x0036267d	4.972924e-39
162	0x0035f459	4.954937e-39
163	0x80363477	-4.977938e-39
164	0x0036a7b6	5.01928e-39
165	0x8035d7ab	-4.944648e-39
166	0x0035fd6a	4.958189e-39
167	0x803619cd	-4.968372e-39
168	0x00363178	4.976863e-39
169	0x80358277	-4.914083e-39
170	0x80363014	-4.976364e-39
171	0x0035b63d	4.932656e-39
172	0x0035e941	4.950957e-39
173	0x00366407	4.995e-39
174	0x80362723	-4.973156e-39
175	0x80363ced	-4.980973e-39
176	0x80361d4a	-4.969624e-39
177	0x00356bed	4.905998e-39
178	0x0036361b	4.978526e-39
179	0x8036593c	-4.991128e-39
180	0x803691a7	-5.011367e-39
181	0x803594ae	-4.920618e-39
182	0x00357ab4	4.911299e-39
183	0x003689dc	5.008571e-39
184	0x8036260a	-4.972763e-39
185	0x0035e09a	4.947853e-39
186	0x8035b79b	-4.933147e-39
187	0x8036771a	-5.001842e-39
188	0x803691fc	-5.011486e-39
189	0x80357525	-4.909305e-39
190	0x80367f88	-5.004866e-39
191	0x00365fd9	4.9935e-39
192	0x803662af	-4.994518e-39
193	0x8035fbac	-4.957564e-39
194	0x0035aa77	4.928433e-39
195	0x80360ec3	-4.964412e-39
196	0x0035b777	4.933096e-39
197	0x003ba7cf	5.478493e-39
198	0x8035ea0b	-4.95124e-39
199	0x003581f6	4.913902e-39
200	0x00362079	4.970766e-39
201	0x8035a51a	-4.926509e-39
202	0x00365655	4.990087e-39
203	0x0035c33c	4.937318e-39
204	0x0036c7c3	5.030778e-39
205	0x0035fff2	4.959097e-39
206	0x0035957e	4.920909e-39
207	0x803e35e1	-5.713129e-39
208	0x0035d047	4.941997e-39
209	0x00358e1e	4.918263e-39
210	0x80359f0f	-4.924341e-39
211	0x80365f20	-4.993241e-39
212	0x00363c43	4.980735e-39
213	0x0035ecf1	4.95228e-39
214	0x8035d7e8	-4.944734e-39
215	0x0035c736	4.938745e-39
216	0x00356d18	4.906417e-39
217	0x8035a393	-4.92596e-39
218	0x803649d5	-4.985603e-39
219	0x80358883	-4.916252e-39
220	0x00368667	5.007331e-39
221	0x0036248b	4.972226e-39
222	0x80365f05	-4.993203e-39
223	0x00360fc5	4.964774e-39
224	0x80356c1f	-4.906068e-39
225	0x8036594b	-4.991149e-39
226	0x0035b106	4.930785e-39
227	0x003ba2a9	5.476646e-39
228	0x803573c6	-4.908813e-39
229	0x8036450b	-4.983885e-39
230	0x0035f60a	4.955543e-39
231	0x0035834d	4.914383e-39
232	0x00369bbb	5.014982e-39
233	0x8035c4bf	-4.93786e-39
234	0x0035f24c	4.954201e-39
235	0x003659f3	4.991384e-39
236	0x003590f9	4.919288e-39
237	0x8036338d	-4.97761e-39
238	0x0035a68e	4.92703e-39
239	0x80361104	-4.965221e-39
240	0x804432a0	-6.262975e-39
241	0x00364909	4.985317e-39
242	0x803577d0	-4.910262e-39
243	0x0036b345	5.023427e-39
244	0x003633f0	4.977748e-39
245	0x8035cc76	-4.940628e-39
246	0x0035b540	4.932302e-39
247	0x0035e36e	4.948868e-39
248	0x00360169	4.959623e-39
249	0x8035ecee	-4.952276e-39
250	0x00363a1a	4.97996e-39
251	0x8036603c	-4.993639e-39
252	0x8035cc62	-4.9406e-39
253	0x8035b28a	-4.931329e-39
254	0x80360cae	-4.963665e-39
255	0x0035c5f3	4.938292e-39

encoder_lstm.weight_ih_l1 f4 [512, 128]
0	0x00359dc7	4.923881e-39
1	0x0036759e	5.00131e-39
2	0x8035c8e1	-4.939343e-39
3	0x8035ab11	-4.928648e-39
4	0x80357ea6	-4.912714e-39
5	0x0035ddef	4.946896e-39
6	0x0035a388	4.925945e-39
7	0x8035a944	-4.928002e-39
8	0x00362176	4.97112e-39
9	0x00362a56	4.974304e-39
10	0x80356b54	-4.905783e-39
11	0x80359de8	-4.923927e-39
12	0x8035a26a	-4.925544e-39
13	0x803640ca	-4.982359e-39
14	0x8036572f	-4.990392e-39
15	0x003571a6	4.90805e-39
16	0x0035b527	4.932267e-39
17	0x803642c6	-4.98307e-39
18	0x00365d47	4.992578e-39
19	0x003687c1	5.007816e-39
20	0x803588ad	-4.916311e-39
21	0x0035cb43	4.940198e-39
22	0x8036c85c	-5.030992e-39
23	0x8035ac38	-4.929062e-39
24	0x80358317	-4.914307e-39
25	0x803571ef	-4.908153e-39
26	0x8035c130	-4.936584e-39
27	0x80368464	-5.00661e-39
28	0x0035d6eb	4.94438e-39
29	0x00357eda	4.912787e-39
30	0x0035df20	4.947323e-39
31	0x8035d50b	-4.943707e-39
32	0x80359b14	-4.922913e-39
33	0x00362928	4.973881e-39
34	0x80357ebb	-4.912744e-39
35	0x80357ab4	-4.911299e-39
36	0x00364c66	4.986523e-39
37	0x803584e2	-4.91495e-39
38	0x003608fa	4.962337e-39
39	0x8036c3e1	-5.029385e-39
40	0x00362e03	4.975623e-39
41	0x8035b568	-4.932358e-39
42	0x00363333	4.977484e-39
43	0x8042d85b	-6.138756e-39
44	0x00359485	4.92056e-39
45	0x80356d25	-4.906435e-39
46	0x00367074	4.999457e-39
47	0x0035b486	4.932041e-39
48	0x0035c8f2	4.939367e-39
49	0x00364bfe	4.986378e-39
50	0x8035a24b	-4.925501e-39
51	0x0035c598	4.938165e-39
52	0x0035d50e	4.943711e-39
53	0x803590e7	-4.919262e-39
54	0x0035b1e8	4.931102e-39
55	0x803599da	-4.922473e-39
56	0x0035ead3	4.95152e-39
57	0x803699c4	-5.014278e-39
58	0x8035c4b5	-4.937846e-39
59	0x00361b49	4.968905e-39
60	0x80362535	-4.972464e-39
61	0x00363b7b	4.980454e-39
62	0x0035bfdf	4.936112e-39
63	0x0035974c	4.921556e-39
64	0x0035cbe7	4.940428e-39
65	0x803647b6	-4.984842e-39
66	0x0035f80d	4.956265e-39
67	0x003686f1	5.007525e-39
68	0x00363f9f	4.98194e-39
69	0x80359e5d	-4.924091e-39
70	0x80360bbc	-4.963326e-39
71	0x00367c3d	5.003685e-39
72	0x00364e7f	4.987276e-39
73	0x0035f715	4.955918e-39
74	0x0035c23c	4.93696e-39
75	0x00363083	4.97652e-39
76	0x003587e9	4.916037e-39
77	0x8036bb99	-5.026414e-39
78	0x003651bf	4.988442e-39
79	0x8035c282	-4.937058e-39
80	0x803624dd	-4.972341e-39
81	0x80365be1	-4.992077e-39
82	0x8035b4f5	-4.932196e-39
83	0x003677ba	5.002067e-39
84	0x0035f3e2	4.95477e-39
85	0x00357d93	4.912329e-39
86	0x00361798	4.96758e-39
87	0x0036b191	5.022816e-39
88	0x003596e1	4.921406e-39
89	0x8035d8f1	-4.945105e-39
90	0x0035b40c	4.93187e-39
91	0x0036356c	4.978281e-39
92	0x0036c5e8	5.030112e-39
93	0x80357267	-4.908321e-39
94	0x00368c56	5.00946e-39
95	0x80357e2b	-4.912542e-39
96	0x00357956	4.910808e-39
97	0x803683ca	-5.006394e-39
98	0x80362387	-4.971862e-39
99	0x003628b3	4.973717e-39
100	0x00366cb1	4.998108e-39
101	0x8035e81a	-4.950544e-39
102	0x00363b25	4.980334e-39
103	0x8035d196	-4.942467e-39
104	0x8035df73	-4.94744e-39
105	0x8035ed5d	-4.952431e-39
106	0x80360bda	-4.963368e-39
107	0x00369586	5.012756e-39
108	0x803b9e0c	-5.474991e-39
109	0x00357951	4.910801e-39
110	0x0035ba8b	4.9342e-39
111	0x0035cd07	4.940831e-39
112	0x80367e51	-5.00443e-39
113	0x803577ee	-4.910304e-39
114	0x8035d329	-4.943031e-39
115	0x8035c191	-4.93672e-39
116	0x003646e6	4.98455e-39
117	0x00356882	4.904772e-39
118	0x0035e722	4.950196e-39
119	0x003c541d	5.540304e-39
120	0x003671d2	4.999948e-39
121	0x00364e75	4.987262e-39
122	0x003620b0	4.970843e-39
123	0x80358406	-4.914642e-39
124	0x003659be	4.99131e-39
125	0x80362859	-4.973591e-39
126	0x0036700b	4.99931e-39
127	0x0035df86	4.947466e-39
128	0x0035f22d	4.954158e-39
129	0x8035791d	-4.910729e-39
130	0x80361e7f	-4.970057e-39
131	0x80358e8f	-4.918422e-39
132	0x00358754	4.915828e-39
133	0x00367509	5.001101e-39
134	0x8036517f	-4.988352e-39
135	0x80360f89	-4.96469e-39
136	0x003d6613	5.638583e-39
137	0x8035b665	-4.932712e-39
138	0x0035bfbd	4.936064e-39
139	0x803609d6	-4.962645e-39
140	0x8035cf5c	-4.941668e-39
141	0x8035b676	-4.932736e-39
142	0x0035d82a	4.944826e-39
143	0x8035beea	-4.935768e-39
144	0x80359e93	-4.924167e-39
145	0x0036127e	4.96575e-39
146	0x0035e1e4	4.948316e-39
147	0x803635b2	-4.978379e-39
148	0x0035af45	4.930156e-39
149	0x8035f629	-4.955587e-39
150	0x003647a9	4.984824e-39
151	0x80367cf7	-5.003946e-39
152	0x80366818	-4.996459e-39
153	0x8035ddc1	-4.946832e-39
154	0x8035dbdb	-4.94615e-39
155	0x00361f26	4.970291e-39
156	0x0035af08	4.93007e-39
157	0x0035a42e	4.926178e-39
158	0x00360c8f	4.963622e-39
159	0x8035e329	-4.948771e-39
160	0x003572cd	4.908464e-39
161	0x00365c59	4.992245e-39
162	0x80357dff	-4.91248e-39
163	0x0035ade7	4.929666e-39
164	0x80356848	-4.90469e-39
165	0x003635b1	4.978378e-39
166	0x80364f7a	-4.987628e-39
167	0x00364bcb	4.986306e-39
168	0x00358b9a	4.917361e-39
169	0x003631dd	4.977004e-39
170	0x00361b53	4.968919e-39
171	0x0035ffc7	4.959037e-39
172	0x0036bc1d	5.026599e-39
173	0x8035d5d6	-4.943991e-39
174	0x00362d4c	4.975366e-39
175	0x00356def	4.906718e-39
176	0x80369fac	-5.016396e-39
177	0x8035af89	-4.930251e-39
178	0x80367e2d	-5.00438e-39
179	0x80369007	-5.010784e-39
180	0x80357eb9	-4.912741e-39
181	0x00364a04	4.985669e-39
182	0x0035f90a	4.95662e-39
183	0x0035a46b	4.926263e-39
184	0x803569a2	-4.905175e-39
185	0x8035f8d0	-4.956538e-39
186	0x80359d5f	-4.923735e-39
187	0x8036164c	-4.967115e-39
188	0x00364466	4.983654e-39
189	0x803664ff	-4.995347e-39
190	0x8035935a	-4.920141e-39
191	0x80364ec9	-4.98738e-39
192	0x00364fc4	4.987731e-39
193	0x8035837b	-4.914448e-39
194	0x0036746e	5.000884e-39
195	0x8035d785	-4.944595e-39
196	0x00362572	4.97255e-39
197	0x80357931	-4.910757e-39
198	0x00359d5a	4.923728e-39
199	0x803631b2	-4.976944e-39
200	0x803626a1	-4.972974e-39
201	0x00357015	4.907489e-39
202	0x8035af24	-4.93011e-39
203	0x00361075	4.96502e-39
204	0x803567f5	-4.904574e-39
205	0x003645e0	4.984183e-39
206	0x00367951	5.002637e-39
207	0x0036553e	4.989696e-39
208	0x80363c23	-4.98069e-39
209	0x803624fc	-4.972384e-39
210	0x0035912a	4.919356e-39
211	0x0035a6cf	4.927121e-39
212	0x8035a9f3	-4.928248e-39
213	0x8035ea63	-4.951363e-39
214	0x0035d585	4.943878e-39
215	0x8036625a	-4.994399e-39
216	0x0035b74e	4.933039e-39
217	0x0035ca3d	4.939831e-39
218	0x0035f38c	4.95465e-39
219	0x8035bfc9	-4.936081e-39
220	0x8035e74c	-4.950255e-39
221	0x8036257d	-4.972565e-39
222	0x00369a43	5.014455e-39
223	0x80368f72	-5.010575e-39
224	0x003632b1	4.977301e-39
225	0x8036254b	-4.972495e-39
226	0x003615a8	4.966886e-39
227	0x8035f8ab	-4.956487e-39
228	0x80360d64	-4.96392e-39
229	0x003577f3	4.910311e-39
230	0x003698f8	5.013992e-39
231	0x00358982	4.91661e-39
232	0x8036665e	-4.995839e-39
233	0x0035b90e	4.933666e-39
234	0x00362f63	4.976116e-39
235	0x0035e4e3	4.94939e-39
236	0x803682df	-5.006064e-39
237	0x00368006	5.005043e-39
238	0x80367d46	-5.004056e-39
239	0x0035dc1a	4.946239e-39
240	0x8036a99a	-5.019958e-39
241	0x80360222	-4.959882e-39
242	0x8036303d	-4.976421e-39
243	0x803eb465	-5.758514e-39
244	0x8036082e	-4.962051e-39
245	0x8035ed6d	-4.952454e-39
246	0x0036a65b	5.018794e-39
247	0x003588e8	4.916394e-39
248	0x003576d9	4.909916e-39
249	0x00365555	4.989728e-39
250	0x8035ecc6	-4.95222e-39
251	0x80360585	-4.961097e-39
252	0x8035cfbc	-4.941802e-39
253	0x00364884	4.98513e-39
254	0x0036972f	5.013351e-39
255	0x00360687	4.961458e-39

encoder_lstm.weight_hh_l1 f4 [512, 128]
0	0x0035844a	4.914738e-39
1	0x80357c07	-4.911774e-39
2	0x8035bd21	-4.935128e-39
3	0x0035df7e	4.947455e-39
4	0x00364ac2	4.985935e-39
5	0x0035e1c3	4.94827e-39
6	0x80361a45	-4.96854e-39
7	0x80363e07	-4.981368e-39
8	0x80361292	-4.965779e-39
9	0x8035afbf	-4.930327e-39
10	0x80365c1a	-4.992157e-39
11	0x8035e816	-4.950538e-39
12	0x80356fba	-4.907361e-39
13	0x0035b38d	4.931692e-39
14	0x0035c39b	4.937451e-39
15	0x8036a132	-5.016943e-39
16	0x80361225	-4.965626e-39
17	0x00368b71	5.009139e-39
18	0x0036506a	4.987964e-39
19	0x0035765f	4.909745e-39
20	0x803ff54f	-5.873636e-39
21	0x0036780d	5.002183e-39
22	0x00365ce3	4.992438e-39
23	0x0035cede	4.941491e-39
24	0x00362368	4.971818e-39
25	0x003624b4	4.972283e-39
26	0x8035f084	-4.953562e-39
27	0x8035d303	-4.942978e-39
28	0x0036887d	5.00808e-39
29	0x003649a4	4.985534e-39
30	0x80361f34	-4.97031e-39
31	0x00367be5	5.003562e-39
32	0x80357987	-4.910877e-39
33	0x8035a757	-4.927312e-39
34	0x80357605	-4.909619e-39
35	0x8036894f	-5.008374e-39
36	0x00361f33	4.970309e-39
37	0x00367df5	5.004302e-39
38	0x00362277	4.97148e-39
39	0x8036281b	-4.973504e-39
40	0x00358c71	4.917662e-39
41	0x80365a71	-4.991561e-39
42	0x00362f3d	4.976063e-39
43	0x8035db2a	-4.945903e-39
44	0x003fe560	5.86792e-39
45	0x00359ccf	4.923534e-39
46	0x0035eef4	4.953002e-39
47	0x803635ce	-4.978418e-39
48	0x80357cb4	-4.912016e-39
49	0x0035c069	4.936305e-39
50	0x803639f3	-4.979905e-39
51	0x0035d63f	4.944138e-39
52	0x80367afd	-5.003237e-39
53	0x80361f78	-4.970406e-39
54	0x8035c79d	-4.938889e-39
55	0x8035e365	-4.948855e-39
56	0x00368471	5.006628e-39
57	0x00362b21	4.974589e-39
58	0x0036b1a7	5.022846e-39
59	0x8036384d	-4.979314e-39
60	0x0035c64e	4.93842e-39
61	0x80362c97	-4.975113e-39
62	0x003651e0	4.988488e-39
63	0x80357bc0	-4.911674e-39
64	0x803627a1	-4.973333e-39
65	0x0036acff	5.021176e-39
66	0x80364671	-4.984386e-39
67	0x003670eb	4.999624e-39
68	0x0035aa3d	4.928351e-39
69	0x80365d66	-4.992622e-39
70	0x8035e984	-4.951051e-39
71	0x8035858b	-4.915187e-39
72	0x00364211	4.982817e-39
73	0x8035b25a	-4.931262e-39
74	0x0035db77	4.94601e-39
75	0x00363a17	4.979956e-39
76	0x0035e3b6	4.948969e-39
77	0x803623dd	-4.971982e-39
78	0x8035741d	-4.908935e-39
79	0x803585dc	-4.915301e-39
80	0x00363d8e	4.981198e-39
81	0x80363c8c	-4.980837e-39
82	0x80359ea6	-4.924194e-39
83	0x8035c024	-4.936208e-39
84	0x0035f1d9	4.95404e-39
85	0x0035e96c	4.951017e-39
86	0x0035ecfd	4.952297e-39
87	0x803649ae	-4.985548e-39
88	0x8035ff82	-4.95894e-39
89	0x00362ee8	4.975944e-39
90	0x8035b05c	-4.930547e-39
91	0x80361f3c	-4.970322e-39
92	0x0035f59c	4.95539e-39
93	0x00356911	4.904972e-39
94	0x8036b500	-5.024047e-39
95	0x8035f807	-4.956257e-39
96	0x00359933	4.922239e-39
97	0x8036be6b	-5.027426e-39
98	0x0036aeaa	5.021774e-39
99	0x0035d0df	4.94221e-39
100	0x0035f83c	4.956331e-39
101	0x0036478b	4.984782e-39
102	0x80366a59	-4.997267e-39
103	0x00365a27	4.991457e-39
104	0x8035e88a	-4.9507e-39
105	0x0035f7e2	4.956205e-39
106	0x8036e0c8	-5.039753e-39
107	0x80362519	-4.972425e-39
108	0x80364dd0	-4.98703e-39
109	0x8035a011	-4.924702e-39
110	0x8035d370	-4.943131e-39
111	0x00362b77	4.974709e-39
112	0x003633f9	4.977761e-39
113	0x80356b77	-4.905832e-39
114	0x8035be17	-4.935473e-39
115	0x80358995	-4.916636e-39
116	0x003634a0	4.977995e-39
117	0x003608b2	4.962236e-39
118	0x80359757	-4.921572e-39
119	0x8036097e	-4.962522e-39
120	0x80369b1b	-5.014758e-39
121	0x00357848	4.91043e-39
122	0x00363dd0	4.981291e-39
123	0x80360866	-4.96213e-39
124	0x0035adbf	4.92961e-39
125	0x00365690	4.99017e-39
126	0x0036acd3	5.021114e-39
127	0x803635a5	-4.978361e-39
128	0x0035a672	4.92699e-39
129	0x00357210	4.908199e-39
130	0x003652a3	4.988761e-39
131	0x8035bedc	-4.935749e-39
132	0x803636d2	-4.978783e-39
133	0x00366e92	4.998782e-39
134	0x00359689	4.921283e-39
135	0x80362d50	-4.975372e-39
136	0x803593f7	-4.920361e-39
137	0x00358121	4.913604e-39
138	0x8036258a	-4.972583e-39
139	0x00368c1b	5.009377e-39
140	0x00367462	5.000867e-39
141	0x00365a8f	4.991603e-39
142	0x8035727d	-4.908352e-39
143	0x0035977e	4.921626e-39
144	0x8035e3a6	-4.948946e-39
145	0x0035f1a9	4.953973e-39
146	0x8036c409	-5.029441e-39
147	0x00369557	5.01269e-39
148	0x003606f2	4.961608e-39
149	0x0035b50e	4.932231e-39
150	0x80359cab	-4.923483e-39
151	0x8036768e	-5.001646e-39
152	0x8035b1c7	-4.931056e-39
153	0x80369a42	-5.014454e-39
154	0x803586b4	-4.915604e-39
155	0x8035c425	-4.937645e-39
156	0x0035a534	4.926545e-39
157	0x8036afe3	-5.022213e-39
158	0x80369e28	-5.015853e-39
159	0x8036c535	-5.029861e-39
160	0x8035eae0	-4.951539e-39
161	0x80361282	-4.965756e-39
162	0x8035dbb4	-4.946096e-39
163	0x8035c8aa	-4.939266e-39
164	0x0035919c	4.919516e-39
165	0x8036693d	-4.996869e-39
166	0x8035944c	-4.92048e-39
167	0x00362f3f	4.976065e-39
168	0x003617a2	4.967595e-39
169	0x80365ee9	-4.993164e-39
170	0x003598ad	4.922051e-39
171	0x80359e54	-4.924079e-39
172	0x8035af13	-4.930086e-39
173	0x0035ae55	4.92982e-39
174	0x0035ff0e	4.958778e-39
175	0x80360236	-4.95991e-39
176	0x00367eca	5.0046e-39
177	0x80358e9a	-4.918437e-39
178	0x00406353	5.913103e-39
179	0x80367200	-5.000012e-39
180	0x0036982a	5.013703e-39
181	0x003619f3	4.968426e-39
182	0x00369a99	5.014576e-39
183	0x8035ff0f	-4.958779e-39
184	0x0035b107	4.930787e-39
185	0x00364e1f	4.987141e-39
186	0x80362449	-4.972133e-39
187	0x80361db5	-4.969774e-39
188	0x0035f6f8	4.955877e-39
189	0x0035b1cd	4.931064e-39
190	0x00364585	4.984056e-39
191	0x8035e789	-4.95034e-39
192	0x803605e6	-4.961233e-39
193	0x00363ac0	4.980192e-39
194	0x003589eb	4.916757e-39
195	0x0036167b	4.967181e-39
196	0x00366a03	4.997147e-39
197	0x8035a711	-4.927213e-39
198	0x80360626	-4.961322e-39
199	0x803591a5	-4.919529e-39
200	0x8036749c	-5.000948e-39
201	0x0036344c	4.977877e-39
202	0x0035ad71	4.9295e-39
203	0x80368990	-5.008465e-39
204	0x00363931	4.979633e-39
205	0x00361bd7	4.969104e-39
206	0x0035bb2c	4.934426e-39
207	0x0035e624	4.94984e-39
208	0x8035ad4e	-4.929451e-39
209	0x80369f41	-5.016246e-39
210	0x0035e420	4.949117e-39
211	0x003677b0	5.002053e-39
212	0x80364379	-4.983321e-39
213	0x00357f30	4.912908e-39
214	0x80362a33	-4.974255e-39
215	0x803640cd	-4.982363e-39
216	0x803601a4	-4.959705e-39
217	0x0035c384	4.937419e-39
218	0x803652f3	-4.988873e-39
219	0x0036776d	5.001959e-39
220	0x8035762b	-4.909672e-39
221	0x003652e4	4.988852e-39
222	0x80369881	-5.013825e-39
223	0x0036651b	4.995387e-39
224	0x00356db3	4.906634e-39
225	0x003587d6	4.91601e-39
226	0x0035cd1a	4.940858e-39
227	0x0036c81e	5.030905e-39
228	0x003662a1	4.994498e-39
229	0x8035dcd8	-4.946505e-39
230	0x80361c14	-4.96919e-39
231	0x003618d9	4.96803e-39
232	0x0035f8b8	4.956505e-39
233	0x8036133d	-4.966018e-39
234	0x0035fd02	4.958043e-39
235	0x003667f7	4.996412e-39
236	0x803577d9	-4.910275e-39
237	0x0035f4e1	4.955127e-39
238	0x00360ba2	4.96329e-39
239	0x8035c07a	-4.936329e-39
240	0x00363ad7	4.980225e-39
241	0x00366681	4.995888e-39
242	0x0035aa58	4.928389e-39
243	0x803aabc1	-5.388072e-39
244	0x803663b7	-4.994888e-39
245	0x8035a6f6	-4.927176e-39
246	0x003664ec	4.995321e-39
247	0x0035a28d	4.925594e-39
248	0x8035f597	-4.955382e-39
249	0x8035836a	-4.914424e-39
250	0x00364311	4.983176e-39
251	0x80356f6c	-4.907252e-39
252	0x80359a52	-4.922641e-39
253	0x00359308	4.920026e-39
254	0x8036c1c5	-5.028628e-39
255	0x80358171	-4.913716e-39
