test_TL/lstm_TL_u1_fitted.pth (torch, 416040 bytes, 18 tensors)

weight_ih_l0 f4 [256, 4]
00000000: 82e6 aebd d119 6c3d 20b2 8b3c 64a4 453e
00000010: 487f af3c e917 aa3c e2d1 e3bd 018b b93e
00000020: 80e4 c33c 37c1 11bd 6058 b73b 3263 ae3e
00000030: 2e0d d33d 2f1d 92bd f005 753d b55d 62bd
00000040: 00e5 c83d 74c9 23be 30ae 1bbc e7d3 ffbd
00000050: 40df 58bd de73 943c b4df 8cbd d9bb f6bd
00000060: 64d6 333d 1a5d 293d 10bf 243c 95c4 b93d
00000070: 3c85 5a3d 5c2f cdbd 669c cbbd 06a7 0fbe
00000080: c62c a03d 031e 8abd b456 2dbd 98b2 75be
00000090: c8bd 1f3d 4b5a fb3d 0075 d4bd 8fd8 bebd
000000a0: 5c0c 58bd 80fa db3c 76a8 d73d aeff c2bd
000000b0: 6c5b b6bd 632b 96bd 16ac c7bd ee07 4d3d
000000c0: 284a eb3c b921 33be b0c5 c73c a1e4 d53e
000000d0: 6290 a93d d16e ab3d 8c74 da3d e1cd 88bd
000000e0: a4d8 f73d 5d64 06be 20be 5b3c 67d4 09bd
000000f0: 9e14 80bd 9afd 2e3e 70e0 343c 6bdf 333e
00000100: 8032 d9bd 8c0c b63d 4833 76bd e282 773e
00000110: 2428 62bd de28 b7bd 28d0 943d 9072 b3be
00000120: e894 ff3c 17df 12be e09d c6bb f0e4 f13e
00000130: 7284 ebbd 9ca4 a2bc 009d 76ba 9d41 633e
00000140: 40ff e9bb 3b73 04bd ee38 823d f662 05bf
00000150: 82cf a2bd 309a efbc 0ce2 5bbd 64e8 0bbf
00000160: fa86 e8bd e1bf 10be 463c d93d 8eee ecbc
00000170: 0233 b83d 270d b63d 3c3f aa3d 65bc 443f
00000180: 4664 cfbd 95c6 7cbd 169e bd3d 0510 dfbe
00000190: 004a 81bd a357 e2bc 1830 d8bd 7a2a 843e
000001a0: 005a 95ba 848c 0fbe 1e67 ec3d 8b05 c73e
000001b0: 48e4 52bd aed9 bfbd aa1f 8b3d 4b92 9f3e
000001c0: 403f 28bc a983 ee3d 30a4 27bd bd70 1e3f
000001d0: 005c cb3a 0848 c8bd 600f f63b 072c 373f
000001e0: a800 d53c c08d 423e 50d7 78bd 8259 20bd
000001f0: 0ca5 21bd 1aaf 0dbc e282 823d 47ff abbe
00000200: 88aa 12bd d097 fb3c f8da cd3d 4010 3b3e
00000210: 226b e83d 16aa 9b3c 76ad c3bd 1011 31be
00000220: e827 4a3d 9c2d 143d d03f 0fbd 9be4 bdbd
00000230: a8a3 2abd 3d4e 16bd 38de c4bd aa5d 39bd
00000240: 782f c9bc 465c d73d 2aed 90bd 78a2 c1bd
00000250: 2cc4 8fbd cf00 e1bd c007 c73b 1452 463e
00000260: 0c0a b0bd 2a8f 78bd 4ae0 d8bd 387a 1a3e
00000270: 489c de3c f7c6 c53d c0eb dabb 3204 18be
00000280: e242 a63d 2af0 0abe 6002 1dbc f82e cc3d
00000290: d8b6 f6bd a0fb 8dbd bc6d a13d 6942 3a3e
000002a0: d6ea bb3d dccd 14be 9a4a ffbd eb62 8cbd
000002b0: a8a9 e6bc 9f10 443d c015 19bc 17c7 943c
000002c0: f4fc 593d 399d 983d b07a 80bd d96e e4bd
000002d0: 20a6 b2bd 74a2 71bc 8ef4 ed3d 3a6c 9ebe
000002e0: 3094 7dbd 079d 75bd 905a c93d b330 02bf
000002f0: 7886 ae3d dbce 4f3d f00a d73d cc1b 5d3e
00000300: a073 ff3c 5731 e2bd e858 7ebd 6a94 c3bd
00000310: 58b0 eb3d 1dcc 633d 744a fcbd f17f fdbc
00000320: 1cad b03d 7930 b53d 30d7 c3bc 2151 0a3f
00000330: 2cf5 61bd d66e 17be ee93 f2bd 351a 173e
00000340: 409c 453b 457f debc 2e26 d0bd 9bab bfbd
00000350: 7086 0c3d 76cd 1c3e 08e4 e83c 4eef a03e
00000360: 6014 fabb c8d7 76bd 6866 833d d4f3 6fbe
00000370: 801d f53b 9105 d63c 1e98 afbd 7aa8 91bd
00000380: c63f 8fbd cbea e93c 40cb b9bc eb68 f3bd
00000390: 0ec8 b83d 3a7c 04be 4844 31bd 2009 e2be
000003a0: 44ac 09bd d5f8 453e e809 a13c ca0c 363f
000003b0: b247 bcbd 0b18 a93d 9001 c33c fc91 2e3e
000003c0: 709f b0bc aedf adbc 3abe cb3d e040 98bd
000003d0: 6064 18bd 5da5 17bd 6acc e3bd 77f6 013c
000003e0: 5a45 e6bd 72ce b93d a89e 06bd f95e 81bc
000003f0: fc9e d43d 1a8c dd3d 8a66 f8bd f3d0 e23e
-0.085400596 0.057641808 0.01705271 0.19300991 0.021422997 0.020763354 -0.11124016 0.36238864
0.023912668 -0.035584655 0.005595252 0.34060055 0.10305248 -0.071344726 0.059820116 -0.055265147
0.09809303 -0.15994817 -0.009501979 -0.12491589 -0.052947283 0.018121656 -0.068786055 -0.12047548
0.04390563 0.041348554 0.0100553185 0.09070698 0.05334972 -0.10018799 -0.0994194 -0.14028558
0.0782104 -0.067440055 -0.042319015 -0.2399391 0.03899935 0.122730814 -0.103738785 -0.09318649
-0.05274616 0.026852846 0.10530178 -0.09521423 -0.08904156 -0.07332494 -0.0974962 0.05005639
0.028721884 -0.17493333 0.024386257 0.41775993 0.08279492 0.08370746 0.10666761 -0.06679893
0.12101868 -0.13124223 0.013412029 -0.03364983 -0.062539324 0.17088929 0.011039838 0.17565696
-0.10605335 0.08889112 -0.0601075 0.24171022 -0.055214062 -0.08943342 0.07266265 -0.35048342
0.031198934 -0.14342915 -0.0060613006 0.47244978 -0.11499871 -0.019853882 -0.000940755 0.22192998
-0.007141024 -0.032336455 0.06358515 -0.5210413 -0.07949735 -0.029248327 -0.053682372 -0.54651475
-0.1135387 -0.14135696 0.10607199 -0.028922345 0.08994104 0.08889227 0.08312842 0.7684997
-0.101265475 -0.06171282 0.09258668 -0.4356691 -0.063129425 -0.02762968 -0.10556048 0.25813657
-0.001139462 -0.14018446 0.115431055 0.38871416 -0.051487237 -0.09367691 0.06793149 0.311663
-0.010268986 0.11646206 -0.040928066 0.61890775 0.0015515089 -0.09779364 0.007509157 0.71551555
0.02600129 0.18999386 -0.060752213 -0.03914786 -0.03946404 -0.0086477045 0.0637262 -0.335932
-0.035807163 0.030712038 0.100515306 0.18267918 0.11348559 0.019002002 -0.095545694 -0.17291665
0.049354464 0.03617631 -0.034972966 -0.09272119 -0.04165998 -0.036695708 -0.09612697 -0.04525534
-0.024558768 0.10515647 -0.070764855 -0.094548166 -0.07019839 -0.10986482 0.006073922 0.19367248
-0.08595666 -0.060683407 -0.10589655 0.15085685 0.02717413 0.0965709 -0.0066809356 -0.1484535
0.08118226 -0.13568178 -0.009583086 0.09969896 -0.120465934 -0.06932759 0.07882258 0.18189396
0.09175651 -0.14531654 -0.12465401 -0.068548046 -0.02815707 0.047867414 -0.0093435645 0.01816134
0.05321975 0.07451863 -0.06273401 -0.11153955 -0.08723092 -0.0147482045 0.11618911 -0.30941945
-0.0619089 -0.059964206 0.098317266 -0.5085556 0.08521742 0.050734382 0.10500133 0.21592635
0.031183064 -0.11044567 -0.062096506 -0.09549792 0.11508244 0.05561458 -0.12318888 -0.030944796
0.08626768 0.08847136 -0.02390632 0.5403004 -0.055165455 -0.14788374 -0.118446216 0.14756091
0.0030152947 -0.027160296 -0.10163532 -0.09358903 0.034307897 0.15312752 0.028429046 0.31432575
-0.0076318234 -0.06026438 0.06416017 -0.23432857 0.0074803233 0.026125701 -0.08573936 -0.071122125
-0.06994586 0.02855434 -0.022679925 -0.11885246 0.090225324 -0.12938014 -0.04327801 -0.44147587
-0.03361155 0.19333203 0.019658044 0.71113265 -0.09193362 0.08256539 0.023804456 0.17047876
-0.0215604 -0.021224823 0.09948392 -0.07434249 -0.0372051 -0.037022937 -0.11122973 0.007932297
-0.112436965 0.090725794 -0.03286615 -0.015792357 0.10381886 0.10817738 -0.12128933 0.4430004

weight_hh_l0 f4 [256, 64]
00000000: 3b48 023c 44fb 90bd 0227 ff3d 7954 8abb
00000010: b429 96bd 0f73 133a ca73 5fbd 7d9b 0cbe
00000020: 1275 c53d 0503 663c cd9c 2abd 391e 96bc
00000030: e497 84bb 430d 96bd 4acc d9bd 98f2 673d
00000040: 3700 c4bd 2687 efbd c210 863d c00d 793d
00000050: f57f 05bd 4160 1ebd d779 5a3c 6fda 393c
00000060: 7fe3 d03d bafe 033e 4233 e33d 0d3b 8dbd
00000070: ff79 1d3e 3e38 543d 8903 5c3e 8c1a 823d
00000080: ad89 83bd ac01 f6bb 0fd5 853c 792f edbc
00000090: 0141 023e 1744 4ebe 1e3b b53d cc67 1f3d
000000a0: 9a5f d03d dcc4 c6bb b4aa 9d3c 7d74 c2bd
000000b0: 51d4 f33d 5a98 b4bd 3fb6 2cbd 543f 833e
000000c0: 51e2 ac3d a540 083e 0323 16be cb18 e53c
000000d0: 86e2 883d c045 e43d 815e 853d 3422 ce3d
000000e0: 2780 a33d ad1c adbd b970 76bd 9655 3bbc
000000f0: 1b10 eebd faa3 c9bd 56f8 26be 2ff5 103e
00000100: 6801 d1bd 7eb3 4cbe 3e4c 343d fba6 bb3c
00000110: ba95 233d e0dd d8bd d0c5 b73d 0994 243d
00000120: 8d77 1c3c 4a27 e6bd d8ac 3e3d f06d 933d
00000130: 7825 d6bb a494 74bd 6109 713d c2a6 e13c
00000140: 7b94 c7bd 41f8 033e 24de 133e 496c c43d
00000150: 29c4 e4bd 11e0 813d 0f35 94bd c1d2 86bd
00000160: 59f5 ce3d 7b36 11bb ca92 423e 161f 48bd
00000170: 1dda c83c b302 03be 04f8 a43d 6af9 ee3d
00000180: 41d9 c93c 66ae 1bbd 5063 ee3d 9881 9fbc
00000190: 6eb9 613d b315 17be c563 45bd 1775 c73d
000001a0: ccdb f23d f69c babd bfb3 b2bc 32d5 dd3b
000001b0: 1e77 29bd b2ab e83d ea19 b1bd c97b 34bd
000001c0: a334 cdbc 1f19 1a3d e177 1ebe 95d5 ec3b
000001d0: 0cfb 5f3d 07c7 56bd 9a6b 79bc aeb6 ae3d
000001e0: 6c0b b53d 1b4f 273d 8793 b4ba b39f 91bd
000001f0: 092a ffbd 372d 5e39 abf4 1d3d 661a f63d
00000200: 84e8 0dbd 0dba aabd 60f1 03bd eee1 b73d
00000210: 3454 913d af0a 65bd c1d7 b5bd a92f 31bd
00000220: 9200 423d 2442 063d e8a7 b03d c0e6 3cbd
00000230: 17c0 bcbc 20fb 633d f5f9 dfbc 976c 9fbc
00000240: 9e93 1cbe 6739 a1bb 16d7 e13d 0bb5 b53d
00000250: bcd8 993d a806 d53c 8a87 713d fa32 c8bd
00000260: f915 f23d 7cc8 e0bc 6913 d0bd 2f7c 703b
00000270: aace 88bd 0ef2 cbbd d982 4d3d 76a7 023d
00000280: dbe5 783c b9e9 2a3d e768 083e ecda 093d
00000290: c132 e23d b333 c33c 1458 1a3d cdd3 023e
000002a0: e5ed 1e3d bfdd bfbd 174c a83d bdba da3c
000002b0: 2041 b33d 61c3 783d f2d2 e3bc 3fc5 b5bd
000002c0: 3507 0fbe 68e2 073d 5b3d a7bd e498 8dbd
000002d0: e2a0 15bd dab0 333c ef6a 1cbe ba2b b3bd
000002e0: b1e0 223d b7dc a5bd c9f8 75bd db69 133e
000002f0: 96e0 10be 5f43 c33d 0e91 b6bd 750a 04be
00000300: b193 7abc 8320 493d 9bd6 adbd cbb8 fc3b
00000310: 2556 2bbd 76ba 1d3d 9ffc bd3d 8c38 0bbe
00000320: 51c0 93bc 9b23 ac3d 58a0 85bc 71bb 5a3d
00000330: 0536 00bd d8c1 023e ab13 10bd e3d0 233d
00000340: 8b21 e9bd 675b bc3d 8e72 21be ec1f efbd
00000350: 27a1 cebc d3fb 1bbd cea9 4f3e 29f3 563c
00000360: 0588 833d 29a5 bcbd a2f0 1dbb b8bb 70bd
00000370: 2dac be3d ff11 013e 0de7 96bd c2a9 b63d
00000380: 11af 213d 371d e13c 01ef 9f3c 6aca 383d
00000390: d3a6 1f3d 57c0 e73d dd43 c43d adbf dd3d
000003a0: 608a 21bb b16c eebc a092 ad3d 6638 f73c
000003b0: da91 03be 9f93 093e 652e 373e fb23 4abe
000003c0: bbf0 00bc 411f 4ebd e5de 203d b808 e5bd
000003d0: 7e33 b1bd ba87 06be d107 ae3c 41de cdbd
000003e0: 196f 19be 8090 61bb ea0c 3ebc 809a 20bc
000003f0: d5ab 0dbe d28a 463d 44f4 173e fe46 0ebe
0.007951791 -0.07079175 0.12458612 -0.0042214957 -0.07332173 0.000562475 -0.054553784 -0.13731189
0.0964147 0.014038806 -0.041653443 -0.018324958 -0.004046427 -0.07326748 -0.10634668 0.05662784
-0.095703535 -0.116956994 0.06546165 0.06080413 -0.032592732 -0.038666014 0.013334713 0.0113435825
0.101996414 0.12890139 0.11093761 -0.06896029 0.15378569 0.05181145 0.21485724 0.0635272
-0.06422744 -0.0075075235 0.016336946 -0.0289533 0.1272011 -0.20143162 0.08849166 0.038917348
0.101744846 -0.006065948 0.019246437 -0.094948746 0.119057305 -0.08818121 -0.04216599 0.25634253
0.08441604 0.1330591 -0.14661793 0.027965924 0.06683831 0.11146116 0.06512166 0.100651175
0.079834275 -0.08452735 -0.060166094 -0.0114339795 -0.116241656 -0.09845729 -0.1630567 0.1415603
-0.10205346 -0.19990346 0.044018023 0.02290677 0.039937712 -0.10589194 0.089732766 0.04018024
0.0095499875 -0.112379625 0.046551555 0.07198703 -0.0065352283 -0.059712067 0.058846835 0.027545337
-0.09745117 0.1288767 0.14440209 0.09590966 -0.11170227 0.063415654 -0.072366826 -0.06583167
0.1010539 -0.0022157717 0.19001308 -0.04885777 0.024518067 -0.12793998 0.08055118 0.11668666
0.024639728 -0.038008116 0.11640036 -0.019470975 0.05510848 -0.14754371 -0.04819085 0.0973913
0.11858329 -0.09111969 -0.021814225 0.0067697996 -0.041373365 0.11360873 -0.08647521 -0.044063363
-0.025049513 0.037621614 -0.15475418 0.0072276094 0.054682776 -0.0524359 -0.015223408 0.08530937
0.08840069 0.040846925 -0.0013776877 -0.07110538 -0.124591894 0.00021188414 0.03856341 0.12016754
-0.034645572 -0.083362676 -0.032212615 0.089786395 0.070961386 -0.05591839 -0.088790424 -0.043258343
0.047363825 0.03277792 0.086257756 -0.046118498 -0.023040814 0.055659413 -0.027340868 -0.01946096
-0.15290686 -0.004920173 0.110273525 0.08872422 0.07512042 0.02600415 0.05896715 -0.09775348
0.11820597 -0.027439348 -0.10159952 0.0036695113 -0.06680043 -0.09958278 0.050173614 0.031897984
0.015191521 0.0417268 0.13321267 0.033656046 0.11044837 0.023828363 0.037681654 0.12776108
0.038801093 -0.093684666 0.08217638 0.026700372 0.08752656 0.060733203 -0.027810548 -0.08875512
-0.13967593 0.033174902 -0.081659995 -0.06913927 -0.036530383 0.010967458 -0.15275167 -0.087485746
0.039765064 -0.08098739 -0.060051713 0.1439585 -0.14148173 0.095343344 -0.08914386 -0.12894614
-0.015294001 0.04910327 -0.08488198 0.0077124587 -0.0418302 0.0385079 0.09276699 -0.1359579
-0.01803604 0.08405229 -0.01631181 0.053401414 -0.031301517 0.12769258 -0.035175007 0.03999413
-0.11383351 0.09197121 -0.15766355 -0.116760105 -0.025223328 -0.038081955 0.20279619 0.013119497
0.06422428 -0.09211189 -0.0024099727 -0.058772773 0.09310184 0.12604521 -0.07368288 0.089190975
0.039473597 0.027479751 0.019523146 0.045114912 0.038977455 0.11315983 0.095832564 0.10827575
-0.0024649128 -0.029104562 0.08475232 0.03017826 -0.12848607 0.13435219 0.17888792 -0.19740288
-0.007869895 -0.050322775 0.03927507 -0.111833036 -0.086523995 -0.13137713 0.021243962 -0.10052157
-0.14983787 -0.0034418404 -0.011599759 -0.009802461 -0.1383508 0.048472233 0.14839274 -0.13894269

bias_ih_l0 f4 [256]
00000000: a211 d5bd 2fca 893a 6c91 493d c252 973c
00000010: 370b 1fbe 23f3 eebb e8c6 c93d bb06 4fbb
00000020: b614 9abd 859e dbbc 0db1 183d 8970 1d3d
00000030: 60d6 0bbe e39f c93d 963c 753c 0084 88bd
00000040: c899 94bd 893b c33d 6750 2f3d dfbd cf3d
00000050: 86a1 ec3b c0b9 d63b 2154 7c3c 00fa 13be
00000060: 12ef 6fbc 612d d4bd 4897 723d de7e c7bc
00000070: 91c4 433c c993 043e fe5b 233d 0817 45bc
00000080: b9ea b8bc 04ae ab3d 4e0c e23d abc5 833c
00000090: f472 473c 67c5 7abd c38e d63d 63bd f83b
000000a0: 96c9 69bb 376f d53d a048 00bd c6b9 a13c
000000b0: c0eb 5fbd e515 133d 711a d03d 3843 0f3d
000000c0: 0df3 d5bc 128e f33c 5012 5abd 70ab 06bd
000000d0: 51ee 273d 5e72 de3d 85e1 383d c686 36bd
000000e0: 6f1d 393d 1d2c a63d 00c5 e83d 86d7 bebb
000000f0: 89f0 6fbc 35c4 a73d a297 a0bd 8015 1d3e
00000100: a170 173d e5c3 943d 8120 8bbd 7fd5 543c
00000110: 7f8f 683d a0f8 653c 9803 aebd d697 503c
00000120: e9f9 9a3a 79a6 543e dfbd cf3d 1bc5 903d
00000130: cd84 bbbc 22ee 2abd 3cc7 b33b 7179 443d
00000140: b5eb 123e aaa7 ccbc 37ab 423e a8a8 fe3d
00000150: a319 7d3b 331d ca3d f629 ed3d df9b 013e
00000160: 52a3 213e 6b4e c83d b44b 04bd 91d6 8f3c
00000170: 2743 653e 3123 fb3d 0534 1e3e c358 07bd
00000180: 31e3 053e a01b eabc 5b81 4dbd f189 6bbc
00000190: 4e8e ddbc fa46 113e 551c 43bc 1247 2f3e
000001a0: 0e41 64bc d1c0 5fbd d097 b5bb 78c2 fe3d
000001b0: 825d 13bd 5225 af3c 6560 4038 8b0f 623e
000001c0: ea83 4a3c dd13 8cbd bd29 70bd b3fb c63d
000001d0: 8989 5e3d cb9c 283e 78c7 bb3d bc30 02bd
000001e0: b0af 8b3d b1c9 ddbc 8ee0 e33c 55ba b03c
000001f0: 35da d43d 69ef f4bd f5b6 8fbb 59c8 163d
00000200: 6a2d bb3d fd5a 873d 544a 14be 2c45 963c
00000210: 9cdb 6cbd 2e71 f63d 952d 693d 595f 34bd
00000220: 92cf 0cbd 64e3 dabd d9de 893d 3be6 e2bd
00000230: 39e8 ee3b bfbd 4f3d c436 d73d 748b e9bd
00000240: 4e4d e3bd 489a 133e 67b4 b43d 45ce 5e3d
00000250: 93a1 563d f730 4b3d dfaf bf3d 4349 ea3b
00000260: bdca 893d d11b abbb 80eb 27bd d9fa 513d
00000270: 79a4 b23d c106 903b 38f0 b33d 1be3 2a3d
00000280: 6407 9ebd 7ba2 d0bd e8dd dc3d bb9d 97bb
00000290: 5295 5ebd 0351 8bbc 810e 4cbc 48b2 ba3d
000002a0: f7fe 9d3d 0722 60bd cba4 88bd 864f e0bd
000002b0: 8f8a 183e fb82 5a3d 6c0a ca3d 9d63 c7bd
000002c0: 165c 483c 2ec3 a13d 81ab d03c 47a2 d3bc
000002d0: 1e49 6abd d834 f0bd 1def 9a3d 8a3b 8dbc
000002e0: bd24 c2bd cfd4 f03d 85ff 803d 4b30 27bd
000002f0: b228 a83c 27d7 773a 7fa6 1bbd 6e95 2fbd
00000300: fe9c 1d3d 8efd 303d 729a 0f3d c350 7d3d
00000310: 8134 17be 13d3 02be a136 613d ead7 b0bd
00000320: cd1f 9d3b b358 0c3e ff53 e5bd 3eec c73d
00000330: 0209 8ebb ae30 223d 4018 1d3c 6e69 6bbd
00000340: 9a41 e83d 94fa 0b3e 0bbb e63d a0d5 b63d
00000350: a718 133d 6d34 a03c d011 b1bd 69c6 43bd
00000360: 378b d4bd 60a9 2c3d 25a5 053d 7c92 96bd
00000370: 38e8 e5bb afac 323e 79be 42bc d9bf 843c
00000380: 1c26 363d ee9e d53c d2b6 b83d ee09 093e
00000390: 5c16 17be c3c3 843d c4a5 8abd 9698 adbd
000003a0: d30e 9abd 4cf1 9dbd 5523 15be dfb6 283e
000003b0: e6e8 c5bc bfca 2bbd 498a 9c3c b5a8 b73d
000003c0: 0836 dd3d 3fcb 023e b51a d73c 403d e1bd
000003d0: 7dd0 e13d b576 243e 11a7 c53c 9b60 67bd
000003e0: e76e 20be 234d 213d 45ef fa3d e021 c33d
000003f0: 7384 82bd fdc5 ad3d 3682 1d3d 940a b73d
-0.10403754 0.0010512526 0.04921095 0.01847208 -0.15531622 -0.0072921677 0.098523915 -0.0031589705
-0.075234815 -0.026808986 0.037278224 0.0384374 -0.13655996 0.09844949 0.014968058 -0.06665802
-0.07255894 0.0953284 0.042801287 0.10143637 0.0072214035 0.006552905 0.015400917 -0.14450836
-0.014644401 -0.10360218 0.059226304 -0.024352487 0.011948721 0.12947 0.039882652 -0.012029417
-0.022572862 0.083828 0.11037503 0.016085466 0.012173403 -0.061223414 0.104764484 0.007590936
-0.0035673133 0.10421603 -0.03131926 0.019741904 -0.054668188 0.035909552 0.10161293 0.034976214
-0.026116872 0.02973083 -0.05324012 -0.03287834 0.04099876 0.108616576 0.045136947 -0.044562124
0.045194086 0.08113883 0.113657 -0.0058240322 -0.01464475 0.081917204 -0.07841422 0.15340233
0.036972646 0.072639264 -0.06793309 0.012990355 0.056777474 0.014036328 -0.08496779 0.012731513
0.0011823747 0.2076663 0.10143637 0.07068845 -0.022890473 -0.041731007 0.005486397 0.047967378
0.14347728 -0.024982292 0.19010626 0.124345124 0.0038620017 0.098688506 0.11580269 0.12657116
0.15784958 0.09780582 -0.03229876 0.017558368 0.22388898 0.122625716 0.15449531 -0.033043634
0.13074948 -0.028577626 -0.05017219 -0.0143761495 -0.027045395 0.14187232 -0.01190861 0.17116955
-0.013931526 -0.054627243 -0.005541779 0.12439436 -0.035977848 0.0213801 4.586614e-05 0.22076242
0.012360552 -0.06839726 -0.058633555 0.097159766 0.054330382 0.16466062 0.09168905 -0.031784758
0.06820619 -0.027073713 0.027817037 0.021573225 0.10393182 -0.11959726 -0.004385824 0.03681216
0.091395214 0.066091515 -0.14481479 0.01834353 -0.057826623 0.12033306 0.056928236 -0.044036243
-0.034377642 -0.106879026 0.06731958 -0.11079069 0.0072908667 0.050718065 0.105084926 -0.11403552
-0.11098729 0.14414322 0.088234715 0.054395933 0.052400183 0.049607243 0.093597166 0.0071498468
0.067281224 -0.005221822 -0.040996075 0.051264618 0.08722777 0.0043953364 0.087860525 0.04172049
-0.077162534 -0.10187241 0.10784513 -0.0046269572 -0.05434162 -0.017006403 -0.01245463 0.09116036
0.07714646 -0.05471995 -0.06672057 -0.10952668 0.14896606 0.05334757 0.09865269 -0.097357966
0.012228986 0.07898556 0.025472404 -0.025834216 -0.057198636 -0.11728829 0.075651385 -0.017240304
-0.094796635 0.1175934 0.062987365 -0.04081754 0.020527218 0.00094543624 -0.03800058 -0.042867117
0.038479798 0.04321056 0.0350594 0.0618446 -0.14766122 -0.12775831 0.05498374 -0.08634932
0.0047950507 0.13705711 -0.111976616 0.097618565 -0.00433457 0.039597206 0.009588301 -0.057473592
0.113406375 0.13669807 0.11266144 0.089274645 0.035912182 0.019556249 -0.086459756 -0.04779664
-0.103781156 0.042153716 0.032628197 -0.073521584 -0.007016208 0.17448686 -0.0118862325 0.016204761
0.044469938 0.02607676 0.09019245 0.13382694 -0.14754623 0.06482651 -0.067698985 -0.08476369
-0.07522359 -0.07712039 -0.1456426 0.1647601 -0.024158906 -0.0419414 0.019108908 0.08967725
0.10801321 0.12772845 0.026257852 -0.10998011 0.11026094 0.16060908 0.024127515 -0.056488615
-0.15667306 0.039380204 0.12252668 0.095279455 -0.06372919 0.08485029 0.038454257 0.089375645

bias_hh_l0 f4 [256]
00000000: 1414 e2bd 9f64 973d d2ff ea3d 7199 e93a
00000010: 3bc0 7ebd a3cf 533c 8371 f23d 50d8 f0bd
00000020: 8f5c 0dbe 950d ff3c 81c4 9d3d cf46 243d
00000030: 0d8a 6c3d 33bf 783d 4281 5ebd ef48 d93d
00000040: 6f63 d63d a2f3 e3bc 8c30 07be 247b 8ebc
00000050: 83d4 563d d816 343d 72e1 5bbd 62bc 543d
00000060: 8832 a63d ddb3 adbd 4249 963d 559a 3a3d
00000070: a684 1b3d 706d 963c f397 13bb 9f6e 06bd
00000080: 47a6 84bd 3617 d03c 50d8 a2bc 3a9b e93d
00000090: 993a 6c3d 7add 21bd 11d5 fcbc e2cd 95bd
000000a0: b212 89bd b6e8 00be e609 2bbd abf5 b23d
000000b0: 0bf7 b23d 5b35 ce3d d717 1a3e 287b 1c3d
000000c0: 8fe1 673d 0bd2 80bd 1b76 24bd 8cec e8bd
000000d0: d0a0 1abc 63c8 da3d 62b0 c6bd 06e4 493d
000000e0: 960f aabd 64cc 1cbd deb5 533d e221 61bc
000000f0: 103e 9f3d de81 64bd a902 b53b 7d60 a53c
00000100: b9aa 013d 6883 49bd 722f 043e d37b 7abd
00000110: c4ac 28be ea71 c23d ce95 64bd 450e 3c3d
00000120: 4fb9 d4bd 59e2 d23d 1134 84bd b1d2 123e
00000130: da11 5f3d d493 aabd 12a1 783c 2b5f 133d
00000140: 4d60 173e 5b00 dd3d 530b 103e 5c1c 253e
00000150: 67eb cdbd a58b 163e 32ad 93bb 9e4e c13d
00000160: da02 203e 2d6c bf3c edf8 6bbd bc5f 8c3d
00000170: ff05 2c3e 9f4f 183e 09f8 0a3c ddfc db3c
00000180: c1a2 803d 6d65 f03d 1cce a3bd e83d bd3d
00000190: 2464 bbbd 993c 0ebd 9e72 033e c4bf 023e
000001a0: 808e f9bd 1f30 8fbc 0ff2 83bd 65b0 233e
000001b0: 3c08 0f3d a4e6 b43c f57e f73d 9793 8c3e
000001c0: b00e e7bd 5f49 243e 201a a1bc 39a1 98bd
000001d0: f46b 573d 5e5e 203e 2a7e e6bd 0dd3 c73d
000001e0: 3f74 70bd 888c d53d a30d 2d3e 2f15 14bd
000001f0: 6b25 8a3c 1edb f1bc b8be 0b3d 24fc 9f3d
00000200: 4953 5d3d 7d68 a93c f400 813d bd66 75bd
00000210: e55a df3d bf92 b03d e83e 723d c9cd 08bd
00000220: 6339 95bd 1a5e 1fbd 9b27 053e 8f2c c93d
00000230: 5b9e 07bd 15d1 90bc 90f6 efbc 7122 2cbb
00000240: 3866 aa3d 3f0a 443d f5da 01bd 8678 7e3d
00000250: 0765 d33d 4c78 adbd ae3c f53d 028c 87bd
00000260: 35a4 063e d8d5 97bd 61c0 9bbc cac9 3a3d
00000270: 43ae 0f3c b125 813b 87c7 1bbd eec6 2f3d
00000280: 6671 8dbd 5370 8d3d 10b7 683d 11a0 a43d
00000290: bdef eebd 8de4 763d 2b90 773c 66fe 9b3b
000002a0: 554c b83d 792b 603d 781c eebc 180a 5a3b
000002b0: 70ef 633c a33a e23d 5d5c e4bd d99d f9bd
000002c0: 9669 75bd 26b4 04be b0b4 91bd 87da 8c3b
000002d0: f062 dcbd d82b e4bc a334 b5bd 1172 913d
000002e0: 8b6b 683d b123 85bd 56c5 d9bd 98a9 0f3e
000002f0: 99a2 f9bc 62e1 02bd 5df5 a43d 64ae 64bd
00000300: 106f f53c 7794 80bb 2d8f 003d 65cc 013e
00000310: 0e83 05be 49fc a63d c55d d6bd 4cde 3bbc
00000320: 10cd d83c 2da5 8b3d 372d 16be acb1 1b3e
00000330: 7ad1 b0bd 625a fe3d 4af4 d3bc 2a9a c2bc
00000340: 3d63 6ebc 3cfa 51bd 7d17 68bc ca80 103e
00000350: 1e20 ebbd 9047 903d ca16 afbd 13b5 65bd
00000360: 6edd c5bd c94b 7c3d c897 ecbd ae09 bbbd
00000370: 98a4 dabb 9318 2e3e 36a2 143e 66d3 cd3d
00000380: e1f8 1c3d bfb0 eebd 33c9 a43d bfcb 313e
00000390: 5dd7 243d b605 adbd dec5 803b 3d2b 80bc
000003a0: e46e 13be 0583 bbbd 6372 443d c4ca 753d
000003b0: e8d9 063c 6e85 9c3d 9087 eabd 9360 c53d
000003c0: 087a 91bc bf49 893d 3ecc 663d 039e e3bd
000003d0: 3052 c23d 23d1 0e3e 06ad a3bc 1380 06bd
000003e0: b1d7 913c f897 07be 3b3f 433e 392e bf3b
000003f0: 188a 19bd 58b1 88bd ab0d ee3c 229e a5bc
-0.11038986 0.07392239 0.11474575 0.0017822218 -0.062195044 0.012927922 0.11838057 -0.11760008
-0.1380484 0.031134406 0.07703496 0.04010659 0.057748843 0.060729217 -0.05432249 0.10609614
0.10468184 -0.027826134 -0.13202113 -0.017392702 0.05244876 0.043967098 -0.0536818 0.05193747
0.08115107 -0.08481572 0.073381916 0.04555734 0.0379683 0.01836273 -0.0022520989 -0.03282034
-0.064770274 0.025401693 -0.019878536 0.1140656 0.05767307 -0.039517857 -0.030863317 -0.0731466
-0.06693019 -0.12588772 -0.041757487 0.08738264 0.08738526 0.100687705 0.15048157 0.03820339
0.056611594 -0.062900625 -0.040151697 -0.11373243 -0.009437755 0.10682752 -0.09701611 0.049289726
-0.08303754 -0.03828086 0.051687114 -0.013740988 0.07775509 -0.055787914 0.0055239988 0.02018761
0.031656954 -0.049197584 0.12908724 -0.061153244 -0.16472155 0.09494384 -0.055806927 0.045912046
-0.10386907 0.10297079 -0.064552434 0.14338185 0.054460384 -0.08328977 0.015175121 0.03597943
0.1478283 0.107910834 0.1406682 0.161241 -0.10054665 0.14701708 -0.0045067305 0.09438823
0.15626088 0.023367012 -0.05761044 0.068541974 0.16799162 0.14874123 0.008481988 0.026853973
0.06281043 0.117380954 -0.079982966 0.09240323 -0.0914996 -0.03472576 0.12836692 0.12768465
-0.12185383 -0.017479 -0.064426534 0.15985258 0.034919962 0.022082634 0.12084762 0.27456352
-0.11282098 0.16043614 -0.019665778 -0.07452626 0.052593186 0.15660998 -0.11254533 0.097570516
-0.05870461 0.10427195 0.16899733 -0.036153015 0.016863545 -0.029523429 0.03411743 0.07811764
0.054034505 0.020679707 0.0629901 -0.059912432 0.10906009 0.086217396 0.059142023 -0.033399377
-0.07286336 -0.0389081 0.1300339 0.09822952 -0.033110004 -0.017677823 -0.029292375 -0.0026265646
0.08320278 0.047861334 -0.031702954 0.06212666 0.10322004 -0.084702104 0.11974464 -0.06618501
0.13148578 -0.07413834 -0.019012632 0.045602597 0.008769575 0.0039412607 -0.03803208 0.042914324
-0.06906395 0.0690619 0.056815207 0.08038343 -0.1166682 0.060276557 0.015110056 0.0047605513
0.08998934 0.05472896 -0.02906631 0.0033270177 0.013912067 0.1104634 -0.111504294 -0.1218831
-0.059915148 -0.12959346 -0.071145415 0.0042985114 -0.10761058 -0.027852938 -0.0884793 0.071018346
0.056743186 -0.06500948 -0.10633342 0.14029539 -0.03047304 -0.031953223 0.08054612 -0.055830374
0.029960185 -0.0039239484 0.031386543 0.12675627 -0.13038275 0.08153588 -0.10467104 -0.011466574
0.026464969 0.06818614 -0.14665686 0.15204495 -0.086337045 0.12419583 -0.025873322 -0.023755152
-0.014550027 -0.051264033 -0.014165756 0.14111629 -0.11480735 0.070448995 -0.085492685 -0.05608089
-0.09661375 0.06159571 -0.115523875 -0.09132706 -0.006672453 0.17001562 0.14515004 0.10050087
0.038323287 -0.116548054 0.08046188 0.17362879 0.04024445 -0.08448355 0.0039298376 -0.015645618
-0.1439777 -0.09155849 0.04796065 0.060007825 0.008230664 0.07642637 -0.11451638 0.09637561
-0.017758384 0.06703519 0.056347124 -0.11114123 0.09488332 0.13946967 -0.019979965 -0.032836985
0.017803045 -0.13241565 0.1906709 0.0058343676 -0.037485212 -0.06674451 0.029059252 -0.020217005

weight_ih_l1 f4 [256, 64]
00000000: 6bbe dcbd 414a 5c3d 0582 e6bd 6cf1 f93c
00000010: 89d5 89bd 1704 a0bd 5420 f53d aaee 06be
00000020: be6b f33d 59f8 91be 1d5d 963d 1b72 84be
00000030: b87e 053e 1aaa dc3d b3d3 a93c 3340 2f3d
00000040: 93e9 a53d 0425 6f3c f23a 2f3e 727a 26bc
00000050: 6df2 a8bd bdfd 09bc 0d91 a13d 302e 8a3d
00000060: 0f88 1d3e e87c 7c3d 3ab4 ce3d ef55 2a3e
00000070: 28e1 5fbe ad8f 18be 04b4 ff3d ab2d 47bd
00000080: 7b5b e0bd f7b6 ee3d c736 f23a 071b 533c
00000090: e8c8 663d ae54 6fbc 622c f93d 6d48 ddbd
000000a0: 42d9 8a3d b58d 683d 827c 92bd 7c51 bdbd
000000b0: 36bf ce3d b087 d03d eb18 d33c 82ce 6d3d
000000c0: e1f2 3e3c 26ae 843d 772e 55bd 12fd 11bd
000000d0: 571f 953d 93d4 363c 57ef 82bd a7b4 413e
000000e0: 7adf 8a3c 075a 0fbe 1603 a83c 29c7 e2bd
000000f0: f7a5 51bc 69ff 3dbc 5fb9 03be 2943 7b3d
00000100: 3ab3 9c3c 2642 2cbd 7107 02be 2353 7f3d
00000110: 393e 183e 3929 eb3b eb12 a43d 31fd 2ebe
00000120: c3f5 2d3c 9672 e2bd 87ec 023e e47f f4bd
00000130: d303 183d 1536 5e3c e2f1 45be ab40 b7bc
00000140: 9031 1bbc f015 e03d fb7b 313e 4416 523e
00000150: 5b05 3b3e 0eb2 0abe 0637 483e a0ea 1ebe
00000160: f020 c53d f93b b63c 5557 393e 1594 6b3d
00000170: 0119 5bbe ae1e 663d 0b25 2f3d 9a7c 59bd
00000180: 7201 09bb 0fbb 483d 8efa 52be 3df9 8a3b
00000190: 5182 833e 4d97 9cbd 8ad4 84bc 6b6f 89bb
000001a0: d78d fabc 3446 4bbe 3106 d4bd 7ea2 3bbe
000001b0: 8dac 663e 5084 8e3d 94ac ab3d 0873 453d
000001c0: 83c1 2bbe c7af 2bbe 0aad 2fbe bcfc e03c
000001d0: e47f 38be 2a7e 01be b9e5 48be 14a2 653e
000001e0: 51da 5cbd 2913 42be 9da8 84bd 7f80 193c
000001f0: 6793 903d 430c 173d 5e78 81bd 1860 8dbd
00000200: 9c59 693e 2e8a 633e 648e 72bc 8815 c6bd
00000210: e751 fbbd f604 973d 3b71 ea3c 0ca6 2f3d
00000220: f096 f9bc 6919 393d 4471 9ebd 295d 223e
00000230: 0a64 edbd 8d3a a7bd f58e 0c3e 5d1d a6bd
00000240: 9b2c 173e c35f eb3d 4529 dcbd 76a3 863d
00000250: 1ec4 473c 1d6c c13d 50bc 923c 6f7f 2b3e
00000260: a872 be3a e7aa ac3b ae21 07be f82a 56bd
00000270: d36b 88bd f13e 57be 8915 8cbc 5096 bdbd
00000280: 33f9 c53d d46f 063c 5e31 813e 80d1 cf3d
00000290: f75c 943c 5810 8c3d ccbc e4bd 5445 26bc
000002a0: be97 a23d 0493 883d 92e2 fbbd 5f77 e7bc
000002b0: 7f71 953c ac8f c63d a7dc 00be e815 2cbe
000002c0: a3f5 a5bc 7e78 883d fddb 6cbc 2ad4 153d
000002d0: e190 67bd 025b e5bd b533 423d 1290 60bd
000002e0: 751b 08be 9c7a 12bd 7842 403e 12c6 713d
000002f0: 15a0 f33d 05c0 00be d7da 97bd 721d 73be
00000300: f2fa 2ebe 6e0a 953d 339a 1dbd f787 2fbe
00000310: 0412 0f3d a04c 833c 5bce a93d b101 14be
00000320: cc1c ebbd 9db8 cabd 2b5f 2b3e 34ee e63d
00000330: c13b afbd c4d3 113d 96ef c3bd b695 8cbd
00000340: f5c3 1ebe bbb0 6e3b 9c75 44bd d43b 833d
00000350: 9c0b 083e 08ed 57bd 58f4 5a3e 7e3d 19be
00000360: 956c 2e3e 0845 3fbd 89d3 953c 02ed fa3d
00000370: fa94 e0bc 5bb8 25bd 4ff6 af3c 598e c33d
00000380: 3e99 d83c 01ba 913d 25fa 73be 103f c73c
00000390: 665c da3d 87e9 e7bd fba7 f63d ba7a 65bd
000003a0: 1c22 cdbb 3e5f 00be 8f98 b93c 141b 47be
000003b0: f802 373d cef4 d53d 814b 353d 19eb 63bd
000003c0: 06d4 51bd 822b 95bd 3092 10bd ee6c 0d3b
000003d0: 2c70 e8bd 0caa 13be df89 49be e869 1d3d
000003e0: b5bd 38bd 2d28 cbbc eadc 64bd d93b bf3c
000003f0: 7e80 12be 4ef1 b33d 7119 cbbd 2d86 b0bd
-0.10778507 0.05378175 -0.11255268 0.030510627 -0.06730182 -0.0781328 0.11969057 -0.1317698
0.118857846 -0.28509787 0.07341979 -0.25868306 0.1303662 0.10774632 0.020730829 0.042785835
0.08101191 0.014596228 0.1711233 -0.010161029 -0.08249364 -0.008422312 0.07888994 0.06747091
0.15383933 0.061642557 0.10092969 0.16634344 -0.21863234 -0.14898558 0.12485507 -0.048627537
-0.109549485 0.116559915 0.001847946 0.012884862 0.056343943 -0.014607592 0.121666685 -0.1080483
0.0677972 0.056775767 -0.07152654 -0.092440575 0.10095064 0.1018213 0.025768718 0.05805827
0.0116545865 0.06478529 -0.052046265 -0.035641737 0.07281368 0.01115908 -0.06393307 0.1891657
0.016952265 -0.13999186 0.020509284 -0.11073143 -0.012795917 -0.011596539 -0.12863682 0.061343346
0.01912843 -0.04205527 -0.12698151 0.062335145 0.14867486 0.007176545 0.08011421 -0.17088772
0.010617676 -0.11057012 0.1278554 -0.11938456 0.037113022 0.013562699 -0.19330552 -0.022369703
-0.009472266 0.10941684 0.17332451 0.20516306 0.18263762 -0.13544485 0.1955224 -0.1551919
0.09625423 0.022245394 0.18099721 0.05751427 -0.21396257 0.056181602 0.042759936 -0.053097345
-0.0020905402 0.049006518 -0.20603392 0.0042411373 0.2568536 -0.07646046 -0.016214628 -0.0041941903
-0.030585213 -0.19850999 -0.103527434 -0.18323705 0.2252676 0.0695883 0.08382526 0.048205405
-0.16773038 -0.16766272 -0.17155853 0.027464263 -0.18017536 -0.12645784 -0.19618882 0.22425109
-0.05391914 -0.18952622 -0.06477473 0.009369015 0.07059365 0.036876928 -0.06321786 -0.06903094
0.2278809 0.2222068 -0.014804456 -0.096720755 -0.12271481 0.07373993 0.028618446 0.042882964
-0.03046748 0.04519025 -0.077364475 0.1585585 -0.115913466 -0.081654646 0.13726409 -0.08111069
0.1476311 0.114928745 -0.10750059 0.065741464 0.012192754 0.09444449 0.01791206 0.16747831
0.001453002 0.0052693966 -0.13196442 -0.052287072 -0.06661191 -0.21020104 -0.017100113 -0.092571855
0.096666716 0.008205373 0.25232977 0.10147381 0.018110735 0.06839055 -0.11168823 -0.010148365
0.07939099 0.06668666 -0.12299074 -0.028255163 0.018242596 0.09695372 -0.12584172 -0.16805232
-0.02025873 0.06663607 -0.014456746 0.03657929 -0.05653465 -0.11198999 0.047412593 -0.054824896
-0.13291724 -0.03576146 0.18775356 0.059026785 0.118957676 -0.1257325 -0.07414787 -0.23741701
-0.17087916 0.0727738 -0.038477134 -0.1714171 0.03492929 0.016027749 0.08291312 -0.1445377
-0.11480102 -0.098984934 0.16735522 0.112759024 -0.08556319 0.035602346 -0.09567182 -0.068644926
-0.15504439 0.0036421258 -0.047963724 0.06407896 0.13285679 -0.052716285 0.21382272 -0.14964864
0.17033608 -0.046696693 0.018289344 0.12252237 -0.027414788 -0.04045902 0.021479754 0.09548635
0.02644026 0.071155556 -0.23825891 0.024322063 0.10662155 -0.11323839 0.120437585 -0.056025244
-0.0062601697 -0.12536332 0.022655753 -0.19443923 0.044680566 0.104470834 0.04426146 -0.05564413
-0.051227592 -0.07283689 -0.035295665 0.002157982 -0.1134952 -0.14420336 -0.196815 0.03843108
-0.045102794 -0.02479943 -0.055874743 0.023343967 -0.14306828 0.087862596 -0.09916962 -0.08619342

weight_hh_l1 f4 [256, 64]
00000000: 4c86 d8bc c7ca dd3d 0791 36bd 7c2e abbc
00000010: 0264 af3d 20ba 5ebd 054d 72bd 6236 2c3d
00000020: ca32 0e3e 1534 efbd 5afc 8c3d 7487 d33b
00000030: 1e41 e13d c73a ddbc e49e 053e f645 de3c
00000040: 1145 ef3c 7486 33bd 4cf5 a23d 0b42 233e
00000050: d1df f9bd 70ce ba3d fc31 493e 9310 81bd
00000060: 2b4a 103e fe19 9abd e4b7 9cbd abbe 4abe
00000070: 5c23 21be f497 f9bc be52 02be 391f 4a3d
00000080: 75f0 a33d fb84 14bd f1ec e8bd 144f fbbc
00000090: ab9c 9f3c 9fd1 0b3d 027f 91bd 0f07 15be
000000a0: 3dc7 1dbe 6c46 6d3d 36ee 173b 6c40 abba
000000b0: 9e31 473d 0e04 d2bc dda2 ccbd 2480 803d
000000c0: ba78 f7bb 8e78 083e 0dd3 be3c 5a0f bebd
000000d0: a8cd 853d 409d 27be 4857 b43d b5de e23d
000000e0: 0668 e43d 6ff6 02be e251 063e 91ee 16be
000000f0: 59f7 ab3d 2341 223e 7532 52bc 3175 c93c
00000100: 26f6 693e 0272 4cbb f6ab 79be 14e7 fabd
00000110: 008a 293e 98bd 0ebe b399 a93d a3eb 083e
00000120: 5a55 083e d974 eebd cfc9 51be 70d9 66bd
00000130: d924 55be d862 873b b94d d93d db61 f0bd
00000140: 8773 973d a53d 9cbe 7914 3abe d6d8 343d
00000150: 5bff 563c 2fa9 243e 3547 c6bc 22f0 27bd
00000160: dcbe 0e3e 43c1 21be 8d48 ce3c 19a6 15be
00000170: 0654 f3bd 7847 353d 21cb 37be 2f98 963d
00000180: 9482 2f3e 2f39 373e cfd6 1ebd 3d05 89be
00000190: 55ac 443e c70e 73bd d278 b23d 4fa5 4bbd
000001a0: dcdc c6bd 729c ec3d 237e 353d 00bf d1bc
000001b0: 9fc1 85bd 7711 b9bc 5c16 1fbb 77c0 9cbd
000001c0: af1a 903c 9318 dcbd 6fe1 1bbe 387e 18be
000001d0: cf60 d83d bf59 7ebd 0bd7 ae3d adba 553b
000001e0: 4b24 833e a4c9 a83e e407 883d 6fa4 36be
000001f0: e91e b43d 196c ce3a b294 203e d409 a9bd
00000200: 75ab 973c bc86 f9bd bef8 02be ab9e a3bc
00000210: 06b7 af3d 9c73 ecbc 945a 1f3d 7d6e 3dbe
00000220: a0f7 063e 0d5a c6bd 4c86 35bd 65d7 f6ba
00000230: 8230 673d eb1b ca3d de12 8d3e c1d6 1d3d
00000240: d16c ecbd 3434 173e 2f70 133d 3091 df3d
00000250: 402a 83bc 6c8c 783d dbf5 613d 39f1 3f3d
00000260: afa5 043d 1a47 25bd f2b7 003d 3e55 3d3e
00000270: e2cb 1ebe 4903 f4bd 3b92 24be 655b 053d
00000280: d237 a43c 2503 ea3d 9dd3 d93d 98a4 0ebe
00000290: 6e0e b8bb 5245 dabd 460d 273e 90d6 1bbe
000002a0: 392b 2ebe d9ed ddba 9c6f a93d f2e4 3a3c
000002b0: 323c 09be 5613 b5bc 12e2 083e a371 ea3d
000002c0: 02b7 e2bd 250e 293e 9d11 9dbd db4d 0a3e
000002d0: f33b 40be ee9d 0dbd 7dfd 3c3e 7a76 803d
000002e0: a792 a43c e58f 3dbe c000 4bbd 63ea f6bd
000002f0: 55dd 843d ed90 b5be 1977 da3d fa0b 19be
00000300: 40f3 8a3d 9ffb 993d a425 d9bc e226 3cbe
00000310: 94f5 db3d f389 d3bd ffa9 4e3e 167b 5abe
00000320: d24b 153e 19fd edbc b681 3fbd b795 173d
00000330: c037 f7bc 695f d7bc 818d 593b 161f af3d
00000340: d0f9 703c ca7a d2bd 6a39 33bd 83dd 243c
00000350: 5d06 d23a 7685 173e 946e f93d 35e2 05be
00000360: 1697 263e 34c2 0cbe 43fb 28bc 821b 81be
00000370: 3bb9 1cbd dd5d 2e3d 63d7 80bc 04a3 fe3d
00000380: 0c42 8c3d bd33 f13d d2d0 dcbb 9e89 06be
00000390: fb23 173e 63fa d9bd ae71 1b3e 2442 08be
000003a0: 58a3 a63d 6f8f 39bd 59c6 093e 4ec9 313e
000003b0: de87 f7bd 3567 2bbe 24f6 8ebd ac45 efbb
000003c0: 8b9f c7bd 1b2b 29bc 7441 783d b25b d3bd
000003d0: 52ae 073e 0c2d a2bd 009c 8d3d 917e 31bd
000003e0: 9abf 0f3e f655 233d 5c4b 133d 18db cabd
000003f0: c196 31bd 4ace a93c 97cd 25bc 8211 d33c
-0.026431225 0.10829692 -0.044571903 -0.020896189 0.08563997 -0.05437672 -0.059155483 0.04204405
0.13886562 -0.11679856 0.0688407 0.0064553563 0.10998748 -0.027005566 0.13048893 0.02713297
0.029207738 -0.043829396 0.07956943 0.15943162 -0.12200893 0.09121406 0.19647974 -0.063019894
0.14090793 -0.07524489 -0.07652262 -0.19799297 -0.15736145 -0.030467965 -0.12726876 0.049346182
0.08004848 -0.036259633 -0.11373318 -0.030677356 0.019483885 0.034135457 -0.07104303 -0.14553474
-0.15408035 0.057928488 0.0023182756 -0.0013065464 0.048631303 -0.025636699 -0.09992001 0.06274441
-0.0075522335 0.13327238 0.023293996 -0.09280272 0.065333664 -0.1636858 0.0880571 0.11077634
0.111526534 -0.1278932 0.13117173 -0.14739443 0.08396787 0.1584516 -0.012829413 0.024592014
0.22847804 -0.0031195884 -0.24382004 -0.12251106 0.16556549 -0.13939512 0.08281269 0.13371138
0.13313809 -0.11643381 -0.2048714 -0.05635971 -0.20814838 0.004131656 0.106105275 -0.117374144
0.07395082 -0.3051578 -0.18171872 0.044152103 0.013122405 0.16080163 -0.024203876 -0.041000493
0.13939995 -0.1579638 0.02518108 -0.14614142 -0.118812606 0.04425761 -0.17948581 0.073532455
0.17139655 0.17892908 -0.038779076 -0.2676181 0.19206364 -0.059340265 0.08714451 -0.049718197
-0.09710094 0.11553277 0.044309746 -0.025603771 -0.06531071 -0.022591336 -0.0024274802 -0.07653897
0.017590849 -0.10746875 -0.15222715 -0.14891899 0.1056534 -0.062097307 0.0853711 0.0032612488
0.25613627 0.3296634 0.0664213 -0.17836164 0.08794958 0.0015748768 0.15681723 -0.08253828
0.018514374 -0.12183902 -0.127902 -0.01997312 0.08579831 -0.02886372 0.03890474 -0.18499179
0.13180399 -0.096851446 -0.04431753 -0.0018832503 0.056442745 0.09868606 0.27553457 0.038534883
-0.115441926 0.14766008 0.03599566 0.10916364 -0.016011357 0.06068079 0.055166107 0.046860907
0.03238457 -0.04035101 0.031425424 0.18489549 -0.15507463 -0.11914689 -0.16071407 0.032557864
0.020046148 0.11426381 0.10636065 -0.13929975 -0.0056169545 -0.10657753 0.16313657 -0.15218568
-0.17008676 -0.0016931846 0.08273241 0.011407124 -0.13401869 -0.022103947 0.13367489 0.11447456
-0.11070062 0.16509302 -0.07669375 0.13506262 -0.18772869 -0.03457444 0.18456073 0.062725976
0.02008946 -0.18511923 -0.049561262 -0.120564245 0.06487528 -0.35462132 0.10667247 -0.14945975
0.067846775 0.07518696 -0.026507206 -0.18374208 0.107402 -0.10329046 0.20182036 -0.21336016
0.14579704 -0.02905135 -0.04675456 0.037008014 -0.03017795 -0.026290612 0.0033195915 0.08550851
0.014707997 -0.102773264 -0.043755926 0.010062578 0.0016023625 0.14797005 0.12179294 -0.13074572
0.16268572 -0.13745958 -0.010313812 -0.252163 -0.038262587 0.042569984 -0.015727704 0.124334365
0.06848535 0.117774464 -0.0067387605 -0.13138434 0.14759819 -0.106434606 0.15180084 -0.1330648
0.08136624 -0.045302805 0.1345457 0.17361948 -0.120864615 -0.16738589 -0.06980541 -0.0073020067
-0.09747227 -0.010325219 0.060609296 -0.10320224 0.13250092 -0.07918748 0.0691452 -0.043333594
0.14037934 0.0398769 0.03596054 -0.0990507 -0.04335666 0.02072825 -0.010119817 0.025765184

bias_ih_l1 f4 [256]
00000000: a597 91bd 8294 043e cb24 0b3e 1374 903d
00000010: c8ab d23d c0c8 783a 40f9 6f3d d3d8 a93d
00000020: 179f 153e a7d1 67bd 4ec0 0f3e a030 efbd
00000030: 0ddb 093e 6352 65bd 1826 ccbd 6c05 0bbd
00000040: 744e febb f44f f93d c2c9 60bd 3dd7 293d
00000050: a8c3 21bd 2e7d 033e a485 f6bd ae49 143e
00000060: c2f5 933d d76b 463e 46bb bb3b cbbf 043d
00000070: 01e0 133e 56a7 f73d 7ad5 07bd 9074 a93d
00000080: bec6 563c f409 b8bd 156b 913d e06f f73c
00000090: 48eb 8f3d b264 623e 6df2 5a3e 0635 b4bb
000000a0: c32f d5bc 320e 563d ffaf c83d ef6c c63d
000000b0: ce01 933d 4d73 973d 9c0d 4a3e 965d 863d
000000c0: 78e5 f6bd 4363 96bd 1a7c 113e 79a3 0fbd
000000d0: 9bbd 3fbd 6e9a b53d 31d9 90bd 3770 c43d
000000e0: 0a25 fe3d ea63 ecbd cc84 5a3d 223b 083d
000000f0: ed16 0b3d 1412 b0bb 7058 053d 3dec ec3d
00000100: 7027 4c3d 00fb bfbc cf5d 2dbd 2fcb 72bd
00000110: 8da6 073e eaf4 183c 897c 1e3e a01e a9bd
00000120: 9cb8 183e 4db5 f03d 0717 f63d 0ca7 dabd
00000130: a652 cd3c d49b 0abd 0634 86bd e6d2 903d
00000140: 7ee5 b8bc de0d 80bc 4c65 8a3d 5aff a7bd
00000150: a360 a7bd 7fb1 ac3c 3b6b 8c3d 27d0 3e3e
00000160: 66fa fa3d c6ca e13d 7c72 75bc 8e97 693d
00000170: 0c8e 933c 0b71 623d 5f53 e7bd 3d02 70bc
00000180: 30d9 25bd fc02 0c3e 065c 1c3e a35c 5b3d
00000190: a45c 223d 8ac2 7cbd 3920 b43d 9823 343d
000001a0: 988c 8b3d 378f a3bd 55da 08bb aff6 e7bd
000001b0: ed6e ad3c 198d ea3d 30ec 103e 6d82 cebd
000001c0: 04c1 3fbd f029 47bc 8bc9 7c3d b5bd 853d
000001d0: 475f 023c e791 70b9 9c51 853d 7b6e c13d
000001e0: dd26 60bd bff9 073e 9b1e 323e 1c5b 233e
000001f0: 158a a9bc 52ae b4bd f1fb 04be 8230 863d
00000200: 06c6 88bd 9dd4 ee3d c1c0 2dbe a0ea 0abe
00000210: e5ad 9c3b 3704 a3bd 2336 053e 0bcf dfbd
00000220: 6709 61bd c278 cabc 9fa2 d23b f68a fc3c
00000230: f928 ba3d 2f76 233d 61ad d63d 24fe 993d
00000240: 432e efbb 2b2c eebd 7f09 0abe d6bf 153e
00000250: 51ab babc 5de5 253c 46a3 75bd 128f babd
00000260: cbd5 1e3e f990 85bc 0d38 d7bd 7616 38bd
00000270: 2bd6 eabc fd01 7cbd 02bf 00be a0a3 b9bc
00000280: be16 103b 3f1f 113e 411b cebd a8d7 f6bd
00000290: f40f 713d 7439 eebd 2b83 f23b d362 12be
000002a0: a445 083b 6370 f9bd fe92 243d 3312 d93d
000002b0: dabe 543c be6a 473d eb73 8abc b8bd 37bc
000002c0: 9c94 0b3d 26f2 bb3d d486 49bd 6541 fa3b
000002d0: 2349 333d 2607 2dbd 0795 ee3d 7c98 1e3d
000002e0: 18f9 0f3e f4ab fbbc 7015 203d 0e6c 0ebe
000002f0: 915e 94bd 911f 07be f87a 78bd 2298 2fbd
00000300: 383c d9bc 5ed7 a23d 0f16 a03d 50d2 b63d
00000310: 5111 7f3d 6e6a 923c a54e 0fbe f9e6 20bd
00000320: f2e1 e73b b2fb b4bd 35e1 ef3d 949b 9abd
00000330: 337f e93d fb20 1dbd 5644 8dbc 02c9 65bd
00000340: d600 a73d 5abf cfbb d9c5 35bd 1ea7 403c
00000350: 40cc 49bd fc65 6fbc af92 0bbd 1411 95bd
00000360: 534c b73d 30cd aa3d 763b f93c d8fa 333d
00000370: 3553 103e 0cc6 313d 744a ae3c e522 0a3e
00000380: 8233 5a3d 37c3 8e3d d620 80bd 224e 713d
00000390: 876e 8fbd 2714 903e 45ad cabd 58a5 4dbd
000003a0: 9bcf 1bbd dace b1bc fc41 2d3e fff1 523e
000003b0: 5a2c 153e 8118 843d 4511 82bd 4d12 01bc
000003c0: 2fff b63d de3b c73d a7b8 4dbd 2b8f 14bd
000003d0: bc71 243e 003e 313d 1d7f 003e c894 00bc
000003e0: 1107 2cbc da3e 84bc 1aa6 dd3c 629c 543d
000003f0: 007a 073d 4d88 50bd f8e4 d93d bba2 d7bd
-0.07109002 0.12947276 0.13588254 0.070533894 0.10286671 0.00094903633 0.058587313 0.08293309
0.14611469 -0.056596424 0.14038202 -0.11679196 0.13462467 -0.055986773 -0.09968203 -0.033940718
-0.007760817 0.12173453 -0.05487991 0.041465033 -0.039493233 0.12840721 -0.12037209 0.14481232
0.07224609 0.19377075 0.005729112 0.03240947 0.1444092 0.12092464 -0.03316257 0.08274186
0.013108907 -0.089862734 0.071005024 0.030204713 0.07027298 0.22108725 0.2138154 -0.005499485
-0.026023751 0.05225963 0.097991936 0.09688746 0.071780786 0.07395039 0.19731754 0.06560819
-0.120554864 -0.073431514 0.14207497 -0.03506801 -0.04681168 0.08867346 -0.07072676 0.09591716
0.124094084 -0.115424946 0.0533493 0.03325952 0.03395741 -0.005373249 0.032555044 0.115684964
0.049842298 -0.023435116 -0.04232579 -0.059275802 0.13247128 0.009335736 0.15477194 -0.082577944
0.14914173 0.117533304 0.12016111 -0.10676393 0.025063824 -0.033840016 -0.065528914 0.07071476
-0.022570368 -0.015631612 0.06757602 -0.08203001 -0.08172729 0.02108073 0.0685639 0.18634091
0.12254791 0.11025004 -0.0149809085 0.0570293 0.01801207 0.055283587 -0.11295199 -0.014648971
-0.04049033 0.13673013 0.15269479 0.053555142 0.03963913 -0.061708964 0.087952085 0.043979257
0.068139255 -0.079863004 -0.002088209 -0.11326348 0.021171058 0.114526935 0.14152598 -0.100834705
-0.046814933 -0.012155995 0.061715644 0.06530324 0.007957286 -0.00022942536 0.065097064 0.094449006
-0.054724563 0.13278864 0.17394488 0.15952724 -0.020695725 -0.088223115 -0.12986733 0.06552221
-0.06678395 0.116616465 -0.16968061 -0.13566065 0.004781472 -0.07959788 0.13008933 -0.10928162
-0.054940607 -0.024715785 0.0064280774 0.03082798 0.09089846 0.03990763 0.10482288 0.075191766
-0.007299216 -0.11629518 -0.13480185 0.14623961 -0.022786768 0.010125485 -0.059970163 -0.0910932
0.15511243 -0.01630448 -0.10508738 -0.044943295 -0.028666576 -0.061525334 -0.12572864 -0.02266103
0.0021986212 0.14172076 -0.10063792 -0.12052852 0.058853105 -0.11632052 0.0074008903 -0.14295511
0.0020793462 -0.12179639 0.040179245 0.10599174 0.012984956 0.04868578 -0.016900977 -0.011214666
0.03407727 0.091770455 -0.049200848 0.00763719 0.04377092 -0.042243145 0.116495185 0.03871964
0.14059865 -0.030721642 0.039082944 -0.13908407 -0.072445996 -0.13195635 -0.060664147 -0.042869695
-0.026517972 0.07951234 0.07816707 0.08926833 0.062272374 0.017873015 -0.13994844 -0.039282773
0.0070764953 -0.088370696 0.11712877 -0.075492054 0.114012145 -0.03836153 -0.0172445 -0.0560999
0.08154456 -0.0063399496 -0.044378135 0.011758594 -0.049267054 -0.014611717 -0.034075435 -0.07278648
0.089501046 0.08339918 0.030423861 0.043940395 0.14094241 0.043401763 0.021275736 0.13489874
0.053271778 0.06970828 -0.06256263 0.058912404 -0.07003503 0.28140375 -0.0989633 -0.050206512
-0.038039785 -0.02170508 0.16919702 0.20600127 0.145677 0.06449986 -0.0635095 -0.007877898
0.08935391 0.09728216 -0.050224926 -0.036269348 0.16059011 0.04327202 0.1254849 -0.007847972
-0.010499732 -0.016143251 0.027056742 0.05190695 0.033075333 -0.050911237 0.106393754 -0.10529085

bias_hh_l1 f4 [256]
00000000: 0f6b 593d 8ab8 643e 6921 113e ab00 833c
00000010: 6857 423e bbb8 4ebd aabf 85bd 6cd5 893e
00000020: df6a fe3d bd44 68bd 842c 503e efeb 453d
00000030: a8c6 9e3b 56f5 0c3e 7178 96bd dbc7 493d
00000040: 5f3b af3d 6e66 6bbd 1f9f c1bb 0dad 263c
00000050: 0003 88bd 6ed8 213e 42bc e1bb 1f48 b53d
00000060: 0408 00ba 48f4 743d 89ec 0c3e ba50 34bd
00000070: 659d 103d 7bbf f93b 4bf0 a83d 3db4 37bd
00000080: a5d1 93bd 025d d83d 4344 913d 26f9 7fbd
00000090: 5ad0 863d eaf2 433e e707 c13b e84d fb3d
000000a0: 9fc6 313b 59cd 6dbd 9da2 c43d ff14 1a3d
000000b0: 31e8 fa3b 7eb6 903d f43a 083e a30a bcbc
000000c0: 8556 823d 2237 03be aa6c 2a3e a703 90bb
000000d0: caec 42bd cb0a 80bd f961 a83c be66 a93d
000000e0: 6b8d 2e3d 59dd a4bd 08e5 5f3d d9cf a23d
000000f0: 73d7 96bc 3e1b a9bc 7e4e f6bc 4fa9 a83d
00000100: 3db2 9fbd 3d5b bc3d 4088 273d 187d 103e
00000110: 876b b53d 495c 0f3e 2622 183e 9092 a0bd
00000120: 9174 bd3c ed51 a73d 91bd 9f3e 76e6 da3d
00000130: 8754 6a3c c694 903d 1ca0 fb3d 7ea6 a43d
00000140: ab49 d03c 9b79 c93d 7a9a 063d 7026 e03d
00000150: 6007 12be 0832 343d 9e11 b3bd 3125 513e
00000160: e66b d23d 03b2 cebc 982a 0b3e dbaa 103c
00000170: 5cdc ae3b 0605 48bd 8f74 f33c 38e5 9ebd
00000180: df26 d5bc 80a4 413d a80d cebc 636b 11be
00000190: 2e70 613e 2b02 8ab9 9af9 763d a0cb 373e
000001a0: 82e8 81ba 51c9 cc3d fac1 81bd 630f 063c
000001b0: ff81 a0bd 0740 043d 4775 223e 56c1 f53d
000001c0: b382 bebd 538d 29be 7093 9cbd e504 efbd
000001d0: 9788 053e f5c7 97bc 46fb b7bd 5961 80bb
000001e0: 3e41 a33a 6733 0b3e f882 c5bc e234 db3d
000001f0: c8d9 c03c 2900 c0bd d2d9 d53d 6bdb 2abd
00000200: dc17 2a3e 88fd 733d e227 93bd 65cc efbd
00000210: c93a 013e f5f0 0abe 5093 313e 9705 35bb
00000220: ebcc d23d 7e15 22be 7d4c f4bc 09c2 783d
00000230: 553b 32bd 80bc aabd e10a 1f3e 4d01 e33c
00000240: e9b9 afbd d41f bebd 4eab bfbd 1460 dc3d
00000250: 0932 ef3d 64f2 653d b4f6 11bd f97d aabd
00000260: a34b 793c 8ca2 2ebe bfeb ca3d eaff e2bd
00000270: a083 97bd 6800 a83d ff49 88bd 01b7 ffbc
00000280: cb3d 0a3e 7f6d a23b 4643 833d 9071 c63d
00000290: 8c8b 173e d73d 92bd 017f 213e 860c 76bd
000002a0: 5077 3dbd 177e c93d 843f a23d 1bc7 66bd
000002b0: 0e99 f2bd 6bd6 cdbd 0160 ab3d c82b 5e3c
000002c0: 3d49 b8bd e418 b2bd c45b fcbd 8c01 59bd
000002d0: 8098 dbba e30e c8bd 7306 c0bc cd8f e43d
000002e0: b98c 0c3e a129 88bd 7b29 0a3c cd36 6839
000002f0: e0f9 4a3d 22a5 c63d aa2f e13d 5843 26be
00000300: 922f b7bd 9162 da3d b6b7 e23d 334c 17bd
00000310: e483 a13d d155 47ba bc39 20bd 27fd 05bd
00000320: c40b e13a 1ad7 ddbd 482f e1bc 1805 3dbe
00000330: 2240 283d 702f c6bd 9e47 283e abef a2bd
00000340: 5b11 ab3d b1e8 393e e24d 393d 2bfc 97bc
00000350: ab3f 003e 0e4f 84bd 092b e93c f6d9 e13d
00000360: 841a db3d b15f f3bd f192 db3a d09d 91bb
00000370: 4dd0 d63d 2454 853d 3138 2cbd 1b22 753d
00000380: 6311 fc3d a4a1 eb3d e6c0 bb3c 90cf adbd
00000390: a897 273b 9d86 c53d a18c 12bc 2285 88bd
000003a0: 34ad 253d 44d1 60bd 3a50 b03d 2ec5 c83d
000003b0: 3c30 2b3d c9ad c93d cdbc a43d 8f56 cdbd
000003c0: 002f 87bc be1f d6b9 5b87 df3d 0118 4c3c
000003d0: 057f 17bd 8edd 433c f012 e8bc 1271 a03d
000003e0: 7ac7 1e3e dd20 27bd 808c 373c 651d 5c3d
000003f0: c33f 10be a5fe c23d 3f77 ddbc f5e8 5dbd
0.053080615 0.22336021 0.14172901 0.01599153 0.18978655 -0.05046914 -0.06530698 0.2692064
0.12422728 -0.05670618 0.20329481 0.048320707 0.004845459 0.13765463 -0.07347191 0.049262863
0.08556246 -0.05747073 -0.0059088613 0.010173094 -0.06641197 0.15805218 -0.006888897 0.08851647
-0.0004884007 0.059803277 0.13762106 -0.0440223 0.035306353 0.007621703 0.08248957 -0.044849623
-0.07217721 0.10564615 0.07093098 -0.062493466 0.06582709 0.19135633 0.0058908346 0.12270719
0.0027126444 -0.058057163 0.096013285 0.03761768 0.007657074 0.070660576 0.13303739 -0.02295429
0.063641585 -0.12814 0.16643015 -0.0043949666 -0.0475891 -0.062520586 0.02055453 0.0827155
0.042615335 -0.08050031 0.05466178 0.079498 -0.018413281 -0.020642873 -0.030066725 0.08235418
-0.07797668 0.0919709 0.040901423 0.1411022 0.088584 0.14000048 0.14856777 -0.078404546
0.023126872 0.08169923 0.31199315 0.10688488 0.014302379 0.07059626 0.12286398 0.08039568
0.025425753 0.098376475 0.032862164 0.10944831 -0.14260626 0.043993026 -0.087435946 0.20424344
0.10274486 -0.025231367 0.13590467 0.008829798 0.0053363275 -0.048832916 0.029718665 -0.07758564
-0.026019512 0.04727602 -0.025152996 -0.14201121 0.2201545 -0.00026323026 0.060296632 0.1794877
-0.0009911212 0.099993356 -0.06335826 0.008182379 -0.07837295 0.032287624 0.1586505 0.119997665
-0.09302273 -0.16557817 -0.07645309 -0.116708554 0.13040386 -0.018527964 -0.089834735 -0.0039178547
0.0012455357 0.13593827 -0.024110302 0.10703446 0.023541346 -0.093750305 0.104419366 -0.04171316
0.16610664 0.059567958 -0.071853414 -0.11708907 0.12620081 -0.1356848 0.17341352 -0.002762174
0.10292991 -0.15828511 -0.029821629 0.06073192 -0.043513615 -0.08336735 0.15531494 0.027710581
-0.085803814 -0.092834145 -0.09358846 0.10760513 0.11679465 0.056139365 -0.035635665 -0.083248086
0.015215787 -0.17054194 0.09908246 -0.11083968 -0.07398152 0.082032025 -0.06654739 -0.031215193
0.13500135 0.0049569006 0.06409316 0.09689629 0.14799327 -0.07140701 0.15771104 -0.060070537
-0.046256363 0.09838503 0.07922271 -0.056342226 -0.11845599 -0.100506626 0.08367921 0.013560243
-0.08998344 -0.08696154 -0.123221904 -0.05297999 -0.0016753823 -0.097684644 -0.023440575 0.1116024
0.13725556 -0.06648565 0.008432741 0.00022145659 0.049554706 0.09699465 0.10995419 -0.16236627
-0.0894462 0.10663331 0.11070196 -0.036937904 0.07886484 -0.0007604035 -0.03911756 -0.032712128
0.0017169644 -0.10832043 -0.027488366 -0.18458974 0.041076787 -0.09677017 0.1643357 -0.07955869
0.0835292 0.18155171 0.04524029 -0.01855286 0.12524287 -0.06460391 0.028462904 0.11027901
0.10698417 -0.11883486 0.0016752166 -0.0044438615 0.10488949 0.06510189 -0.042045776 0.05984698
0.12308004 0.1150544 0.02291913 -0.08486855 0.0025572572 0.09644816 -0.008944661 -0.06666018
0.040448382 -0.05488707 0.08609052 0.09803234 0.041794047 0.098476 0.080438234 -0.10026275
-0.016501904 -0.0004084091 0.10914489 0.012456895 -0.03698637 0.011954678 -0.028329343 0.078340665
0.15505782 -0.040802825 0.011202931 0.05373897 -0.14086823 0.09521226 -0.0270344 -0.054177243
