test_TL/lstm_TL_u2.pth (torch, 413736 bytes, 18 tensors)

weight_ih_l0 f4 [256, 3]
0.00074917113 0.015867887 0.0098724365 0.009100513 0.042999934 0.016032454 0.00025912712 0.027001947
0.031501863 -6.9667367e-06 0.003332706 -7.385102e-05 -1.727075e-05 0.008156942 0.0035863095 0.002929119
0.016830731 0.0014423245 0.00517771 0.036699634 0.011617429 0.009308174 0.048705444 0.01353125
0.0048545054 0.03042009 0.008489199 0.010557036 0.05446293 0.011184247 0.007034706 0.043430235
0.012434259 0.0129321255 0.031507645 0.031584285 0.0110197095 0.034683663 0.0067032017 0.005026242
0.036494475 0.008206575 0.007283537 0.037988156 0.005636478 0.0011667325 0.046811093 0.011136094
0.008894939 0.04719343 0.017396212 0.006302819 0.05190651 0.011505335 0.0030021118 0.02234982
0.0052930075 0.029966893 0.08076638 0.08320106 -3.6311057e-08 0.00023135079 0.00017354834 5.622267e-08
0.010966187 0.0037719551 0.0065685124 0.036926966 0.009432804 -2.209359e-06 0.011508855 0.0035579435
0.0044584954 0.018712347 0.005218694 0.0037580898 0.024744842 0.008346812 0.0017860975 0.021755714
0.017230954 0.005847723 0.04078558 0.008726603 0.008957414 0.03866842 0.014318797 0.011065045
0.039095774 0.011091607 0.0043834555 0.05130519 0.013527218 0.00011322792 0.011817474 0.014174282
0.0030518284 0.00974692 0.0069404086 0.0009113634 0.0139815295 0.0052474835 0.0027052842 0.04428714
0.005604044 0.010961719 0.044566233 0.017591907 0.010779423 0.042047728 0.007005514 0.011726299
0.03632563 0.009008606 0.008331968 0.03797693 0.025217418 0.0006984207 0.035786342 0.014326829
0.0075966157 0.040783353 0.010793579 8.855537e-06 0.0013381647 0.00026195 0.016750239 0.07219293
0.029929325 0.009819263 0.038980395 0.014511365 0.007732882 0.043315973 0.014382371 5.10239e-08
0.0003797198 0.00027087942 0.00395023 0.015713038 0.014764005 0.007997501 0.04300108 0.011463619
0.02883671 0.09166835 0.07383939 0.002539867 0.046918787 0.01822961 0.008614128 0.04669703
0.014886068 0.009166311 0.035721187 0.006679136 0.008817205 0.032688603 0.014253344 0.056262273
0.12169573 0.022443507 0.009145452 0.035080053 0.0061826683 0.047880363 0.12739271 0.081141084
0.011201277 0.046742838 0.011860806 0.0008522067 0.034330685 0.008400735 0.0055389563 0.035814904
0.0047969655 0.023570735 0.06673909 0.038325224 1.5052494e-06 0.0041899164 0.0010796925 0.029040258
0.06816413 0.029874697 0.010453555 0.040024135 0.013064089 0.007909822 0.04317887 0.015257166
0.0017420809 0.015452217 0.009302163 0.014417239 0.04678679 0.007020196 -0.0012113443 0.006406156
-0.0010849792 3.7651957e-06 0.0024959997 0.00091177056 -1.0159923e-05 0.0072228634 0.0027444486 0.0033600708
0.016897503 0.0004179934 0.012053476 0.042579815 0.012031364 0.015235092 0.057120223 0.008789655
0.0074933376 0.031838816 0.004549849 0.015237014 0.056171104 0.0073509575 0.01600347 0.049972508
0.01396196 -0.0011836503 0.0024741364 0.007039383 0.015931131 0.043356948 0.01043715 0.011772206
0.04717464 0.011327057 0.012447048 0.041126177 0.010902721 0.00986595 0.05344878 0.023692535
0.015655437 0.052703 0.011429708 0.016802208 0.052321408 0.020145891 0.0049185827 0.024280034
0.006504359 -0.00024504284 0.0064478763 -0.03738432 -3.2423767e-07 9.634115e-05 7.9664904e-05 6.2039254e-07
00000000: 0664 443a 5ffd 813c 00c0 213c 511a 153c
00000010: b320 303d 7e56 833c 74db 8739 3033 dd3c
00000020: 1908 013d d0c3 e9b6 8769 5a3b 77e0 9ab8
00000030: a7e0 90b7 b2a4 053c 4a08 6b3b 76f6 3f3b
00000040: 9ae0 893c 610c bd3a c8a9 a93b 5b52 163d
00000050: 0757 3e3c 5081 183c 5c7f 473d 2db2 5d3c
00000060: 8b12 9f3b 8d33 f93c 4816 0b3c 6bf7 2c3c
00000070: 8514 5f3d 223e 373c 6483 e63b e7e3 313d
00000080: 10b9 4b3c 44e1 533c 290e 013d 865e 013d
00000090: 038c 343c 7510 0e3d 88a6 db3b 2db3 a43b
000000a0: 3b7b 153d df74 063c bdaa ee3b 7899 1b3d
000000b0: 34b2 b83b 0ced 983a fdbc 3f3d 2a74 363c
000000c0: 14bc 113c e64d 413d 8082 8e3c e187 ce3b
000000d0: ec9b 543d df80 3c3c 14bf 443b f816 b73c
000000e0: f770 ad3b 217d f53c d868 a53d 5165 aa3d
000000f0: 6ef4 1bb3 c196 7239 87fa 3539 7b79 7133
00000100: 86ab 333c e832 773b ad3c d73b bb40 173d
00000110: 0c8c 1a3c 8044 14b6 a38f 3c3c 632c 693b
00000120: 9218 923b a34a 993c 9401 ab3b 494a 763b
00000130: b2b5 ca3c 11c1 083c 7d1b ea3a 0a39 b23c
00000140: ee27 8d3c 429e bf3b c80e 273d 07fa 0e3c
00000150: 1ec2 123c c762 1e3d 6399 6a3c 2a4a 353c
00000160: e422 203d 92b9 353c 17a3 8f3b 6425 523d
00000170: 44a1 5d3c c774 ed38 149e 413c 3f3b 683c
00000180: 2f01 483b 8cb1 1f3c 5e6c e33b 90e8 6e3a
00000190: c912 653c 15f3 ab3b 234b 313b 6f66 353d
000001a0: 21a2 b73b c898 333c 158b 363d e71c 903c
000001b0: 2d9c 303c 3d3a 2c3d 838e e53b aa1f 403c
000001c0: 2fca 143d d598 133c cf82 083c b38d 1b3d
000001d0: c294 ce3c 3816 373a b394 123d 14bb 6a3c
000001e0: 08ed f83b 720c 273d 8dd7 303c 3e92 1437
000001f0: 5b65 af3a 5556 8939 cc37 893c e3d9 933d
00000200: 582e f53c f9e0 203c e8a9 1f3d 14c1 6d3c
00000210: 1e64 fd3b 176c 313d 09a4 6b3c 5f25 5b33
00000220: 2115 c739 d204 8e39 ee70 813b a1b8 803c
00000230: bae4 713c f307 033c e721 303d e7d1 3b3c
00000240: f73a ec3c 9ebc bb3d 1b39 973d e673 263b
00000250: ea2d 403d 4356 953c 4622 0d3c 6345 3f3d
00000260: b2e4 733c 4b2e 163c 6150 123d a7dc da3b
00000270: 0a76 103c 7ce4 053d dc86 693c 4573 663d
00000280: 9c3b f93d 72db b73c ced6 153c 1ab0 0f3d
00000290: fb97 ca3b 331e 443d 3c73 023e 4c2d a63d
000002a0: 9085 373c 6b75 3f3d d353 423c a066 5f3a
000002b0: 559e 0c3d 3da3 093c 2280 b53b a6b2 123d
000002c0: dd2f 9d3b 6a17 c13c 81ae 883d e9fa 1c3d
000002d0: fa07 ca35 914b 893b 7884 8d3a d6e5 ed3c
000002e0: a399 8b3d c8bb f43c 6345 2b3c 59f0 233d
000002f0: c30a 563c 3398 013c 54dc 303d 31f9 793c
00000300: 8956 e43a 4c2b 7d3c 1968 183c 4936 6c3c
00000310: 81a3 3f3d ac09 e63b f8c5 9eba bbea d13b
00000320: dc35 8eba 92ad 7c36 ed93 233b e303 6f3a
00000330: 8974 2ab7 c5ad ec3b 35dc 333b a234 5c3b
00000340: a26c 8a3c 2026 db39 f17b 453c 2c68 2e3d
00000350: 331f 453c 9b9c 793c e5f6 693d 7c02 103c
00000360: ac8a f53b 6b69 023d e616 953b aba4 793c
00000370: ac13 663d 4de0 f03b b619 833c f9af 4c3d
00000380: b4c0 643c b724 9bba 1f25 223b a0aa e63b
00000390: 0182 823c 0e97 313d 9400 2b3c 36e0 403c
000003a0: 323a 413d 1f95 393c b4ee 4b3c ec73 283d
000003b0: 54a1 323c cba4 213c 1ced 5a3d d916 c23c
000003c0: d53f 803c 1adf 573d ac43 3b3c c9a4 893c
000003d0: f94e 563d ff08 a53c 102c a13b ece6 c63c
000003e0: 8522 d53b 1879 80b9 b548 d33b 4d20 19bd
000003f0: e312 aeb4 c30a ca38 c511 a738 0d89 2635

weight_hh_l0 f4 [256, 64]
0.006184332 -0.010556698 -0.0023738372 -0.0011300767 -0.0039532417 -0.0067575416 0.010383506 -0.011059754
0.009073308 0.011084055 -0.010880497 -0.0013965291 -0.01099081 0.010668331 -0.010245437 -0.011096183
-0.011096293 -0.011411289 0.008201267 -0.0027636988 0.00060562836 -0.0023564184 0.010387055 0.004841506
-0.007274221 0.008478921 0.0076411585 0.010827886 0.010078567 0.01065903 0.0112462295 0.002931587
0.00216817 -0.006151507 0.010318302 -0.010677626 0.010375035 -0.010180025 -0.0006236685 -0.009813173
0.010782591 -0.0007994823 0.004347429 0.009906917 -0.011022569 0.0005300838 0.0033394028 -0.010813606
0.0012806549 -0.0110647995 -0.011074102 0.01044128 4.2540963e-05 0.002075214 -0.009743984 0.0020287298
-0.0111174295 -0.0112784235 0.009817187 -0.002375254 -0.0026707207 0.0015357385 0.010583024 -0.010940344
0.009122601 -0.01814949 -0.0031203593 -0.001176427 -0.005943011 -0.010078233 0.017310582 -0.01937465
0.014399825 0.019491088 -0.018846476 -0.0022911245 -0.019024488 0.01809255 -0.01728028 -0.019411415
-0.019522604 -0.020454973 0.012603734 -0.004090481 0.0008831893 -0.0028143055 0.017362256 0.0066865245
-0.011455378 0.013311661 0.012208402 0.018545816 0.01645811 0.018165478 0.019816352 0.0045164805
0.0033747293 -0.009382981 0.017029047 -0.018252868 0.017934456 -0.016866304 5.3953852e-05 -0.01636574
0.018581085 -0.0009039263 0.007737984 0.016743014 -0.0193124 0.00069058425 0.004712526 -0.018602204
0.00091500254 -0.019289186 -0.019339558 0.017780477 -0.000492194 0.0053150896 -0.015982669 0.0017917717
-0.019636061 -0.020072857 0.01595962 -0.002187474 -0.0037775727 0.0038759827 0.017900389 -0.019058086
0.0032863817 -0.009152892 -8.872162e-05 -6.267666e-05 -0.0016816158 -0.0042096553 0.008551552 -0.010229637
0.006539773 0.010187728 -0.009848004 -0.00037002022 -0.010183341 0.009363618 -0.008624007 -0.010646397
-0.009972646 -0.010822011 0.005525995 0.0006845094 5.8853086e-05 -0.00029449377 0.008641224 0.0021387392
-0.0046922537 0.005875234 0.0047878483 0.009768607 0.0077916663 0.0092204 0.010485574 0.00054558454
0.00040300997 -0.0035384842 0.008842591 -0.009033574 0.009108583 -0.008295902 7.913302e-05 -0.007954619
0.009377002 -5.83357e-05 0.0028808792 0.007965989 -0.010076814 8.640186e-05 0.00077140075 -0.00962888
0.00015176117 -0.010050717 -0.01008917 0.008982844 -0.0007283641 0.0042013396 -0.0076497463 -0.0018103607
-0.01020597 -0.010774958 0.007977087 0.0007977552 -0.00096431177 0.0026308163 0.009039249 -0.00979274
0.0007372779 -0.0013163323 -0.00031532397 -0.00015966919 -0.00045190653 -0.00080887537 0.0012871878 -0.0013867308
0.0011208392 0.0013705586 -0.0013624064 -0.00017239753 -0.001363867 0.0013205942 -0.0012466708 -0.0013848353
-0.0013755003 -0.0014018237 0.0009823613 -0.00052936166 6.8115194e-05 -0.00031380003 0.0012837244 0.0005309153
-0.0008429984 0.0010385991 0.00091805024 0.0013492553 0.0012535478 0.0013256746 0.0013972685 0.00034318495
0.00025637032 -0.00072696875 0.0012723355 -0.0013292645 0.0012728755 -0.0012640062 -0.00010213767 -0.0012207963
0.0013223385 -0.00010603905 0.0003504887 0.0012238764 -0.0013736738 7.159436e-05 0.00043490456 -0.0013557884
7.0372344e-06 -0.001390842 -0.0013815726 0.0012732939 0.00015735044 -0.0005004195 -0.001185323 0.0010693502
-0.0013795588 -0.0013899477 0.0011976332 -0.00043738683 -0.00028249747 -9.971772e-05 0.0013304724 -0.001360944
00000000: f0a5 ca3b 00f6 2cbc 6192 1bbb 151f 94ba
00000010: 328a 81bb 5e6e ddbb 951f 2a3c f833 35bc
00000020: 36a8 143c e599 353c 1d44 32bc be0b b7ba
00000030: cc12 34bc 39ca 2e3c 7adc 27bc c4cc 35bc
00000040: 3acd 35bc 6af6 3abc 9b5e 063c 2c1f 35bb
00000050: 08c3 1e3a 246e 1abb 772e 2a3c 7fa5 9e3b
00000060: 975c eebb 2ceb 0a3c af62 fa3b 7267 313c
00000070: 9320 253c 36a3 2e3c 1b42 383c de1f 403b
00000080: db17 0e3b 9592 c9bb 180e 293c 36f1 2ebc
00000090: 0dfc 293c 1fca 26bc af7d 23ba 6ec7 20bc
000000a0: 77a9 303c 5994 51ba e174 8e3b 9f50 223c
000000b0: 0198 34bc 52f5 0a3a e2d9 5a3b 8d2b 31bc
000000c0: a6db a73a 2249 35bc 2670 35bc e711 2b3c
000000d0: 036e 3238 5000 083b 3ba5 1fbc 70f4 043b
000000e0: e125 36bc 23c9 38bc 44d8 203c 26aa 1bbb
000000f0: 4207 2fbb d54a c93a 6b64 2d3c 213f 33bc
00000100: f676 153c 3dae 94bc f17e 4cbb 5732 9aba
00000110: 97bd c2bb 2c1f 25bc ecce 8d3c 96b7 9ebc
00000120: 3eed 6b3c c6ab 9f3c ed63 9abc b126 16bb
00000130: 3ed9 9bbc d436 943c 608f 8dbc b004 9fbc
00000140: deed 9fbc 3091 a7bc e47f 4e3c 7109 86bb
00000150: d585 673a 3670 38bb 4a3b 8e3c a21a db3b
00000160: 56af 3bbc 2719 5a3c c005 483c 65ed 973c
00000170: 29d3 863c c5cf 943c e755 a23c fcfe 933b
00000180: 902a 5d3b 13bb 19bc 8080 8b3c 0a87 95bc
00000190: 48eb 923c 342b 8abc 824c 6238 7211 86bc
000001a0: 5c37 983c 78f5 6cba ea8e fd3b a528 893c
000001b0: 0a35 9ebc 5308 353a 896b 9a3b a663 98bc
000001c0: c8dc 6f3a 5b04 9ebc fe6d 9ebc 5da8 913c
000001d0: 9506 01ba 342a ae3b 16ee 82bc e2d9 ea3a
000001e0: cedb a0bc d56f a4bc c0bd 823c b95b 0fbb
000001f0: 2791 77bb 3304 7e3b d6a3 923c b41f 9cbc
00000200: 5660 573b 03f6 15bc 0f10 bab8 4771 83b8
00000210: aa69 dcba 26f1 89bb cf1b 0c3c 359a 27bc
00000220: 984b d63b 6eea 263c 8659 21bc 46ff c1b9
00000230: 07d8 26bc dc69 193c b54b 0dbc 3a6e 2ebc
00000240: 4f64 23bc ce4e 31bc 6813 b53b a670 333a
00000250: 05d9 7638 4966 9ab9 ec93 0d3c 172a 0c3b
00000260: 7ac1 99bb 0985 c03b 62e3 9c3b 820c 203c
00000270: 3c51 ff3b 2911 173c afcb 2b3c 8f05 0f3a
00000280: 154b d339 eae5 67bb 84e0 103c 8e01 14bc
00000290: 2b3c 153c 89eb 07bc 37f4 a538 1754 02bc
000002a0: ffa1 193c 7bad 74b8 22cd 3c3b c883 023c
000002b0: 3919 25bc a532 b538 d437 4a3a 73c2 1dbc
000002c0: 1422 1f39 c3ab 24bc 0c4d 25bc c72c 133c
000002d0: b0ef 3eba 64ab 893b b9aa fabb a049 edba
000002e0: f136 27bc 7389 30bc 54b2 023c 7220 513a
000002f0: dec9 7cba c669 2c3b 5c19 143c bb71 20bc
00000300: e245 413a c888 acba 1152 a5b9 df6c 27b9
00000310: deed ecb9 b50a 54ba dbb6 a83a f7c2 b5ba
00000320: 1fe9 923a 51a4 b33a c692 b2ba 9cc5 34b9
00000330: c8c3 b2ba ca17 ad3a 5567 a3ba 5d83 b5ba
00000340: 224a b4ba 66bd b7ba 93c2 803a dcc4 0aba
00000350: 11d9 8e38 8785 a4b9 a542 a83a 1f2d 0b3a
00000360: aafc 5cba 9a21 883a 4fa9 703a 7fd9 b03a
00000370: 164e a43a 42c2 ad3a 8d24 b73a 81ed b339
00000380: 7169 8639 0c92 3eba 7fc4 a63a b73a aeba
00000390: 9dd6 a63a 03ad a5ba be32 d6b8 2003 a0ba
000003a0: 5152 ad3a 4861 deb8 ccc1 b739 7a6a a03a
000003b0: d80c b4ba ee24 9638 e703 e439 b6b4 b1ba
000003c0: 6221 ec36 ea4c b6ba e215 b5ba a7e4 a63a
000003d0: 70fe 2439 962e 03ba d75c 9bba 7029 8c3a
000003e0: 50d2 b4ba e82e b6ba e7f9 9c3a 1151 e5b9
000003f0: 2b1c 94b9 8b1f d1b8 3f63 ae3a b461 b2ba

bias_ih_l0 f4 [256]
0.016730577 0.04504905 0.030564493 0.0037388112 0.008786311 0.017882962 0.039925177 0.054484032
0.032145552 0.06045338 0.045621432 0.03396026 0.05748163 0.043981776 0.043911275 0.050431997
0.04984816 0.055269457 0.0243859 0.08741799 0.00025625143 0.012245476 0.038372017 0.012249506
0.022164792 0.027006114 0.023769984 0.04811118 0.040402796 0.04402603 0.047140334 0.012379853
0.010051166 0.014978883 0.04180982 0.0464369 0.049125735 0.039744765 0.04301747 0.038655408
0.04440974 0.0015439645 0.080054276 0.04055018 0.047030877 0.00041990136 0.017022751 0.04419891
0.10120035 0.049944352 0.051416244 0.050136663 0.037684135 0.14652862 0.037421655 0.14333239
0.050121233 0.06400327 0.035779797 0.077377334 0.0044677565 0.07842099 0.042477027 0.046536107
0.016279733 0.049556382 0.007831282 0.0028260744 0.007741627 0.017867394 0.046639867 0.051771484
0.03407282 0.05277937 0.052950084 0.0029014754 0.065038726 0.047083713 0.042821955 0.063868195
0.05632782 0.06775016 0.026530148 0.014608243 0.000110284134 0.010734502 0.045630477 0.011668761
0.020888584 0.029146507 0.02172294 0.060182624 0.04426374 0.051005177 0.05340721 0.005348003
0.005464487 0.014319606 0.045118805 0.050965924 0.052195728 0.045643758 0.02034853 0.041908544
0.055247217 0.0004235002 0.085821785 0.042003557 0.055056162 0.00035212204 0.0117901405 0.058234613
0.03445389 0.056243714 0.0540571 0.048500326 0.033564795 0.09667348 0.039531026 0.062466566
0.053042524 0.052310187 0.040188413 0.061495084 0.004117844 0.08011977 0.050858144 0.05316499
0.058632627 -0.093136095 -0.044704385 0.022377519 -0.038709857 -0.023110876 0.10425456 -0.093256064
0.046935868 0.10177813 -0.08676498 0.011514303 -0.089763805 0.104659006 -0.086198516 -0.13129272
-0.11409908 -0.13878514 0.07266687 -0.060532857 0.010199146 0.069680296 0.10611458 0.0020385468
-0.045794453 0.08342616 0.07603956 0.107046835 0.06779091 0.10205575 0.1292103 0.017211985
-0.04027822 -0.0680298 0.12722617 -0.07115019 0.08363006 -0.069527104 0.09966574 -0.09709142
0.10968565 0.027082117 0.10271519 0.08235089 -0.119026005 -0.007597866 0.011408876 -0.11143406
-0.030093249 -0.12256395 -0.11499036 0.121392846 -0.061982412 0.082926914 -0.066793814 -0.03232997
-0.11839424 -0.1356807 0.085601375 0.121620916 -0.021367116 -0.027992584 0.11245238 -0.10560019
0.01661805 0.0658733 0.031071192 0.00295554 0.008282434 0.018806368 0.05566775 0.0793568
0.04149091 0.08412139 0.06984117 0.020516174 0.08331886 0.051830344 0.053202208 0.0822761
0.07157332 0.06696426 0.026175302 0.077143155 0.00031977877 0.011100593 0.05432327 0.011718915
0.025379274 0.033362303 0.029460872 0.07613193 0.054287374 0.061582323 0.07897119 0.012630016
0.0099016735 0.017028973 0.05597845 0.06627998 0.07100081 0.053037133 0.043042045 0.05473701
0.05731791 0.0013670117 0.07785934 0.05748204 0.0671682 0.00023341256 0.016256077 0.05843767
0.104932606 0.077778995 0.07123921 0.06295703 0.036596227 0.14774838 0.048013236 0.1478886
0.06924111 0.07964288 0.050384533 0.07775507 0.0035213507 0.07061536 0.06317825 0.06880417
00000000: 900e 893c 5a85 383d 6362 fa3c d806 753b
00000010: 76f4 0f3c 4a7f 923c 9588 233d a62a 5f3d
00000020: 0eab 033d f79d 773d 8add 3a3d ea19 0b3d
00000030: dc71 6b3d 3c26 343d 4fdc 333d c891 4e3d
00000040: 962d 4c3d 3a62 623d f0c4 c73c 3408 b33d
00000050: 7c59 8639 40a1 483c fa2b 1d3d 27b2 483c
00000060: f092 b53c ed3b dd3c 45b9 c23c 3b10 453d
00000070: 677d 253d a354 343d 3916 413d ded4 4a3c
00000080: a5ad 243c fd69 753c c640 2b3d 9e34 3e3d
00000090: 1138 493d 68cb 223d 1633 303d 2255 1e3d
000000a0: fde6 353d da5e ca3a 7ff3 a33d f217 263d
000000b0: 73a3 403d 3526 dc39 4c73 8b3c eb09 353d
000000c0: 2142 cf3d 7392 4c3d d799 523d 1a5c 4d3d
000000d0: ae5a 1a3d 990b 163e 7347 193d bac5 123e
000000e0: ec4b 4d3d 2514 833d d68d 123d 0278 9e3d
000000f0: 4266 923b 2f9b a03d 64fc 2d3d a59c 3e3d
00000100: 135d 853c a2fb 4a3d c74e 003c a935 393b
00000110: 79ad fd3b a45e 923c 7209 3f3d 560e 543d
00000120: f18f 0b3d 2e2f 583d 30e2 583d ae26 3e3b
00000130: 0633 853d dada 403d 1366 2f3d 54cd 823d
00000140: 00b8 663d 99c0 8a3d c155 d93c 6957 6f3c
00000150: 5848 e738 c4df 2f3c 06e7 3a3d 552e 3f3c
00000160: 891e ab3c a8c4 ee3c 4ff4 b13c 0e82 763d
00000170: e54d 353d ceea 503d 85c1 5a3d 4d3e af3b
00000180: 700f b33b c89c 6a3c 7fce 383d a5c1 503d
00000190: 30cb 553d f3f4 3a3d f6b1 a63c 4ba8 2b3d
000001a0: e84a 623d 3c09 de39 55c3 af3d ec0b 2c3d
000001b0: 9282 613d 059d b839 6f2b 413c 6b87 6e3d
000001c0: 861f 0d3d cf5f 663d fa6a 5d3d 47a8 463d
000001d0: 3d7b 093d bffc c53d 49eb 213d f1dc 7f3d
000001e0: 1e43 593d 3543 563d 9b9c 243d 45e2 7b3d
000001f0: fbee 863b d515 a43d a150 503d 88c3 593d
00000200: c428 703d 23be bebd f21b 37bd 0f51 b73c
00000210: 3a8e 1ebd 0553 bdbc 6a83 d53d 09fd bebd
00000220: d33f 403d 0d71 d03d d6b1 b1bd 7da6 3c3c
00000230: 16d6 b7bd 7657 d63d d988 b0bd 9971 06be
00000240: c7ac e9bd b11d 0ebe 5ed2 943d 4df1 77bd
00000250: 521a 273c 8bb4 8e3d 9a52 d93d 2499 053b
00000260: f792 3bbd 56db aa3d a1ba 9b3d 5f3b db3d
00000270: f6d5 8a3d 9b02 d13d b44f 043e 2600 8d3c
00000280: c6fa 24bd 3553 8bbd 9447 023e 31b7 91bd
00000290: 3d46 ab3d 3a64 8ebd 8d1d cc3d ded7 c6bd
000002a0: dfa2 e03d 51db dd3c 575c d23d 95a7 a83d
000002b0: e8c3 f3bd 85f7 f8bb 4bec 3a3c 8a37 e4bd
000002c0: 1e86 f6bc cf02 fbbd 1180 ebbd d09c f83d
000002d0: 45e1 7dbd 96d5 a93d 32cb 88bd 6e6c 04bd
000002e0: ae78 f2bd e2ef 0abe c64f af3d 6314 f93d
000002f0: 170a afbc b450 e5bc 6f4d e63d ea44 d8bd
00000300: 9422 883c 95e8 863d 0389 fe3c bcb1 413b
00000310: 0cb3 073c d00f 9a3c de03 643d d185 a23d
00000320: 5ff2 293d d647 ac3d e308 8f3d 8911 a83c
00000330: 14a3 aa3d 0e4c 543d 8fea 593d 5f80 a83d
00000340: 0895 923d 8f24 893d 966d d63c 3bfd 9d3d
00000350: fba7 a739 43df 353c 1482 5e3d b100 403c
00000360: 32e8 cf3c e9a6 083d ed57 f13c 0feb 9b3d
00000370: 705c 5e3d bf3d 7c3d a6bb a13d 20ee 4e3c
00000380: a13a 223c 5880 8b3c a949 653d ccbd 873d
00000390: df68 913d 773d 593d db4c 303d ea33 603d
000003a0: 2fc6 6a3d 4d2d b33a b874 9f3d 4a72 6b3d
000003b0: 7b8f 893d 35c0 7439 772b 853c 575c 6f3d
000003c0: e8e6 d63d 984a 9f3d dde5 913d 9eef 803d
000003d0: ede5 153d 5a4b 173e 87a9 443d 1c70 173e
000003e0: 48ce 8d3d ce1b a33d 0360 4e3d 0d3e 9f3d
000003f0: 76c6 663b c99e 903d 9963 813d 33e9 8c3d

bias_hh_l0 f4 [256]
0.016730512 0.04492846 0.030330526 0.003738746 0.00878633 0.01793698 0.03987578 0.045687113
0.03215429 0.04585427 0.044913504 0.033960134 0.061120156 0.048308466 0.039894238 0.057944465
0.0486834 0.049128782 0.024355972 0.08739677 0.00025625117 0.012245478 0.03929297 0.012249465
0.021883614 0.027006248 0.023680435 0.04347351 0.040406883 0.044032596 0.05507849 0.012350908
0.010051903 0.014979653 0.040308326 0.04636096 0.04641515 0.03932378 0.043010198 0.038461797
0.04521883 0.0015439598 0.080054455 0.040515654 0.050153125 0.00041990133 0.01712475 0.04415621
0.10161283 0.049964134 0.05313076 0.0390612 0.037684355 0.1468724 0.038944624 0.14524019
0.050266966 0.040891703 0.044256277 0.07750162 0.00446794 0.078510426 0.044003896 0.046662357
0.01627932 0.04943223 0.007899186 0.0028267235 0.0077417023 0.017884685 0.046655487 0.06264679
0.034045845 0.06574481 0.0543769 0.0031426437 0.06540861 0.05210476 0.044756282 0.06300633
0.05690727 0.049210418 0.026488997 0.002808176 0.000110284134 0.010733229 0.04564352 0.011668697
0.020920401 0.029146943 0.0216895 0.05211243 0.044280615 0.05105264 0.064780064 0.006024706
0.0052780006 0.014319013 0.043125473 0.05103968 0.048603967 0.045834847 0.02184414 0.041913748
0.04925923 0.00042349997 0.08595694 0.04192626 0.055637263 0.000352122 0.011966296 0.056096014
0.034441326 0.05622699 0.055058077 0.053497598 0.03358667 0.09662044 0.040584885 0.06423535
0.056901827 0.060777005 0.03777207 0.060898587 0.004117953 0.08343138 0.048380774 0.054104462
0.03212349 -0.11187653 -0.025983045 0.028550236 -0.029362353 -0.062152233 0.061038885 -0.12551333
0.087673984 0.06614177 -0.11892058 -0.013322377 -0.06778298 0.08134094 -0.12955917 -0.092165165
-0.09365803 -0.12099728 0.10457187 -0.056849178 0.0056983535 -0.012837392 0.067449234 0.013545633
-0.075957514 0.05633607 0.072106235 0.12970535 0.07719622 0.10274668 0.07597579 0.06565546
-0.016103473 -0.030541569 0.032847896 -0.10438839 0.061772652 -0.09914231 0.023554519 -0.09175998
0.09739337 0.00030565157 0.09817753 0.100910306 -0.11589066 -5.007718e-05 0.010803943 -0.04120483
-0.007955805 -0.092783816 -0.06846567 0.11933623 -0.016504234 0.14029576 -0.059326395 -0.10599963
-0.13388474 -0.124559365 0.10046676 -0.050961815 -0.017119735 0.027663304 0.05732771 -0.09356313
0.016618045 0.0658314 0.031468447 0.0029555627 0.00828252 0.018811716 0.055327535 0.07888811
0.04148834 0.0614689 0.07017609 0.02051631 0.056579094 0.059424162 0.05196783 0.08763697
0.074588604 0.092817634 0.02617472 0.07642823 0.00031977877 0.011100518 0.05361551 0.011718835
0.024367178 0.033360343 0.029528612 0.05412448 0.054306343 0.061175995 0.07971982 0.012577168
0.009919428 0.017031468 0.05873552 0.066283725 0.06339357 0.0532177 0.043039124 0.05618876
0.05650756 0.001367009 0.077859946 0.0571502 0.06630236 0.00023341256 0.016271608 0.06736012
0.10640324 0.06958712 0.075483665 0.058642562 0.036596436 0.14977653 0.0447266 0.15015624
0.07807943 0.08273235 0.055046663 0.077762984 0.003521179 0.07061807 0.063337125 0.070105046
00000000: 6d0e 893c e806 383d b977 f83c c005 753b
00000010: 8af4 0f3c 93f0 923c c954 233d 6922 3b3d
00000020: 37b4 033d b0d1 3b3d 39f7 373d c819 0b3d
00000030: 2159 7a3d 19df 453d 2468 233d 2d57 6d3d
00000040: 3f68 473d 433b 493d 2d86 c73c 14fd b23d
00000050: 7359 8639 42a1 483c aaf1 203d fbb1 483c
00000060: 4445 b33c 353c dd3c 79fd c13c 4711 323d
00000070: b081 253d 865b 343d fc99 613d 765b 4a3c
00000080: bdb0 243c 386d 753c 581a 253d fde4 3d3d
00000090: d01d 3e3d f911 213d 762b 303d 1e8a 1d3d
000000a0: 6137 393d b25e ca3a 97f3 a33d bef3 253d
000000b0: 5d6d 4d3d 3426 dc39 3449 8c3c 24dd 343d
000000c0: 631a d03d 31a7 4c3d a49f 593d a3fe 1f3d
000000d0: e95a 1a3d b865 163e 6684 1f3d d8b9 143e
000000e0: bce4 4d3d 0f7e 273d 1246 353d 2bb9 9e3d
000000f0: cc67 923b 13ca a03d 6e3d 343d 0721 3f3d
00000100: 355c 853c 7379 4a3d 966b 013c 8d40 393b
00000110: 1bae fd3b e782 923c d319 3f3d f64c 803d
00000120: a873 0b3d 37a5 863d 50ba 5e3d d0f4 4d3b
00000130: f3f4 853d cd6b 553d 5d52 373d 7609 813d
00000140: 9917 693d dd90 493d 74ff d83c 6009 383b
00000150: 5848 e738 6dda 2f3c b3f4 3a3d 102e 3f3c
00000160: 4361 ab3c 92c5 ee3c 2eae b13c d873 553d
00000170: 975f 353d 931c 513d 69ab 843d e66a c53b
00000180: 14f3 ac3b 4b9a 6a3c 56a4 303d fc0e 513d
00000190: f414 473d 52bd 3b3d 7bf2 b23c c0ad 2b3d
000001a0: 0cc4 493d 3409 de39 310a b03d dfba 2b3d
000001b0: e6e3 633d 049d b839 480e 443c efc4 653d
000001c0: 5912 0d3d 464e 663d 9484 613d 4c20 5b3d
000001d0: 2d92 093d f0e0 c53d 563c 263d d38d 833d
000001e0: e411 693d 4ff1 783d e3b6 1a3d cc70 793d
000001f0: e5ef 863b 12de aa3d eb2a 463d a49c 5d3d
00000200: ec93 033d 861f e5bd 65da d4bc 2fe2 e93c
00000210: 5189 f0bc 5793 7ebd e903 7a3d 9186 00be
00000220: 6b8e b33d 5675 873d a28c f3bd 1946 5abc
00000230: ced1 8abd 1496 a63d 29ab 04be 17c1 bcbd
00000240: c8cf bfbd 6ccd f7bd c729 d63d afda 68bd
00000250: 41b9 ba3b ed53 52bc d322 8a3d 81ee 5d3c
00000260: 9d8f 9bbd a7c0 663d 6fac 933d 7bd1 043e
00000270: 0d19 9e3d da6c d23d 3299 9b3d 5f76 863d
00000280: 6eeb 83bc 5032 fabc 848b 063d 95c9 d5bd
00000290: 5205 7d3d 200b cbbd 68f5 c03c a8ec bbbd
000002a0: 2d76 c73d dc3f a039 4d11 c93d 10aa ce3d
000002b0: 1558 edbd f609 52b8 0503 313c 65c6 28bd
000002c0: 1159 02bc 7105 bebd bb37 8cbd 8e66 f43d
000002d0: e333 87bc b1a9 0f3e 3c00 73bd 5616 d9bd
000002e0: 1519 09be fb18 ffbd 84c1 cd3d 56bd 50bd
000002f0: b03e 8cbc 279e e23c 76d0 6a3d 079e bfbd
00000300: 9122 883c 9dd2 863d 0fe5 003d 1db2 413b
00000310: 68b3 073c 071b 9a3c 209f 623d 1790 a13d
00000320: adef 293d d0c6 7b3d 7bb8 8f3d d211 a83c
00000330: 7bbf 673d c066 733d 38dc 543d 037b b33d
00000340: e9c1 983d 2c17 be3d 5e6c d63c 6786 9c3d
00000350: fba7 a739 f2de 353c f09b 5b3d 5b00 403c
00000360: ad9d c73c dba4 083d fde5 f13c a1b1 5d3d
00000370: 5470 5e3d ae93 7a3d 2544 a33d 7710 4e3c
00000380: 1985 223c 9485 8b3c a894 703d c3bf 873d
00000390: 7dd4 813d cefa 593d cb49 303d 2f26 663d
000003a0: 7974 673d 362d b33a 0975 9f3d 5416 6a3d
000003b0: 88c9 873d 35c0 7439 094c 853c 1af4 893d
000003c0: f1e9 d93d b183 8e3d 2e97 9a3d 2f33 703d
000003d0: 25e6 153d 055f 193e 3d33 373d 8fc2 193e
000003e0: 1ce8 9f3d 946f a93d 9c78 613d 3342 9f3d
000003f0: 95c3 663b 35a0 903d e5b6 813d 3c93 8f3d

weight_ih_l1 f4 [256, 64]
0.004863913 -0.0089943055 -0.0010093803 -0.00046993926 -0.0031922013 -0.005350343 0.008687576 -0.009506496
0.007430437 0.009516311 -0.009325135 -0.0016323151 -0.00940495 0.008990692 -0.00862718 -0.00958289
-0.009559314 -0.009952465 0.0065449243 -0.00084431225 0.00042982836 -0.0013806644 0.008675857 0.0036226062
-0.00581071 0.006907143 0.006214609 0.009219662 0.008326 0.009028568 0.009658232 0.0019980913
0.0015478826 -0.004902058 0.00858864 -0.009066895 0.008835645 -0.008495019 3.3386486e-06 -0.008220771
0.009150496 -0.00054281036 0.0045646043 0.008329994 -0.009474211 0.00040127928 0.0021782469 -0.00920205
0.00019969496 -0.009494976 -0.009499617 0.008880472 -0.0011496138 0.00449559 -0.008047012 -0.0011497707
-0.009626939 -0.009800026 0.008125875 0.00022872299 -0.002046816 0.003285655 0.008916079 -0.0094071375
0.0027685189 -0.004982987 -0.0006812837 -0.00068039575 -0.001716115 -0.0030238463 0.004835213 -0.0052619427
0.00416889 0.0052373833 -0.0051291683 0.00039031278 -0.005162887 0.004948357 -0.0047183814 -0.005184253
-0.0052587586 -0.0053525777 0.0036448042 -0.0013400562 0.0002141556 -0.0012075504 0.0048106373 0.002126377
-0.0031806182 0.0038294534 0.0033878468 0.0050714645 0.0047581997 0.004991417 0.005302924 0.0010995887
0.0007795154 -0.0026871637 0.0047655795 -0.005073963 0.0048215305 -0.0047255824 0.00052284606 -0.0045758733
0.0050239377 -0.0003232819 0.0016374651 0.0046202336 -0.005215395 0.00026847085 0.0014449611 -0.005105237
-0.0014072722 -0.005266339 -0.0052578324 0.0048052296 -0.000105716186 -0.0005861359 -0.0044728452 0.00065932
-0.005244992 -0.005304972 0.0045050452 -0.002453505 -0.001154221 -0.0010861731 0.004976779 -0.0051767193
0.008107905 -0.015410655 -0.002371578 -0.0009095214 -0.0051837256 -0.008888932 0.01475971 -0.016337445
0.012461638 0.016314257 -0.015989764 -0.0025182317 -0.016102115 0.015326417 -0.014688373 -0.016429534
-0.016440718 -0.01715583 0.010953397 -0.0032864506 0.0006633336 -0.002349973 0.014786716 0.006022353
-0.0098746065 0.01156192 0.010506413 0.015772674 0.014125246 0.015479119 0.016576404 0.003770647
0.0031436654 -0.008177404 0.014535061 -0.015499182 0.015173305 -0.01448394 -0.00073215546 -0.013976616
0.015644662 -0.0011874625 0.006398729 0.014260225 -0.016275031 0.00054321386 0.0041772868 -0.015766062
0.0021997243 -0.016258914 -0.01628859 0.015167424 -0.0016002248 0.0073864567 -0.013654107 0.0007441207
-0.01658558 -0.016822081 0.013736621 -0.0006866949 -0.0033112029 0.005593382 0.015287689 -0.01615191
0.0040894677 -0.007630921 -0.0009751572 -0.00055577443 -0.0024505968 -0.0044151386 0.007316717 -0.007999811
0.0062264698 0.007951862 -0.007923432 -0.0005180013 -0.007957145 0.0076026465 -0.007170432 -0.008365571
-0.00821947 -0.008448774 0.0054880767 -0.00073625124 0.00021254756 -0.0015071618 0.0073000253 0.0030183468
-0.0048035826 0.0057434067 0.0052053644 0.00782937 0.0070948303 0.0075731077 0.00812936 0.0017743484
0.0013686601 -0.0039935363 0.0073422086 -0.007740169 0.007396319 -0.00716206 0.000424609 -0.007012356
0.0076279812 -0.00050362287 0.0033239734 0.0071696034 -0.0079875225 0.000208039 0.0020917407 -0.007753414
-0.0002874914 -0.008221303 -0.008066059 0.0073904563 -0.0007596901 0.0027283174 -0.006672721 0.0011699002
-0.008152012 -0.00829086 0.006857161 -0.0013924754 -0.0016612706 0.001808525 0.007580561 -0.008048185
00000000: 7661 9f3b da5c 13bc 2f4d 84ba 2e62 f6b9
00000010: 4034 51bb ee51 afbb 5656 0e3c 22c1 1bbc
00000020: 067b f33b 4dea 1b3c 73c8 18bc 68f3 d5ba
00000030: 3817 1abc b24d 133c 0459 0dbc 8e01 1dbc
00000040: ab9e 1cbc aa0f 23bc ce76 d63b d654 5dba
00000050: 965a e139 69f7 b4ba 2f25 0e3c 3f69 6d3b
00000060: c567 bebb 5155 e23b eba3 cb3b 110e 173c
00000070: c669 083c 8fec 133c 903d 1e3c 69f2 023b
00000080: 52e2 ca3a 71a1 a0bb 5eb7 0c3c 508d 14bc
00000090: 62c3 103c b12e 0bbc 8c0d 6036 6ab0 06bc
000000a0: f6eb 153c 634b 0eba ad92 953b 877a 083c
000000b0: b939 1bbc cb62 d239 ebc0 0e3b 32c4 16bc
000000c0: 3565 5139 d190 1bbc 48a4 1bbc 667f 113c
000000d0: a3ae 96ba be4f 933b 9dd7 03bc e7b3 96ba
000000e0: 4fba 1dbc 4a90 20bc 6422 053c 5cd5 6f39
000000f0: e023 06bb 2554 573b bf14 123c 6520 1abc
00000100: 0a70 353b 5348 a3bb 2d98 32ba 965c 32ba
00000110: 44ef e0ba b92b 46bb b570 9e3b 606c acbb
00000120: 2f9b 883b 5b9e ab3b 9512 a8bb e5a2 cc39
00000130: 6f2d a9bb d425 a23b a79c 9abb abe0 a9bb
00000140: aa51 acbb ad64 afbb abdd 6e3b d3a4 afba
00000150: f58e 6039 ab46 9eba 8da2 9d3b b05a 0b3b
00000160: eb71 50bb 91f7 7a3b a306 5e3b 872e a63b
00000170: acea 9b3b 0a8f a33b 27c4 ad3b 1320 903a
00000180: 6558 4c3a 201b 30bb 9428 9c3b 7d43 a6bb
00000190: eefd 9d3b 0fd9 9abb 9b0f 093a 35f1 95bb
000001a0: d89f a43b 2a7e a9b9 36a0 d63a 5465 973b
000001b0: e7e5 aabb 8cc1 8c39 d964 bd3a d549 a7bb
000001c0: 3874 b8ba 4191 acbb e549 acbb 3075 9d3b
000001d0: f2b3 ddb8 eaa6 19ba f290 92bb 37d6 2c3a
000001e0: 2fde abbb 55d5 adbb 0f9f 933b fcca 20bb
000001f0: 3b49 97ba ec5d 8eba 4014 a33b 78a1 a9bb
00000200: 05d7 043c f97c 7cbc 7a6c 1bbb f36c 6eba
00000210: 3edc a9bb e2a2 11bc b6d2 713c 1bd6 85bc
00000220: e62b 4c3c 7aa5 853c f7fc 82bc eb08 25bb
00000230: 95e8 83bc a71b 7b3c 80a7 70bc 3b97 86bc
00000240: afae 86bc 628a 8cbc e075 333c 7e61 57bb
00000250: 90e3 2d3a 0102 1abb fb43 723c 2957 c53b
00000260: 1ac9 21bc 356e 3d3c 1723 2c3c b235 813c
00000270: 936d 673c 219c 7d3c 3dcb 873c f61c 773b
00000280: f405 4e3b 85fa 05bc 7724 6e3c 48f0 7dbc
00000290: 7499 783c 0c4e 6dbc 1fee 3fba 2dfe 64bc
000002a0: 3c29 803c a1a4 9bba 6eac d13b b8a3 693c
000002b0: 3753 85bc 7766 0e3a 9fe1 883b d427 81bc
000002c0: 4029 103b 6a31 85bc a66f 85bc ca80 783c
000002d0: a2be d1ba 170a f23b 7ab5 5fbc 1811 433a
000002e0: 7bde 87bc 76ce 89bc 900f 613c 5103 34ba
000002f0: c400 59bb b048 b73b 3779 7a3c 0351 84bc
00000300: f100 863b ce0c fabb b1a1 7fba 64b1 11ba
00000310: 319a 20bb deac 90bb 12c1 ef3b a411 03bc
00000320: 6a07 cc3b 8748 023c 48d1 01bc 7bca 07ba
00000330: af5e 02bc 9f1f f93b f1f5 eabb bf0f 09bc
00000340: f5aa 06bc ba6c 0abc 53d5 b33b fc00 41ba
00000350: 4ddf 5e39 f58b c5ba 0d35 ef3b 75cf 453b
00000360: 5f67 9dbb 3033 bc3b c391 aa3b c246 003c
00000370: c07b e83b d527 f83b 0231 053c 4191 e83a
00000380: 9d64 b33a 36dc 82bb e996 f03b 3ea1 fdbb
00000390: d25c f23b b7af eabb 0e9e de39 e8c7 e5bb
000003a0: 25f4 f93b 8f05 04ba 05d7 593b feee ea3b
000003b0: 19de 02bc 0b25 5a39 9615 093b 5a10 febb
000003c0: 71ba 96b9 a5b2 06bc 8127 04bc a42b f23b
000003d0: f125 47ba 92cd 323b d7a6 dabb 5657 993a
000003e0: 0490 05bc 63d6 07bc 09b2 e03b b983 b6ba
000003f0: febe d9ba 070c ed3a 5b66 f83b 89dc 03bc

weight_hh_l1 f4 [256, 64]
0.0011933859 0.0036697746 0.0022264947 -0.0051389397 0.0054193693 0.00095028616 0.0042650993 0.0033232463
0.002961 -0.002020694 -0.00042548604 -0.0007888957 0.006057569 0.005825926 -0.0045357374 -0.004100067
0.0029228912 -0.002155014 0.0012844085 0.0018814782 -0.0048271287 -0.0015894421 0.0056172376 -0.0009980584
-0.0037337635 -0.006263589 -0.0008846089 -0.0047826464 0.0038102153 -0.00024219762 -0.005224895 0.0017745009
0.005360802 0.00053869415 0.0010159547 0.0057045515 0.004415948 -0.002329558 0.0064328653 0.004732863
-0.002300432 0.0017558231 0.00021419367 0.0060436185 -0.0015617148 0.002099076 -0.004523697 -0.004673446
0.0031902138 -0.00020002558 -0.0027637964 0.0050602276 -0.00075363606 0.0046555526 0.0009244022 -0.0047675055
0.0020022779 0.0064770305 -0.00027554436 0.0011318417 0.0034754518 -0.001978139 -0.00078464125 -0.0045208917
-0.0005887874 0.0021713104 -0.00093375315 -0.002809666 0.003478642 -0.0020161532 -0.002481513 0.0018528547
0.0025417497 0.0008521037 0.0015754945 0.001772464 0.0035648579 0.0037236959 0.0010437975 -0.0026456476
0.0013913367 -0.0035684134 -0.0026823755 0.0012897585 -0.00285326 -0.0008241255 0.0033703584 -0.00017669356
-0.0020694009 5.495434e-05 0.00012458037 -0.0028241733 -0.0044453624 -0.003055481 -0.003082575 -0.0021149062
0.0031189485 0.0015681961 0.00041789442 0.0033016286 0.0027557393 -0.0013978307 0.0036859766 0.002911984
-0.0013509204 -0.0017888314 -0.0010782373 0.0036363208 -0.00088605174 -0.0013543827 -0.0026187378 -0.0029216935
0.001741633 -0.00031955182 -0.0014855649 0.0031076623 -0.00062922854 0.0004636258 -0.00094470935 -0.0028645827
-0.00071013597 0.0011760674 0.00187707 0.00027691727 0.0022154236 -0.0011715736 -0.0043663504 -0.002711502
0.001694635 0.0063686636 0.0034750295 -0.00888954 0.009572038 -0.004384728 0.0077865617 0.0056610308
0.005589102 -0.0054984046 -0.0006207905 -0.0010000945 0.010667667 0.01051292 -0.0072366437 -0.007216788
0.0049397075 -0.0052789086 -0.0018347696 0.0032731197 -0.008448961 -0.0027340278 0.009814206 -0.0029697972
-0.0066059427 -0.011418598 -0.003562988 -0.008390547 0.004529266 -0.0037358617 -0.009184767 0.0029068072
0.009443906 0.0014647823 0.0015931721 0.009997575 0.0077713877 -0.003953308 0.011383555 0.008249025
-0.0038280222 0.002501126 0.00026394718 0.010713623 -0.0024529765 0.0036968638 -0.007968077 -0.00825698
0.0059255073 -0.00030450732 -0.0046460256 0.008913049 -0.00087561103 0.0091648735 0.0018967919 -0.008392538
0.0040935474 0.013873188 -4.2282816e-05 0.0018723146 0.005980778 -0.0032177065 -0.003304533 -0.007904779
-0.00010230447 0.003267176 0.0006254325 -0.0042404337 0.005219971 -0.0010062245 0.00013959304 0.0028394586
0.003355741 -0.0026718874 0.0014294304 0.0006785644 0.0056344196 0.005724001 -0.0033384992 -0.004012426
0.0023296354 -0.007733009 -0.0023112055 0.0017584286 -0.0045248093 -0.0011467043 0.0054288353 -0.002994207
-0.0033980166 -0.008142097 -0.00289058 -0.004503857 -0.0005213923 -0.0024013538 -0.004928106 0.0005074073
0.0049027447 0.0016143161 0.000374864 0.0051546586 0.0043263747 -0.00216848 0.006211567 0.0044715945
-0.0019617763 0.001089243 -0.001738596 0.005833249 -0.0010093087 0.0009618392 -0.004386017 -0.004514007
0.0031770316 -0.0002321984 -0.0023497543 0.0050033466 -0.00023741966 0.0046146745 0.0009146471 -0.004573705
0.0004623533 0.0055720992 0.002093023 0.0006065086 0.0035433597 -0.0015358719 -0.0064980374 -0.0043173856
00000000: 636b 9c3a 9a80 703b 62ea 113b 8d64 a8bb
00000010: f794 b13b a01c 793a 3fc2 8b3b d2ca 593b
00000020: 560d 423b 9f6d 04bb c513 dfb9 e5cd 4eba
00000030: 927e c63b 69e7 be3b 86a0 94bb db59 86bb
00000040: fa8d 3f3b 233b 0dbb 9959 a83a ef9b f63a
00000050: e42c 9ebb d454 d0ba ce10 b83b 48d1 82ba
00000060: 28b2 74bb cb3e cdbb 19e5 67ba bfb7 9cbb
00000070: ceb4 793b 6ef6 7db9 9935 abbb 5f96 e83a
00000080: aba9 af3b 2737 0d3a c829 853a 3fed ba3b
00000090: a8b3 903b 7fab 18bb c9ca d23b 2216 9b3b
000000a0: d8c2 16bb a623 e63a 2d99 6039 8c09 c63b
000000b0: 74b2 ccba a790 093b 853b 94bb b523 99bb
000000c0: e812 513b f5bd 51b9 cf20 35bb 44d0 a53b
000000d0: a98f 45ba 9b8d 983b 9553 723a bc38 9cbb
000000e0: a638 033b 453d d43b f076 90b9 4e5a 943a
000000f0: 68c4 633b aaa3 01bb 62b0 4dba fd23 94bb
00000100: db58 1aba 8b4c 0e3b 1dc7 74ba 6022 38bb
00000110: eef9 633b 7021 04bb e1a0 22bb 7ddb f23a
00000120: 7c93 263b b65f 5f3a d380 ce3a 0652 e83a
00000130: 64a0 693b 4009 743b 08d0 883a 9a62 2dbb
00000140: 835d b63a 0bdc 69bb cbca 2fbb 1d0d a93a
00000150: c2fd 3abb 200a 58ba 3be1 5c3b d146 39b9
00000160: c99e 07bb c67e 6638 caa1 0239 c415 39bb
00000170: 67aa 91bb 773e 48bb 0705 4abb 3d9a 0abb
00000180: 4667 4c3b ee8b cd3a d718 db39 2360 583b
00000190: a299 343b 6a37 b7ba 6d90 713b fcd6 3e3b
000001a0: 5e11 b1ba 3977 eaba a453 8dba 574f 6e3b
000001b0: ed45 68ba 8b85 b1ba 219f 2bbb e279 3fbb
000001c0: 8247 e43a 8589 a7b9 49b7 c2ba eca9 4b3b
000001d0: d0f2 24ba cd12 f339 5fa6 77ba b9bb 3bbb
000001e0: 6b28 3aba 4626 9a3a 0508 f63a 352f 9139
000001f0: a430 113b 7d8f 99ba 9a13 8fbb 74b3 31bb
00000200: 841e de3a 39b0 d03b 52bd 633b 6fa5 11bc
00000210: 0ad4 1c3c c4ad 8fbb 6a26 ff3b 2b80 b93b
00000220: c924 b73b f62b b4bb 8cbc 22ba 9a15 83ba
00000230: 70c7 2e3c 623e 2c3c 5e21 edbb ce7a ecbb
00000240: 45dd a13b b2fa acbb a77c f0ba d681 563b
00000250: 836d 0abc 602d 33bb c3cb 203c eea0 42bb
00000260: aa76 d8bb 1215 3bbc 0581 69bb 8178 09bc
00000270: 3d6a 943b 5cd5 74bb b47b 16bc 2280 3e3b
00000280: 9dba 1a3c f0fd bf3a fcd1 d03a decc 233c
00000290: 20a7 fe3b c08a 81bb 1782 3a3c eb26 073c
000002a0: 8edf 7abb eee9 233b 6462 8a39 3188 2f3c
000002b0: 1ec2 20bb 1547 723b 8a8c 02bc 4948 07bc
000002c0: c22a c23b 48a6 9fb9 b03d 98bb 0908 123c
000002d0: 4389 65ba 4428 163c c69d f83a db80 09bc
000002e0: 2a23 863b 5e4c 633c d458 31b8 7468 f53a
000002f0: 67fa c33b 28e0 52bb dd90 58bb 0c83 01bc
00000300: 4b8c d6b8 1e1e 563b 11f4 233a 56f3 8abb
00000310: 4a0c ab3b 4be3 83ba b95f 1239 3616 3a3b
00000320: feeb 5b3b d51a 2fbb ba5b bb3a b0e1 313a
00000330: f0a0 b83b 6790 bb3b b9ca 5abb ab7a 83bb
00000340: ccac 183b 2e65 fdbb 9877 17bb 137b e63a
00000350: da44 94bb 034d 96ba 5fe4 b13b 753a 44bb
00000360: 42b1 5ebb 6e66 05bc e36f 3dbb 1795 93bb
00000370: 0cae 08ba 0860 1dbb f37b a1bb 8703 053a
00000380: 34a7 a03b 7697 d33a 6589 c439 69e8 a83b
00000390: 43c4 8d3b 0f1d 0ebb 678a cb3b 7486 923b
000003a0: 2591 00bb eec4 8e3a 9ae1 e3ba d724 bf3b
000003b0: c84a 84ba f023 7c3a 94b8 8fbb 3cea 93bb
000003c0: bf35 503b 497a 73b9 56fe 19bb 1df3 a33b
000003d0: dbf3 78b9 b236 973b eec4 6f3a 05df 95bb
000003e0: 0268 f239 2896 b63b 192b 093b 1afe 1e3a
000003f0: b637 683b 4f4f c9ba 7ded d4bb db78 8dbb

bias_ih_l1 f4 [256]
0.017580807 0.009153812 0.031209162 0.016738376 0.020274498 0.058228225 0.081297256 0.008379217
0.020791823 0.06565333 0.035803426 0.02872024 0.01931917 0.024991535 0.066717684 0.01765359
0.00600543 0.08615368 0.049156122 0.0035582208 0.015381515 0.0039171698 0.017791633 0.035043273
0.011852365 0.11885398 0.08185458 0.014468772 0.20737371 0.07250165 0.018833918 0.06033482
0.017206976 0.017836316 0.0019494974 0.019167714 0.0147460485 0.0045043784 0.025862655 0.016590647
0.004848608 0.042264443 0.07022122 0.024169449 0.004427708 0.039366283 0.013251639 0.015268963
0.009393685 0.002033389 0.004275242 0.015437467 0.0055720895 0.053825945 0.022908093 0.014271135
0.04950599 0.08723508 0.045270123 0.002185896 0.010718332 0.005432144 0.10403121 0.013085193
0.012740746 0.009649436 0.020059934 0.023681754 0.02681617 0.1017628 0.052257348 0.008863045
0.018357856 0.035484035 0.01563277 0.012694728 0.028456697 0.034384925 0.064695135 0.0097342525
0.00532676 0.050573003 0.058249637 0.002731197 0.017731946 0.0032991038 0.021607947 0.027133066
0.011891332 0.06976851 0.10496158 0.016332151 0.080749616 0.09008648 0.023128686 0.044247
0.021286452 0.03055163 0.0013729475 0.022368465 0.015448942 0.003986801 0.0331618 0.015726946
0.004305984 0.025486875 0.035571635 0.03304492 0.0035109743 0.023461057 0.015204122 0.018578073
0.007496105 0.000572922 0.0037630359 0.01849732 0.0025875347 0.0390737 0.012615134 0.016039437
0.028030654 0.086100854 0.021657445 0.0015590786 0.006976345 0.0045283367 0.06483502 0.014652044
0.0056419102 0.038546074 0.047892928 -0.08494167 0.029556572 -0.03934324 0.03910983 0.01448017
0.066425145 -0.022381674 -0.0061871936 -0.00054004 0.08029841 0.07583238 -0.012483931 -0.07482793
0.013947477 -0.07452046 -0.011002944 0.025365317 -0.058331434 -0.030187918 0.044494174 -0.03014659
-0.04403028 -0.04241445 0.028004527 -0.05875301 -0.018539011 0.07096849 -0.076345295 0.023637041
0.058648802 0.036410484 0.014700472 0.037044007 0.046565592 -0.017805006 0.055415045 0.055531465
-0.01526736 0.034102116 0.009184123 0.061856214 -0.03658843 -0.028935341 -0.037163395 -0.050804235
0.037341345 -0.005615514 -0.03380184 0.05756772 -0.0052491073 0.09653806 -0.0016293317 -0.046905838
-0.036895927 0.0012669895 0.0107629 0.008925195 0.06318582 0.0030604622 -0.022459261 -0.027297625
0.018309465 0.013053963 0.029260777 0.02068307 0.026860619 0.06659041 0.084523246 0.0094638495
0.013165927 0.068259545 0.03825019 0.029640555 0.033832956 0.03189417 0.07135872 0.015299035
0.00598973 0.09423612 0.047590822 0.0038604564 0.0197204 0.0024984127 0.022316262 0.033128157
0.015243884 0.12154212 0.058378756 0.017751275 0.21568073 0.072558016 0.026730912 0.056812316
0.024577036 0.0133979255 0.0019262157 0.021207059 0.014500622 0.003317514 0.033034917 0.016083403
0.0034248584 0.04476635 0.07512812 0.029862003 0.0031184736 0.04271394 0.014295607 0.017781248
0.011088096 0.0016427799 0.0040960833 0.018839763 0.00798681 0.052343544 0.028384227 0.015742183
0.054548264 0.09191908 0.047793258 0.00214956 0.012720635 0.0040556216 0.110102594 0.013530297
00000000: a005 903c dff9 153c 5baa ff3c eb1e 893c
00000010: b416 a63c b880 6e3d 2d7f a63d fc48 093c
00000020: 9d53 aa3c 4175 863d 9da6 123d b546 eb3c
00000030: 3c43 9e3c 0cbb cc3c 48a3 883d 439e 903c
00000040: 33c9 c43b 5771 b03d ee57 493d 0a31 693b
00000050: c002 7c3c 9a5b 803b c2bf 913c 8989 0f3d
00000060: 6c30 423c b769 f33d 60a3 a73d 6e0e 6d3c
00000070: c659 543e bf7b 943d 9749 9a3c a521 773d
00000080: a5f5 8c3c 771d 923c 4786 ff3a 9c05 9d3c
00000090: 6999 713c 7799 933b ebdd d33c 1ce9 873c
000000a0: 12e1 9e3b 7b1d 2d3d 25d0 8f3d 02ff c53c
000000b0: 4f16 913b 8a3e 213d 671d 593c ac2a 7a3c
000000c0: f8e7 193c 9b42 053b 5417 8c3b 6eed 7c3c
000000d0: 1396 b63b 9878 5c3d c1a9 bb3c 7bd1 693c
000000e0: cbc6 4a3d 4ea8 b23d 2a6d 393d 4041 0f3b
000000f0: f19b 2f3c 2000 b23b 510e d53d 4763 563c
00000100: 90be 503c ab18 1e3c bb54 a43c 3d00 c23c
00000110: 96ad db3c 0469 d03d cd0b 563d 4e36 113c
00000120: 3763 963c b557 113d 4b10 803c 8cfd 4f3c
00000130: 051e e93c 35d7 0c3d e27e 843d 6a7c 1f3c
00000140: 1a8c ae3b a325 4f3d 2c97 6e3d e2fd 323b
00000150: 9642 913c c735 583b 2603 b13c 2a46 de3c
00000160: ddd3 423c cbe2 8e3d 19f6 d63d 01cb 853c
00000170: 0e60 a53d 437f b83d 5f78 bd3c 583c 353d
00000180: ed60 ae3c 6947 fa3c 79f4 b33a 123e b73c
00000190: 8f1d 7d3c b6a3 823b abd4 073d ccd5 803c
000001a0: 3619 8d3b dac9 d03c 90b3 113d 1c5a 073d
000001b0: 6018 663b 6731 c03c b61a 793c 0b31 983c
000001c0: e3a1 f53b 2530 163a 449d 763b b187 973c
000001d0: a193 293b be0b 203d b5af 4e3c 2365 833c
000001e0: 8ba0 e53c a555 b03d f46a b13c ff59 cc3a
000001f0: d399 e43b 7162 943b 39c8 843d 200f 703c
00000200: c6df b83b 7de2 1d3d 602b 443d e6f5 adbd
00000210: a020 f23c 6126 21bd a131 203d 3c3e 6d3c
00000220: e809 883d c659 b7bc f1bd cabb 7991 0dba
00000230: 7e73 a43d 024e 9b3d 6789 4cbc 633f 99bd
00000240: f583 643c 2f9e 98bd b145 34bc edca cf3c
00000250: f1ec 6ebd a74c f7bc 863f 363d fbf5 f6bc
00000260: 1859 34bd c6ba 2dbd c069 e53c ffa6 70bd
00000270: 20df 97bc ed57 913d ec5a 9cbd 78a2 c13c
00000280: ba39 703d 2923 153d 40da 703c 75bb 173d
00000290: 90bb 3e3d cedb 91bc e3fa 623d f674 633d
000002a0: f323 7abc a9ae 0b3d 0179 163c f15c 7d3d
000002b0: c0dd 15bd cf09 edbc a538 18bd 1a18 50bd
000002c0: 3df3 183d 5802 b8bb cc73 0abd 21cc 6b3d
000002d0: b400 acbb bfb5 c53d 4d8f d5ba 5620 40bd
000002e0: 2f20 17bd 1d11 a63a e056 303c fb3a 123c
000002f0: 9167 813d 0992 483b 7cfc b7bc 459f dfbc
00000300: bbfd 953c 4ae0 553c 4cb4 ef3c 8b6f a93c
00000310: cd0a dc3c 8e60 883d 861a ad3d 430e 1b3c
00000320: e6b5 573c a9cb 8b3d 3bac 1c3d c0d0 f23c
00000330: 6d94 0a3d 76a3 023d 8524 923d cea8 7a3c
00000340: 7f45 c43b defe c03d 98ee 423d b6ff 7c3b
00000350: ad8c a13c 69bc 233b 98d0 b63c 64b1 073d
00000360: 7cc1 793c 13eb f83d 901e 6f3d 1f6b 913c
00000370: 69db 5c3e 4c99 943d c9fa da3c 08b4 683d
00000380: c855 c93c f982 5b3c 1379 fc3a 6dba ad3c
00000390: 0494 6d3c a66a 593b 9f4f 073d 57c1 833c
000003a0: 9773 603b ec5c 373d c6dc 993d 29a1 f43c
000003b0: 4e5f 4c3b d0f4 2e3d 1f38 6a3c fba9 913c
000003c0: d8aa 353c 8c52 d73a 7038 863b d955 9a3c
000003d0: 1cdb 023c 2f66 563d 0a86 e83c c0f5 803c
000003e0: 006e 5f3d 1240 bc3d ddc2 433d a2df 0c3b
000003f0: 366a 503c 05e5 843b 787d e13d 2eae 5d3c
