test_TL/lstm_TL_u1.pth (torch, 413736 bytes, 18 tensors)

weight_ih_l0 f4 [256, 3]
0	0x3ddbd94e	0.10734807
1	0x3b547f8b	0.0032424654
2	0x3e02d6db	0.12777273
3	0xbd01d303	-0.031695377
4	0xbe1f6112	-0.15564373
5	0xbdf7d83e	-0.12101792
6	0xbd3279be	-0.043573134
7	0x3dfa2ac4	0.12215188
8	0x3ec5b045	0.38611045
9	0x3b6bf4f5	0.003600416
10	0x3d93706b	0.071991764
11	0xbd99065c	-0.07471916
12	0x3dd8c3b3	0.10584202
13	0x3c67a78b	0.014139066
14	0xbe74a956	-0.23892722
15	0xbd989594	-0.07450405
16	0x3decf6f1	0.11570538
17	0x3e876490	0.2644391
18	0xbd389fa5	-0.045074124
19	0xbd850600	-0.06495285
20	0x3ec5725c	0.38563812
21	0xbd811ba0	-0.06304097
22	0x3c329280	0.010899186
23	0x3d97372b	0.07383569
24	0xbd86d4d0	-0.065835595
25	0x3d027e7c	0.031858906
26	0x3da1c98b	0.078997694
27	0x3dc00d72	0.093775645
28	0x3d0aa4cd	0.033848573
29	0x3f02fa0f	0.5116281
30	0xbcc5889e	-0.024112996
31	0xbd01db79	-0.031703446
32	0x3eb38325	0.35060993
33	0xbcaa0985	-0.020756492
34	0x3e1e141e	0.15437362
35	0x3e3f46e4	0.18679386
36	0x3c1330e6	0.008983826
37	0x3b82d3e9	0.003992547
38	0x3e2007eb	0.1562802
39	0xbd5951c5	-0.053056497
40	0x3e3cbca9	0.18431343
41	0x3f08f08e	0.5349206
42	0xbd60d462	-0.054890044
43	0x3a41fd65	0.00074001245
44	0xb8a8934e	-8.038302e-05
45	0x3d523d51	0.051328007
46	0xbdf86285	-0.12128166
47	0xbdbff243	-0.0937238
48	0x3d00aa47	0.03141239
49	0x3d16193f	0.03664517
50	0xbcebdbc8	-0.028791323
51	0x3dfa3108	0.12216383
52	0xbb8e4e3c	-0.0043428224
53	0x3f283cb7	0.65717643
54	0xbbeeeafc	-0.007291196
55	0xbddb22a4	-0.106999665
56	0x3cbbcede	0.02292579
57	0xbdcd5bd5	-0.10027281
58	0xbd068cf3	-0.032849263
59	0x3e8772ea	0.2645486
60	0xbd119bb6	-0.03554889
61	0xbdcc37dc	-0.09971592
62	0x3e2a46ef	0.16628622
63	0x3d4e6f5f	0.05039918
64	0x3d8f6812	0.07002272
65	0x3e4492f2	0.1919668
66	0x3e403056	0.18768439
67	0x3d6e7df2	0.05822558
68	0x3e4267c5	0.18984897
69	0x3dbbc213	0.09167876
70	0xbd8203c8	-0.063483775
71	0x3db99640	0.09061861
72	0xbbdd7d28	-0.0067593046
73	0x3c42d67f	0.01189196
74	0x3db8407e	0.08996676
75	0xbd3047df	-0.04303729
76	0xbd25eb34	-0.04050751
77	0x3d189430	0.037250698
78	0x3dd90387	0.10596376
79	0xbd26d5c4	-0.040731207
80	0x3e5e2c0e	0.21696493
81	0x3d22b01a	0.039718725
82	0xbc801e82	-0.015639547
83	0x3e850e32	0.25987393
84	0x3debb96e	0.11509977
85	0x3dfe4a71	0.12416542
86	0xbe45e6c5	-0.19326313
87	0xbe1e3a34	-0.1545189
88	0xbc4fefac	-0.01269142
89	0x3e8e31ee	0.27772468
90	0xbc85d5a0	-0.016337216
91	0x3d9e30a2	0.0772412
92	0x3da7881a	0.08180256
93	0xbdc9268d	-0.09821806
94	0x3da01fce	0.07818566
95	0x3dbfb59f	0.09360813
96	0x3c989f28	0.01863058
97	0x3d397138	0.04527399
98	0x3e161460	0.1465621
99	0x3e076e9f	0.13225792
100	0x3d8b6916	0.06807153
101	0x3ec11b47	0.37716123
102	0xbe02358e	-0.12715742
103	0xbe0d055c	-0.13771576
104	0xbe34c210	-0.17652154
105	0xbd412391	-0.04715306
106	0x3d93feec	0.07226357
107	0x3e144256	0.1447843
108	0x3e8ea071	0.27856782
109	0x3e99c4d0	0.3003297
110	0x3f2dbdfb	0.6786801
111	0xbd773532	-0.060353465
112	0x3dbeebf4	0.09322348
113	0x3e0533c9	0.13008036
114	0xbcea0bfa	-0.028570164
115	0x3e1bec69	0.15226902
116	0x3eba17c4	0.36346257
117	0x3e23c088	0.15991414
118	0xbbe8c288	-0.007103268
119	0x3d11ec1b	0.03562556
120	0x3b930fd3	0.0044879704
121	0x3d4997ca	0.049217023
122	0x3ee17045	0.44030967
123	0xbd895979	-0.06706519
124	0xbdf486e8	-0.11939794
125	0x3ce0bc9f	0.027433692
126	0x3d7b1de8	0.061307818
127	0xbd869ad5	-0.065725006
128	0xbd54756a	-0.051869787
129	0x3cdd5e95	0.02702264
130	0xbc101375	-0.008793701
131	0xbd46c354	-0.048526123
132	0x3ddf17fe	0.10893248
133	0xbdd505d1	-0.104015
134	0x3e912951	0.28351834
135	0xbd6aa1f0	-0.057283342
136	0xbd8b79e3	-0.068103574
137	0x3d705fa2	0.058684953
138	0xbd9cd0e1	-0.07657028
139	0xbd1c0e26	-0.03809943
140	0x3e419dfa	0.1890792
141	0xbd39a678	-0.045324773
142	0x3d0d44b6	0.034489356
143	0x3ddefd5b	0.108881675
144	0x3e60faf1	0.21970727
145	0x3e1ad14e	0.15118906
146	0x3eaeebe0	0.34164333
147	0xbe13b04c	-0.1442272
148	0xbdde1a9d	-0.1084492
149	0x3d829eac	0.063779205
150	0x3df489ef	0.11940371
151	0x3e0bd4c4	0.13655382
152	0x3deaf934	0.11473313
153	0xbc2c0a2d	-0.010500473
154	0xbd26bb80	-0.040706158
155	0xbda38f7a	-0.0798635
156	0xbddc2e62	-0.10751034
157	0xbdda155e	-0.10648607
158	0x3e8a8240	0.27052498
159	0xbc37f2ef	-0.0112273535
160	0x3d971378	0.0737676
161	0xbd6aca22	-0.057321675
162	0xbde9ca87	-0.11415582
163	0x3d40c9a0	0.047067285
164	0x3d6fd221	0.058550004
165	0xbdc2ac9c	-0.09505579
166	0x3d9a7e7f	0.075436585
167	0x3e578661	0.21047355
168	0x3d96f874	0.073716074
169	0x3ca5be7c	0.020232432
170	0x3ea7b37c	0.32754123
171	0x3d31b11e	0.043381803
172	0xbd064adf	-0.032786246
173	0xbbf18e62	-0.0073717097
174	0x3dff6bca	0.12471731
175	0x3d62b279	0.055345986
176	0x3e170f39	0.147519
177	0x3db81a2d	0.08989368
178	0xbcd3902d	-0.025825584
179	0x3e53ae7b	0.20672028
180	0x3e800ef5	0.2501141
181	0x3e11fb80	0.14256096
182	0x3f20b460	0.6277523
183	0x3de2dc94	0.11077228
184	0xbd3a8ecb	-0.045546334
185	0x3e3ff9cc	0.18747634
186	0x3d42afb4	0.047530845
187	0xbc89f0e6	-0.016838502
188	0x3e25b14d	0.16180916
189	0xbd1278a7	-0.035759594
190	0xbd94ce14	-0.07265869
191	0x3e8e44f4	0.27786982
192	0x3d8f359e	0.069926485
193	0x3d7fdf54	0.06246884
194	0x3e0c4cde	0.13701198
195	0xbe1efae9	-0.15525402
196	0xbd940af5	-0.072286524
197	0xbe65c4dc	-0.22438377
198	0xbcd9c0f4	-0.026581265
199	0xbdb54ba7	-0.0885232
200	0x3d581bca	0.052760877
201	0xbd0cb029	-0.034347687
202	0xbde46f4c	-0.11154041
203	0xbf17b9f8	-0.5926814
204	0x3d976e41	0.07394076
205	0x3db23ebe	0.087033734
206	0xbf28a3be	-0.6587485
207	0x3e02ba57	0.12766396
208	0x3e0652ee	0.13117573
209	0x3d0f3c22	0.034969456
210	0xbdc416e2	-0.09574677
211	0x3ccce0ee	0.025009599
212	0x3e8685c8	0.26273942
213	0x3e3590c4	0.17731005
214	0x3b03de9d	0.0020121702
215	0x3d3b83da	0.04578004
216	0xbdb2f6ed	-0.087385036
217	0xbdcfa766	-0.101393506
218	0xbe0a0fe2	-0.13482621
219	0x3e1389f0	0.14408088
220	0x3e1fad6d	0.155935
221	0x3e90faec	0.28316438
222	0x3dedd9a9	0.11613781
223	0xbd8336b9	-0.06406922
224	0xbdd68680	-0.104748726
225	0x3cbbca3d	0.022923583
226	0x3ddc954d	0.10770664
227	0x3e305503	0.1721993
228	0x3d9cfa81	0.07664967
229	0xbc80fceb	-0.0157456
230	0xbe7c0098	-0.24609601
231	0x3d9fe0c1	0.0780654
232	0x3d463cef	0.048397955
233	0x3e023b64	0.12717968
234	0xbdb1d010	-0.08682263
235	0x3d98a50e	0.07453357
236	0xbeff3525	-0.49845234
237	0xbcef610b	-0.029221078
238	0x3c9e5b35	0.0193306
239	0xbdaacc9b	-0.08339807
240	0x3b05907e	0.0020380314
241	0xbe0bdab1	-0.13657643
242	0xbe8c46a3	-0.27397642
243	0x3dc08eeb	0.094022594
244	0xbd38c323	-0.045107972
245	0x3e7e3952	0.24826553
246	0x3bf9050f	0.00759948
247	0x3d6b9b3c	0.05752109
248	0x3d33cda9	0.043897305
249	0xbd961b55	-0.07329432
250	0xbcfda86a	-0.030964095
251	0x3e5c52fa	0.21516028
252	0x3d48f31e	0.04905998
253	0x3dfcbecb	0.12341078
254	0xbddd89bd	-0.10817287
255	0x3c80f294	0.01574067

weight_hh_l0 f4 [256, 64]
0	0xbe79dce5	-0.24400671
1	0xbb0b1992	-0.0021224958
2	0x3e015709	0.12630858
3	0xbd1c2318	-0.038119406
4	0xbdaba142	-0.08380367
5	0xbe3e7fd3	-0.18603449
6	0x3dcff89a	0.10154839
7	0x3b1984d3	0.0023425117
8	0x3db3b406	0.08774571
9	0xbb9df303	-0.004820229
10	0xbded8a6a	-0.11598666
11	0xbd919fa0	-0.07110524
12	0xbd90f035	-0.07077066
13	0xbd4f5d26	-0.050625943
14	0x3dd26180	0.10272503
15	0x3e34eec7	0.17669211
16	0x3ddad98c	0.10686025
17	0x3e062b39	0.13102426
18	0x3e27d182	0.16388515
19	0x3d7700ee	0.06030362
20	0x3e2ad7ad	0.16683836
21	0xbdea8095	-0.11450306
22	0xbe5b12ab	-0.2139384
23	0xbe1675a1	-0.1469331
24	0x3dee660d	0.116405584
25	0xbdf7df5d	-0.1210315
26	0xbd2d9098	-0.042374223
27	0xbdfbc8a0	-0.122941256
28	0xbdb638ab	-0.08897527
29	0x3df7727c	0.12082383
30	0x3d68baea	0.05681888
31	0x3d1108df	0.03540885
32	0xbb1c4d22	-0.0023849686
33	0x3e467c61	0.19383384
34	0xbe32a8d6	-0.17447218
35	0x3e5f21cc	0.21790236
36	0x3c8de1c7	0.017319573
37	0x3d4ed044	0.050491586
38	0x3c2c682f	0.010522886
39	0x3e4e598d	0.20151348
40	0x3e5c5f9e	0.2152085
41	0xbd58646e	-0.052830152
42	0xbe240545	-0.16017635
43	0x3de18d3a	0.11013265
44	0x3d1568e7	0.036476996
45	0x3c9995d3	0.0187482
46	0x3da7a7bc	0.0818629
47	0xbda7d244	-0.08194402
48	0xbe341704	-0.17586905
49	0x3d8aec43	0.067833446
50	0xbd7c017f	-0.061524864
51	0xbe0935ed	-0.13399477
52	0x3da16fe3	0.07882669
53	0xbdff21c7	-0.124576144
54	0x3dcc50e0	0.09976363
55	0x3daa2c19	0.08309192
56	0xbd9da117	-0.07696741
57	0xbb4b2ac2	-0.0031000827
58	0xbdb3d1c2	-0.087802425
59	0x3d18217c	0.03714131
60	0x3df95321	0.12174059
61	0xbda467eb	-0.08027633
62	0xbda23be4	-0.079215795
63	0x3a31f5d0	0.0006788643
64	0x3ded21fc	0.11578748
65	0xbddf7a18	-0.109119594
66	0xbd8ebcc2	-0.069695964
67	0x3ddfe9da	0.109332755
68	0xbd0abfc3	-0.033874284
69	0xbdc21691	-0.094769605
70	0x3cdb5321	0.026773037
71	0x3c1978c9	0.009367176
72	0xbcea2e1d	-0.028586442
73	0xbd900661	-0.07032467
74	0x3df9065e	0.121594176
75	0xbc6ee198	-0.014580153
76	0x3e1f90ec	0.15582627
77	0xbd5aeb1e	-0.05344688
78	0xbdc15d41	-0.09441615
79	0x3d5706a1	0.052496556
80	0xbdbd3044	-0.092377216
81	0x3dbd9c2b	0.09258302
82	0x3d81399b	0.063098155
83	0xbe11cc32	-0.1423805
84	0x3b3a8055	0.002845784
85	0xbdf8b339	-0.12143559
86	0x3c8f2a4a	0.01747622
87	0x3e357ac1	0.17722608
88	0xbda55fd0	-0.080749154
89	0x3e059d32	0.13048247
90	0xbd0a401f	-0.033752557
91	0x3d58f8fb	0.05297182
92	0xbcbbb6d3	-0.022914326
93	0xbd2d276f	-0.042273935
94	0x3d238bea	0.039928354
95	0x3ca56d98	0.02019386
96	0xbb28bde0	-0.002574794
97	0xbdd69d94	-0.104792744
98	0x3e286e21	0.16448261
99	0x3e1018ff	0.14072035
100	0x3df952bf	0.12173986
101	0xbddedc64	-0.1088188
102	0x3caba969	0.020954804
103	0xbe24342c	-0.16035527
104	0xbdf0f7ab	-0.11765989
105	0xbe0247ca	-0.12722698
106	0xbd4024a2	-0.046909936
107	0xbcad5a5b	-0.021161249
108	0xbb8d9a21	-0.004321352
109	0xbdaf3c10	-0.08556378
110	0xbdaec7cc	-0.08534202
111	0x3d2815bc	0.041036353
112	0x3df99048	0.121857226
113	0x3cb1be16	0.021697085
114	0x3dbca87d	0.09211824
115	0x3da39c27	0.07988768
116	0x3e06a693	0.1314948
117	0x3d3fb6f8	0.046805352
118	0xbda88be2	-0.082298055
119	0xbdcb2a38	-0.09920162
120	0x3df4f995	0.119616665
121	0xbcadd9ae	-0.021221962
122	0xbd8fa09e	-0.07013057
123	0x3cb11fe2	0.021621648
124	0x3dab8400	0.083747864
125	0xbd0d7054	-0.034530953
126	0xbdc2feb6	-0.095212385
127	0xbcdb8ce7	-0.026800586
128	0xbcd82660	-0.026385486
129	0x3dd041ff	0.10168838
130	0x3e8d39b5	0.2758309
131	0xbd68d859	-0.05684695
132	0x3be0d9c6	0.006861898
133	0xbe2be8ad	-0.16787978
134	0xbe0942c6	-0.13404378
135	0x3d8a4a5e	0.06752466
136	0xbc001c42	-0.007819237
137	0xbd2b3536	-0.041798793
138	0xbe1f1df8	-0.15538776
139	0xbc26f7f0	-0.010190949
140	0x3cb4e9bb	0.022084108
141	0x3dcac111	0.09900106
142	0x3e5bcf20	0.2146573
143	0x3e4a46d1	0.19753577
144	0x3e38f765	0.18063124
145	0x3da3524e	0.07974683
146	0x3e1ad316	0.15119585
147	0x3c95c597	0.018282695
148	0x3e8c91bb	0.27454934
149	0xbdc06c07	-0.093956046
150	0xbdebcda9	-0.11513836
151	0xbbecfc53	-0.007232228
152	0x3da7088f	0.08155929
153	0xbcf28dea	-0.029608686
154	0xbcd08a5d	-0.025456602
155	0xbea1284e	-0.31476063
156	0xbdf7485d	-0.12074349
157	0x3e2036a9	0.15645851
158	0xbde34edf	-0.11099028
159	0x3e0e40c7	0.13891898
160	0xbd2a961b	-0.041647058
161	0x3d38acbf	0.04508662
162	0xbe831863	-0.25604543
163	0x3e95406f	0.2915072
164	0xbda47015	-0.080291905
165	0x3d9938d4	0.07481542
166	0x3dfc758a	0.12327106
167	0x3da4feef	0.08056437
168	0x3d2fefe7	0.042953398
169	0x3d9615a0	0.073283434
170	0x3d09c98a	0.03363947
171	0xbcb1d15b	-0.021706274
172	0xbdaffc66	-0.08593063
173	0x3cfe0220	0.031006873
174	0x3dcd7605	0.10032276
175	0xbe0b42e0	-0.1359973
176	0xbe8d8f88	-0.27648568
177	0xbd84fa8a	-0.06493099
178	0xbb91ba2e	-0.004447243
179	0x3c9765cd	0.01848116
180	0xbd2a22eb	-0.041537207
181	0xbd9da444	-0.07697347
182	0x3c24ce94	0.010059018
183	0x3e091c98	0.13389814
184	0xbdec0edb	-0.11526271
185	0xbe6d5b40	-0.2317934
186	0xbbb981d5	-0.005661229
187	0xbd42f3d5	-0.047595818
188	0x3d82afc8	0.06381184
189	0xbcdec32e	-0.027192678
190	0x3d8514db	0.064981185
191	0xbd8b7b85	-0.06810669
192	0x3dc2b49b	0.09507104
193	0xbd5b7091	-0.05357415
194	0xbd7f8005	-0.06237795
195	0x3e16b566	0.14717636
196	0x3dc6059d	0.096690394
197	0x3d8cb5fa	0.06870647
198	0x3c83c5f9	0.016085612
199	0x3d7600f6	0.06005951
200	0x3d5ed8e8	0.054406077
201	0x3d77f47a	0.060535885
202	0x3da9dbd8	0.08293885
203	0xbcea3ce5	-0.02859349
204	0x3b76c636	0.0037654764
205	0xbda5380c	-0.08067331
206	0x3c9f050b	0.019411584
207	0xbe088fc4	-0.13336092
208	0xbdb3f988	-0.08787829
209	0xbbc8ed78	-0.006131824
210	0x3cfef2e4	0.031121679
211	0x3d942d14	0.072351605
212	0x3d1c4775	0.038154084
213	0x3d5c6a8a	0.05381254
214	0x3d66c661	0.056341533
215	0x3ca93c5f	0.02065867
216	0xbe385590	-0.1800139
217	0x3d862f51	0.06551994
218	0xbe057efd	-0.13036723
219	0xbca08968	-0.01959677
220	0x3d8c2b64	0.068442136
221	0x3d8dc40a	0.06922157
222	0x3e2a3661	0.16622306
223	0x3c0c28d1	0.008554653
224	0x3dceec53	0.10103669
225	0x3d0634b7	0.032765117
226	0x3c70e72c	0.014703553
227	0xbdaa186b	-0.083054386
228	0x3e6e62db	0.23279898
229	0xbe1cfe5e	-0.15331408
230	0xbd3afc8c	-0.045651004
231	0xbc5b2841	-0.0133762965
232	0xbe17b781	-0.14816095
233	0x3d4205e6	0.047368906
234	0x3de19a1d	0.11015723
235	0xbdca262f	-0.09870564
236	0x3dc09793	0.094039105
237	0x3dfcbde9	0.1234091
238	0xbdf68e0e	-0.120388135
239	0xbc8309e7	-0.015995933
240	0xbd5441b9	-0.05182049
241	0xbdd31842	-0.10307361
242	0x3e2e9253	0.17048006
243	0x3dc1a29d	0.09454844
244	0x3d9b30ab	0.07577642
245	0x3c82f4a4	0.015985794
246	0x3d16fbc6	0.036861204
247	0xbd12e3a4	-0.035861626
248	0x3db6cf58	0.089262664
249	0x3e2e65e1	0.17031051
250	0x3c6149ac	0.013750475
251	0x3d11d43c	0.035602793
252	0x3e0caaa8	0.13736975
253	0xbe0ced8a	-0.13762489
254	0xbc5793d6	-0.013157805
255	0xbda9ba8c	-0.08287534

bias_ih_l0 f4 [256]
0	0xbd031d97	-0.03201064
1	0xbdc9b5a5	-0.09849099
2	0x3d9db131	0.07699812
3	0xbd3c1e07	-0.045927074
4	0xbd1ca055	-0.038238842
5	0x3d9d672b	0.07685693
6	0x3db29dda	0.08721514
7	0xbcf96e26	-0.03044803
8	0xbc9a6212	-0.018845592
9	0x3e50f742	0.20406821
10	0x3cc3d860	0.023906887
11	0x3d989d5c	0.07451889
12	0x3dea6590	0.11445153
13	0xbb94a407	-0.004536155
14	0xbc704f6f	-0.014667376
15	0xbe0a259d	-0.13490911
16	0xbdf019d1	-0.11723674
17	0xbd9993ba	-0.0749888
18	0xbd838301	-0.064214714
19	0xbc3f082f	-0.011659666
20	0xbdf206fd	-0.11817739
21	0xbd640286	-0.05566647
22	0x3d1ce330	0.0383026
23	0x3d3f0142	0.04663206
24	0xbbd5aa1f	-0.006520524
25	0x3cd81cc6	0.026380908
26	0xbdd3ddbc	-0.10345027
27	0xbe01ce6b	-0.12676398
28	0x3e0f0a5c	0.13968796
29	0xbccf945d	-0.0253393
30	0x3cbe0935	0.02319775
31	0x3d55236f	0.052035745
32	0x3b75f5b8	0.0037530493
33	0xbd0d97ac	-0.034568474
34	0xbe4b2c30	-0.19841075
35	0xbda94916	-0.08265893
36	0x3e4011da	0.1875681
37	0x3cfb2da8	0.030661419
38	0xbd16bcbc	-0.036801085
39	0x3e076030	0.13220286
40	0x3e33e4a4	0.17567688
41	0xbe019018	-0.12652624
42	0x3c578467	0.013154126
43	0x3df52124	0.11969212
44	0xbdca4780	-0.09876919
45	0xbd733f86	-0.059386753
46	0xbbd46bf8	-0.0064825974
47	0xbc90153a	-0.017588247
48	0x3ca2a296	0.019852918
49	0x3d8b7804	0.068100005
50	0x3c02716d	0.007961613
51	0x3db23c9b	0.08702966
52	0x3d2cba6b	0.04216997
53	0x3d562b4c	0.052287385
54	0xbe0cf01b	-0.13763468
55	0x3dd3ebaa	0.10347684
56	0x3de54257	0.11194294
57	0x3dae18a9	0.08500797
58	0xbdea370a	-0.11436279
59	0x3c574e47	0.013141221
60	0x3d28132e	0.041033916
61	0x3de7493f	0.112932675
62	0x3d8692ac	0.06570944
63	0x3c84cd59	0.016211199
64	0x3ce337b0	0.027736515
65	0xbd4303a4	-0.047610894
66	0x3d3e162a	0.046407856
67	0x3cc0d0d1	0.023537071
68	0xbd939ce3	-0.07207658
69	0xbdaea894	-0.085282475
70	0x3e0e1585	0.13875397
71	0x3e1ee58b	0.15517251
72	0xbe0d4930	-0.1379745
73	0xbc1532ad	-0.00910632
74	0x3cc544c1	0.024080636
75	0x3c0e0dc1	0.008670271
76	0x3dc3a38d	0.09552679
77	0xbdb58119	-0.08862514
78	0xbc58a50f	-0.013222947
79	0xbd038d9a	-0.032117464
80	0x3dc3da92	0.09563173
81	0xbd433325	-0.047656197
82	0x3da484a7	0.08033114
83	0x3d1f067f	0.038824555
84	0xbcadf0c3	-0.021232968
85	0xbca43341	-0.020043971
86	0x3d0897c9	0.03334788
87	0x3cf2478e	0.029575136
88	0xbb8eabb2	-0.004353964
89	0xbd1289e5	-0.035776038
90	0x3e057225	0.13031824
91	0x3d7299bf	0.059228655
92	0x3d8c1cc5	0.06841425
93	0xbc10dca7	-0.00884167
94	0xbdb9713d	-0.090548016
95	0xbd3a3d0b	-0.04546837
96	0x3d67041f	0.056400415
97	0x3d0fb634	0.03508587
98	0x3d6df0e8	0.058091074
99	0x3e01d8a3	0.12680297
100	0x3e8133f4	0.2523495
101	0x3d4f4c12	0.050609656
102	0xbd692993	-0.056924414
103	0x3b09b4ad	0.0021012232
104	0x3de7b701	0.11314202
105	0x3d5444e2	0.051823504
106	0xbcdcf7a4	-0.026973553
107	0x3de5b5a5	0.112162866
108	0x3bff255f	0.0077864374
109	0x3cf302fb	0.029664507
110	0xbd80c44e	-0.06287442
111	0x3e2fa1f4	0.17151624
112	0x3e74deea	0.2391316
113	0x3da222a2	0.07916762
114	0xbd6119e1	-0.05495632
115	0xbdb5c690	-0.088757634
116	0x3d646297	0.055758085
117	0x3e1025e1	0.1407695
118	0xbd9c0577	-0.0761823
119	0xba02b283	-0.0004985707
120	0xbdb27d8b	-0.08715352
121	0x3dc9726b	0.098362766
122	0x3d007f0f	0.031371173
123	0x3e1445dd	0.14479776
124	0xbc6b7f36	-0.014373591
125	0xbbfcf56c	-0.0077196863
126	0x3c7667af	0.0150393685
127	0xbcbf43d4	-0.023347773
128	0x3dbc250f	0.09186756
129	0xbd4fe241	-0.050752882
130	0x3b3aacb4	0.0028484287
131	0x3db7c177	0.08972447
132	0xbd48e1d6	-0.0490435
133	0x3ced6451	0.028978499
134	0xbdfeab01	-0.1243496
135	0x3cd6df9d	0.026229674
136	0xbb9d123a	-0.0047934325
137	0x3d79c4b9	0.060978625
138	0x3da783f4	0.08179465
139	0xbd44f191	-0.04808194
140	0xbd0ec9d7	-0.03486046
141	0x3d5361e0	0.051607013
142	0xbde22d9c	-0.110438555
143	0x3c8f778d	0.017513061
144	0x3da73151	0.08163703
145	0xbd44957d	-0.047994126
146	0x3de2202a	0.11041291
147	0x3c68b595	0.014203449
148	0xbc6b07ba	-0.014345104
149	0x3c74488d	0.014909876
150	0xbdeb051c	-0.11475584
151	0x3d9b99e6	0.07597713
152	0xbbd77753	-0.006575504
153	0xbdbe5331	-0.09293211
154	0xbdb792a1	-0.08963514
155	0x3d9ca9c5	0.076495685
156	0xbde9540d	-0.113929845
157	0x3880c2b5	6.1397826e-05
158	0xbd2ebfb3	-0.042663287
159	0x3dfdf251	0.12399734
160	0x3d67f39b	0.056628805
161	0xbddc15b8	-0.1074633
162	0xbd817edd	-0.063230254
163	0xbd4523b9	-0.04812977
164	0x3dc07529	0.093973465
165	0x3d9852a2	0.07437636
166	0xbd3a1159	-0.0454267
167	0xbd3230ee	-0.043503694
168	0x3e09704f	0.13421749
169	0x3e01eba0	0.1268754
170	0xbe09a4ba	-0.13441744
171	0x3a0aa22a	0.00052884466
172	0x3e1e241f	0.15443467
173	0xbd80a553	-0.06281533
174	0xbbfbb7f7	-0.0076818424
175	0x3caaff2c	0.020873629
176	0x3d7d8137	0.061890807
177	0x3c64c3c7	0.013962693
178	0xbe093033	-0.13397293
179	0x3d90abcc	0.07064018
180	0xbcacd1c8	-0.021096125
181	0xbd18c164	-0.037293807
182	0xbd17fc39	-0.037105773
183	0x3d9284c9	0.07154233
184	0x3c245b52	0.010031538
185	0xbc8db931	-0.01730022
186	0x3db6de1d	0.089290835
187	0xbaa389ee	-0.0012477019
188	0x3ccd3f5b	0.025054624
189	0xbcc3b215	-0.023888627
190	0x3ccf9e51	0.025344046
191	0x3d8b7c7b	0.06810852
192	0xbd82adc3	-0.06380799
193	0xbd4bfab6	-0.049799643
194	0x3db88dce	0.09011422
195	0xbdf967c7	-0.12177997
196	0x3ded89a8	0.115985215
197	0xbccc476f	-0.024936406
198	0xbc6d545f	-0.014485448
199	0xbc92146e	-0.017832007
200	0x3d1e4e85	0.0386491
201	0x3e33257a	0.17494765
202	0xbc97c5db	-0.018526962
203	0x3e0df59d	0.13863225
204	0xbc5fd2ff	-0.013661145
205	0x3cc648db	0.024204662
206	0xbe0a7583	-0.1352139
207	0xbe0db741	-0.13839437
208	0xbd76ac84	-0.060223117
209	0xbc91b5b7	-0.017786844
210	0xbcd6173c	-0.026134126
211	0x3db15be5	0.086601056
212	0xbd9d1fc2	-0.07672073
213	0x3dd2e84a	0.10298212
214	0xbcea1b30	-0.028577417
215	0xbd5dd881	-0.054161552
216	0x3da7b901	0.081895836
217	0x3dc09a56	0.09404437
218	0x3b423d88	0.0029638726
219	0xbbf47057	-0.007459681
220	0xbde52a53	-0.11189713
221	0xbda8201d	-0.0820925
222	0xbdd209a3	-0.10255744
223	0x3d6ae4c5	0.057347078
224	0xbd8350f7	-0.06411927
225	0x3c4396dd	0.011937824
226	0x3dfce494	0.12348285
227	0x3dc74cfc	0.097314805
228	0x3e7c27fb	0.24624626
229	0xbbfdf0bd	-0.0077496455
230	0x3d37c169	0.044862185
231	0x3da20b81	0.079123504
232	0x3de9d020	0.1141665
233	0x3dca37a5	0.098738946
234	0x3dea9446	0.11454062
235	0x3cdc61e9	0.026902156
236	0xbd1b83be	-0.037967436
237	0x3d3ca5ce	0.04605656
238	0x3c4bf534	0.012448598
239	0x3ce132a6	0.027489971
240	0x3e20e4de	0.15712306
241	0xbe028fd5	-0.1275018
242	0xbd5e9691	-0.05434281
243	0xbdd494a1	-0.10379911
244	0x3c553cf1	0.013015018
245	0xbd9ae8f2	-0.07563962
246	0x3e062012	0.13098171
247	0x3d4da66d	0.050207544
248	0xbda83301	-0.08212853
249	0x3da92319	0.082586475
250	0xbdd7d950	-0.10539496
251	0x3e0202c6	0.1269637
252	0x3e3e281d	0.1856999
253	0x3cf76d5d	0.030203516
254	0xbc256448	-0.01009471
255	0x3e1d8602	0.15383151

bias_hh_l0 f4 [256]
0	0xbd79dc7f	-0.061001297
1	0xbd82e67e	-0.06391619
2	0xbd970632	-0.073742285
3	0x3dc38b93	0.09548106
4	0x3d983e1f	0.07433724
5	0xbd1306cc	-0.035895154
6	0x3e1b8aa1	0.15189601
7	0xbd79416f	-0.060853418
8	0xbdde67ad	-0.10859618
9	0x3dc4642a	0.09589417
10	0xbba85c4b	-0.0051379553
11	0xbd4447d7	-0.047920074
12	0x3d917e4a	0.07104166
13	0xbd6647a5	-0.05622067
14	0xbdcf1052	-0.10110535
15	0x3d67e66b	0.056616228
16	0xbd83730b	-0.06418427
17	0x3e05ee0a	0.13079086
18	0xbdd932dc	-0.10605404
19	0x3d1e0c13	0.038585734
20	0xbd5ee0f4	-0.05441375
21	0x3da09fec	0.07843003
22	0x3dd54874	0.1041421
23	0xbde739a9	-0.11290295
24	0x3e009bae	0.12559387
25	0x3d2b506f	0.041824754
26	0x3dcf9a92	0.10136904
27	0xbb2d7cec	-0.0026472164
28	0x3e0b7206	0.13617715
29	0xbe035370	-0.12824798
30	0xbd77a556	-0.06046041
31	0xbd3b1873	-0.045677613
32	0xbda0e790	-0.07856667
33	0xbd8fa89e	-0.07014583
34	0xbcd2c680	-0.025729418
35	0xbd9224c8	-0.07135922
36	0x3ea9378c	0.3305019
37	0xbd83126b	-0.06399997
38	0x3cef9af7	0.029248698
39	0x3ddabe8b	0.106808744
40	0xbce41481	-0.027841808
41	0x3d4a7675	0.049429376
42	0xbd48b1df	-0.048997756
43	0xbd5b13d8	-0.05348572
44	0xbda83952	-0.08214058
45	0x3d8ea47c	0.06964967
46	0xbdcd9c3d	-0.10039566
47	0xbdb0093f	-0.085955136
48	0x3dd7ef58	0.10543698
49	0x3d87c4b6	0.066293165
50	0xbda532e5	-0.08066348
51	0xbad26487	-0.0016051688
52	0xbd200fb4	-0.039077476
53	0x3d0d130c	0.034441993
54	0x3bdd9ca3	0.0067630573
55	0x3dac4cf7	0.084131174
56	0xba23a655	-0.0006242742
57	0xbe19f24c	-0.15033835
58	0xbbf9bfa7	-0.0076217237
59	0x3e4346c2	0.1906996
60	0x3e342bb3	0.17594795
61	0x3d28a932	0.041176982
62	0xbe153bb8	-0.14573562
63	0x3d99fedc	0.07519314
64	0x3daa3f2e	0.08312832
65	0xbcc0f9c8	-0.023556605
66	0x3dfb9d8e	0.122859105
67	0x3d806c0f	0.062706105
68	0xbd3d732d	-0.04625242
69	0xbd7a27ff	-0.0610733
70	0x3dc25547	0.094889216
71	0x3db72eca	0.08944471
72	0x3d93bd7b	0.07213875
73	0x3e1caae7	0.15299569
74	0x3d77e8df	0.060524818
75	0x3df8a00f	0.12139904
76	0x3dca09c7	0.09865146
77	0x3d16f94c	0.03685884
78	0xbdcf2c3c	-0.10115859
79	0x3d02a175	0.03189226
80	0x3cb442ce	0.022004511
81	0x3cbeeaea	0.023305375
82	0xbd3d299d	-0.046182264
83	0x3c66e93e	0.014093695
84	0x3e1ec659	0.15505351
85	0xbc4bf303	-0.012448075
86	0xbd5caa6c	-0.053873464
87	0x3de21511	0.11039174
88	0xbcb0dff8	-0.021591172
89	0x3dc13905	0.09434704
90	0x3d311655	0.043234188
91	0xbd3dfa85	-0.046381492
92	0x3d8becb9	0.06832261
93	0x3d31db16	0.043421827
94	0x3cbc70c5	0.023002991
95	0x3d55e985	0.052224655
96	0xbbba0fc2	-0.005678148
97	0x3d7ad2cb	0.061236184
98	0xbc05f98d	-0.008177173
99	0x3de4591b	0.11149808
100	0x3e86beac	0.26317346
101	0xbe0377ed	-0.12838717
102	0xbc5c90ab	-0.013462226
103	0xbccc991b	-0.02497535
104	0x3e24b826	0.16085872
105	0xbdec01b1	-0.1152376
106	0xbd923858	-0.07139653
107	0xbd2b688b	-0.041847747
108	0x3dc76edf	0.09737944
109	0x3da0bb52	0.078482285
110	0xbc848b76	-0.016179781
111	0x3d34fc78	0.044186085
112	0x3d9f0780	0.077651024
113	0x3d8e3f7a	0.06945701
114	0x3d7c7677	0.061636414
115	0xbd55c964	-0.052194014
116	0x3d5c87e0	0.053840518
117	0x3e091ed2	0.13390663
118	0xbd8b22a1	-0.06793714
119	0xbb4082c9	-0.002937483
120	0x3d9c1e34	0.07622948
121	0xbdd55610	-0.10416806
122	0x3de844c5	0.11341242
123	0x3dc58e30	0.09646261
124	0x3d337a20	0.04381764
125	0x3d2cdbab	0.04220168
126	0xbce794d3	-0.028269207
127	0xbcb3eae7	-0.021962596
128	0x3925ba6f	0.00015805078
129	0x3c26f4b7	0.0101901805
130	0x3d19313f	0.03740048
131	0xbd46e366	-0.048556708
132	0x3de19ce0	0.1101625
133	0x3ccd3ab7	0.025052411
134	0x3d1606a4	0.036627427
135	0xbd44acaa	-0.048016228
136	0xbd7d0303	-0.06177045
137	0xbb07a45e	-0.0020697336
138	0xbdee0fa4	-0.11624077
139	0x3d18198f	0.03713375
140	0xbda1fb9b	-0.07909318
141	0xbd6b1f51	-0.057402913
142	0x3c267c18	0.010161422
143	0xbbd2ee9f	-0.0064371373
144	0x3de13c23	0.10997798
145	0xbdc94aa8	-0.09828693
146	0xbdba626f	-0.09100806
147	0xbd39c3ac	-0.045352623
148	0x3b5b4b24	0.0033461535
149	0x3d46c3e0	0.048526645
150	0xbd38cdb4	-0.04511805
151	0xbde17e25	-0.11010388
152	0x3e1f3ba5	0.15550096
153	0x3cd6d17c	0.026222937
154	0x3d66d84b	0.056358617
155	0xbd1e0edc	-0.03858839
156	0xbe0dec07	-0.13859569
157	0x3b40da0c	0.002942684
158	0xbdd7008a	-0.1049815
159	0xbd25b1a1	-0.040452603
160	0xbd99d9f4	-0.075122744
161	0x3daca4ae	0.08429848
162	0x3d9771cb	0.07394751
163	0xbd09fa33	-0.033685874
164	0xbddcae8d	-0.107754804
165	0x3d20feb7	0.039305415
166	0xbc9997bd	-0.018749112
167	0xbcce39fd	-0.025174135
168	0xbc03a5b5	-0.008035113
169	0x3c535ae4	0.012900088
170	0x3db7a75d	0.08967469
171	0x3dbf2d1f	0.09334778
172	0x3c346e3d	0.011012611
173	0xbdacd9e0	-0.08439994
174	0x3da384a2	0.07984282
175	0xbdfe72de	-0.12424253
176	0xbc4e93dc	-0.012608495
177	0x3deef7a0	0.116683245
178	0xbdc4bda8	-0.096064866
179	0x3d1ae2b6	0.037813865
180	0xbdfe1c75	-0.124077715
181	0x3dd42f61	0.10360599
182	0x3da91854	0.08256593
183	0x3de45b53	0.11150231
184	0xbd4bb095	-0.04972895
185	0xbdd92c5e	-0.106041655
186	0xbd7c9f59	-0.061675403
187	0x3c8c37b3	0.017116403
188	0x3d88725f	0.066624396
189	0x3d423f36	0.047423564
190	0x3dbfe9eb	0.09370788
191	0x3dff31bc	0.12460658
192	0xbd2f3d11	-0.042782847
193	0xbe22ba86	-0.15891466
194	0xbcb93101	-0.022606375
195	0xbd0dcdfb	-0.034620266
196	0xbb0f37f6	-0.0021853424
197	0xbddbb9cb	-0.107287966
198	0x3dbe423b	0.09289976
199	0xbd9d0ffd	-0.07669065
200	0xbc3f2951	-0.011667565
201	0x3c6edb4f	0.014578654
202	0x3d9eee8a	0.077603415
203	0x3dcf0120	0.101076365
204	0x3c19f3f8	0.009396546
205	0xbc73e9c9	-0.014887282
206	0xbdd6ab06	-0.10481839
207	0xbe58a6d4	-0.2115739
208	0x3da0e2f7	0.0785579
209	0x3ddc6290	0.10760987
210	0x3db0e333	0.08637085
211	0xbda3a281	-0.079899795
212	0xbd5950ac	-0.05305545
213	0xbcd7f986	-0.0263641
214	0x3d8948d8	0.06703347
215	0xbd9ba095	-0.07598988
216	0x3e05ab1e	0.13053557
217	0x3cea9922	0.028637473
218	0x3a023484	0.0004966932
219	0x3cf9ecac	0.030508362
220	0xbd3fdb11	-0.046839777
221	0xbd4ae668	-0.04953614
222	0x3d23ba8b	0.039972823
223	0xbc1b7f4e	-0.009490801
224	0xbbf14b46	-0.0073637096
225	0x3e19938b	0.1499769
226	0x3b314df4	0.002705452
227	0xbd2ad465	-0.04170646
228	0x3e96f6a1	0.29485038
229	0xbd3237ce	-0.04351025
230	0x3ce5279f	0.027972994
231	0x3d61c047	0.05511501
232	0x3d9c4a3e	0.07631348
233	0x3d897e21	0.0671351
234	0x3b8604fd	0.00408995
235	0xbdcbd99b	-0.09953614
236	0xbddf3bc6	-0.10900073
237	0xbd7b612c	-0.061371967
238	0xbc6f16df	-0.014592855
239	0x3d55ec70	0.052227437
240	0x3ddb9d1f	0.10723328
241	0xbd40cf04	-0.047072425
242	0x3e07b8ca	0.13254085
243	0x3cd23ca7	0.025663687
244	0x3d97bac3	0.07408669
245	0x3d7a0273	0.061037492
246	0xbd62efa2	-0.055404313
247	0x3d4f4153	0.050599407
248	0xbd44b67d	-0.048025597
249	0xbdd6ee4f	-0.104946725
250	0xbd568236	-0.052370273
251	0x3df04d6a	0.117335156
252	0x3e7a5dae	0.24449798
253	0xbd489102	-0.048966415
254	0xbdc25477	-0.09488767
255	0x3db1a824	0.086746484

weight_ih_l1 f4 [256, 64]
0	0xbd238c3c	-0.03992866
1	0x3e241bb6	0.16026196
2	0xbd05480a	-0.032539405
3	0xbaacb203	-0.001317561
4	0xbddcc787	-0.10780244
5	0xbdad68bd	-0.08467243
6	0xbd1515e2	-0.036397822
7	0x3d60882e	0.05481737
8	0xbe504eda	-0.2034258
9	0x3d093aa3	0.033503186
10	0xbe23f771	-0.1601236
11	0xbd56c009	-0.052429233
12	0x3d072266	0.03299179
13	0x3c089fd7	0.00833889
14	0xbd1de379	-0.038547013
15	0x3dc0f627	0.0942195
16	0xbd76b106	-0.060227416
17	0xbd850015	-0.06494156
18	0xbda77fff	-0.0817871
19	0x3d7af17c	0.061265454
20	0x3d6fafac	0.058517143
21	0x3e448d4c	0.19194525
22	0xbe459d76	-0.19298348
23	0xbb1d40cd	-0.0023994923
24	0x3da903c2	0.0825267
25	0xbd76bf98	-0.06024131
26	0x3e090292	0.13379887
27	0xbdae16f5	-0.085004725
28	0x3d28c0cb	0.041199487
29	0xbc9a7572	-0.01885483
30	0xbe2d59be	-0.16928765
31	0x3b3c3056	0.0028715334
32	0xbe1190c7	-0.14215384
33	0xbc093d2d	-0.008376402
34	0x3d3be56c	0.04587309
35	0xbd193a97	-0.03740939
36	0xbd4e7979	-0.050408814
37	0xbcb160b4	-0.021652557
38	0xbe0a8e55	-0.13530858
39	0x3e0c9c3a	0.1373147
40	0x3e1181be	0.14209649
41	0x3db7ad57	0.08968609
42	0x3c0d8ddf	0.008639782
43	0x3e18d2da	0.14924183
44	0x3d51ef66	0.0512537
45	0xbe0f6ba6	-0.14005908
46	0x3d935323	0.071935914
47	0xbd5d338f	-0.05400425
48	0x3d8fc26e	0.070195064
49	0x3df0f7c4	0.117660075
50	0xbddf5aff	-0.10906028
51	0x3d6c0c91	0.05762917
52	0xbd10a213	-0.035310816
53	0x3df0f920	0.11766267
54	0x3dc52796	0.09626691
55	0x3e15501f	0.14581345
56	0xbd3b84c1	-0.0457809
57	0xbdc9665b	-0.09833976
58	0xb9996b69	-0.0002926246
59	0x3dd0236e	0.10163008
60	0xbb2298ac	-0.0024810238
61	0xbdf5b255	-0.11996905
62	0xbd808ad5	-0.0627648
63	0x3d309225	0.043108124
64	0xb9aef193	-0.00033367853
65	0xbcffec01	-0.031240465
66	0x3d3bab33	0.045817565
67	0x3e133d98	0.14378965
68	0xbd8d4fa3	-0.06899955
69	0xbcf0980f	-0.029369382
70	0xbde3c160	-0.11120868
71	0xbd7ed36d	-0.06221335
72	0xbd670e54	-0.05641015
73	0x3e3edc43	0.1863871
74	0xbe4a39db	-0.19748633
75	0xbd813da4	-0.06310585
76	0xbdd00040	-0.10156298
77	0x3e1a01fb	0.15039818
78	0x3d9b72cc	0.07590255
79	0xbdc82c20	-0.09774041
80	0x3d7f7c09	0.06237415
81	0xbb39d6cd	-0.002835679
82	0x3dcdcf36	0.10049288
83	0xbd1d47a1	-0.03839839
84	0x3bb21d95	0.0054356554
85	0x3e0e2236	0.13880238
86	0x3daa27f6	0.08308403
87	0xbda79581	-0.081828125
88	0x3d1cbbec	0.038265154
89	0xbde4a854	-0.111649185
90	0xbd08a081	-0.033356193
91	0x3df10e5e	0.117703184
92	0xbd908d81	-0.0705824
93	0xbe1082d0	-0.14112401
94	0xbd01c164	-0.031678572
95	0xbc17960d	-0.0092520835
96	0xbde57060	-0.112030745
97	0x3a3e1da0	0.0007252339
98	0xbe1b23bf	-0.15150355
99	0xbde1b7a0	-0.11021352
100	0x3d1af09d	0.037827123
101	0x3e342158	0.17590845
102	0x3d58bc35	0.052913863
103	0x3d3a3e0a	0.04546932
104	0x3d5c908c	0.05384879
105	0x3db908a1	0.09034849
106	0x3ca7b0e0	0.020470083
107	0xbd372ad8	-0.044718593
108	0xbd1b489c	-0.037911043
109	0xbd2af33e	-0.04173588
110	0xbd683555	-0.056691486
111	0xbe1bd10d	-0.15216465
112	0xbde5f142	-0.11227657
113	0x3bd9de60	0.0066488236
114	0x3d1849f6	0.03717991
115	0x3bee4aaf	0.0072720866
116	0xbdf06ea4	-0.11739853
117	0xbd389d79	-0.045072053
118	0x3e3cf4f9	0.18452825
119	0x3c85d8c2	0.01633871
120	0x3cbbb608	0.022913948
121	0xbe0e60fd	-0.13904186
122	0x3d271d6a	0.040799536
123	0x3e430e26	0.19048366
124	0x3c0ac2ce	0.008469297
125	0xbca22279	-0.019791828
126	0x3e1a55e0	0.15071821
127	0x3da170be	0.07882832
128	0x3d979247	0.07400947
129	0x3d42b040	0.047531366
130	0x3de9ce13	0.11416259
131	0x3d96bbff	0.07360076
132	0x3d9f4aae	0.07777916
133	0xbdfcc622	-0.12342478
134	0xbde90a6c	-0.11378941
135	0xbd0faad5	-0.035075027
136	0x3d490997	0.04908141
137	0xbd89cf87	-0.06729036
138	0x3da61e26	0.08111219
139	0xbdeb9175	-0.11502353
140	0x3d9c3066	0.07626419
141	0x3dd2165e	0.102581725
142	0x3ca9aaba	0.020711292
143	0x3ab41002	0.0013737681
144	0xbcd56e26	-0.0260535
145	0x3e79d6b0	0.24398303
146	0xbd1d33ef	-0.038379606
147	0xbdd1b31f	-0.10239243
148	0x3e0788b3	0.1323574
149	0xbd72b657	-0.059255924
150	0x3d11ffea	0.03564445
151	0xbd6129cf	-0.054971512
152	0xbdc5e749	-0.09663255
153	0xbdcf38c1	-0.10118247
154	0x3ced736d	0.028985703
155	0x3dcfff96	0.10156171
156	0xbb63862d	-0.0034717426
157	0x3e68455e	0.22682711
158	0xbddd31e5	-0.10800532
159	0x3c0569b1	0.008142875
160	0x3de996ce	0.11405717
161	0x3deef708	0.11668211
162	0xbca6c8d1	-0.020359429
163	0x3e6c9845	0.23104961
164	0x3df6a7de	0.12043737
165	0x3d982e28	0.074306786
166	0xbdc327f6	-0.09529106
167	0x3cf4ab97	0.029866977
168	0xbe27cf72	-0.16387728
169	0x3ca749d4	0.020420946
170	0xbe016f1a	-0.12640038
171	0x3df190cc	0.11795196
172	0x3b58592a	0.003301213
173	0x3d540947	0.05176666
174	0xbbaf786a	-0.0053549306
175	0xbc842038	-0.016128644
176	0x3cabba11	0.020962747
177	0xbcb03c21	-0.021513047
178	0x3d4989c1	0.049203638
179	0xbcca97fd	-0.024730677
180	0x3dbfbc31	0.093620665
181	0xbdc5ac1f	-0.0965197
182	0x3c181a17	0.009283564
183	0x3de47324	0.11154774
184	0xbd481a34	-0.048853114
185	0x3d9b63a0	0.07587361
186	0x3d305d09	0.043057475
187	0x3df13e38	0.117794454
188	0x3da063d3	0.0783154
189	0x3d76a844	0.060219064
190	0xbdb83b14	-0.08995643
191	0x3d23b757	0.03996977
192	0x3dae78cb	0.08519133
193	0xbde71d0e	-0.112848386
194	0xbe302278	-0.17200649
195	0x3df6cdb4	0.120509535
196	0x3d179038	0.037002772
197	0x3d11a60a	0.035558738
198	0x3d365cd9	0.04452214
199	0xbb31ac1f	-0.0027110649
200	0xbd8368cf	-0.06416475
201	0xbd3cbb11	-0.046076838
202	0x3db6ba51	0.08922256
203	0x3d4e79cb	0.05040912
204	0xbd2123f9	-0.039340947
205	0x3dc2e277	0.09515851
206	0xbcdaef22	-0.026725356
207	0x3dee2c04	0.11629489
208	0xbdcee254	-0.101017624
209	0x3e35e7c2	0.1776419
210	0xbd551cf3	-0.05202956
211	0xbddb37e5	-0.107040204
212	0x3daa7f8c	0.08325109
213	0xbde4c37a	-0.11170097
214	0xbc904e19	-0.017615365
215	0x3dbd567d	0.09245012
216	0x3d88a66c	0.066723675
217	0xbdf5d4b6	-0.12003462
218	0xbd6373c4	-0.055530325
219	0x3dc5653c	0.096384495
220	0xbdad43d2	-0.08460201
221	0x3e09b9ea	0.13449827
222	0xbdbd46a0	-0.09241986
223	0x3ddc9836	0.107712194
224	0xbd69428a	-0.056948222
225	0x3c7f2d2e	0.0155747365
226	0xbdbad304	-0.09122279
227	0xbd74c028	-0.059753567
228	0x3cb6832e	0.022279348
229	0x3bde9e03	0.006793739
230	0xbe223dee	-0.15843937
231	0xbc8a2c8a	-0.016866941
232	0xbdf43214	-0.11923614
233	0xbd8b7045	-0.06808523
234	0xbd3d5ea7	-0.046232846
235	0x3d938231	0.072025664
236	0x3dd888c4	0.10572961
237	0xbcbe5c8d	-0.023237491
238	0xbc16ccd9	-0.009204113
239	0xbd402ccf	-0.046917733
240	0x3dcabf52	0.09899773
241	0x3cfb81f1	0.03070161
242	0xbdfa26e1	-0.12214447
243	0xbd37eb8f	-0.04490238
244	0xbd905765	-0.07047919
245	0xbd4c78c0	-0.049919844
246	0x3d94dc2b	0.07268556
247	0x3dc3d67c	0.09562394
248	0x3d57fbf0	0.0527305
249	0x3e007dfc	0.12548059
250	0xbd4ed562	-0.050496466
251	0x3ab51a52	0.0013817048
252	0x3e713515	0.23555405
253	0x3d8e0b2d	0.06935725
254	0xbd314813	-0.043281626
255	0x3dd9bc06	0.10631566

weight_hh_l1 f4 [256, 64]
0	0xbdb48c8e	-0.08815871
1	0xbe01b3b0	-0.12666202
2	0x3d90f94b	0.07078799
3	0xbde0fd2a	-0.10985787
4	0x3d023fcd	0.031799126
5	0xbcc362ec	-0.02385088
6	0x3d0f4574	0.034978345
7	0x3d8d9c54	0.06914583
8	0x3947fbaa	0.00019071871
9	0xb8781247	-5.914483e-05
10	0xbde5ff9a	-0.11230393
11	0x3b57f6b0	0.0032953434
12	0x3db45848	0.08805901
13	0xbd2e262f	-0.042516883
14	0x3dfb8c2a	0.122825935
15	0x3d9ea0ab	0.07745489
16	0x3e11c5fe	0.14235684
17	0xbd800be6	-0.062522694
18	0xbd6ce13c	-0.057831988
19	0x3da7172a	0.08158715
20	0xbdc8713d	-0.097872235
21	0xbd3321a7	-0.043733265
22	0x3cefdf7c	0.02928137
23	0x3dd56e0c	0.104213804
24	0x3d6d2215	0.05789383
25	0x3d9f447f	0.077767365
26	0xbd989aa5	-0.07451371
27	0x3cc62ced	0.024191344
28	0xbe18b611	-0.14913203
29	0x3d00e994	0.031472757
30	0xbd7a5ea9	-0.06112543
31	0xbbdf5093	-0.006815025
32	0x3d851a36	0.0649914
33	0x3d0cd1e1	0.034379844
34	0xbda8d8ad	-0.082444526
35	0x3d8dbacc	0.06920394
36	0x3d347ecc	0.044066235
37	0x3d623dff	0.055234905
38	0x3a198fdf	0.0005857925
39	0xbe139038	-0.14410484
40	0xbc93b8c6	-0.018032443
41	0x3d20c2b8	0.0392482
42	0xbd3d5e1f	-0.04623234
43	0xbd825233	-0.063633345
44	0xbdb97ac4	-0.09056619
45	0x3d33c97b	0.04389332
46	0x3dd1db73	0.10246935
47	0x3da83b7f	0.08214473
48	0xbe177d3b	-0.14793865
49	0xbd83db13	-0.064382695
50	0xbcb91476	-0.022592764
51	0x3ddf2d3d	0.108973004
52	0xbe1b1239	-0.1514367
53	0xbe2748bb	-0.16336338
54	0x3c683d32	0.014174746
55	0xbcc2c021	-0.023773255
56	0xbcc823d1	-0.024431141
57	0x3d5c7fee	0.05383294
58	0xbda027a2	-0.07820059
59	0x3c3f1ffc	0.0116653405
60	0xbd9185d5	-0.071056046
61	0xbd05cd0e	-0.03266626
62	0x3da6a0e3	0.081361555
63	0x3d642227	0.055696633
64	0xbd9ac508	-0.07557112
65	0xbbb5d0ce	-0.005548573
66	0x3ca8fe14	0.020628966
67	0x3c944dfb	0.01810359
68	0xbe217c61	-0.15770103
69	0x3dfe6b58	0.12422818
70	0xbd9a6b2a	-0.07539971
71	0x3d219f1a	0.03945837
72	0x3cf62241	0.03004563
73	0xbd53ac1f	-0.05167782
74	0x3d8ec247	0.06970649
75	0xbddd984a	-0.108200625
76	0x3d65380c	0.055961654
77	0x3c8c4d32	0.017126653
78	0x3d9c20e5	0.07623462
79	0x3dd43a78	0.103627145
80	0x3e0fcd90	0.1404326
81	0xbccd81d9	-0.02508633
82	0xbd223244	-0.03959872
83	0xbddf5d44	-0.10906461
84	0x3d9f669c	0.07783243
85	0xbd8dcacf	-0.06923448
86	0x3cc09b6c	0.02351161
87	0x3d03b4fc	0.032155022
88	0x3cc7a308	0.024369732
89	0x3d82d609	0.0638848
90	0xbd36c89a	-0.044624902
91	0xbbf00d71	-0.007325821
92	0xbe0040e3	-0.12524752
93	0xbdc912d7	-0.098180465
94	0x3d2a2be6	0.04154577
95	0xbdca8dcb	-0.09890326
96	0xbb6ed098	-0.003644025
97	0xbce8e296	-0.028428357
98	0xbd964e39	-0.073391385
99	0xbdff9f88	-0.124816
100	0x3c3a06ab	0.011354129
101	0xbce49b85	-0.027906189
102	0x3aa42511	0.0012523254
103	0x3cfe3c29	0.031034546
104	0x3d74b593	0.059743475
105	0xb96c1044	-0.00022512773
106	0x3d642237	0.055696692
107	0x3e1145e6	0.1418682
108	0x3d0c27d1	0.03421766
109	0x3ca386af	0.019961683
110	0xbd87f6d1	-0.06638873
111	0x3d2dc5dc	0.04242502
112	0xbd4cbc92	-0.049984522
113	0x3da131ad	0.07870803
114	0x3d8eefed	0.06979356
115	0xbc77dc48	-0.015128203
116	0xbd158d71	-0.036511842
117	0x3d136915	0.035988886
118	0x3c4549a5	0.012041484
119	0x3d111b5d	0.035426486
120	0x3d484922	0.04889787
121	0x3bb66349	0.005566035
122	0xbcc5905c	-0.024116687
123	0xbe1d0a4a	-0.15335956
124	0xbdbbb812	-0.09165968
125	0x3e013db4	0.12621194
126	0xbdc83667	-0.097760014
127	0x3dc45006	0.09585576
128	0x3d81322b	0.06308397
129	0x3d74b4fd	0.059742916
130	0xbd675d12	-0.056485243
131	0xbd598dc1	-0.053113703
132	0xbd9c61ee	-0.07635866
133	0xbbd6931f	-0.0065483
134	0xbd899c3a	-0.06719251
135	0x3dd66671	0.10468758
136	0xbdfbc3a6	-0.12293176
137	0x3d665db0	0.05624169
138	0x3d1cd453	0.038288426
139	0xbde3732e	-0.11105953
140	0x3d6433da	0.055713512
141	0xbe0adcc9	-0.13560785
142	0x3db8685c	0.0900428
143	0x3d8668fc	0.06562993
144	0xbd12d28e	-0.03584533
145	0xbdccac79	-0.09993834
146	0xbc6f131b	-0.014591957
147	0x3cb6b46c	0.022302829
148	0xbc1454fe	-0.009053467
149	0x3e095eab	0.13415019
150	0xbda9a4a5	-0.082833566
151	0x3d8126c5	0.06306223
152	0x3dcb2109	0.0991841
153	0x3da02c9a	0.07821007
154	0x3cdcaeeb	0.026938876
155	0xbc5367d4	-0.0129031725
156	0xbc2dc930	-0.010607049
157	0x3d356ac0	0.044291258
158	0x3d3eb67c	0.04656075
159	0x3d3219b8	0.04348156
160	0x3dd95c3d	0.10613296
161	0x3ddc07c3	0.10743668
162	0x3cb26e34	0.021781065
163	0x3e1dd056	0.15411505
164	0x3df0ffae	0.11767517
165	0xbccf9485	-0.025339374
166	0xbe0aad4e	-0.13542673
167	0xbb56614e	-0.0032711807
168	0xbcdb8bd7	-0.02680008
169	0x3d9f7e51	0.07787765
170	0x3da4a777	0.08039754
171	0x3e1f46fd	0.15554424
172	0x3d277511	0.040883128
173	0x3d143f67	0.036193278
174	0xbdefe212	-0.11713041
175	0xbc75aece	-0.01499529
176	0xbd0428a7	-0.03226533
177	0x3d072ede	0.03300368
178	0x3ddaa418	0.1067583
179	0xbe2ad640	-0.16683292
180	0xbda65dc5	-0.08123354
181	0x3df39be2	0.11894967
182	0xbd8e5d18	-0.0695135
183	0xbd0071eb	-0.03135864
184	0xbdbc4a84	-0.091939
185	0xbcc35cc6	-0.023847949
186	0xbc88ece4	-0.01671452
187	0xbd500815	-0.050788958
188	0xbd0ef8f8	-0.034905404
189	0x3d5176c5	0.051138658
190	0x3d14ef33	0.03636093
191	0xbda6d686	-0.08146386
192	0x3ce0d9ee	0.027447667
193	0xbcb22f14	-0.021750964
194	0x3cc04745	0.023471484
195	0x3e67a1c6	0.22620305
196	0xbd2192d4	-0.039446667
197	0x3e38ef91	0.18060137
198	0xbde71594	-0.112834126
199	0xbe341e60	-0.17589712
200	0x3d49efc0	0.04930091
201	0x3d75d9d3	0.060022186
202	0xbe34187f	-0.1758747
203	0xbe0a70b9	-0.13519563
204	0xbd9657e7	-0.07340985
205	0x3c8408d8	0.016117498
206	0xbe4ed249	-0.20197405
207	0x3e15276d	0.14565821
208	0x3d9fff38	0.07812351
209	0x3d158ffa	0.03651426
210	0xbd90e22c	-0.07074389
211	0x3c6cff82	0.014465215
212	0xbda72d3e	-0.08162926
213	0xbdcc1223	-0.09964397
214	0x3d8bb61c	0.06821844
215	0xbd6b47fd	-0.0574417
216	0x3d8bf12d	0.0683311
217	0x3e410470	0.18849349
218	0xbda1db27	-0.07903128
219	0xbd361ce8	-0.04446116
220	0xbe220308	-0.15821469
221	0xbd94f660	-0.07273555
222	0xbe1f17aa	-0.15536371
223	0xbd34ddb4	-0.044156745
224	0xbd95e219	-0.07318515
225	0x3d6e391e	0.05815994
226	0x3e125a70	0.14292312
227	0xbe620903	-0.2207375
228	0x3c770e54	0.0150791
229	0x3d634b68	0.055491835
230	0xba99adf1	-0.0011724812
231	0xbe5d1d9b	-0.21593325
232	0x3d8b43ce	0.06800042
233	0x3e3206b3	0.17385368
234	0xbe0411f7	-0.12897478
235	0x3daa4b94	0.08315197
236	0xbbf57f87	-0.007492009
237	0x3dbb59f0	0.091480136
238	0x3d6bd16e	0.057572775
239	0xbd28a25d	-0.041170467
240	0xbe0b3686	-0.13595018
241	0x3d8bafad	0.06820617
242	0x3d274709	0.04083923
243	0xbd75a887	-0.059975173
244	0xbe2778f8	-0.1635474
245	0x3c9675c3	0.0183667
246	0x3e14e334	0.14539796
247	0x3e17a435	0.14808734
248	0x3d839f1a	0.064268306
249	0xbe29c270	-0.16578078
250	0x3d5d8c83	0.05408908
251	0xbdedd69d	-0.116132
252	0xbe0a34b8	-0.13496673
253	0x3d999d7c	0.07500741
254	0x3d8e9746	0.06962447
255	0x3e352f9d	0.17693944

bias_ih_l1 f4 [256]
0	0x3d88777e	0.06663416
1	0x3e109729	0.14120163
2	0x39feb376	0.00048580364
3	0x3e382bb6	0.17985424
4	0x3d7f3cb1	0.06231374
5	0x3e1aa0fa	0.1510047
6	0x3d293979	0.041314576
7	0xbd58d9d8	-0.052942127
8	0xbd557f63	-0.05212344
9	0x3df8c38b	0.12146672
10	0xbc61a86b	-0.013773064
11	0xbde95313	-0.11392798
12	0x3b7d61b4	0.0038662972
13	0x3dd85f7b	0.105650865
14	0x3d97db47	0.07414871
15	0x3d56c742	0.05243612
16	0x3db11ed4	0.08648458
17	0x3ddfbf43	0.10925152
18	0x3d915b29	0.070974655
19	0x3c4d26e1	0.0125214765
20	0xbdaaab71	-0.08333481
21	0xbd2421e2	-0.040071376
22	0x3d2a20cb	0.04153518
23	0x3dca111e	0.09866546
24	0x3decb5b4	0.115580946
25	0xbbbc37ec	-0.005743971
26	0xbd92bbea	-0.07164748
27	0x3e4b19a2	0.19833997
28	0xbd101144	-0.035172716
29	0xbdf08f87	-0.11746126
30	0x3c9c5a46	0.019086014
31	0x3e31815c	0.17334503
32	0x3b57ad84	0.003290982
33	0x3d79d874	0.06099744
34	0xbdc65359	-0.09683866
35	0xbdabc02f	-0.083862655
36	0xbd64efdb	-0.055892807
37	0x3df8dec6	0.12151866
38	0x3da4a9f4	0.080402285
39	0x3d081dbc	0.033231482
40	0xbd1a878c	-0.037726924
41	0x3d89f76c	0.06736645
42	0x3c5cbd8a	0.013472924
43	0x3dd12c43	0.102135204
44	0x3d329bf2	0.043605752
45	0x3e19e866	0.15030059
46	0x3df23766	0.11826973
47	0x3ba7d4c7	0.0051218006
48	0x3ce378da	0.027767587
49	0x3dbe6b39	0.09297795
50	0x3c6787ce	0.014131499
51	0x3d0f4722	0.034979947
52	0x3e2299af	0.15878938
53	0x3d1817fb	0.037132245
54	0xbd9e4b3f	-0.07729196
55	0xbdade0fa	-0.084901765
56	0x3e28c8b5	0.16482814
57	0x3cc63d28	0.024199083
58	0xbcee7907	-0.029110445
59	0x3e29d261	0.1658416
60	0x3d2f155d	0.042744983
61	0x3b4ecd2d	0.00315554
62	0x3e4334e4	0.19063145
63	0xbc6142e1	-0.013748855
64	0xbcd50945	-0.026005397
65	0x3e149b20	0.145123
66	0x3c22b98e	0.009931935
67	0x3d12e9f0	0.03586763
68	0x3c8fe3e6	0.017564725
69	0xbcb6143c	-0.022226445
70	0xb9f38086	-0.0004644433
71	0x3d39ccfc	0.045361504
72	0x3d31383b	0.043266516
73	0x3db9c187	0.090701155
74	0x3d24d3c7	0.04024103
75	0x3d9451a8	0.07242137
76	0x3d809f61	0.06280399
77	0xbd00946a	-0.03139154
78	0x3cc83aa3	0.024442023
79	0xbc0d1c4b	-0.008612703
80	0x3a918de2	0.0011104906
81	0xbac29ad8	-0.0014847172
82	0xbdb857eb	-0.09001144
83	0x3dfb354f	0.12266027
84	0x3df1983f	0.11796617
85	0x3ccf68a0	0.025318444
86	0x3c6f6028	0.014610328
87	0x3dfdd13d	0.12393425
88	0x3d4d4c00	0.050121307
89	0x3dc22fd9	0.094817825
90	0x3d179f11	0.037016932
91	0x3d098b33	0.033580016
92	0x3e1d603f	0.15368746
93	0xbd9097b7	-0.07060187
94	0xbe018e13	-0.12651853
95	0x3e039758	0.12850702
96	0x3cf193e3	0.029489463
97	0x3e2a67d3	0.16641168
98	0x3bdee6d3	0.0068024187
99	0x3d705db4	0.058683112
100	0x3d91b37b	0.07114311
101	0x3df13116	0.117769405
102	0x3d9134af	0.07090127
103	0x3b50c388	0.0031854827
104	0x3d357efd	0.04431056
105	0xbd8cc143	-0.06872799
106	0x3e38431e	0.17994353
107	0x3d593720	0.053031087
108	0x3b4b6bf8	0.0031039696
109	0x3cb4ccc9	0.022070305
110	0x3e54eab0	0.20792651
111	0x3dd50d2a	0.104029015
112	0xbdaac87f	-0.08339023
113	0xbcc95426	-0.024576258
114	0xbd3927dd	-0.045204032
115	0x3be6add0	0.007039763
116	0x3dbe23f1	0.09284199
117	0xbd72d11a	-0.059281446
118	0x3ddd685d	0.10810921
119	0xbc80af1c	-0.015708499
120	0xbc8a4894	-0.016880311
121	0xbca0f308	-0.019647136
122	0xbd34bcc4	-0.044125333
123	0xbd1e6eac	-0.038679764
124	0xbddd35a3	-0.10801246
125	0x3ab0731c	0.001346204
126	0xbdf1e96b	-0.11812099
127	0x3db812df	0.089879744
128	0xbc624915	-0.013811369
129	0xbd1e307c	-0.038620457
130	0x3dd422f2	0.10358228
131	0x3d03ee25	0.032209534
132	0xbd94471a	-0.07240124
133	0x3d9aa18d	0.075503446
134	0xbd7af2dd	-0.06126677
135	0xbd27c880	-0.040962696
136	0xbd540b61	-0.051768664
137	0x3cbd7064	0.023124881
138	0xbd9e7fe9	-0.07739241
139	0xbd7e632d	-0.0621063
140	0x3d37e72c	0.044898197
141	0x3d1766a1	0.03696311
142	0xbdd679e5	-0.10472468
143	0x3c2efd8a	0.010680566
144	0xbda41194	-0.08011165
145	0x3d186453	0.03720505
146	0xbc577fb2	-0.0131530035
147	0xbd148746	-0.03626182
148	0x3d38ddc9	0.045133386
149	0xbdd90b8f	-0.10597908
150	0xbdca7c07	-0.098869376
151	0x3d845d97	0.06463163
152	0xbc17e18a	-0.009270081
153	0x3d285d00	0.041104317
154	0xbd17d62f	-0.037069496
155	0xbd830101	-0.06396676
156	0xbe198db7	-0.14995466
157	0xbe064a5c	-0.13114303
158	0x3c8efc6f	0.017454354
159	0xbd3a6f58	-0.045516342
160	0xbd201e20	-0.03909123
161	0x3db50203	0.08838274
162	0x3d8928d1	0.06697238
163	0x3d3eae51	0.04655296
164	0x3d3234b8	0.043507308
165	0x3d9e74da	0.077371314
166	0xbd1813e2	-0.037128337
167	0xbde394dc	-0.11112377
168	0xbd3aaf15	-0.045577127
169	0x3d11a5f9	0.035558674
170	0xbe09151a	-0.13386956
171	0xbc29f92a	-0.010374347
172	0x3daebc71	0.08532036
173	0x3e1062bd	0.14100166
174	0xbda429f1	-0.08015812
175	0x3c7eed9f	0.015559583
176	0xbdd68361	-0.10474277
177	0x3ca73845	0.020412574
178	0xbd87bf86	-0.06628327
179	0xbccbc728	-0.024875239
180	0xb9f94eb7	-0.00047551628
181	0xbd875856	-0.066086456
182	0x3d120568	0.035649687
183	0x3dd3c7ce	0.10340844
184	0x3d9b1ecf	0.07574236
185	0xbe23ac56	-0.1598371
186	0x3e124f72	0.14288118
187	0x39935932	0.0002810448
188	0x3c2fd32d	0.010731501
189	0xb929f01d	-0.00016206545
190	0xbd94b972	-0.072619334
191	0x3c8c3507	0.01711513
192	0xbda38b29	-0.07985527
193	0x3c99cc01	0.018774034
194	0x3dfb6116	0.12274377
195	0x3e7e817e	0.24854085
196	0x3e1d98fd	0.15390392
197	0x3d6a0526	0.057133816
198	0xbd235d6a	-0.03988401
199	0x3c9e8b3b	0.0193535
200	0xbcdd921b	-0.027047208
201	0x3e32f873	0.17477588
202	0x3dd609ce	0.10451089
203	0x3db3811e	0.087648615
204	0x3d33380b	0.04375462
205	0x3d5132fb	0.05107401
206	0xbd9c8e85	-0.07644371
207	0x3dd0e751	0.1020037
208	0x3e05c494	0.1306327
209	0xbd24ef94	-0.040267542
210	0x3d8bd128	0.06827003
211	0xbd458511	-0.048222605
212	0xbd43267d	-0.047644127
213	0x3d1f1d9e	0.038846605
214	0x3e161fc1	0.1466055
215	0x3ddf0eb9	0.1089148
216	0x3d8c09bc	0.06837794
217	0x3dd0c1e9	0.101932354
218	0x3c69cdf4	0.014270294
219	0xbd634ae8	-0.055491358
220	0x3da439ee	0.08018862
221	0xbcb5292d	-0.02211436
222	0xbde30995	-0.11085812
223	0x3e011d37	0.12608801
224	0xbdb5e4fb	-0.08881565
225	0xbbf5072d	-0.007477662
226	0x3d719fd7	0.058990326
227	0x3bc0e4e5	0.0058866614
228	0x3d8699b3	0.065722845
229	0x3badb96e	0.005301646
230	0x3c769579	0.0150502855
231	0xbc610fa9	-0.013736644
232	0x3d918c7c	0.071068734
233	0x3df34c99	0.11879844
234	0xbcc71244	-0.024300702
235	0xbd9c228f	-0.07623779
236	0x3da9f80a	0.08299263
237	0x3e1513bb	0.14558308
238	0x3e17fafa	0.14841834
239	0x3deb1dd1	0.114802964
240	0x3e1de976	0.1542109
241	0x3dfbe210	0.122989774
242	0x3d341239	0.04396269
243	0x3d8f5090	0.06997788
244	0x3bc10d2a	0.005891462
245	0x3dba5077	0.09097379
246	0xbd93fe8b	-0.072262846
247	0xbbae6d7d	-0.0053231106
248	0xbde03194	-0.10946956
249	0x3e20c686	0.1570073
250	0x3dcfed89	0.10152728
251	0x3ad39118	0.0016141264
252	0xbd95f361	-0.073218115
253	0x3c16c9be	0.0092033725
254	0x3d446eea	0.04795734
255	0x3d082b95	0.033244688
